HloModule cluster_0__XlaCompiledKernel_true__XlaHasReferenceVars_false__XlaNumConstantArgs_173__XlaNumResourceArgs_52_.2592

%max_half_.303 (x.304: f16[], y.305: f16[]) -> f16[] {
  %x.304 = f16[] parameter(0)
  %y.305 = f16[] parameter(1)
  ROOT %maximum.306 = f16[] maximum(f16[] %x.304, f16[] %y.305)
}

%add_float_.313 (x.314: f32[], y.315: f32[]) -> f32[] {
  %x.314 = f32[] parameter(0)
  %y.315 = f32[] parameter(1)
  ROOT %add.316 = f32[] add(f32[] %x.314, f32[] %y.315)
}

%max_half_.479 (x.480: f16[], y.481: f16[]) -> f16[] {
  %x.480 = f16[] parameter(0)
  %y.481 = f16[] parameter(1)
  ROOT %maximum.482 = f16[] maximum(f16[] %x.480, f16[] %y.481)
}

%add_float_.489 (x.490: f32[], y.491: f32[]) -> f32[] {
  %x.490 = f32[] parameter(0)
  %y.491 = f32[] parameter(1)
  ROOT %add.492 = f32[] add(f32[] %x.490, f32[] %y.491)
}

%gradient_tape_model_bert_pretrainer_bert_encoder_1_transformer_layer_1_self_attention_softmax_Sum-reduction.1341 (x.1342: f32[], y.1343: f32[]) -> f32[] {
  %x.1342 = f32[] parameter(0)
  %y.1343 = f32[] parameter(1)
  ROOT %add.1344 = f32[] add(f32[] %x.1342, f32[] %y.1343)
}

%gradient_tape_model_bert_pretrainer_bert_encoder_1_transformer_layer_0_self_attention_softmax_Sum-reduction.1599 (x.1600: f32[], y.1601: f32[]) -> f32[] {
  %x.1600 = f32[] parameter(0)
  %y.1601 = f32[] parameter(1)
  ROOT %add.1602 = f32[] add(f32[] %x.1600, f32[] %y.1601)
}

%Mean-reduction.942 (x.943: f32[], y.944: f32[]) -> f32[] {
  %x.943 = f32[] parameter(0)
  %y.944 = f32[] parameter(1)
  ROOT %add.945 = f32[] add(f32[] %x.943, f32[] %y.944)
}

%fused_computation (param_0: f32[], param_1.1314: f32[], param_2.886: f32[], param_3.686: f32[], param_4.536: f32[], param_5.457: f32[], param_6.524: f32[], param_7.448: f32[]) -> (f32[], f32[], f32[], f32[]) {
  %param_0 = f32[] parameter(0)
  %param_1.1314 = f32[] parameter(1)
  %constant_70 = f32[] constant(0.0625)
  %multiply.326 = f32[] multiply(f32[] %param_1.1314, f32[] %constant_70), metadata={op_type="Mean" op_name="model/bert_pretrain_loss_and_metric_layer/Mean"}
  %param_3.686 = f32[] parameter(3)
  %constant_71 = f32[] constant(0), metadata={op_type="Sum" op_name="model/bert_pretrain_loss_and_metric_layer/Sum_3"}
  %compare.118 = pred[] compare(f32[] %param_3.686, f32[] %constant_71), direction=EQ, metadata={op_type="DivNoNan" op_name="gradient_tape/model/bert_pretrain_loss_and_metric_layer/div_no_nan/div_no_nan"}
  %param_2.886 = f32[] parameter(2)
  %divide.88 = f32[] divide(f32[] %param_2.886, f32[] %param_3.686), metadata={op_type="DivNoNan" op_name="model/bert_pretrain_loss_and_metric_layer/div_no_nan"}
  %select.114 = f32[] select(pred[] %compare.118, f32[] %constant_71, f32[] %divide.88), metadata={op_type="DivNoNan" op_name="model/bert_pretrain_loss_and_metric_layer/div_no_nan"}
  %add.8 = f32[] add(f32[] %multiply.326, f32[] %select.114), metadata={op_type="AddV2" op_name="model/bert_pretrain_loss_and_metric_layer/add"}
  %broadcast.223 = f32[16]{0} broadcast(f32[] %add.8), dimensions={}
  %reduce.112 = f32[] reduce(f32[16]{0} %broadcast.223, f32[] %constant_71), dimensions={0}, to_apply=%Mean-reduction.942, metadata={op_type="Mean" op_name="Mean"}
  %multiply.95 = f32[] multiply(f32[] %reduce.112, f32[] %constant_70), metadata={op_type="Mean" op_name="Mean"}
  %add.7 = f32[] add(f32[] %param_0, f32[] %multiply.95), metadata={op_type="AssignAddVariableOp" op_name="AssignAddVariableOp"}
  %param_4.536 = f32[] parameter(4)
  %add.456.clone.1 = f32[] add(f32[] %param_4.536, f32[] %select.114), metadata={op_type="AssignAddVariableOp" op_name="model/bert_pretrain_loss_and_metric_layer/AssignAddVariableOp_2"}
  %param_5.457 = f32[] parameter(5)
  %add.85.clone.1 = f32[] add(f32[] %param_5.457, f32[] %multiply.326), metadata={op_type="AssignAddVariableOp" op_name="model/bert_pretrain_loss_and_metric_layer/AssignAddVariableOp_6"}
  %param_6.524 = f32[] parameter(6)
  %param_7.448 = f32[] parameter(7)
  %constant_66_clone_1 = f32[] constant(1e-05), metadata={op_type="AddV2" op_name="model/bert_pretrain_loss_and_metric_layer/add_1"}
  %add.10.clone.1 = f32[] add(f32[] %param_3.686, f32[] %constant_66_clone_1), metadata={op_type="AddV2" op_name="model/bert_pretrain_loss_and_metric_layer/add_1"}
  %divide.0.clone.1 = f32[] divide(f32[] %param_7.448, f32[] %add.10.clone.1), metadata={op_type="RealDiv" op_name="model/bert_pretrain_loss_and_metric_layer/truediv"}
  %add.9.clone.1 = f32[] add(f32[] %param_6.524, f32[] %divide.0.clone.1), metadata={op_type="AssignAddVariableOp" op_name="model/bert_pretrain_loss_and_metric_layer/AssignAddVariableOp"}
  ROOT %tuple.30 = (f32[], f32[], f32[], f32[]) tuple(f32[] %add.7, f32[] %add.456.clone.1, f32[] %add.85.clone.1, f32[] %add.9.clone.1)
}

%min_S64.804 (lhs.805: s64[], rhs.806: s64[]) -> s64[] {
  %lhs.805 = s64[] parameter(0)
  %rhs.806 = s64[] parameter(1)
  ROOT %minimum.807 = s64[] minimum(s64[] %lhs.805, s64[] %rhs.806)
}

%fused_computation.3 (param_0.1186: f32[16,76], param_1.1325: f32[30522], param_2.894: f16[1216,30528]) -> s64[16,76] {
  %param_2.894 = f16[1216,30528]{1,0} parameter(2)
  %slice.37 = f16[1216,30522]{1,0} slice(f16[1216,30528]{1,0} %param_2.894), slice={[0:1216], [0:30522]}, metadata={op_type="MatMul" op_name="model/bert_pretrainer/cls/predictions/MatMul"}
  %param_1.1325 = f32[30522]{0} parameter(1)
  %convert.671 = f16[30522]{0} convert(f32[30522]{0} %param_1.1325), metadata={op_type="Cast" op_name="model/bert_pretrainer/cls/predictions/BiasAdd/Cast"}
  %broadcast.1800 = f16[1216,30522]{1,0} broadcast(f16[30522]{0} %convert.671), dimensions={1}, metadata={op_type="BiasAdd" op_name="model/bert_pretrainer/cls/predictions/BiasAdd"}
  %add.461 = f16[1216,30522]{1,0} add(f16[1216,30522]{1,0} %slice.37, f16[1216,30522]{1,0} %broadcast.1800), metadata={op_type="BiasAdd" op_name="model/bert_pretrainer/cls/predictions/BiasAdd"}
  %convert.670 = f32[1216,30522]{1,0} convert(f16[1216,30522]{1,0} %add.461), metadata={op_type="Cast" op_name="model/bert_pretrain_loss_and_metric_layer/ArithmeticOptimizer/ReorderCastLikeAndValuePreserving_float_Cast_1"}
  %bitcast.472 = f32[16,76,30522]{2,1,0} bitcast(f32[1216,30522]{1,0} %convert.670), metadata={op_type="Cast" op_name="model/bert_pretrain_loss_and_metric_layer/Cast_1"}
  %param_0.1186 = f32[16,76]{1,0} parameter(0)
  %broadcast.226 = f32[16,76,30522]{2,1,0} broadcast(f32[16,76]{1,0} %param_0.1186), dimensions={0,1}, metadata={op_type="ArgMax" op_name="model/bert_pretrain_loss_and_metric_layer/ArgMax"}
  %compare.1 = pred[16,76,30522]{2,1,0} compare(f32[16,76,30522]{2,1,0} %bitcast.472, f32[16,76,30522]{2,1,0} %broadcast.226), direction=EQ, metadata={op_type="ArgMax" op_name="model/bert_pretrain_loss_and_metric_layer/ArgMax"}
  %iota.0 = s64[16,76,30522]{2,1,0} iota(), iota_dimension=2, metadata={op_type="ArgMax" op_name="model/bert_pretrain_loss_and_metric_layer/ArgMax"}
  %constant_73 = s64[] constant(9223372036854775807), metadata={op_type="ArgMax" op_name="model/bert_pretrain_loss_and_metric_layer/ArgMax"}
  %broadcast.225 = s64[16,76,30522]{2,1,0} broadcast(s64[] %constant_73), dimensions={}, metadata={op_type="ArgMax" op_name="model/bert_pretrain_loss_and_metric_layer/ArgMax"}
  %select.20 = s64[16,76,30522]{2,1,0} select(pred[16,76,30522]{2,1,0} %compare.1, s64[16,76,30522]{2,1,0} %iota.0, s64[16,76,30522]{2,1,0} %broadcast.225), metadata={op_type="ArgMax" op_name="model/bert_pretrain_loss_and_metric_layer/ArgMax"}
  ROOT %reduce.114 = s64[16,76]{1,0} reduce(s64[16,76,30522]{2,1,0} %select.20, s64[] %constant_73), dimensions={2}, to_apply=%min_S64.804, metadata={op_type="ArgMax" op_name="model/bert_pretrain_loss_and_metric_layer/ArgMax"}
}

%add_float_.763 (x.764: f32[], y.765: f32[]) -> f32[] {
  %x.764 = f32[] parameter(0)
  %y.765 = f32[] parameter(1)
  ROOT %add.766 = f32[] add(f32[] %x.764, f32[] %y.765)
}

%fused_computation.7 (param_0.1063: f32[1216], param_1.1166: s32[16,76], param_2.706: f32[1216], param_3.484: f32[30522], param_4.339: f16[1216,30528]) -> f32[1216] {
  %param_1.1166 = s32[16,76]{1,0} parameter(1)
  %convert.271 = f32[16,76]{1,0} convert(s32[16,76]{1,0} %param_1.1166), metadata={op_type="Cast" op_name="model/bert_pretrain_loss_and_metric_layer/Cast_2"}
  %convert.270 = s64[16,76]{1,0} convert(f32[16,76]{1,0} %convert.271), metadata={op_type="Cast" op_name="model/bert_pretrain_loss_and_metric_layer/ArithmeticOptimizer/ReorderCastLikeAndValuePreserving_int64_Cast_3"}
  %bitcast.318 = s64[1216]{0} bitcast(s64[16,76]{1,0} %convert.270), metadata={op_type="Cast" op_name="model/bert_pretrain_loss_and_metric_layer/ArithmeticOptimizer/ReorderCastLikeAndValuePreserving_int64_Cast_3"}
  %broadcast.608 = s64[1216,30522]{1,0} broadcast(s64[1216]{0} %bitcast.318), dimensions={0}, metadata={op_type="SparseSoftmaxCrossEntropyWithLogits" op_name="model/bert_pretrain_loss_and_metric_layer/SparseSoftmaxCrossEntropyWithLogits/SparseSoftmaxCrossEntropyWithLogits"}
  %iota.6 = s64[1216,30522]{1,0} iota(), iota_dimension=1, metadata={op_type="SparseSoftmaxCrossEntropyWithLogits" op_name="model/bert_pretrain_loss_and_metric_layer/SparseSoftmaxCrossEntropyWithLogits/SparseSoftmaxCrossEntropyWithLogits"}
  %compare.35 = pred[1216,30522]{1,0} compare(s64[1216,30522]{1,0} %broadcast.608, s64[1216,30522]{1,0} %iota.6), direction=EQ, metadata={op_type="SparseSoftmaxCrossEntropyWithLogits" op_name="model/bert_pretrain_loss_and_metric_layer/SparseSoftmaxCrossEntropyWithLogits/SparseSoftmaxCrossEntropyWithLogits"}
  %constant_418 = f32[] constant(1), metadata={op_type="SparseSoftmaxCrossEntropyWithLogits" op_name="model/bert_pretrain_loss_and_metric_layer/SparseSoftmaxCrossEntropyWithLogits/SparseSoftmaxCrossEntropyWithLogits"}
  %broadcast.607 = f32[1216,30522]{1,0} broadcast(f32[] %constant_418), dimensions={}, metadata={op_type="SparseSoftmaxCrossEntropyWithLogits" op_name="model/bert_pretrain_loss_and_metric_layer/SparseSoftmaxCrossEntropyWithLogits/SparseSoftmaxCrossEntropyWithLogits"}
  %constant_76 = f32[] constant(0), metadata={op_type="Sum" op_name="model/bert_pretrain_loss_and_metric_layer/Sum_3"}
  %broadcast.606 = f32[1216,30522]{1,0} broadcast(f32[] %constant_76), dimensions={}, metadata={op_type="SparseSoftmaxCrossEntropyWithLogits" op_name="model/bert_pretrain_loss_and_metric_layer/SparseSoftmaxCrossEntropyWithLogits/SparseSoftmaxCrossEntropyWithLogits"}
  %select.50 = f32[1216,30522]{1,0} select(pred[1216,30522]{1,0} %compare.35, f32[1216,30522]{1,0} %broadcast.607, f32[1216,30522]{1,0} %broadcast.606), metadata={op_type="SparseSoftmaxCrossEntropyWithLogits" op_name="model/bert_pretrain_loss_and_metric_layer/SparseSoftmaxCrossEntropyWithLogits/SparseSoftmaxCrossEntropyWithLogits"}
  %constant_416 = s64[] constant(0), metadata={op_type="SparseSoftmaxCrossEntropyWithLogits" op_name="model/bert_pretrain_loss_and_metric_layer/SparseSoftmaxCrossEntropyWithLogits/SparseSoftmaxCrossEntropyWithLogits"}
  %broadcast.604 = s64[1216]{0} broadcast(s64[] %constant_416), dimensions={}, metadata={op_type="SparseSoftmaxCrossEntropyWithLogits" op_name="model/bert_pretrain_loss_and_metric_layer/SparseSoftmaxCrossEntropyWithLogits/SparseSoftmaxCrossEntropyWithLogits"}
  %compare.34 = pred[1216]{0} compare(s64[1216]{0} %broadcast.604, s64[1216]{0} %bitcast.318), direction=LE, metadata={op_type="SparseSoftmaxCrossEntropyWithLogits" op_name="model/bert_pretrain_loss_and_metric_layer/SparseSoftmaxCrossEntropyWithLogits/SparseSoftmaxCrossEntropyWithLogits"}
  %constant_414 = s64[] constant(30522), metadata={op_type="SparseSoftmaxCrossEntropyWithLogits" op_name="model/bert_pretrain_loss_and_metric_layer/SparseSoftmaxCrossEntropyWithLogits/SparseSoftmaxCrossEntropyWithLogits"}
  %broadcast.603 = s64[1216]{0} broadcast(s64[] %constant_414), dimensions={}, metadata={op_type="SparseSoftmaxCrossEntropyWithLogits" op_name="model/bert_pretrain_loss_and_metric_layer/SparseSoftmaxCrossEntropyWithLogits/SparseSoftmaxCrossEntropyWithLogits"}
  %compare.33 = pred[1216]{0} compare(s64[1216]{0} %bitcast.318, s64[1216]{0} %broadcast.603), direction=LT, metadata={op_type="SparseSoftmaxCrossEntropyWithLogits" op_name="model/bert_pretrain_loss_and_metric_layer/SparseSoftmaxCrossEntropyWithLogits/SparseSoftmaxCrossEntropyWithLogits"}
  %and.93 = pred[1216]{0} and(pred[1216]{0} %compare.34, pred[1216]{0} %compare.33), metadata={op_type="SparseSoftmaxCrossEntropyWithLogits" op_name="model/bert_pretrain_loss_and_metric_layer/SparseSoftmaxCrossEntropyWithLogits/SparseSoftmaxCrossEntropyWithLogits"}
  %broadcast.602 = f32[1216]{0} broadcast(f32[] %constant_76), dimensions={}, metadata={op_type="SparseSoftmaxCrossEntropyWithLogits" op_name="model/bert_pretrain_loss_and_metric_layer/SparseSoftmaxCrossEntropyWithLogits/SparseSoftmaxCrossEntropyWithLogits"}
  %constant_413 = f32[] constant(nan), metadata={op_type="SparseSoftmaxCrossEntropyWithLogits" op_name="model/bert_pretrain_loss_and_metric_layer/SparseSoftmaxCrossEntropyWithLogits/SparseSoftmaxCrossEntropyWithLogits"}
  %broadcast.601 = f32[1216]{0} broadcast(f32[] %constant_413), dimensions={}, metadata={op_type="SparseSoftmaxCrossEntropyWithLogits" op_name="model/bert_pretrain_loss_and_metric_layer/SparseSoftmaxCrossEntropyWithLogits/SparseSoftmaxCrossEntropyWithLogits"}
  %select.49 = f32[1216]{0} select(pred[1216]{0} %and.93, f32[1216]{0} %broadcast.602, f32[1216]{0} %broadcast.601), metadata={op_type="SparseSoftmaxCrossEntropyWithLogits" op_name="model/bert_pretrain_loss_and_metric_layer/SparseSoftmaxCrossEntropyWithLogits/SparseSoftmaxCrossEntropyWithLogits"}
  %broadcast.599 = f32[1216,30522]{1,0} broadcast(f32[1216]{0} %select.49), dimensions={0}, metadata={op_type="SparseSoftmaxCrossEntropyWithLogits" op_name="model/bert_pretrain_loss_and_metric_layer/SparseSoftmaxCrossEntropyWithLogits/SparseSoftmaxCrossEntropyWithLogits"}
  %add.93 = f32[1216,30522]{1,0} add(f32[1216,30522]{1,0} %select.50, f32[1216,30522]{1,0} %broadcast.599), metadata={op_type="SparseSoftmaxCrossEntropyWithLogits" op_name="model/bert_pretrain_loss_and_metric_layer/SparseSoftmaxCrossEntropyWithLogits/SparseSoftmaxCrossEntropyWithLogits"}
  %negate.0 = f32[1216,30522]{1,0} negate(f32[1216,30522]{1,0} %add.93), metadata={op_type="SparseSoftmaxCrossEntropyWithLogits" op_name="model/bert_pretrain_loss_and_metric_layer/SparseSoftmaxCrossEntropyWithLogits/SparseSoftmaxCrossEntropyWithLogits"}
  %param_4.339 = f16[1216,30528]{1,0} parameter(4)
  %slice.23 = f16[1216,30522]{1,0} slice(f16[1216,30528]{1,0} %param_4.339), slice={[0:1216], [0:30522]}, metadata={op_type="MatMul" op_name="model/bert_pretrainer/cls/predictions/MatMul"}
  %param_3.484 = f32[30522]{0} parameter(3)
  %convert.437 = f16[30522]{0} convert(f32[30522]{0} %param_3.484), metadata={op_type="Cast" op_name="model/bert_pretrainer/cls/predictions/BiasAdd/Cast"}
  %broadcast.1321 = f16[1216,30522]{1,0} broadcast(f16[30522]{0} %convert.437), dimensions={1}, metadata={op_type="BiasAdd" op_name="model/bert_pretrainer/cls/predictions/BiasAdd"}
  %add.300 = f16[1216,30522]{1,0} add(f16[1216,30522]{1,0} %slice.23, f16[1216,30522]{1,0} %broadcast.1321), metadata={op_type="BiasAdd" op_name="model/bert_pretrainer/cls/predictions/BiasAdd"}
  %convert.436 = f32[1216,30522]{1,0} convert(f16[1216,30522]{1,0} %add.300), metadata={op_type="Cast" op_name="model/bert_pretrain_loss_and_metric_layer/ArithmeticOptimizer/ReorderCastLikeAndValuePreserving_float_Cast_1"}
  %param_2.706 = f32[1216]{0} parameter(2)
  %broadcast.1320 = f32[1216,30522]{1,0} broadcast(f32[1216]{0} %param_2.706), dimensions={0}, metadata={op_type="SparseSoftmaxCrossEntropyWithLogits" op_name="model/bert_pretrain_loss_and_metric_layer/SparseSoftmaxCrossEntropyWithLogits/SparseSoftmaxCrossEntropyWithLogits"}
  %subtract.83 = f32[1216,30522]{1,0} subtract(f32[1216,30522]{1,0} %convert.436, f32[1216,30522]{1,0} %broadcast.1320), metadata={op_type="SparseSoftmaxCrossEntropyWithLogits" op_name="model/bert_pretrain_loss_and_metric_layer/SparseSoftmaxCrossEntropyWithLogits/SparseSoftmaxCrossEntropyWithLogits"}
  %param_0.1063 = f32[1216]{0} parameter(0)
  %broadcast.227 = f32[1216,30522]{1,0} broadcast(f32[1216]{0} %param_0.1063), dimensions={0}, metadata={op_type="SparseSoftmaxCrossEntropyWithLogits" op_name="model/bert_pretrain_loss_and_metric_layer/SparseSoftmaxCrossEntropyWithLogits/SparseSoftmaxCrossEntropyWithLogits"}
  %subtract.1 = f32[1216,30522]{1,0} subtract(f32[1216,30522]{1,0} %subtract.83, f32[1216,30522]{1,0} %broadcast.227), metadata={op_type="SparseSoftmaxCrossEntropyWithLogits" op_name="model/bert_pretrain_loss_and_metric_layer/SparseSoftmaxCrossEntropyWithLogits/SparseSoftmaxCrossEntropyWithLogits"}
  %multiply.97 = f32[1216,30522]{1,0} multiply(f32[1216,30522]{1,0} %negate.0, f32[1216,30522]{1,0} %subtract.1), metadata={op_type="SparseSoftmaxCrossEntropyWithLogits" op_name="model/bert_pretrain_loss_and_metric_layer/SparseSoftmaxCrossEntropyWithLogits/SparseSoftmaxCrossEntropyWithLogits"}
  ROOT %reduce.116 = f32[1216]{0} reduce(f32[1216,30522]{1,0} %multiply.97, f32[] %constant_76), dimensions={1}, to_apply=%add_float_.763, metadata={op_type="SparseSoftmaxCrossEntropyWithLogits" op_name="model/bert_pretrain_loss_and_metric_layer/SparseSoftmaxCrossEntropyWithLogits/SparseSoftmaxCrossEntropyWithLogits"}
}

%model_bert_pretrain_loss_and_metric_layer_Sum_6-reduction.862 (x.863: f32[], y.864: f32[]) -> f32[] {
  %x.863 = f32[] parameter(0)
  %y.864 = f32[] parameter(1)
  ROOT %add.865 = f32[] add(f32[] %x.863, f32[] %y.864)
}

%fused_computation.8 (param_0.13: f32[], param_1.637: s32[16,1], param_2.253: s64[16]) -> f32[] {
  %param_0.13 = f32[] parameter(0)
  %param_2.253 = s64[16]{0} parameter(2)
  %convert.28 = s32[16]{0} convert(s64[16]{0} %param_2.253), metadata={op_type="Cast" op_name="model/bert_pretrain_loss_and_metric_layer/Cast_11"}
  %param_1.637 = s32[16,1]{1,0} parameter(1)
  %bitcast.168 = s32[16]{0} bitcast(s32[16,1]{1,0} %param_1.637), metadata={op_type="Squeeze" op_name="model/bert_pretrain_loss_and_metric_layer/Squeeze"}
  %compare.2 = pred[16]{0} compare(s32[16]{0} %convert.28, s32[16]{0} %bitcast.168), direction=EQ, metadata={op_type="Equal" op_name="model/bert_pretrain_loss_and_metric_layer/Equal_1"}
  %convert.27 = f32[16]{0} convert(pred[16]{0} %compare.2), metadata={op_type="Cast" op_name="model/bert_pretrain_loss_and_metric_layer/Cast_12"}
  %constant_77 = f32[] constant(0), metadata={op_type="Sum" op_name="model/bert_pretrain_loss_and_metric_layer/Sum_3"}
  %reduce.117 = f32[] reduce(f32[16]{0} %convert.27, f32[] %constant_77), dimensions={0}, to_apply=%model_bert_pretrain_loss_and_metric_layer_Sum_6-reduction.862, metadata={op_type="Sum" op_name="model/bert_pretrain_loss_and_metric_layer/Sum_6"}
  ROOT %add.11 = f32[] add(f32[] %param_0.13, f32[] %reduce.117), metadata={op_type="AssignAddVariableOp" op_name="model/bert_pretrain_loss_and_metric_layer/AssignAddVariableOp_4"}
}

%min_S64.851 (lhs.852: s64[], rhs.853: s64[]) -> s64[] {
  %lhs.852 = s64[] parameter(0)
  %rhs.853 = s64[] parameter(1)
  ROOT %minimum.854 = s64[] minimum(s64[] %lhs.852, s64[] %rhs.853)
}

%fused_computation.9 (param_0.1094: f32[16], param_1.1196: f32[2], param_2.748: f16[16,8]) -> s64[16] {
  %param_2.748 = f16[16,8]{1,0} parameter(2)
  %slice.27 = f16[16,2]{1,0} slice(f16[16,8]{1,0} %param_2.748), slice={[0:16], [0:2]}, metadata={op_type="MatMul" op_name="model/bert_pretrainer/classification/predictions/transform/logits/MatMul"}
  %param_1.1196 = f32[2]{0} parameter(1)
  %convert.506 = f16[2]{0} convert(f32[2]{0} %param_1.1196), metadata={op_type="Cast" op_name="model/bert_pretrainer/classification/predictions/transform/logits/BiasAdd/Cast"}
  %broadcast.1412 = f16[16,2]{1,0} broadcast(f16[2]{0} %convert.506), dimensions={1}, metadata={op_type="BiasAdd" op_name="model/bert_pretrainer/classification/predictions/transform/logits/BiasAdd"}
  %add.318 = f16[16,2]{1,0} add(f16[16,2]{1,0} %slice.27, f16[16,2]{1,0} %broadcast.1412), metadata={op_type="BiasAdd" op_name="model/bert_pretrainer/classification/predictions/transform/logits/BiasAdd"}
  %convert.29 = f32[16,2]{1,0} convert(f16[16,2]{1,0} %add.318), metadata={op_type="Cast" op_name="model/bert_pretrain_loss_and_metric_layer/Cast_4"}
  %param_0.1094 = f32[16]{0} parameter(0)
  %broadcast.337 = f32[16,2]{1,0} broadcast(f32[16]{0} %param_0.1094), dimensions={0}, metadata={op_type="SparseSoftmaxCrossEntropyWithLogits" op_name="model/bert_pretrain_loss_and_metric_layer/SparseSoftmaxCrossEntropyWithLogits_1/SparseSoftmaxCrossEntropyWithLogits"}
  %compare.3 = pred[16,2]{1,0} compare(f32[16,2]{1,0} %convert.29, f32[16,2]{1,0} %broadcast.337), direction=EQ, metadata={op_type="ArgMax" op_name="model/bert_pretrain_loss_and_metric_layer/ArgMax_1"}
  %iota.1 = s64[16,2]{1,0} iota(), iota_dimension=1, metadata={op_type="ArgMax" op_name="model/bert_pretrain_loss_and_metric_layer/ArgMax_1"}
  %constant_78 = s64[] constant(9223372036854775807), metadata={op_type="ArgMax" op_name="model/bert_pretrain_loss_and_metric_layer/ArgMax"}
  %broadcast.228 = s64[16,2]{1,0} broadcast(s64[] %constant_78), dimensions={}, metadata={op_type="ArgMax" op_name="model/bert_pretrain_loss_and_metric_layer/ArgMax_1"}
  %select.22 = s64[16,2]{1,0} select(pred[16,2]{1,0} %compare.3, s64[16,2]{1,0} %iota.1, s64[16,2]{1,0} %broadcast.228), metadata={op_type="ArgMax" op_name="model/bert_pretrain_loss_and_metric_layer/ArgMax_1"}
  ROOT %reduce.118 = s64[16]{0} reduce(s64[16,2]{1,0} %select.22, s64[] %constant_78), dimensions={1}, to_apply=%min_S64.851, metadata={op_type="ArgMax" op_name="model/bert_pretrain_loss_and_metric_layer/ArgMax_1"}
}

%model_bert_pretrain_loss_and_metric_layer_Mean-reduction.927 (x.928: f32[], y.929: f32[]) -> f32[] {
  %x.928 = f32[] parameter(0)
  %y.929 = f32[] parameter(1)
  ROOT %add.930 = f32[] add(f32[] %x.928, f32[] %y.929)
}

%fused_computation.10 (param_0.1102: f32[16], param_1.1207: s32[16,1], param_2.760: f32[16], param_3.542: f32[2], param_4.397: f16[16,8]) -> f32[] {
  %param_1.1207 = s32[16,1]{1,0} parameter(1)
  %convert.498 = f32[16,1]{1,0} convert(s32[16,1]{1,0} %param_1.1207), metadata={op_type="Cast" op_name="model/bert_pretrain_loss_and_metric_layer/Cast_5"}
  %convert.497 = s64[16,1]{1,0} convert(f32[16,1]{1,0} %convert.498), metadata={op_type="Cast" op_name="model/bert_pretrain_loss_and_metric_layer/ArithmeticOptimizer/ReorderCastLikeAndValuePreserving_int64_Cast_6"}
  %bitcast.366 = s64[16]{0} bitcast(s64[16,1]{1,0} %convert.497), metadata={op_type="Cast" op_name="model/bert_pretrain_loss_and_metric_layer/ArithmeticOptimizer/ReorderCastLikeAndValuePreserving_int64_Cast_6"}
  %broadcast.1392 = s64[16,2]{1,0} broadcast(s64[16]{0} %bitcast.366), dimensions={0}, metadata={op_type="SparseSoftmaxCrossEntropyWithLogits" op_name="model/bert_pretrain_loss_and_metric_layer/SparseSoftmaxCrossEntropyWithLogits_1/SparseSoftmaxCrossEntropyWithLogits"}
  %iota.14 = s64[16,2]{1,0} iota(), iota_dimension=1, metadata={op_type="SparseSoftmaxCrossEntropyWithLogits" op_name="model/bert_pretrain_loss_and_metric_layer/SparseSoftmaxCrossEntropyWithLogits_1/SparseSoftmaxCrossEntropyWithLogits"}
  %compare.91 = pred[16,2]{1,0} compare(s64[16,2]{1,0} %broadcast.1392, s64[16,2]{1,0} %iota.14), direction=EQ, metadata={op_type="SparseSoftmaxCrossEntropyWithLogits" op_name="model/bert_pretrain_loss_and_metric_layer/SparseSoftmaxCrossEntropyWithLogits_1/SparseSoftmaxCrossEntropyWithLogits"}
  %constant_968 = f32[] constant(1), metadata={op_type="SparseSoftmaxCrossEntropyWithLogits" op_name="model/bert_pretrain_loss_and_metric_layer/SparseSoftmaxCrossEntropyWithLogits/SparseSoftmaxCrossEntropyWithLogits"}
  %broadcast.1391 = f32[16,2]{1,0} broadcast(f32[] %constant_968), dimensions={}, metadata={op_type="SparseSoftmaxCrossEntropyWithLogits" op_name="model/bert_pretrain_loss_and_metric_layer/SparseSoftmaxCrossEntropyWithLogits_1/SparseSoftmaxCrossEntropyWithLogits"}
  %constant_80 = f32[] constant(0), metadata={op_type="Sum" op_name="model/bert_pretrain_loss_and_metric_layer/Sum_3"}
  %broadcast.1390 = f32[16,2]{1,0} broadcast(f32[] %constant_80), dimensions={}, metadata={op_type="SparseSoftmaxCrossEntropyWithLogits" op_name="model/bert_pretrain_loss_and_metric_layer/SparseSoftmaxCrossEntropyWithLogits_1/SparseSoftmaxCrossEntropyWithLogits"}
  %select.90 = f32[16,2]{1,0} select(pred[16,2]{1,0} %compare.91, f32[16,2]{1,0} %broadcast.1391, f32[16,2]{1,0} %broadcast.1390), metadata={op_type="SparseSoftmaxCrossEntropyWithLogits" op_name="model/bert_pretrain_loss_and_metric_layer/SparseSoftmaxCrossEntropyWithLogits_1/SparseSoftmaxCrossEntropyWithLogits"}
  %constant_966 = s64[] constant(0), metadata={op_type="SparseSoftmaxCrossEntropyWithLogits" op_name="model/bert_pretrain_loss_and_metric_layer/SparseSoftmaxCrossEntropyWithLogits/SparseSoftmaxCrossEntropyWithLogits"}
  %broadcast.1389 = s64[16]{0} broadcast(s64[] %constant_966), dimensions={}, metadata={op_type="SparseSoftmaxCrossEntropyWithLogits" op_name="model/bert_pretrain_loss_and_metric_layer/SparseSoftmaxCrossEntropyWithLogits_1/SparseSoftmaxCrossEntropyWithLogits"}
  %compare.90 = pred[16]{0} compare(s64[16]{0} %broadcast.1389, s64[16]{0} %bitcast.366), direction=LE, metadata={op_type="SparseSoftmaxCrossEntropyWithLogits" op_name="model/bert_pretrain_loss_and_metric_layer/SparseSoftmaxCrossEntropyWithLogits_1/SparseSoftmaxCrossEntropyWithLogits"}
  %constant_965 = s64[] constant(2), metadata={op_type="SparseSoftmaxCrossEntropyWithLogits" op_name="model/bert_pretrain_loss_and_metric_layer/SparseSoftmaxCrossEntropyWithLogits_1/SparseSoftmaxCrossEntropyWithLogits"}
  %broadcast.1388 = s64[16]{0} broadcast(s64[] %constant_965), dimensions={}, metadata={op_type="SparseSoftmaxCrossEntropyWithLogits" op_name="model/bert_pretrain_loss_and_metric_layer/SparseSoftmaxCrossEntropyWithLogits_1/SparseSoftmaxCrossEntropyWithLogits"}
  %compare.89 = pred[16]{0} compare(s64[16]{0} %bitcast.366, s64[16]{0} %broadcast.1388), direction=LT, metadata={op_type="SparseSoftmaxCrossEntropyWithLogits" op_name="model/bert_pretrain_loss_and_metric_layer/SparseSoftmaxCrossEntropyWithLogits_1/SparseSoftmaxCrossEntropyWithLogits"}
  %and.101 = pred[16]{0} and(pred[16]{0} %compare.90, pred[16]{0} %compare.89), metadata={op_type="SparseSoftmaxCrossEntropyWithLogits" op_name="model/bert_pretrain_loss_and_metric_layer/SparseSoftmaxCrossEntropyWithLogits_1/SparseSoftmaxCrossEntropyWithLogits"}
  %broadcast.1387 = f32[16]{0} broadcast(f32[] %constant_80), dimensions={}, metadata={op_type="SparseSoftmaxCrossEntropyWithLogits" op_name="model/bert_pretrain_loss_and_metric_layer/SparseSoftmaxCrossEntropyWithLogits_1/SparseSoftmaxCrossEntropyWithLogits"}
  %constant_964 = f32[] constant(nan), metadata={op_type="SparseSoftmaxCrossEntropyWithLogits" op_name="model/bert_pretrain_loss_and_metric_layer/SparseSoftmaxCrossEntropyWithLogits/SparseSoftmaxCrossEntropyWithLogits"}
  %broadcast.1386 = f32[16]{0} broadcast(f32[] %constant_964), dimensions={}, metadata={op_type="SparseSoftmaxCrossEntropyWithLogits" op_name="model/bert_pretrain_loss_and_metric_layer/SparseSoftmaxCrossEntropyWithLogits_1/SparseSoftmaxCrossEntropyWithLogits"}
  %select.89 = f32[16]{0} select(pred[16]{0} %and.101, f32[16]{0} %broadcast.1387, f32[16]{0} %broadcast.1386), metadata={op_type="SparseSoftmaxCrossEntropyWithLogits" op_name="model/bert_pretrain_loss_and_metric_layer/SparseSoftmaxCrossEntropyWithLogits_1/SparseSoftmaxCrossEntropyWithLogits"}
  %broadcast.1385 = f32[16,2]{1,0} broadcast(f32[16]{0} %select.89), dimensions={0}, metadata={op_type="SparseSoftmaxCrossEntropyWithLogits" op_name="model/bert_pretrain_loss_and_metric_layer/SparseSoftmaxCrossEntropyWithLogits_1/SparseSoftmaxCrossEntropyWithLogits"}
  %add.311 = f32[16,2]{1,0} add(f32[16,2]{1,0} %select.90, f32[16,2]{1,0} %broadcast.1385), metadata={op_type="SparseSoftmaxCrossEntropyWithLogits" op_name="model/bert_pretrain_loss_and_metric_layer/SparseSoftmaxCrossEntropyWithLogits_1/SparseSoftmaxCrossEntropyWithLogits"}
  %negate.1 = f32[16,2]{1,0} negate(f32[16,2]{1,0} %add.311), metadata={op_type="SparseSoftmaxCrossEntropyWithLogits" op_name="model/bert_pretrain_loss_and_metric_layer/SparseSoftmaxCrossEntropyWithLogits_1/SparseSoftmaxCrossEntropyWithLogits"}
  %param_4.397 = f16[16,8]{1,0} parameter(4)
  %slice.33 = f16[16,2]{1,0} slice(f16[16,8]{1,0} %param_4.397), slice={[0:16], [0:2]}, metadata={op_type="MatMul" op_name="model/bert_pretrainer/classification/predictions/transform/logits/MatMul"}
  %param_3.542 = f32[2]{0} parameter(3)
  %convert.519 = f16[2]{0} convert(f32[2]{0} %param_3.542), metadata={op_type="Cast" op_name="model/bert_pretrainer/classification/predictions/transform/logits/BiasAdd/Cast"}
  %broadcast.1424 = f16[16,2]{1,0} broadcast(f16[2]{0} %convert.519), dimensions={1}, metadata={op_type="BiasAdd" op_name="model/bert_pretrainer/classification/predictions/transform/logits/BiasAdd"}
  %add.324 = f16[16,2]{1,0} add(f16[16,2]{1,0} %slice.33, f16[16,2]{1,0} %broadcast.1424), metadata={op_type="BiasAdd" op_name="model/bert_pretrainer/classification/predictions/transform/logits/BiasAdd"}
  %convert.518 = f32[16,2]{1,0} convert(f16[16,2]{1,0} %add.324), metadata={op_type="Cast" op_name="model/bert_pretrain_loss_and_metric_layer/Cast_4"}
  %param_2.760 = f32[16]{0} parameter(2)
  %broadcast.1422 = f32[16,2]{1,0} broadcast(f32[16]{0} %param_2.760), dimensions={0}, metadata={op_type="SparseSoftmaxCrossEntropyWithLogits" op_name="model/bert_pretrain_loss_and_metric_layer/SparseSoftmaxCrossEntropyWithLogits_1/SparseSoftmaxCrossEntropyWithLogits"}
  %subtract.91 = f32[16,2]{1,0} subtract(f32[16,2]{1,0} %convert.518, f32[16,2]{1,0} %broadcast.1422), metadata={op_type="SparseSoftmaxCrossEntropyWithLogits" op_name="model/bert_pretrain_loss_and_metric_layer/SparseSoftmaxCrossEntropyWithLogits_1/SparseSoftmaxCrossEntropyWithLogits"}
  %param_0.1102 = f32[16]{0} parameter(0)
  %broadcast.229 = f32[16,2]{1,0} broadcast(f32[16]{0} %param_0.1102), dimensions={0}, metadata={op_type="SparseSoftmaxCrossEntropyWithLogits" op_name="model/bert_pretrain_loss_and_metric_layer/SparseSoftmaxCrossEntropyWithLogits_1/SparseSoftmaxCrossEntropyWithLogits"}
  %subtract.2 = f32[16,2]{1,0} subtract(f32[16,2]{1,0} %subtract.91, f32[16,2]{1,0} %broadcast.229), metadata={op_type="SparseSoftmaxCrossEntropyWithLogits" op_name="model/bert_pretrain_loss_and_metric_layer/SparseSoftmaxCrossEntropyWithLogits_1/SparseSoftmaxCrossEntropyWithLogits"}
  %multiply.98 = f32[16,2]{1,0} multiply(f32[16,2]{1,0} %negate.1, f32[16,2]{1,0} %subtract.2), metadata={op_type="SparseSoftmaxCrossEntropyWithLogits" op_name="model/bert_pretrain_loss_and_metric_layer/SparseSoftmaxCrossEntropyWithLogits_1/SparseSoftmaxCrossEntropyWithLogits"}
  %bitcast.169 = f32[32]{0} bitcast(f32[16,2]{1,0} %multiply.98)
  ROOT %reduce.119 = f32[] reduce(f32[32]{0} %bitcast.169, f32[] %constant_80), dimensions={0}, to_apply=%model_bert_pretrain_loss_and_metric_layer_Mean-reduction.927, metadata={op_type="Mean" op_name="model/bert_pretrain_loss_and_metric_layer/Mean"}
}

%All_40-reduction.2342 (x.2343: pred[], y.2344: pred[]) -> pred[] {
  %x.2343 = pred[] parameter(0)
  %y.2344 = pred[] parameter(1)
  ROOT %and.2345 = pred[] and(pred[] %x.2343, pred[] %y.2344)
}

%fused_computation.11 (param_0.619: pred[], param_1.643: pred[], param_2.256: pred[], param_3.171: pred[], param_4.78: pred[], param_5.56: f32[2], param_6.49: pred[], param_7.44: pred[], param_8.47: pred[], param_9.25: pred[], param_10.12: pred[], param_11.9: pred[], param_12.11: pred[], param_13.10: pred[], param_14.11: pred[], param_15.12: pred[], param_16.14: pred[], param_17.8: pred[], param_18.4: pred[], param_19.4: pred[], param_20.4: pred[], param_21.4: pred[], param_22.4: pred[], param_23.4: pred[], param_24.4: pred[], param_25.4: pred[], param_26.4: pred[], param_27.4: pred[], param_28.4: pred[], param_29.4: pred[], param_30.4: pred[], param_31.4: pred[], param_32.4: pred[], param_33.4: pred[], param_34.4: pred[], param_35.4: pred[], param_36.4: pred[], param_37.4: pred[], param_38.4: pred[], param_39.4: pred[], param_40.4: pred[], param_41.4: pred[], param_42.4: pred[], param_43.4: pred[], param_44.4: pred[], param_45.4: pred[]) -> pred[] {
  %param_44.4 = pred[] parameter(44)
  %param_45.4 = pred[] parameter(45)
  %and.89 = pred[] and(pred[] %param_44.4, pred[] %param_45.4)
  %param_43.4 = pred[] parameter(43)
  %and.88 = pred[] and(pred[] %and.89, pred[] %param_43.4)
  %param_42.4 = pred[] parameter(42)
  %and.87 = pred[] and(pred[] %and.88, pred[] %param_42.4)
  %param_41.4 = pred[] parameter(41)
  %and.86 = pred[] and(pred[] %and.87, pred[] %param_41.4)
  %param_40.4 = pred[] parameter(40)
  %and.85 = pred[] and(pred[] %and.86, pred[] %param_40.4)
  %param_39.4 = pred[] parameter(39)
  %and.84 = pred[] and(pred[] %and.85, pred[] %param_39.4)
  %param_38.4 = pred[] parameter(38)
  %and.83 = pred[] and(pred[] %and.84, pred[] %param_38.4)
  %param_37.4 = pred[] parameter(37)
  %and.82 = pred[] and(pred[] %and.83, pred[] %param_37.4)
  %param_36.4 = pred[] parameter(36)
  %and.81 = pred[] and(pred[] %and.82, pred[] %param_36.4)
  %param_35.4 = pred[] parameter(35)
  %and.80 = pred[] and(pred[] %and.81, pred[] %param_35.4)
  %param_34.4 = pred[] parameter(34)
  %and.79 = pred[] and(pred[] %and.80, pred[] %param_34.4)
  %param_33.4 = pred[] parameter(33)
  %and.78 = pred[] and(pred[] %and.79, pred[] %param_33.4)
  %param_32.4 = pred[] parameter(32)
  %and.77 = pred[] and(pred[] %and.78, pred[] %param_32.4)
  %param_31.4 = pred[] parameter(31)
  %and.76 = pred[] and(pred[] %and.77, pred[] %param_31.4)
  %param_30.4 = pred[] parameter(30)
  %and.75 = pred[] and(pred[] %and.76, pred[] %param_30.4)
  %param_29.4 = pred[] parameter(29)
  %and.74 = pred[] and(pred[] %and.75, pred[] %param_29.4)
  %param_28.4 = pred[] parameter(28)
  %and.73 = pred[] and(pred[] %and.74, pred[] %param_28.4)
  %param_27.4 = pred[] parameter(27)
  %and.72 = pred[] and(pred[] %and.73, pred[] %param_27.4)
  %param_26.4 = pred[] parameter(26)
  %and.71 = pred[] and(pred[] %and.72, pred[] %param_26.4)
  %param_25.4 = pred[] parameter(25)
  %and.70 = pred[] and(pred[] %and.71, pred[] %param_25.4)
  %param_24.4 = pred[] parameter(24)
  %and.69 = pred[] and(pred[] %and.70, pred[] %param_24.4)
  %param_23.4 = pred[] parameter(23)
  %and.68 = pred[] and(pred[] %and.69, pred[] %param_23.4)
  %param_22.4 = pred[] parameter(22)
  %and.67 = pred[] and(pred[] %and.68, pred[] %param_22.4)
  %param_21.4 = pred[] parameter(21)
  %and.66 = pred[] and(pred[] %and.67, pred[] %param_21.4)
  %param_20.4 = pred[] parameter(20)
  %and.65 = pred[] and(pred[] %and.66, pred[] %param_20.4)
  %param_19.4 = pred[] parameter(19)
  %and.64 = pred[] and(pred[] %and.65, pred[] %param_19.4)
  %param_18.4 = pred[] parameter(18)
  %and.63 = pred[] and(pred[] %and.64, pred[] %param_18.4)
  %param_17.8 = pred[] parameter(17)
  %and.62 = pred[] and(pred[] %and.63, pred[] %param_17.8)
  %param_16.14 = pred[] parameter(16)
  %and.61 = pred[] and(pred[] %and.62, pred[] %param_16.14)
  %param_15.12 = pred[] parameter(15)
  %and.60 = pred[] and(pred[] %and.61, pred[] %param_15.12)
  %param_14.11 = pred[] parameter(14)
  %and.59 = pred[] and(pred[] %and.60, pred[] %param_14.11)
  %param_13.10 = pred[] parameter(13)
  %and.58 = pred[] and(pred[] %and.59, pred[] %param_13.10)
  %param_12.11 = pred[] parameter(12)
  %and.57 = pred[] and(pred[] %and.58, pred[] %param_12.11)
  %param_11.9 = pred[] parameter(11)
  %and.56 = pred[] and(pred[] %and.57, pred[] %param_11.9)
  %param_10.12 = pred[] parameter(10)
  %and.55 = pred[] and(pred[] %and.56, pred[] %param_10.12)
  %param_9.25 = pred[] parameter(9)
  %and.54 = pred[] and(pred[] %and.55, pred[] %param_9.25)
  %param_8.47 = pred[] parameter(8)
  %and.53 = pred[] and(pred[] %and.54, pred[] %param_8.47)
  %param_7.44 = pred[] parameter(7)
  %and.52 = pred[] and(pred[] %and.53, pred[] %param_7.44)
  %param_6.49 = pred[] parameter(6)
  %and.51 = pred[] and(pred[] %and.52, pred[] %param_6.49)
  %param_5.56 = f32[2]{0} parameter(5)
  %is-finite.0 = pred[2]{0} is-finite(f32[2]{0} %param_5.56), metadata={op_type="IsFinite" op_name="IsFinite_40"}
  %constant_81 = pred[] constant(true), metadata={op_type="All" op_name="All"}
  %reduce.120 = pred[] reduce(pred[2]{0} %is-finite.0, pred[] %constant_81), dimensions={0}, to_apply=%All_40-reduction.2342, metadata={op_type="All" op_name="All_40"}
  %and.50 = pred[] and(pred[] %and.51, pred[] %reduce.120)
  %param_4.78 = pred[] parameter(4)
  %and.49 = pred[] and(pred[] %and.50, pred[] %param_4.78)
  %param_3.171 = pred[] parameter(3)
  %and.48 = pred[] and(pred[] %and.49, pred[] %param_3.171)
  %param_2.256 = pred[] parameter(2)
  %and.47 = pred[] and(pred[] %and.48, pred[] %param_2.256)
  %param_1.643 = pred[] parameter(1)
  %and.46 = pred[] and(pred[] %and.47, pred[] %param_1.643)
  %param_0.619 = pred[] parameter(0)
  %and.45 = pred[] and(pred[] %and.46, pred[] %param_0.619), metadata={op_type="All" op_name="All_46"}
  %convert.30 = f32[] convert(pred[] %and.45), metadata={op_type="Cast" op_name="Cast"}
  %constant_82 = f32[] constant(1), metadata={op_type="SparseSoftmaxCrossEntropyWithLogits" op_name="model/bert_pretrain_loss_and_metric_layer/SparseSoftmaxCrossEntropyWithLogits/SparseSoftmaxCrossEntropyWithLogits"}
  ROOT %compare.4 = pred[] compare(f32[] %convert.30, f32[] %constant_82), direction=EQ, metadata={op_type="Equal" op_name="Equal"}
}

%add_float_.1128 (x.1129: f32[], y.1130: f32[]) -> f32[] {
  %x.1129 = f32[] parameter(0)
  %y.1130 = f32[] parameter(1)
  ROOT %add.1131 = f32[] add(f32[] %x.1129, f32[] %y.1130)
}

%gradient_tape_model_bert_pretrainer_cls_predictions_transform_LayerNorm_batchnorm_sub_Sum-reduction.1904 (x.1905: f32[], y.1906: f32[]) -> f32[] {
  %x.1905 = f32[] parameter(0)
  %y.1906 = f32[] parameter(1)
  ROOT %add.1907 = f32[] add(f32[] %x.1905, f32[] %y.1906)
}

%gradient_tape_model_bert_pretrainer_cls_predictions_transform_LayerNorm_batchnorm_mul_Sum_1-reduction.1895 (x.1896: f32[], y.1897: f32[]) -> f32[] {
  %x.1896 = f32[] parameter(0)
  %y.1897 = f32[] parameter(1)
  ROOT %add.1898 = f32[] add(f32[] %x.1896, f32[] %y.1897)
}

%fused_computation.18 (param_0.1212: f16[1216,768], param_1.1399: f16[1216,768], param_2.938: f32[1216], param_3.742: f32[1216], param_4.611: f16[1216,768], param_5.536: f32[1216], param_6.521: f32[768], param_7.446: f32[1216], param_8.382: f16[1216,768]) -> (f32[768], f16[1216,768], f32[768], f32[768]) {
  %constant_299_clone_1 = f16[] constant(0.13416), metadata={op_type="Mul" op_name="gradient_tape/model/bert_pretrainer/cls/predictions/transform/dense/Gelu/Pow/mul_1"}
  %broadcast.271.clone.1 = f16[1216,768]{1,0} broadcast(f16[] %constant_299_clone_1), dimensions={}, metadata={op_type="Mul" op_name="gradient_tape/model/bert_pretrainer/cls/predictions/transform/dense/Gelu/Pow/mul_1"}
  %param_1.1399 = f16[1216,768]{1,0} parameter(1)
  %multiply.366.clone.1 = f16[1216,768]{1,0} multiply(f16[1216,768]{1,0} %param_1.1399, f16[1216,768]{1,0} %param_1.1399)
  %param_8.382 = f16[1216,768]{1,0} parameter(8)
  %convert.163.clone.1 = f32[1216,768]{1,0} convert(f16[1216,768]{1,0} %param_8.382), metadata={op_type="Cast" op_name="gradient_tape/model/bert_pretrainer/cls/predictions/transform/LayerNorm/Cast_1/Cast"}
  %constant_890_clone_1 = f32[] constant(1e-12), metadata={op_type="AddV2" op_name="model/bert_pretrainer/bert_encoder_1/embeddings/layer_norm/batchnorm/add"}
  %broadcast.1288.clone.1 = f32[1216]{0} broadcast(f32[] %constant_890_clone_1), dimensions={}, metadata={op_type="AddV2" op_name="model/bert_pretrainer/cls/predictions/transform/LayerNorm/batchnorm/add"}
  %param_7.446 = f32[1216]{0} parameter(7)
  %constant_885_clone_1 = f32[] constant(0.00130208337), metadata={op_type="Mul" op_name="gradient_tape/model/bert_pretrainer/cls/predictions/transform/LayerNorm/moments/truediv_1"}
  %broadcast.1287.clone.1 = f32[1216]{0} broadcast(f32[] %constant_885_clone_1), dimensions={}
  %multiply.711.clone.1 = f32[1216]{0} multiply(f32[1216]{0} %param_7.446, f32[1216]{0} %broadcast.1287.clone.1), metadata={op_type="Mean" op_name="model/bert_pretrainer/cls/predictions/transform/LayerNorm/moments/variance"}
  %add.281.clone.1 = f32[1216]{0} add(f32[1216]{0} %broadcast.1288.clone.1, f32[1216]{0} %multiply.711.clone.1), metadata={op_type="AddV2" op_name="model/bert_pretrainer/cls/predictions/transform/LayerNorm/batchnorm/add"}
  %rsqrt.85.clone.1 = f32[1216]{0} rsqrt(f32[1216]{0} %add.281.clone.1), metadata={op_type="Rsqrt" op_name="model/bert_pretrainer/cls/predictions/transform/LayerNorm/batchnorm/Rsqrt"}
  %broadcast.496.clone.1 = f32[1216,768]{1,0} broadcast(f32[1216]{0} %rsqrt.85.clone.1), dimensions={0}, metadata={op_type="Mul" op_name="model/bert_pretrainer/cls/predictions/transform/LayerNorm/batchnorm/mul"}
  %param_6.521 = f32[768]{0} parameter(6)
  %broadcast.494.clone.1 = f32[1216,768]{1,0} broadcast(f32[768]{0} %param_6.521), dimensions={1}, metadata={op_type="Mul" op_name="model/bert_pretrainer/cls/predictions/transform/LayerNorm/batchnorm/mul"}
  %multiply.364.clone.1 = f32[1216,768]{1,0} multiply(f32[1216,768]{1,0} %broadcast.496.clone.1, f32[1216,768]{1,0} %broadcast.494.clone.1), metadata={op_type="Mul" op_name="model/bert_pretrainer/cls/predictions/transform/LayerNorm/batchnorm/mul"}
  %multiply.261.clone.1 = f32[1216,768]{1,0} multiply(f32[1216,768]{1,0} %convert.163.clone.1, f32[1216,768]{1,0} %multiply.364.clone.1), metadata={op_type="Mul" op_name="gradient_tape/model/bert_pretrainer/cls/predictions/transform/LayerNorm/batchnorm/mul_1/Mul"}
  %constant_300_clone_1 = f32[] constant(2), metadata={op_type="Mul" op_name="gradient_tape/model/bert_pretrainer/cls/predictions/transform/LayerNorm/moments/Mul"}
  %broadcast.269.clone.1 = f32[1216,1]{1,0} broadcast(f32[] %constant_300_clone_1), dimensions={}
  %broadcast.268.clone.1 = f32[1216,1]{1,0} broadcast(f32[] %constant_885_clone_1), dimensions={}
  %bitcast.283.clone.1 = f32[1216,1]{1,0} bitcast(f32[1216]{0} %rsqrt.85.clone.1), metadata={op_type="Rsqrt" op_name="model/bert_pretrainer/cls/predictions/transform/LayerNorm/batchnorm/Rsqrt"}
  %multiply.260.clone.1 = f32[1216,1]{1,0} multiply(f32[1216,1]{1,0} %bitcast.283.clone.1, f32[1216,1]{1,0} %bitcast.283.clone.1), metadata={op_type="RsqrtGrad" op_name="gradient_tape/model/bert_pretrainer/cls/predictions/transform/LayerNorm/batchnorm/RsqrtGrad"}
  %multiply.259.clone.1 = f32[1216,1]{1,0} multiply(f32[1216,1]{1,0} %multiply.260.clone.1, f32[1216,1]{1,0} %bitcast.283.clone.1), metadata={op_type="RsqrtGrad" op_name="gradient_tape/model/bert_pretrainer/cls/predictions/transform/LayerNorm/batchnorm/RsqrtGrad"}
  %param_5.536 = f32[1216]{0} parameter(5)
  %constant_301_clone_1 = f32[] constant(-0.5)
  %broadcast.267.clone.1 = f32[1216]{0} broadcast(f32[] %constant_301_clone_1), dimensions={}
  %multiply.258.clone.1 = f32[1216]{0} multiply(f32[1216]{0} %param_5.536, f32[1216]{0} %broadcast.267.clone.1), metadata={op_type="RsqrtGrad" op_name="gradient_tape/model/bert_pretrainer/cls/predictions/transform/LayerNorm/batchnorm/RsqrtGrad"}
  %bitcast.282.clone.1 = f32[1216,1]{1,0} bitcast(f32[1216]{0} %multiply.258.clone.1), metadata={op_type="RsqrtGrad" op_name="gradient_tape/model/bert_pretrainer/cls/predictions/transform/LayerNorm/batchnorm/RsqrtGrad"}
  %multiply.257.clone.1 = f32[1216,1]{1,0} multiply(f32[1216,1]{1,0} %multiply.259.clone.1, f32[1216,1]{1,0} %bitcast.282.clone.1), metadata={op_type="RsqrtGrad" op_name="gradient_tape/model/bert_pretrainer/cls/predictions/transform/LayerNorm/batchnorm/RsqrtGrad"}
  %multiply.256.clone.1 = f32[1216,1]{1,0} multiply(f32[1216,1]{1,0} %broadcast.268.clone.1, f32[1216,1]{1,0} %multiply.257.clone.1), metadata={op_type="Mul" op_name="gradient_tape/model/bert_pretrainer/cls/predictions/transform/LayerNorm/moments/truediv"}
  %multiply.255.clone.1 = f32[1216,1]{1,0} multiply(f32[1216,1]{1,0} %broadcast.269.clone.1, f32[1216,1]{1,0} %multiply.256.clone.1), metadata={op_type="Mul" op_name="gradient_tape/model/bert_pretrainer/cls/predictions/transform/LayerNorm/moments/Mul"}
  %bitcast.281.clone.1 = f32[1216]{0} bitcast(f32[1216,1]{1,0} %multiply.255.clone.1), metadata={op_type="Mul" op_name="gradient_tape/model/bert_pretrainer/cls/predictions/transform/LayerNorm/moments/Mul"}
  %broadcast.266.clone.1 = f32[1216,768]{1,0} broadcast(f32[1216]{0} %bitcast.281.clone.1), dimensions={0}
  %param_4.611 = f16[1216,768]{1,0} parameter(4)
  %convert.419.clone.1 = f32[1216,768]{1,0} convert(f16[1216,768]{1,0} %param_4.611), metadata={op_type="Cast" op_name="model/bert_pretrainer/cls/predictions/transform/LayerNorm/Cast"}
  %param_3.742 = f32[1216]{0} parameter(3)
  %multiply.709.clone.1 = f32[1216]{0} multiply(f32[1216]{0} %param_3.742, f32[1216]{0} %broadcast.1287.clone.1), metadata={op_type="Mean" op_name="model/bert_pretrainer/cls/predictions/transform/LayerNorm/moments/mean"}
  %broadcast.1283.clone.1 = f32[1216,768]{1,0} broadcast(f32[1216]{0} %multiply.709.clone.1), dimensions={0}, metadata={op_type="SquaredDifference" op_name="model/bert_pretrainer/cls/predictions/transform/LayerNorm/moments/SquaredDifference"}
  %subtract.79.clone.1 = f32[1216,768]{1,0} subtract(f32[1216,768]{1,0} %convert.419.clone.1, f32[1216,768]{1,0} %broadcast.1283.clone.1), metadata={op_type="SquaredDifference" op_name="model/bert_pretrainer/cls/predictions/transform/LayerNorm/moments/SquaredDifference"}
  %multiply.253.clone.1 = f32[1216,768]{1,0} multiply(f32[1216,768]{1,0} %broadcast.266.clone.1, f32[1216,768]{1,0} %subtract.79.clone.1), metadata={op_type="Mul" op_name="gradient_tape/model/bert_pretrainer/cls/predictions/transform/LayerNorm/moments/mul_1"}
  %add.45.clone.1 = f32[1216,768]{1,0} add(f32[1216,768]{1,0} %multiply.261.clone.1, f32[1216,768]{1,0} %multiply.253.clone.1), metadata={op_type="AddN" op_name="AddN_1"}
  %param_2.938 = f32[1216]{0} parameter(2)
  %multiply.252.clone.1 = f32[1216]{0} multiply(f32[1216]{0} %broadcast.1287.clone.1, f32[1216]{0} %param_2.938), metadata={op_type="Mul" op_name="gradient_tape/model/bert_pretrainer/cls/predictions/transform/LayerNorm/moments/truediv_1"}
  %broadcast.264.clone.1 = f32[1216,768]{1,0} broadcast(f32[1216]{0} %multiply.252.clone.1), dimensions={0}
  %add.44.clone.1 = f32[1216,768]{1,0} add(f32[1216,768]{1,0} %add.45.clone.1, f32[1216,768]{1,0} %broadcast.264.clone.1), metadata={op_type="AddN" op_name="AddN_1"}
  %convert.162.clone.1 = f16[1216,768]{1,0} convert(f32[1216,768]{1,0} %add.44.clone.1), metadata={op_type="Cast" op_name="gradient_tape/model/bert_pretrainer/cls/predictions/transform/LayerNorm/Cast/Cast"}
  %constant_303_clone_1 = f16[] constant(0.5), metadata={op_type="Mul" op_name="model/bert_pretrainer/bert_encoder_1/transformer/layer_0/activation/Gelu/mul"}
  %broadcast.498.clone.1 = f16[1216,768]{1,0} broadcast(f16[] %constant_303_clone_1), dimensions={}, metadata={op_type="Mul" op_name="model/bert_pretrainer/cls/predictions/transform/dense/Gelu/mul"}
  %multiply.365.clone.1 = f16[1216,768]{1,0} multiply(f16[1216,768]{1,0} %param_1.1399, f16[1216,768]{1,0} %broadcast.498.clone.1), metadata={op_type="Mul" op_name="model/bert_pretrainer/cls/predictions/transform/dense/Gelu/mul"}
  %multiply.251.clone.1 = f16[1216,768]{1,0} multiply(f16[1216,768]{1,0} %convert.162.clone.1, f16[1216,768]{1,0} %multiply.365.clone.1), metadata={op_type="Mul" op_name="gradient_tape/model/bert_pretrainer/cls/predictions/transform/dense/Gelu/mul_3/Mul_1"}
  %constant_306_clone_1 = f16[] constant(1), metadata={op_type="Sub" op_name="model/bert_pretrainer/bert_encoder_1/transformer/layer_1/self_attention/softmax/sub"}
  %broadcast.501.clone.1 = f16[1216,768]{1,0} broadcast(f16[] %constant_306_clone_1), dimensions={}, metadata={op_type="AddV2" op_name="model/bert_pretrainer/cls/predictions/transform/dense/Gelu/add_1"}
  %param_0.1212 = f16[1216,768]{1,0} parameter(0)
  %multiply.250.clone.1 = f16[1216,768]{1,0} multiply(f16[1216,768]{1,0} %param_0.1212, f16[1216,768]{1,0} %param_0.1212), metadata={op_type="TanhGrad" op_name="gradient_tape/model/bert_pretrainer/cls/predictions/transform/dense/Gelu/TanhGrad"}
  %subtract.10.clone.1 = f16[1216,768]{1,0} subtract(f16[1216,768]{1,0} %broadcast.501.clone.1, f16[1216,768]{1,0} %multiply.250.clone.1), metadata={op_type="TanhGrad" op_name="gradient_tape/model/bert_pretrainer/cls/predictions/transform/dense/Gelu/TanhGrad"}
  %multiply.249.clone.1 = f16[1216,768]{1,0} multiply(f16[1216,768]{1,0} %multiply.251.clone.1, f16[1216,768]{1,0} %subtract.10.clone.1), metadata={op_type="TanhGrad" op_name="gradient_tape/model/bert_pretrainer/cls/predictions/transform/dense/Gelu/TanhGrad"}
  %constant_305_clone_1 = f16[] constant(0.79785), metadata={op_type="Mul" op_name="model/bert_pretrainer/bert_encoder_1/transformer/layer_0/activation/Gelu/mul_2"}
  %broadcast.499.clone.1 = f16[1216,768]{1,0} broadcast(f16[] %constant_305_clone_1), dimensions={}, metadata={op_type="Mul" op_name="model/bert_pretrainer/cls/predictions/transform/dense/Gelu/mul_2"}
  %multiply.248.clone.1 = f16[1216,768]{1,0} multiply(f16[1216,768]{1,0} %multiply.249.clone.1, f16[1216,768]{1,0} %broadcast.499.clone.1), metadata={op_type="Mul" op_name="gradient_tape/model/bert_pretrainer/cls/predictions/transform/dense/Gelu/mul_2/Mul"}
  %multiply.247.clone.1 = f16[1216,768]{1,0} multiply(f16[1216,768]{1,0} %multiply.366.clone.1, f16[1216,768]{1,0} %multiply.248.clone.1), metadata={op_type="Mul" op_name="gradient_tape/model/bert_pretrainer/cls/predictions/transform/dense/Gelu/Pow/mul"}
  %multiply.246.clone.1 = f16[1216,768]{1,0} multiply(f16[1216,768]{1,0} %broadcast.271.clone.1, f16[1216,768]{1,0} %multiply.247.clone.1), metadata={op_type="Mul" op_name="gradient_tape/model/bert_pretrainer/cls/predictions/transform/dense/Gelu/Pow/mul_1"}
  %multiply.245.clone.1 = f16[1216,768]{1,0} multiply(f16[1216,768]{1,0} %convert.162.clone.1, f16[1216,768]{1,0} %broadcast.498.clone.1), metadata={op_type="Mul" op_name="gradient_tape/model/bert_pretrainer/cls/predictions/transform/dense/Gelu/mul_3/Mul"}
  %add.88.clone.1 = f16[1216,768]{1,0} add(f16[1216,768]{1,0} %broadcast.501.clone.1, f16[1216,768]{1,0} %param_0.1212), metadata={op_type="AddV2" op_name="model/bert_pretrainer/cls/predictions/transform/dense/Gelu/add_1"}
  %multiply.244.clone.1 = f16[1216,768]{1,0} multiply(f16[1216,768]{1,0} %multiply.245.clone.1, f16[1216,768]{1,0} %add.88.clone.1), metadata={op_type="Mul" op_name="gradient_tape/model/bert_pretrainer/cls/predictions/transform/dense/Gelu/mul/Mul"}
  %add.43.clone.1 = f16[1216,768]{1,0} add(f16[1216,768]{1,0} %multiply.246.clone.1, f16[1216,768]{1,0} %multiply.244.clone.1), metadata={op_type="AddN" op_name="AddN_2"}
  %add.42.clone.1 = f16[1216,768]{1,0} add(f16[1216,768]{1,0} %add.43.clone.1, f16[1216,768]{1,0} %multiply.248.clone.1), metadata={op_type="AddN" op_name="AddN_2"}
  %convert.34 = f32[1216,768]{1,0} convert(f16[1216,768]{1,0} %add.42.clone.1), metadata={op_type="BiasAddGrad" op_name="gradient_tape/model/bert_pretrainer/cls/predictions/transform/dense/BiasAdd/BiasAddGrad"}
  %constant_298 = f32[] constant(0), metadata={op_type="Sum" op_name="model/bert_pretrain_loss_and_metric_layer/Sum_3"}
  %reduce.126 = f32[768]{0} reduce(f32[1216,768]{1,0} %convert.34, f32[] %constant_298), dimensions={0}, to_apply=%add_float_.1128, metadata={op_type="BiasAddGrad" op_name="gradient_tape/model/bert_pretrainer/cls/predictions/transform/dense/BiasAdd/BiasAddGrad"}
  %reduce.122.clone.1 = f32[768]{0} reduce(f32[1216,768]{1,0} %convert.163.clone.1, f32[] %constant_298), dimensions={0}, to_apply=%gradient_tape_model_bert_pretrainer_cls_predictions_transform_LayerNorm_batchnorm_sub_Sum-reduction.1904, metadata={op_type="Sum" op_name="gradient_tape/model/bert_pretrainer/cls/predictions/transform/LayerNorm/batchnorm/sub/Sum"}
  %multiply.737.clone.1 = f32[1216,768]{1,0} multiply(f32[1216,768]{1,0} %convert.163.clone.1, f32[1216,768]{1,0} %convert.419.clone.1), metadata={op_type="Mul" op_name="gradient_tape/model/bert_pretrainer/cls/predictions/transform/LayerNorm/batchnorm/mul_1/Mul_1"}
  %negate.18.clone.1 = f32[1216,768]{1,0} negate(f32[1216,768]{1,0} %convert.163.clone.1), metadata={op_type="Neg" op_name="gradient_tape/model/bert_pretrainer/cls/predictions/transform/LayerNorm/batchnorm/sub/Neg"}
  %multiply.735.clone.1 = f32[1216,768]{1,0} multiply(f32[1216,768]{1,0} %negate.18.clone.1, f32[1216,768]{1,0} %broadcast.1283.clone.1), metadata={op_type="Mul" op_name="gradient_tape/model/bert_pretrainer/cls/predictions/transform/LayerNorm/batchnorm/mul_2/Mul_1"}
  %add.309.clone.1 = f32[1216,768]{1,0} add(f32[1216,768]{1,0} %multiply.737.clone.1, f32[1216,768]{1,0} %multiply.735.clone.1), metadata={op_type="AddN" op_name="AddN"}
  %multiply.99.clone.1 = f32[1216,768]{1,0} multiply(f32[1216,768]{1,0} %add.309.clone.1, f32[1216,768]{1,0} %broadcast.496.clone.1), metadata={op_type="Mul" op_name="gradient_tape/model/bert_pretrainer/cls/predictions/transform/LayerNorm/batchnorm/mul/Mul_1"}
  %reduce.124.clone.1 = f32[768]{0} reduce(f32[1216,768]{1,0} %multiply.99.clone.1, f32[] %constant_298), dimensions={0}, to_apply=%gradient_tape_model_bert_pretrainer_cls_predictions_transform_LayerNorm_batchnorm_mul_Sum_1-reduction.1895, metadata={op_type="Sum" op_name="gradient_tape/model/bert_pretrainer/cls/predictions/transform/LayerNorm/batchnorm/mul/Sum_1"}
  ROOT %tuple.28 = (f32[768]{0}, f16[1216,768]{1,0}, f32[768]{0}, f32[768]{0}) tuple(f32[768]{0} %reduce.126, f16[1216,768]{1,0} %add.42.clone.1, f32[768]{0} %reduce.122.clone.1, f32[768]{0} %reduce.124.clone.1)
}

%All_42-reduction.2366 (x.2367: pred[], y.2368: pred[]) -> pred[] {
  %x.2367 = pred[] parameter(0)
  %y.2368 = pred[] parameter(1)
  ROOT %and.2369 = pred[] and(pred[] %x.2367, pred[] %y.2368)
}

%All_5-reduction.2426 (x.2427: pred[], y.2428: pred[]) -> pred[] {
  %x.2427 = pred[] parameter(0)
  %y.2428 = pred[] parameter(1)
  ROOT %and.2429 = pred[] and(pred[] %x.2427, pred[] %y.2428)
}

%All_7-reduction.2450 (x.2451: pred[], y.2452: pred[]) -> pred[] {
  %x.2451 = pred[] parameter(0)
  %y.2452 = pred[] parameter(1)
  ROOT %and.2453 = pred[] and(pred[] %x.2451, pred[] %y.2452)
}

%All_9-reduction.1934 (x.1935: pred[], y.1936: pred[]) -> pred[] {
  %x.1935 = pred[] parameter(0)
  %y.1936 = pred[] parameter(1)
  ROOT %and.1937 = pred[] and(pred[] %x.1935, pred[] %y.1936)
}

%All_27-reduction.2162 (x.2163: pred[], y.2164: pred[]) -> pred[] {
  %x.2163 = pred[] parameter(0)
  %y.2164 = pred[] parameter(1)
  ROOT %and.2165 = pred[] and(pred[] %x.2163, pred[] %y.2164)
}

%All_37-reduction.2294 (x.2295: pred[], y.2296: pred[]) -> pred[] {
  %x.2295 = pred[] parameter(0)
  %y.2296 = pred[] parameter(1)
  ROOT %and.2297 = pred[] and(pred[] %x.2295, pred[] %y.2296)
}

%All_21-reduction.2090 (x.2091: pred[], y.2092: pred[]) -> pred[] {
  %x.2091 = pred[] parameter(0)
  %y.2092 = pred[] parameter(1)
  ROOT %and.2093 = pred[] and(pred[] %x.2091, pred[] %y.2092)
}

%All_25-reduction.2138 (x.2139: pred[], y.2140: pred[]) -> pred[] {
  %x.2139 = pred[] parameter(0)
  %y.2140 = pred[] parameter(1)
  ROOT %and.2141 = pred[] and(pred[] %x.2139, pred[] %y.2140)
}

%All_11-reduction.1958 (x.1959: pred[], y.1960: pred[]) -> pred[] {
  %x.1959 = pred[] parameter(0)
  %y.1960 = pred[] parameter(1)
  ROOT %and.1961 = pred[] and(pred[] %x.1959, pred[] %y.1960)
}

%All_23-reduction.2114 (x.2115: pred[], y.2116: pred[]) -> pred[] {
  %x.2115 = pred[] parameter(0)
  %y.2116 = pred[] parameter(1)
  ROOT %and.2117 = pred[] and(pred[] %x.2115, pred[] %y.2116)
}

%fused_computation.19 (param_0.793: f32[768,768], param_1.1465: f32[768,12,64], param_2.1041: f32[768,12,64], param_3.851: f32[768,12,64], param_4.689: f32[12,64,768], param_5.621: f32[768,768], param_6.607: f32[768,12,64], param_7.513: f32[768,12,64], param_8.436: f32[12,64,768], param_9.378: f32[768,12,64]) -> (pred[], pred[], pred[], pred[], pred[], pred[], pred[], pred[], pred[], pred[]) {
  %param_0.793 = f32[768,768]{1,0} parameter(0)
  %is-finite.4 = pred[768,768]{1,0} is-finite(f32[768,768]{1,0} %param_0.793), metadata={op_type="IsFinite" op_name="IsFinite_42"}
  %bitcast.170 = pred[589824]{0} bitcast(pred[768,768]{1,0} %is-finite.4)
  %constant_293 = pred[] constant(true), metadata={op_type="All" op_name="All"}
  %reduce.127 = pred[] reduce(pred[589824]{0} %bitcast.170, pred[] %constant_293), dimensions={0}, to_apply=%All_42-reduction.2366, metadata={op_type="All" op_name="All_42"}
  %param_1.1465 = f32[768,12,64]{2,1,0} parameter(1)
  %is-finite.40.clone.1 = pred[768,12,64]{2,1,0} is-finite(f32[768,12,64]{2,1,0} %param_1.1465), metadata={op_type="IsFinite" op_name="IsFinite_5"}
  %bitcast.228.clone.1 = pred[589824]{0} bitcast(pred[768,12,64]{2,1,0} %is-finite.40.clone.1)
  %reduce.184.clone.1 = pred[] reduce(pred[589824]{0} %bitcast.228.clone.1, pred[] %constant_293), dimensions={0}, to_apply=%All_5-reduction.2426, metadata={op_type="All" op_name="All_5"}
  %param_2.1041 = f32[768,12,64]{2,1,0} parameter(2)
  %is-finite.38.clone.1 = pred[768,12,64]{2,1,0} is-finite(f32[768,12,64]{2,1,0} %param_2.1041), metadata={op_type="IsFinite" op_name="IsFinite_7"}
  %bitcast.223.clone.1 = pred[589824]{0} bitcast(pred[768,12,64]{2,1,0} %is-finite.38.clone.1)
  %reduce.181.clone.1 = pred[] reduce(pred[589824]{0} %bitcast.223.clone.1, pred[] %constant_293), dimensions={0}, to_apply=%All_7-reduction.2450, metadata={op_type="All" op_name="All_7"}
  %param_3.851 = f32[768,12,64]{2,1,0} parameter(3)
  %is-finite.36.clone.1 = pred[768,12,64]{2,1,0} is-finite(f32[768,12,64]{2,1,0} %param_3.851), metadata={op_type="IsFinite" op_name="IsFinite_9"}
  %bitcast.218.clone.1 = pred[589824]{0} bitcast(pred[768,12,64]{2,1,0} %is-finite.36.clone.1)
  %reduce.178.clone.1 = pred[] reduce(pred[589824]{0} %bitcast.218.clone.1, pred[] %constant_293), dimensions={0}, to_apply=%All_9-reduction.1934, metadata={op_type="All" op_name="All_9"}
  %param_4.689 = f32[12,64,768]{2,1,0} parameter(4)
  %is-finite.18.clone.1 = pred[12,64,768]{2,1,0} is-finite(f32[12,64,768]{2,1,0} %param_4.689), metadata={op_type="IsFinite" op_name="IsFinite_27"}
  %bitcast.184.clone.1 = pred[589824]{0} bitcast(pred[12,64,768]{2,1,0} %is-finite.18.clone.1)
  %reduce.151.clone.1 = pred[] reduce(pred[589824]{0} %bitcast.184.clone.1, pred[] %constant_293), dimensions={0}, to_apply=%All_27-reduction.2162, metadata={op_type="All" op_name="All_27"}
  %param_5.621 = f32[768,768]{1,0} parameter(5)
  %is-finite.8.clone.1 = pred[768,768]{1,0} is-finite(f32[768,768]{1,0} %param_5.621), metadata={op_type="IsFinite" op_name="IsFinite_37"}
  %bitcast.172.clone.1 = pred[589824]{0} bitcast(pred[768,768]{1,0} %is-finite.8.clone.1)
  %reduce.134.clone.1 = pred[] reduce(pred[589824]{0} %bitcast.172.clone.1, pred[] %constant_293), dimensions={0}, to_apply=%All_37-reduction.2294, metadata={op_type="All" op_name="All_37"}
  %param_6.607 = f32[768,12,64]{2,1,0} parameter(6)
  %is-finite.24.clone.1 = pred[768,12,64]{2,1,0} is-finite(f32[768,12,64]{2,1,0} %param_6.607), metadata={op_type="IsFinite" op_name="IsFinite_21"}
  %bitcast.199.clone.1 = pred[589824]{0} bitcast(pred[768,12,64]{2,1,0} %is-finite.24.clone.1)
  %reduce.159.clone.1 = pred[] reduce(pred[589824]{0} %bitcast.199.clone.1, pred[] %constant_293), dimensions={0}, to_apply=%All_21-reduction.2090, metadata={op_type="All" op_name="All_21"}
  %param_7.513 = f32[768,12,64]{2,1,0} parameter(7)
  %is-finite.20.clone.1 = pred[768,12,64]{2,1,0} is-finite(f32[768,12,64]{2,1,0} %param_7.513), metadata={op_type="IsFinite" op_name="IsFinite_25"}
  %bitcast.189.clone.1 = pred[589824]{0} bitcast(pred[768,12,64]{2,1,0} %is-finite.20.clone.1)
  %reduce.153.clone.1 = pred[] reduce(pred[589824]{0} %bitcast.189.clone.1, pred[] %constant_293), dimensions={0}, to_apply=%All_25-reduction.2138, metadata={op_type="All" op_name="All_25"}
  %param_8.436 = f32[12,64,768]{2,1,0} parameter(8)
  %is-finite.34.clone.1 = pred[12,64,768]{2,1,0} is-finite(f32[12,64,768]{2,1,0} %param_8.436), metadata={op_type="IsFinite" op_name="IsFinite_11"}
  %bitcast.213.clone.1 = pred[589824]{0} bitcast(pred[12,64,768]{2,1,0} %is-finite.34.clone.1)
  %reduce.176.clone.1 = pred[] reduce(pred[589824]{0} %bitcast.213.clone.1, pred[] %constant_293), dimensions={0}, to_apply=%All_11-reduction.1958, metadata={op_type="All" op_name="All_11"}
  %param_9.378 = f32[768,12,64]{2,1,0} parameter(9)
  %is-finite.22.clone.1 = pred[768,12,64]{2,1,0} is-finite(f32[768,12,64]{2,1,0} %param_9.378), metadata={op_type="IsFinite" op_name="IsFinite_23"}
  %bitcast.194.clone.1 = pred[589824]{0} bitcast(pred[768,12,64]{2,1,0} %is-finite.22.clone.1)
  %reduce.156.clone.1 = pred[] reduce(pred[589824]{0} %bitcast.194.clone.1, pred[] %constant_293), dimensions={0}, to_apply=%All_23-reduction.2114, metadata={op_type="All" op_name="All_23"}
  ROOT %tuple.109 = (pred[], pred[], pred[], pred[], pred[], pred[], pred[], pred[], pred[], pred[]) tuple(pred[] %reduce.127, pred[] %reduce.184.clone.1, pred[] %reduce.181.clone.1, pred[] %reduce.178.clone.1, pred[] %reduce.151.clone.1, pred[] %reduce.134.clone.1, pred[] %reduce.159.clone.1, pred[] %reduce.153.clone.1, pred[] %reduce.176.clone.1, pred[] %reduce.156.clone.1)
}

%All_41-reduction.2354 (x.2355: pred[], y.2356: pred[]) -> pred[] {
  %x.2355 = pred[] parameter(0)
  %y.2356 = pred[] parameter(1)
  ROOT %and.2357 = pred[] and(pred[] %x.2355, pred[] %y.2356)
}

%fused_computation.21 (param_0.1206: f32[], param_1.1386: f32[30522]) -> (pred[], f32[30522]) {
  %param_1.1386 = f32[30522]{0} parameter(1)
  %convert.37.clone.1 = f16[30522]{0} convert(f32[30522]{0} %param_1.1386), metadata={op_type="BiasAddGrad" op_name="gradient_tape/model/bert_pretrainer/cls/predictions/BiasAdd/BiasAddGrad"}
  %convert.36.clone.1 = f32[30522]{0} convert(f16[30522]{0} %convert.37.clone.1), metadata={op_type="Cast" op_name="gradient_tape/model/bert_pretrainer/cls/predictions/BiasAdd/Cast/Cast"}
  %constant_291_clone_1 = f32[] constant(1), metadata={op_type="SparseSoftmaxCrossEntropyWithLogits" op_name="model/bert_pretrain_loss_and_metric_layer/SparseSoftmaxCrossEntropyWithLogits/SparseSoftmaxCrossEntropyWithLogits"}
  %param_0.1206 = f32[] parameter(0)
  %divide.58.clone.1 = f32[] divide(f32[] %constant_291_clone_1, f32[] %param_0.1206), metadata={op_type="Reciprocal" op_name="truediv"}
  %broadcast.230.clone.1 = f32[30522]{0} broadcast(f32[] %divide.58.clone.1), dimensions={}, metadata={op_type="Mul" op_name="mul_42"}
  %multiply.102.clone.1 = f32[30522]{0} multiply(f32[30522]{0} %convert.36.clone.1, f32[30522]{0} %broadcast.230.clone.1), metadata={op_type="Mul" op_name="mul_42"}
  %is-finite.5 = pred[30522]{0} is-finite(f32[30522]{0} %multiply.102.clone.1), metadata={op_type="IsFinite" op_name="IsFinite_41"}
  %constant_290 = pred[] constant(true), metadata={op_type="All" op_name="All"}
  %reduce.128 = pred[] reduce(pred[30522]{0} %is-finite.5, pred[] %constant_290), dimensions={0}, to_apply=%All_41-reduction.2354, metadata={op_type="All" op_name="All_41"}
  ROOT %tuple.24 = (pred[], f32[30522]{0}) tuple(pred[] %reduce.128, f32[30522]{0} %multiply.102.clone.1)
}

%add_float_.1039 (x.1040: f32[], y.1041: f32[]) -> f32[] {
  %x.1040 = f32[] parameter(0)
  %y.1041 = f32[] parameter(1)
  ROOT %add.1042 = f32[] add(f32[] %x.1040, f32[] %y.1041)
}

%fused_computation.23 (param_0.1075: s32[16,76], param_1.1174: f32[1216,30522], param_2.719: f32[1216], param_3.499: f32[16,76], param_4.356: f32[], param_5.303: f32[]) -> f32[30522] {
  %param_5.303 = f32[] parameter(5)
  %constant_292 = f32[] constant(0), metadata={op_type="Sum" op_name="model/bert_pretrain_loss_and_metric_layer/Sum_3"}
  %compare.77 = pred[] compare(f32[] %param_5.303, f32[] %constant_292), direction=EQ, metadata={op_type="DivNoNan" op_name="gradient_tape/model/bert_pretrain_loss_and_metric_layer/div_no_nan/div_no_nan"}
  %param_4.356 = f32[] parameter(4)
  %divide.80 = f32[] divide(f32[] %param_4.356, f32[] %param_5.303), metadata={op_type="DivNoNan" op_name="gradient_tape/model/bert_pretrain_loss_and_metric_layer/div_no_nan/div_no_nan"}
  %select.80 = f32[] select(pred[] %compare.77, f32[] %constant_292, f32[] %divide.80), metadata={op_type="DivNoNan" op_name="gradient_tape/model/bert_pretrain_loss_and_metric_layer/div_no_nan/div_no_nan"}
  %broadcast.1344 = f32[16,76]{1,0} broadcast(f32[] %select.80), dimensions={}, metadata={op_type="Tile" op_name="gradient_tape/model/bert_pretrain_loss_and_metric_layer/Tile_1"}
  %param_3.499 = f32[16,76]{1,0} parameter(3)
  %convert.466 = s32[16,76]{1,0} convert(f32[16,76]{1,0} %param_3.499), metadata={op_type="Cast" op_name="model/Cast"}
  %convert.465 = f32[16,76]{1,0} convert(s32[16,76]{1,0} %convert.466), metadata={op_type="Cast" op_name="model/bert_pretrain_loss_and_metric_layer/Cast"}
  %multiply.721 = f32[16,76]{1,0} multiply(f32[16,76]{1,0} %broadcast.1344, f32[16,76]{1,0} %convert.465), metadata={op_type="Mul" op_name="gradient_tape/model/bert_pretrain_loss_and_metric_layer/mul/Mul"}
  %bitcast.360 = f32[1216]{0} bitcast(f32[16,76]{1,0} %multiply.721), metadata={op_type="Mul" op_name="gradient_tape/model/bert_pretrain_loss_and_metric_layer/SparseSoftmaxCrossEntropyWithLogits/mul"}
  %broadcast.1343 = f32[1216,30522]{1,0} broadcast(f32[1216]{0} %bitcast.360), dimensions={0}, metadata={op_type="Mul" op_name="gradient_tape/model/bert_pretrain_loss_and_metric_layer/SparseSoftmaxCrossEntropyWithLogits/mul"}
  %param_1.1174 = f32[1216,30522]{1,0} parameter(1)
  %param_2.719 = f32[1216]{0} parameter(2)
  %broadcast.1342 = f32[1216,30522]{1,0} broadcast(f32[1216]{0} %param_2.719), dimensions={0}, metadata={op_type="SparseSoftmaxCrossEntropyWithLogits" op_name="model/bert_pretrain_loss_and_metric_layer/SparseSoftmaxCrossEntropyWithLogits/SparseSoftmaxCrossEntropyWithLogits"}
  %divide.79 = f32[1216,30522]{1,0} divide(f32[1216,30522]{1,0} %param_1.1174, f32[1216,30522]{1,0} %broadcast.1342), metadata={op_type="SparseSoftmaxCrossEntropyWithLogits" op_name="model/bert_pretrain_loss_and_metric_layer/SparseSoftmaxCrossEntropyWithLogits/SparseSoftmaxCrossEntropyWithLogits"}
  %param_0.1075 = s32[16,76]{1,0} parameter(0)
  %convert.464 = f32[16,76]{1,0} convert(s32[16,76]{1,0} %param_0.1075), metadata={op_type="Cast" op_name="model/bert_pretrain_loss_and_metric_layer/Cast_2"}
  %convert.463 = s64[16,76]{1,0} convert(f32[16,76]{1,0} %convert.464), metadata={op_type="Cast" op_name="model/bert_pretrain_loss_and_metric_layer/ArithmeticOptimizer/ReorderCastLikeAndValuePreserving_int64_Cast_3"}
  %bitcast.359 = s64[1216]{0} bitcast(s64[16,76]{1,0} %convert.463), metadata={op_type="Cast" op_name="model/bert_pretrain_loss_and_metric_layer/ArithmeticOptimizer/ReorderCastLikeAndValuePreserving_int64_Cast_3"}
  %broadcast.1341 = s64[1216,30522]{1,0} broadcast(s64[1216]{0} %bitcast.359), dimensions={0}, metadata={op_type="SparseSoftmaxCrossEntropyWithLogits" op_name="model/bert_pretrain_loss_and_metric_layer/SparseSoftmaxCrossEntropyWithLogits/SparseSoftmaxCrossEntropyWithLogits"}
  %iota.10 = s64[1216,30522]{1,0} iota(), iota_dimension=1, metadata={op_type="SparseSoftmaxCrossEntropyWithLogits" op_name="model/bert_pretrain_loss_and_metric_layer/SparseSoftmaxCrossEntropyWithLogits/SparseSoftmaxCrossEntropyWithLogits"}
  %compare.76 = pred[1216,30522]{1,0} compare(s64[1216,30522]{1,0} %broadcast.1341, s64[1216,30522]{1,0} %iota.10), direction=EQ, metadata={op_type="SparseSoftmaxCrossEntropyWithLogits" op_name="model/bert_pretrain_loss_and_metric_layer/SparseSoftmaxCrossEntropyWithLogits/SparseSoftmaxCrossEntropyWithLogits"}
  %constant_930 = f32[] constant(1), metadata={op_type="SparseSoftmaxCrossEntropyWithLogits" op_name="model/bert_pretrain_loss_and_metric_layer/SparseSoftmaxCrossEntropyWithLogits/SparseSoftmaxCrossEntropyWithLogits"}
  %broadcast.1340 = f32[1216,30522]{1,0} broadcast(f32[] %constant_930), dimensions={}, metadata={op_type="SparseSoftmaxCrossEntropyWithLogits" op_name="model/bert_pretrain_loss_and_metric_layer/SparseSoftmaxCrossEntropyWithLogits/SparseSoftmaxCrossEntropyWithLogits"}
  %broadcast.1339 = f32[1216,30522]{1,0} broadcast(f32[] %constant_292), dimensions={}, metadata={op_type="SparseSoftmaxCrossEntropyWithLogits" op_name="model/bert_pretrain_loss_and_metric_layer/SparseSoftmaxCrossEntropyWithLogits/SparseSoftmaxCrossEntropyWithLogits"}
  %select.79 = f32[1216,30522]{1,0} select(pred[1216,30522]{1,0} %compare.76, f32[1216,30522]{1,0} %broadcast.1340, f32[1216,30522]{1,0} %broadcast.1339), metadata={op_type="SparseSoftmaxCrossEntropyWithLogits" op_name="model/bert_pretrain_loss_and_metric_layer/SparseSoftmaxCrossEntropyWithLogits/SparseSoftmaxCrossEntropyWithLogits"}
  %constant_928 = s64[] constant(0), metadata={op_type="SparseSoftmaxCrossEntropyWithLogits" op_name="model/bert_pretrain_loss_and_metric_layer/SparseSoftmaxCrossEntropyWithLogits/SparseSoftmaxCrossEntropyWithLogits"}
  %broadcast.1338 = s64[1216]{0} broadcast(s64[] %constant_928), dimensions={}, metadata={op_type="SparseSoftmaxCrossEntropyWithLogits" op_name="model/bert_pretrain_loss_and_metric_layer/SparseSoftmaxCrossEntropyWithLogits/SparseSoftmaxCrossEntropyWithLogits"}
  %compare.75 = pred[1216]{0} compare(s64[1216]{0} %broadcast.1338, s64[1216]{0} %bitcast.359), direction=LE, metadata={op_type="SparseSoftmaxCrossEntropyWithLogits" op_name="model/bert_pretrain_loss_and_metric_layer/SparseSoftmaxCrossEntropyWithLogits/SparseSoftmaxCrossEntropyWithLogits"}
  %constant_927 = s64[] constant(30522), metadata={op_type="SparseSoftmaxCrossEntropyWithLogits" op_name="model/bert_pretrain_loss_and_metric_layer/SparseSoftmaxCrossEntropyWithLogits/SparseSoftmaxCrossEntropyWithLogits"}
  %broadcast.1337 = s64[1216]{0} broadcast(s64[] %constant_927), dimensions={}, metadata={op_type="SparseSoftmaxCrossEntropyWithLogits" op_name="model/bert_pretrain_loss_and_metric_layer/SparseSoftmaxCrossEntropyWithLogits/SparseSoftmaxCrossEntropyWithLogits"}
  %compare.74 = pred[1216]{0} compare(s64[1216]{0} %bitcast.359, s64[1216]{0} %broadcast.1337), direction=LT, metadata={op_type="SparseSoftmaxCrossEntropyWithLogits" op_name="model/bert_pretrain_loss_and_metric_layer/SparseSoftmaxCrossEntropyWithLogits/SparseSoftmaxCrossEntropyWithLogits"}
  %and.97 = pred[1216]{0} and(pred[1216]{0} %compare.75, pred[1216]{0} %compare.74), metadata={op_type="SparseSoftmaxCrossEntropyWithLogits" op_name="model/bert_pretrain_loss_and_metric_layer/SparseSoftmaxCrossEntropyWithLogits/SparseSoftmaxCrossEntropyWithLogits"}
  %broadcast.1336 = f32[1216]{0} broadcast(f32[] %constant_292), dimensions={}, metadata={op_type="SparseSoftmaxCrossEntropyWithLogits" op_name="model/bert_pretrain_loss_and_metric_layer/SparseSoftmaxCrossEntropyWithLogits/SparseSoftmaxCrossEntropyWithLogits"}
  %constant_926 = f32[] constant(nan), metadata={op_type="SparseSoftmaxCrossEntropyWithLogits" op_name="model/bert_pretrain_loss_and_metric_layer/SparseSoftmaxCrossEntropyWithLogits/SparseSoftmaxCrossEntropyWithLogits"}
  %broadcast.1335 = f32[1216]{0} broadcast(f32[] %constant_926), dimensions={}, metadata={op_type="SparseSoftmaxCrossEntropyWithLogits" op_name="model/bert_pretrain_loss_and_metric_layer/SparseSoftmaxCrossEntropyWithLogits/SparseSoftmaxCrossEntropyWithLogits"}
  %select.78 = f32[1216]{0} select(pred[1216]{0} %and.97, f32[1216]{0} %broadcast.1336, f32[1216]{0} %broadcast.1335), metadata={op_type="SparseSoftmaxCrossEntropyWithLogits" op_name="model/bert_pretrain_loss_and_metric_layer/SparseSoftmaxCrossEntropyWithLogits/SparseSoftmaxCrossEntropyWithLogits"}
  %broadcast.1333 = f32[1216,30522]{1,0} broadcast(f32[1216]{0} %select.78), dimensions={0}, metadata={op_type="SparseSoftmaxCrossEntropyWithLogits" op_name="model/bert_pretrain_loss_and_metric_layer/SparseSoftmaxCrossEntropyWithLogits/SparseSoftmaxCrossEntropyWithLogits"}
  %add.303 = f32[1216,30522]{1,0} add(f32[1216,30522]{1,0} %select.79, f32[1216,30522]{1,0} %broadcast.1333), metadata={op_type="SparseSoftmaxCrossEntropyWithLogits" op_name="model/bert_pretrain_loss_and_metric_layer/SparseSoftmaxCrossEntropyWithLogits/SparseSoftmaxCrossEntropyWithLogits"}
  %subtract.85 = f32[1216,30522]{1,0} subtract(f32[1216,30522]{1,0} %divide.79, f32[1216,30522]{1,0} %add.303), metadata={op_type="SparseSoftmaxCrossEntropyWithLogits" op_name="model/bert_pretrain_loss_and_metric_layer/SparseSoftmaxCrossEntropyWithLogits/SparseSoftmaxCrossEntropyWithLogits"}
  %multiply.720 = f32[1216,30522]{1,0} multiply(f32[1216,30522]{1,0} %broadcast.1343, f32[1216,30522]{1,0} %subtract.85), metadata={op_type="Mul" op_name="gradient_tape/model/bert_pretrain_loss_and_metric_layer/SparseSoftmaxCrossEntropyWithLogits/mul"}
  %convert.462 = f16[1216,30522]{1,0} convert(f32[1216,30522]{1,0} %multiply.720), metadata={op_type="Cast" op_name="gradient_tape/model/bert_pretrain_loss_and_metric_layer/Cast_1/ArithmeticOptimizer/ReorderCastLikeAndValuePreserving_float_Cast"}
  %convert.38 = f32[1216,30522]{1,0} convert(f16[1216,30522]{1,0} %convert.462), metadata={op_type="BiasAddGrad" op_name="gradient_tape/model/bert_pretrainer/cls/predictions/BiasAdd/BiasAddGrad"}
  ROOT %reduce.129 = f32[30522]{0} reduce(f32[1216,30522]{1,0} %convert.38, f32[] %constant_292), dimensions={0}, to_apply=%add_float_.1039, metadata={op_type="BiasAddGrad" op_name="gradient_tape/model/bert_pretrainer/cls/predictions/BiasAdd/BiasAddGrad"}
}

%add_float_.982 (x.983: f32[], y.984: f32[]) -> f32[] {
  %x.983 = f32[] parameter(0)
  %y.984 = f32[] parameter(1)
  ROOT %add.985 = f32[] add(f32[] %x.983, f32[] %y.984)
}

%fused_computation.24 (param_0.783: f16[16,2], param_1.867: f32[]) -> f32[2] {
  %param_0.783 = f16[16,2]{1,0} parameter(0)
  %convert.41 = f32[16,2]{1,0} convert(f16[16,2]{1,0} %param_0.783), metadata={op_type="BiasAddGrad" op_name="gradient_tape/model/bert_pretrainer/classification/predictions/transform/logits/BiasAdd/BiasAddGrad"}
  %constant_281 = f32[] constant(0), metadata={op_type="Sum" op_name="model/bert_pretrain_loss_and_metric_layer/Sum_3"}
  %reduce.130 = f32[2]{0} reduce(f32[16,2]{1,0} %convert.41, f32[] %constant_281), dimensions={0}, to_apply=%add_float_.982, metadata={op_type="BiasAddGrad" op_name="gradient_tape/model/bert_pretrainer/classification/predictions/transform/logits/BiasAdd/BiasAddGrad"}
  %convert.40 = f16[2]{0} convert(f32[2]{0} %reduce.130), metadata={op_type="BiasAddGrad" op_name="gradient_tape/model/bert_pretrainer/classification/predictions/transform/logits/BiasAdd/BiasAddGrad"}
  %convert.39 = f32[2]{0} convert(f16[2]{0} %convert.40), metadata={op_type="Cast" op_name="gradient_tape/model/bert_pretrainer/classification/predictions/transform/logits/BiasAdd/Cast/Cast"}
  %constant_282 = f32[] constant(1), metadata={op_type="SparseSoftmaxCrossEntropyWithLogits" op_name="model/bert_pretrain_loss_and_metric_layer/SparseSoftmaxCrossEntropyWithLogits/SparseSoftmaxCrossEntropyWithLogits"}
  %param_1.867 = f32[] parameter(1)
  %divide.57 = f32[] divide(f32[] %constant_282, f32[] %param_1.867), metadata={op_type="Reciprocal" op_name="truediv"}
  %broadcast.231 = f32[2]{0} broadcast(f32[] %divide.57), dimensions={}, metadata={op_type="Mul" op_name="mul_41"}
  ROOT %multiply.103 = f32[2]{0} multiply(f32[2]{0} %convert.39, f32[2]{0} %broadcast.231), metadata={op_type="Mul" op_name="mul_41"}
}

%fused_computation.26 (param_0.781: f16[768,8], param_1.864: f32[]) -> f32[768,2] {
  %param_0.781 = f16[768,8]{1,0} parameter(0)
  %slice.8 = f16[768,2]{1,0} slice(f16[768,8]{1,0} %param_0.781), slice={[0:768], [0:2]}, metadata={op_type="MatMul" op_name="gradient_tape/model/bert_pretrainer/classification/predictions/transform/logits/MatMul_1"}
  %convert.42 = f32[768,2]{1,0} convert(f16[768,2]{1,0} %slice.8), metadata={op_type="Cast" op_name="gradient_tape/model/bert_pretrainer/classification/predictions/transform/logits/MatMul/Cast/Cast"}
  %constant_280 = f32[] constant(1), metadata={op_type="SparseSoftmaxCrossEntropyWithLogits" op_name="model/bert_pretrain_loss_and_metric_layer/SparseSoftmaxCrossEntropyWithLogits/SparseSoftmaxCrossEntropyWithLogits"}
  %param_1.864 = f32[] parameter(1)
  %divide.56 = f32[] divide(f32[] %constant_280, f32[] %param_1.864), metadata={op_type="Reciprocal" op_name="truediv"}
  %broadcast.232 = f32[768,2]{1,0} broadcast(f32[] %divide.56), dimensions={}, metadata={op_type="Mul" op_name="mul_40"}
  ROOT %multiply.104 = f32[768,2]{1,0} multiply(f32[768,2]{1,0} %convert.42, f32[768,2]{1,0} %broadcast.232), metadata={op_type="Mul" op_name="mul_40"}
}

%fused_computation.30 (param_0.776: f16[768,768], param_1.859: f32[], param_2.969: f16[768,768]) -> (f32[768,768], f32[768,768]) {
  %param_0.776 = f16[768,768]{1,0} parameter(0)
  %convert.46 = f32[768,768]{1,0} convert(f16[768,768]{1,0} %param_0.776), metadata={op_type="Cast" op_name="gradient_tape/model/bert_pretrainer/bert_encoder_1/pooler_transform/MatMul/Cast/Cast"}
  %constant_274 = f32[] constant(1), metadata={op_type="SparseSoftmaxCrossEntropyWithLogits" op_name="model/bert_pretrain_loss_and_metric_layer/SparseSoftmaxCrossEntropyWithLogits/SparseSoftmaxCrossEntropyWithLogits"}
  %param_1.859 = f32[] parameter(1)
  %divide.54 = f32[] divide(f32[] %constant_274, f32[] %param_1.859), metadata={op_type="Reciprocal" op_name="truediv"}
  %broadcast.489 = f32[768,768]{1,0} broadcast(f32[] %divide.54), dimensions={}, metadata={op_type="Mul" op_name="mul_6"}
  %multiply.106 = f32[768,768]{1,0} multiply(f32[768,768]{1,0} %convert.46, f32[768,768]{1,0} %broadcast.489), metadata={op_type="Mul" op_name="mul_38"}
  %param_2.969 = f16[768,768]{1,0} parameter(2)
  %convert.35.clone.1 = f32[768,768]{1,0} convert(f16[768,768]{1,0} %param_2.969), metadata={op_type="Cast" op_name="gradient_tape/model/bert_pretrainer/cls/predictions/transform/dense/MatMul/Cast/Cast"}
  %multiply.101.clone.1 = f32[768,768]{1,0} multiply(f32[768,768]{1,0} %convert.35.clone.1, f32[768,768]{1,0} %broadcast.489), metadata={op_type="Mul" op_name="mul_43"}
  ROOT %tuple.73 = (f32[768,768]{1,0}, f32[768,768]{1,0}) tuple(f32[768,768]{1,0} %multiply.106, f32[768,768]{1,0} %multiply.101.clone.1)
}

%fused_computation.40 (param_0.77: f16[16,512,768]) -> f16[768,8192] {
  %param_0.77 = f16[16,512,768]{2,1,0} parameter(0)
  %transpose.120 = f16[768,16,512]{0,2,1} transpose(f16[16,512,768]{2,1,0} %param_0.77), dimensions={2,0,1}
  ROOT %bitcast.177 = f16[768,8192]{0,1} bitcast(f16[768,16,512]{0,2,1} %transpose.120)
}

%All_31-reduction.2222 (x.2223: pred[], y.2224: pred[]) -> pred[] {
  %x.2223 = pred[] parameter(0)
  %y.2224 = pred[] parameter(1)
  ROOT %and.2225 = pred[] and(pred[] %x.2223, pred[] %y.2224)
}

%All_15-reduction.2006 (x.2007: pred[], y.2008: pred[]) -> pred[] {
  %x.2007 = pred[] parameter(0)
  %y.2008 = pred[] parameter(1)
  ROOT %and.2009 = pred[] and(pred[] %x.2007, pred[] %y.2008)
}

%All_33-reduction.2246 (x.2247: pred[], y.2248: pred[]) -> pred[] {
  %x.2247 = pred[] parameter(0)
  %y.2248 = pred[] parameter(1)
  ROOT %and.2249 = pred[] and(pred[] %x.2247, pred[] %y.2248)
}

%All_17-reduction.2030 (x.2031: pred[], y.2032: pred[]) -> pred[] {
  %x.2031 = pred[] parameter(0)
  %y.2032 = pred[] parameter(1)
  ROOT %and.2033 = pred[] and(pred[] %x.2031, pred[] %y.2032)
}

%fused_computation.44 (param_0.747: f32[768,3072], param_1.1468: f32[768,3072], param_2.1045: f32[3072,768], param_3.855: f32[3072,768]) -> (pred[], pred[], pred[], pred[]) {
  %param_0.747 = f32[768,3072]{1,0} parameter(0)
  %is-finite.14 = pred[768,3072]{1,0} is-finite(f32[768,3072]{1,0} %param_0.747), metadata={op_type="IsFinite" op_name="IsFinite_31"}
  %bitcast.179 = pred[2359296]{0} bitcast(pred[768,3072]{1,0} %is-finite.14)
  %constant_235 = pred[] constant(true), metadata={op_type="All" op_name="All"}
  %reduce.144 = pred[] reduce(pred[2359296]{0} %bitcast.179, pred[] %constant_235), dimensions={0}, to_apply=%All_31-reduction.2222, metadata={op_type="All" op_name="All_31"}
  %param_1.1468 = f32[768,3072]{1,0} parameter(1)
  %is-finite.30.clone.1 = pred[768,3072]{1,0} is-finite(f32[768,3072]{1,0} %param_1.1468), metadata={op_type="IsFinite" op_name="IsFinite_15"}
  %bitcast.208.clone.1 = pred[2359296]{0} bitcast(pred[768,3072]{1,0} %is-finite.30.clone.1)
  %reduce.169.clone.1 = pred[] reduce(pred[2359296]{0} %bitcast.208.clone.1, pred[] %constant_235), dimensions={0}, to_apply=%All_15-reduction.2006, metadata={op_type="All" op_name="All_15"}
  %param_2.1045 = f32[3072,768]{1,0} parameter(2)
  %is-finite.12.clone.1 = pred[3072,768]{1,0} is-finite(f32[3072,768]{1,0} %param_2.1045), metadata={op_type="IsFinite" op_name="IsFinite_33"}
  %bitcast.176.clone.1 = pred[2359296]{0} bitcast(pred[3072,768]{1,0} %is-finite.12.clone.1)
  %reduce.141.clone.1 = pred[] reduce(pred[2359296]{0} %bitcast.176.clone.1, pred[] %constant_235), dimensions={0}, to_apply=%All_33-reduction.2246, metadata={op_type="All" op_name="All_33"}
  %param_3.855 = f32[3072,768]{1,0} parameter(3)
  %is-finite.28.clone.1 = pred[3072,768]{1,0} is-finite(f32[3072,768]{1,0} %param_3.855), metadata={op_type="IsFinite" op_name="IsFinite_17"}
  %bitcast.205.clone.1 = pred[2359296]{0} bitcast(pred[3072,768]{1,0} %is-finite.28.clone.1)
  %reduce.166.clone.1 = pred[] reduce(pred[2359296]{0} %bitcast.205.clone.1, pred[] %constant_235), dimensions={0}, to_apply=%All_17-reduction.2030, metadata={op_type="All" op_name="All_17"}
  ROOT %tuple.112 = (pred[], pred[], pred[], pred[]) tuple(pred[] %reduce.144, pred[] %reduce.169.clone.1, pred[] %reduce.141.clone.1, pred[] %reduce.166.clone.1)
}

%fused_computation.46 (param_0.89: f16[16,512,3072]) -> f16[3072,8192] {
  %param_0.89 = f16[16,512,3072]{2,1,0} parameter(0)
  %transpose.121 = f16[3072,16,512]{0,2,1} transpose(f16[16,512,3072]{2,1,0} %param_0.89), dimensions={2,0,1}
  ROOT %bitcast.180 = f16[3072,8192]{0,1} bitcast(f16[3072,16,512]{0,2,1} %transpose.121)
}

%gradient_tape_model_bert_pretrainer_bert_encoder_1_transformer_layer_1_self_attention_layer_norm_batchnorm_mul_Sum_1-reduction.1844 (x.1845: f32[], y.1846: f32[]) -> f32[] {
  %x.1845 = f32[] parameter(0)
  %y.1846 = f32[] parameter(1)
  ROOT %add.1847 = f32[] add(f32[] %x.1845, f32[] %y.1846)
}

%gradient_tape_model_bert_pretrainer_bert_encoder_1_transformer_layer_1_self_attention_layer_norm_batchnorm_sub_Sum-reduction.1853 (x.1854: f32[], y.1855: f32[]) -> f32[] {
  %x.1854 = f32[] parameter(0)
  %y.1855 = f32[] parameter(1)
  ROOT %add.1856 = f32[] add(f32[] %x.1854, f32[] %y.1855)
}

%gradient_tape_model_bert_pretrainer_bert_encoder_1_transformer_layer_1_output_layer_norm_batchnorm_mul_Sum_1-reduction.1871 (x.1872: f32[], y.1873: f32[]) -> f32[] {
  %x.1872 = f32[] parameter(0)
  %y.1873 = f32[] parameter(1)
  ROOT %add.1874 = f32[] add(f32[] %x.1872, f32[] %y.1873)
}

%gradient_tape_model_bert_pretrainer_bert_encoder_1_transformer_layer_1_output_layer_norm_batchnorm_sub_Sum-reduction.1880 (x.1881: f32[], y.1882: f32[]) -> f32[] {
  %x.1881 = f32[] parameter(0)
  %y.1882 = f32[] parameter(1)
  ROOT %add.1883 = f32[] add(f32[] %x.1881, f32[] %y.1882)
}

%fused_computation.50 (param_0.1122: f32[16,512], param_1.1237: f32[16,512], param_2.802: f32[16,512,768], param_3.592: f16[16,512,768], param_4.659: f32[16,512], param_5.591: f32[16,512], param_6.576: f32[768], param_7.485: f32[768], param_8.411: f16[8192,768], param_9.356: f32[768], param_10.280: f16[16,512,768], param_11.224: f16[16,768], param_12.165: f16[8192,768]) -> (f32[768], f32[768], f32[768], f32[768]) {
  %param_2.802 = f32[16,512,768]{2,1,0} parameter(2)
  %param_3.592 = f16[16,512,768]{2,1,0} parameter(3)
  %convert.574 = f32[16,512,768]{2,1,0} convert(f16[16,512,768]{2,1,0} %param_3.592), metadata={op_type="Cast" op_name="model/bert_pretrainer/bert_encoder_1/transformer/layer_1/Cast"}
  %multiply.832 = f32[16,512,768]{2,1,0} multiply(f32[16,512,768]{2,1,0} %param_2.802, f32[16,512,768]{2,1,0} %convert.574), metadata={op_type="Mul" op_name="gradient_tape/model/bert_pretrainer/bert_encoder_1/transformer/layer_1/self_attention_layer_norm/batchnorm/mul_1/Mul_1"}
  %negate.26 = f32[16,512,768]{2,1,0} negate(f32[16,512,768]{2,1,0} %param_2.802), metadata={op_type="Neg" op_name="gradient_tape/model/bert_pretrainer/bert_encoder_1/transformer/layer_1/self_attention_layer_norm/batchnorm/sub/Neg"}
  %param_1.1237 = f32[16,512]{1,0} parameter(1)
  %constant_710 = f32[] constant(0.00130208337), metadata={op_type="Mul" op_name="gradient_tape/model/bert_pretrainer/cls/predictions/transform/LayerNorm/moments/truediv_1"}
  %broadcast.1543 = f32[16,512]{1,0} broadcast(f32[] %constant_710), dimensions={}
  %multiply.831 = f32[16,512]{1,0} multiply(f32[16,512]{1,0} %param_1.1237, f32[16,512]{1,0} %broadcast.1543), metadata={op_type="Mean" op_name="model/bert_pretrainer/bert_encoder_1/transformer/layer_1/self_attention_layer_norm/moments/mean"}
  %broadcast.1542 = f32[16,512,768]{2,1,0} broadcast(f32[16,512]{1,0} %multiply.831), dimensions={0,1}, metadata={op_type="SquaredDifference" op_name="model/bert_pretrainer/bert_encoder_1/transformer/layer_1/self_attention_layer_norm/moments/SquaredDifference"}
  %multiply.830 = f32[16,512,768]{2,1,0} multiply(f32[16,512,768]{2,1,0} %negate.26, f32[16,512,768]{2,1,0} %broadcast.1542), metadata={op_type="Mul" op_name="gradient_tape/model/bert_pretrainer/bert_encoder_1/transformer/layer_1/self_attention_layer_norm/batchnorm/mul_2/Mul_1"}
  %add.383 = f32[16,512,768]{2,1,0} add(f32[16,512,768]{2,1,0} %multiply.832, f32[16,512,768]{2,1,0} %multiply.830), metadata={op_type="AddN" op_name="AddN_8"}
  %param_0.1122 = f32[16,512]{1,0} parameter(0)
  %multiply.552 = f32[16,512]{1,0} multiply(f32[16,512]{1,0} %param_0.1122, f32[16,512]{1,0} %broadcast.1543), metadata={op_type="Mean" op_name="model/bert_pretrainer/bert_encoder_1/transformer/layer_1/self_attention_layer_norm/moments/variance"}
  %constant_709 = f32[] constant(1e-12), metadata={op_type="AddV2" op_name="model/bert_pretrainer/bert_encoder_1/embeddings/layer_norm/batchnorm/add"}
  %broadcast.1000 = f32[16,512]{1,0} broadcast(f32[] %constant_709), dimensions={}, metadata={op_type="AddV2" op_name="model/bert_pretrainer/bert_encoder_1/embeddings/layer_norm/batchnorm/add"}
  %add.196 = f32[16,512]{1,0} add(f32[16,512]{1,0} %multiply.552, f32[16,512]{1,0} %broadcast.1000), metadata={op_type="AddV2" op_name="model/bert_pretrainer/bert_encoder_1/transformer/layer_1/self_attention_layer_norm/batchnorm/add"}
  %rsqrt.55 = f32[16,512]{1,0} rsqrt(f32[16,512]{1,0} %add.196), metadata={op_type="Rsqrt" op_name="model/bert_pretrainer/bert_encoder_1/transformer/layer_1/self_attention_layer_norm/batchnorm/Rsqrt"}
  %broadcast.453 = f32[16,512,768]{2,1,0} broadcast(f32[16,512]{1,0} %rsqrt.55), dimensions={0,1}, metadata={op_type="Mul" op_name="model/bert_pretrainer/bert_encoder_1/transformer/layer_1/self_attention_layer_norm/batchnorm/mul"}
  %multiply.113 = f32[16,512,768]{2,1,0} multiply(f32[16,512,768]{2,1,0} %add.383, f32[16,512,768]{2,1,0} %broadcast.453), metadata={op_type="Mul" op_name="gradient_tape/model/bert_pretrainer/bert_encoder_1/transformer/layer_1/self_attention_layer_norm/batchnorm/mul/Mul_1"}
  %bitcast.182 = f32[8192,768]{1,0} bitcast(f32[16,512,768]{2,1,0} %multiply.113)
  %constant_230 = f32[] constant(0), metadata={op_type="Sum" op_name="model/bert_pretrain_loss_and_metric_layer/Sum_3"}
  %reduce.148 = f32[768]{0} reduce(f32[8192,768]{1,0} %bitcast.182, f32[] %constant_230), dimensions={0}, to_apply=%gradient_tape_model_bert_pretrainer_bert_encoder_1_transformer_layer_1_self_attention_layer_norm_batchnorm_mul_Sum_1-reduction.1844, metadata={op_type="Sum" op_name="gradient_tape/model/bert_pretrainer/bert_encoder_1/transformer/layer_1/self_attention_layer_norm/batchnorm/mul/Sum_1"}
  %bitcast.181.clone.1 = f32[8192,768]{1,0} bitcast(f32[16,512,768]{2,1,0} %param_2.802)
  %reduce.146.clone.1 = f32[768]{0} reduce(f32[8192,768]{1,0} %bitcast.181.clone.1, f32[] %constant_230), dimensions={0}, to_apply=%gradient_tape_model_bert_pretrainer_bert_encoder_1_transformer_layer_1_self_attention_layer_norm_batchnorm_sub_Sum-reduction.1853, metadata={op_type="Sum" op_name="gradient_tape/model/bert_pretrainer/bert_encoder_1/transformer/layer_1/self_attention_layer_norm/batchnorm/sub/Sum"}
  %param_12.165 = f16[8192,768]{1,0} parameter(12)
  %convert.540.clone.1 = f32[8192,768]{1,0} convert(f16[8192,768]{1,0} %param_12.165), metadata={op_type="Cast" op_name="gradient_tape/model/bert_pretrainer/Cast/Cast"}
  %bitcast.384.clone.1 = f32[16,512,768]{2,1,0} bitcast(f32[8192,768]{1,0} %convert.540.clone.1), metadata={op_type="Cast" op_name="gradient_tape/model/bert_pretrainer/Cast/Cast"}
  %param_11.224 = f16[16,768]{1,0} parameter(11)
  %convert.539.clone.1 = f32[16,768]{1,0} convert(f16[16,768]{1,0} %param_11.224), metadata={op_type="Cast" op_name="gradient_tape/model/bert_pretrainer/bert_encoder_1/Cast_3/Cast"}
  %bitcast.383.clone.1 = f32[16,1,768]{2,1,0} bitcast(f32[16,768]{1,0} %convert.539.clone.1), metadata={op_type="StridedSliceGrad" op_name="gradient_tape/model/bert_pretrainer/bert_encoder_1/tf.__operators__.getitem/strided_slice/StridedSliceGrad"}
  %pad.29.clone.1 = f32[16,512,768]{2,1,0} pad(f32[16,1,768]{2,1,0} %bitcast.383.clone.1, f32[] %constant_230), padding=0_0x0_511x0_0, metadata={op_type="StridedSliceGrad" op_name="gradient_tape/model/bert_pretrainer/bert_encoder_1/tf.__operators__.getitem/strided_slice/StridedSliceGrad"}
  %add.335.clone.1 = f32[16,512,768]{2,1,0} add(f32[16,512,768]{2,1,0} %bitcast.384.clone.1, f32[16,512,768]{2,1,0} %pad.29.clone.1), metadata={op_type="AddN" op_name="AddN_3"}
  %bitcast.173.clone.1 = f32[8192,768]{1,0} bitcast(f32[16,512,768]{2,1,0} %add.335.clone.1)
  %reduce.136.clone.1 = f32[768]{0} reduce(f32[8192,768]{1,0} %bitcast.173.clone.1, f32[] %constant_230), dimensions={0}, to_apply=%gradient_tape_model_bert_pretrainer_bert_encoder_1_transformer_layer_1_output_layer_norm_batchnorm_sub_Sum-reduction.1880, metadata={op_type="Sum" op_name="gradient_tape/model/bert_pretrainer/bert_encoder_1/transformer/layer_1/output_layer_norm/batchnorm/sub/Sum"}
  %param_10.280 = f16[16,512,768]{2,1,0} parameter(10)
  %constant_1037_clone_1_clone_1 = f16[] constant(0.099976), metadata={op_type="GreaterEqual" op_name="model/bert_pretrainer/bert_encoder_1/dropout/dropout/GreaterEqual"}
  %broadcast.1487.clone.1.clone.1 = f16[16,512,768]{2,1,0} broadcast(f16[] %constant_1037_clone_1_clone_1), dimensions={}, metadata={op_type="GreaterEqual" op_name="model/bert_pretrainer/bert_encoder_1/transformer/layer_1/dropout_2/dropout/GreaterEqual"}
  %compare.101.clone.1.clone.1 = pred[16,512,768]{2,1,0} compare(f16[16,512,768]{2,1,0} %param_10.280, f16[16,512,768]{2,1,0} %broadcast.1487.clone.1.clone.1), direction=GE, metadata={op_type="GreaterEqual" op_name="model/bert_pretrainer/bert_encoder_1/transformer/layer_1/dropout_2/dropout/GreaterEqual"}
  %constant_1036_clone_1_clone_1 = f16[] constant(1.1113), metadata={op_type="Mul" op_name="model/bert_pretrainer/bert_encoder_1/dropout/dropout/Mul"}
  %broadcast.1486.clone.1.clone.1 = f16[16,512,768]{2,1,0} broadcast(f16[] %constant_1036_clone_1_clone_1), dimensions={}, metadata={op_type="Mul" op_name="model/bert_pretrainer/bert_encoder_1/transformer/layer_1/dropout_2/dropout/Mul"}
  %constant_1035_clone_1_clone_1 = f16[] constant(0), metadata={op_type="GreaterEqual" op_name="model/bert_pretrainer/bert_encoder_1/transformer/layer_0/dropout_1/dropout/GreaterEqual"}
  %broadcast.1485.clone.1.clone.1 = f16[16,512,768]{2,1,0} broadcast(f16[] %constant_1035_clone_1_clone_1), dimensions={}
  %select.98.clone.1.clone.1 = f16[16,512,768]{2,1,0} select(pred[16,512,768]{2,1,0} %compare.101.clone.1.clone.1, f16[16,512,768]{2,1,0} %broadcast.1486.clone.1.clone.1, f16[16,512,768]{2,1,0} %broadcast.1485.clone.1.clone.1), metadata={op_type="Mul" op_name="model/bert_pretrainer/bert_encoder_1/transformer/layer_1/dropout_2/dropout/Mul"}
  %param_9.356 = f32[768]{0} parameter(9)
  %convert.560.clone.1.clone.1 = f16[768]{0} convert(f32[768]{0} %param_9.356), metadata={op_type="Cast" op_name="model/bert_pretrainer/bert_encoder_1/transformer/layer_1/output/add/Cast"}
  %broadcast.1484.clone.1.clone.1 = f16[16,512,768]{2,1,0} broadcast(f16[768]{0} %convert.560.clone.1.clone.1), dimensions={2}, metadata={op_type="AddV2" op_name="model/bert_pretrainer/bert_encoder_1/transformer/layer_1/output/add"}
  %param_8.411 = f16[8192,768]{1,0} parameter(8)
  %bitcast.394.clone.1.clone.1 = f16[16,512,768]{2,1,0} bitcast(f16[8192,768]{1,0} %param_8.411), metadata={op_type="Einsum" op_name="model/bert_pretrainer/bert_encoder_1/transformer/layer_1/output/einsum/Einsum"}
  %add.360.clone.1.clone.1 = f16[16,512,768]{2,1,0} add(f16[16,512,768]{2,1,0} %broadcast.1484.clone.1.clone.1, f16[16,512,768]{2,1,0} %bitcast.394.clone.1.clone.1), metadata={op_type="AddV2" op_name="model/bert_pretrainer/bert_encoder_1/transformer/layer_1/output/add"}
  %multiply.775.clone.1.clone.1 = f16[16,512,768]{2,1,0} multiply(f16[16,512,768]{2,1,0} %select.98.clone.1.clone.1, f16[16,512,768]{2,1,0} %add.360.clone.1.clone.1), metadata={op_type="Mul" op_name="model/bert_pretrainer/bert_encoder_1/transformer/layer_1/dropout_2/dropout/Mul_1"}
  %convert.559.clone.1.clone.1 = f32[16,512,768]{2,1,0} convert(f16[16,512,768]{2,1,0} %multiply.775.clone.1.clone.1), metadata={op_type="Cast" op_name="model/bert_pretrainer/bert_encoder_1/transformer/layer_1/Cast_2"}
  %param_7.485 = f32[768]{0} parameter(7)
  %broadcast.1479.clone.1.clone.1 = f32[16,512,768]{2,1,0} broadcast(f32[768]{0} %param_7.485), dimensions={2}, metadata={op_type="Mul" op_name="model/bert_pretrainer/bert_encoder_1/transformer/layer_1/self_attention_layer_norm/batchnorm/mul"}
  %multiply.772.clone.1.clone.1 = f32[16,512,768]{2,1,0} multiply(f32[16,512,768]{2,1,0} %broadcast.453, f32[16,512,768]{2,1,0} %broadcast.1479.clone.1.clone.1), metadata={op_type="Mul" op_name="model/bert_pretrainer/bert_encoder_1/transformer/layer_1/self_attention_layer_norm/batchnorm/mul"}
  %multiply.771.clone.1.clone.1 = f32[16,512,768]{2,1,0} multiply(f32[16,512,768]{2,1,0} %convert.574, f32[16,512,768]{2,1,0} %multiply.772.clone.1.clone.1), metadata={op_type="Mul" op_name="model/bert_pretrainer/bert_encoder_1/transformer/layer_1/self_attention_layer_norm/batchnorm/mul_1"}
  %param_6.576 = f32[768]{0} parameter(6)
  %broadcast.1478.clone.1.clone.1 = f32[16,512,768]{2,1,0} broadcast(f32[768]{0} %param_6.576), dimensions={2}, metadata={op_type="Sub" op_name="model/bert_pretrainer/bert_encoder_1/transformer/layer_1/self_attention_layer_norm/batchnorm/sub"}
  %multiply.769.clone.1.clone.1 = f32[16,512,768]{2,1,0} multiply(f32[16,512,768]{2,1,0} %multiply.772.clone.1.clone.1, f32[16,512,768]{2,1,0} %broadcast.1542), metadata={op_type="Mul" op_name="model/bert_pretrainer/bert_encoder_1/transformer/layer_1/self_attention_layer_norm/batchnorm/mul_2"}
  %subtract.95.clone.1.clone.1 = f32[16,512,768]{2,1,0} subtract(f32[16,512,768]{2,1,0} %broadcast.1478.clone.1.clone.1, f32[16,512,768]{2,1,0} %multiply.769.clone.1.clone.1), metadata={op_type="Sub" op_name="model/bert_pretrainer/bert_encoder_1/transformer/layer_1/self_attention_layer_norm/batchnorm/sub"}
  %add.357.clone.1.clone.1 = f32[16,512,768]{2,1,0} add(f32[16,512,768]{2,1,0} %multiply.771.clone.1.clone.1, f32[16,512,768]{2,1,0} %subtract.95.clone.1.clone.1), metadata={op_type="AddV2" op_name="model/bert_pretrainer/bert_encoder_1/transformer/layer_1/self_attention_layer_norm/batchnorm/add_1"}
  %add.356.clone.1.clone.1 = f32[16,512,768]{2,1,0} add(f32[16,512,768]{2,1,0} %convert.559.clone.1.clone.1, f32[16,512,768]{2,1,0} %add.357.clone.1.clone.1), metadata={op_type="AddV2" op_name="model/bert_pretrainer/bert_encoder_1/transformer/layer_1/add_1"}
  %multiply.768.clone.1.clone.1 = f32[16,512,768]{2,1,0} multiply(f32[16,512,768]{2,1,0} %add.335.clone.1, f32[16,512,768]{2,1,0} %add.356.clone.1.clone.1), metadata={op_type="Mul" op_name="gradient_tape/model/bert_pretrainer/bert_encoder_1/transformer/layer_1/output_layer_norm/batchnorm/mul_1/Mul_1"}
  %negate.22.clone.1.clone.1 = f32[16,512,768]{2,1,0} negate(f32[16,512,768]{2,1,0} %add.335.clone.1), metadata={op_type="Neg" op_name="gradient_tape/model/bert_pretrainer/bert_encoder_1/transformer/layer_1/output_layer_norm/batchnorm/sub/Neg"}
  %param_5.591 = f32[16,512]{1,0} parameter(5)
  %multiply.767.clone.1.clone.1 = f32[16,512]{1,0} multiply(f32[16,512]{1,0} %param_5.591, f32[16,512]{1,0} %broadcast.1543), metadata={op_type="Mean" op_name="model/bert_pretrainer/bert_encoder_1/transformer/layer_1/output_layer_norm/moments/mean"}
  %broadcast.1474.clone.1.clone.1 = f32[16,512,768]{2,1,0} broadcast(f32[16,512]{1,0} %multiply.767.clone.1.clone.1), dimensions={0,1}, metadata={op_type="SquaredDifference" op_name="model/bert_pretrainer/bert_encoder_1/transformer/layer_1/output_layer_norm/moments/SquaredDifference"}
  %multiply.766.clone.1.clone.1 = f32[16,512,768]{2,1,0} multiply(f32[16,512,768]{2,1,0} %negate.22.clone.1.clone.1, f32[16,512,768]{2,1,0} %broadcast.1474.clone.1.clone.1), metadata={op_type="Mul" op_name="gradient_tape/model/bert_pretrainer/bert_encoder_1/transformer/layer_1/output_layer_norm/batchnorm/mul_2/Mul_1"}
  %add.355.clone.1.clone.1 = f32[16,512,768]{2,1,0} add(f32[16,512,768]{2,1,0} %multiply.768.clone.1.clone.1, f32[16,512,768]{2,1,0} %multiply.766.clone.1.clone.1), metadata={op_type="AddN" op_name="AddN_4"}
  %param_4.659 = f32[16,512]{1,0} parameter(4)
  %multiply.647.clone.1.clone.1 = f32[16,512]{1,0} multiply(f32[16,512]{1,0} %param_4.659, f32[16,512]{1,0} %broadcast.1543), metadata={op_type="Mean" op_name="model/bert_pretrainer/bert_encoder_1/transformer/layer_1/output_layer_norm/moments/variance"}
  %add.253.clone.1.clone.1 = f32[16,512]{1,0} add(f32[16,512]{1,0} %multiply.647.clone.1.clone.1, f32[16,512]{1,0} %broadcast.1000), metadata={op_type="AddV2" op_name="model/bert_pretrainer/bert_encoder_1/transformer/layer_1/output_layer_norm/batchnorm/add"}
  %rsqrt.75.clone.1.clone.1 = f32[16,512]{1,0} rsqrt(f32[16,512]{1,0} %add.253.clone.1.clone.1), metadata={op_type="Rsqrt" op_name="model/bert_pretrainer/bert_encoder_1/transformer/layer_1/output_layer_norm/batchnorm/Rsqrt"}
  %broadcast.486.clone.1.clone.1 = f32[16,512,768]{2,1,0} broadcast(f32[16,512]{1,0} %rsqrt.75.clone.1.clone.1), dimensions={0,1}, metadata={op_type="Mul" op_name="model/bert_pretrainer/bert_encoder_1/transformer/layer_1/output_layer_norm/batchnorm/mul"}
  %multiply.107.clone.1.clone.1 = f32[16,512,768]{2,1,0} multiply(f32[16,512,768]{2,1,0} %add.355.clone.1.clone.1, f32[16,512,768]{2,1,0} %broadcast.486.clone.1.clone.1), metadata={op_type="Mul" op_name="gradient_tape/model/bert_pretrainer/bert_encoder_1/transformer/layer_1/output_layer_norm/batchnorm/mul/Mul_1"}
  %bitcast.174.clone.1.clone.1 = f32[8192,768]{1,0} bitcast(f32[16,512,768]{2,1,0} %multiply.107.clone.1.clone.1)
  %reduce.138.clone.1.clone.1 = f32[768]{0} reduce(f32[8192,768]{1,0} %bitcast.174.clone.1.clone.1, f32[] %constant_230), dimensions={0}, to_apply=%gradient_tape_model_bert_pretrainer_bert_encoder_1_transformer_layer_1_output_layer_norm_batchnorm_mul_Sum_1-reduction.1871, metadata={op_type="Sum" op_name="gradient_tape/model/bert_pretrainer/bert_encoder_1/transformer/layer_1/output_layer_norm/batchnorm/mul/Sum_1"}
  ROOT %tuple.80 = (f32[768]{0}, f32[768]{0}, f32[768]{0}, f32[768]{0}) tuple(f32[768]{0} %reduce.148, f32[768]{0} %reduce.146.clone.1, f32[768]{0} %reduce.136.clone.1, f32[768]{0} %reduce.138.clone.1.clone.1)
}

%fused_computation.56 (param_0.112: f16[16,512,768]) -> f16[768,8192] {
  %param_0.112 = f16[16,512,768]{2,1,0} parameter(0)
  %transpose.123 = f16[768,16,512]{0,2,1} transpose(f16[16,512,768]{2,1,0} %param_0.112), dimensions={2,0,1}
  ROOT %bitcast.186 = f16[768,8192]{0,1} bitcast(f16[768,16,512]{0,2,1} %transpose.123)
}

%fused_computation.62 (param_0.128: f16[16,12,64,512]) -> f16[768,8192] {
  %param_0.128 = f16[16,12,64,512]{3,2,1,0} parameter(0)
  %transpose.125 = f16[12,64,16,512]{3,1,0,2} transpose(f16[16,12,64,512]{3,2,1,0} %param_0.128), dimensions={1,2,0,3}
  %copy.84 = f16[12,64,16,512]{3,2,1,0} copy(f16[12,64,16,512]{3,1,0,2} %transpose.125)
  ROOT %bitcast.191 = f16[768,8192]{1,0} bitcast(f16[12,64,16,512]{3,2,1,0} %copy.84)
}

%fused_computation.68 (param_0.144: f16[16,12,512,64]) -> f16[768,8192] {
  %param_0.144 = f16[16,12,512,64]{3,2,1,0} parameter(0)
  %transpose.127 = f16[12,64,16,512]{1,3,0,2} transpose(f16[16,12,512,64]{3,2,1,0} %param_0.144), dimensions={1,3,0,2}
  %copy.86 = f16[12,64,16,512]{3,2,1,0} copy(f16[12,64,16,512]{1,3,0,2} %transpose.127)
  ROOT %bitcast.196 = f16[768,8192]{1,0} bitcast(f16[12,64,16,512]{3,2,1,0} %copy.86)
}

%All_22-reduction.2102 (x.2103: pred[], y.2104: pred[]) -> pred[] {
  %x.2103 = pred[] parameter(0)
  %y.2104 = pred[] parameter(1)
  ROOT %and.2105 = pred[] and(pred[] %x.2103, pred[] %y.2104)
}

%All_26-reduction.2150 (x.2151: pred[], y.2152: pred[]) -> pred[] {
  %x.2151 = pred[] parameter(0)
  %y.2152 = pred[] parameter(1)
  ROOT %and.2153 = pred[] and(pred[] %x.2151, pred[] %y.2152)
}

%All_6-reduction.2438 (x.2439: pred[], y.2440: pred[]) -> pred[] {
  %x.2439 = pred[] parameter(0)
  %y.2440 = pred[] parameter(1)
  ROOT %and.2441 = pred[] and(pred[] %x.2439, pred[] %y.2440)
}

%All_10-reduction.1946 (x.1947: pred[], y.1948: pred[]) -> pred[] {
  %x.1947 = pred[] parameter(0)
  %y.1948 = pred[] parameter(1)
  ROOT %and.1949 = pred[] and(pred[] %x.1947, pred[] %y.1948)
}

%All_24-reduction.2126 (x.2127: pred[], y.2128: pred[]) -> pred[] {
  %x.2127 = pred[] parameter(0)
  %y.2128 = pred[] parameter(1)
  ROOT %and.2129 = pred[] and(pred[] %x.2127, pred[] %y.2128)
}

%All_8-reduction.2462 (x.2463: pred[], y.2464: pred[]) -> pred[] {
  %x.2463 = pred[] parameter(0)
  %y.2464 = pred[] parameter(1)
  ROOT %and.2465 = pred[] and(pred[] %x.2463, pred[] %y.2464)
}

%All_45-reduction.2402 (x.2403: pred[], y.2404: pred[]) -> pred[] {
  %x.2403 = pred[] parameter(0)
  %y.2404 = pred[] parameter(1)
  ROOT %and.2405 = pred[] and(pred[] %x.2403, pred[] %y.2404)
}

%All_44-reduction.2390 (x.2391: pred[], y.2392: pred[]) -> pred[] {
  %x.2391 = pred[] parameter(0)
  %y.2392 = pred[] parameter(1)
  ROOT %and.2393 = pred[] and(pred[] %x.2391, pred[] %y.2392)
}

%All_36-reduction.2282 (x.2283: pred[], y.2284: pred[]) -> pred[] {
  %x.2283 = pred[] parameter(0)
  %y.2284 = pred[] parameter(1)
  ROOT %and.2285 = pred[] and(pred[] %x.2283, pred[] %y.2284)
}

%All_35-reduction.2270 (x.2271: pred[], y.2272: pred[]) -> pred[] {
  %x.2271 = pred[] parameter(0)
  %y.2272 = pred[] parameter(1)
  ROOT %and.2273 = pred[] and(pred[] %x.2271, pred[] %y.2272)
}

%All_30-reduction.2210 (x.2211: pred[], y.2212: pred[]) -> pred[] {
  %x.2211 = pred[] parameter(0)
  %y.2212 = pred[] parameter(1)
  ROOT %and.2213 = pred[] and(pred[] %x.2211, pred[] %y.2212)
}

%All_29-reduction.2198 (x.2199: pred[], y.2200: pred[]) -> pred[] {
  %x.2199 = pred[] parameter(0)
  %y.2200 = pred[] parameter(1)
  ROOT %and.2201 = pred[] and(pred[] %x.2199, pred[] %y.2200)
}

%All_20-reduction.2078 (x.2079: pred[], y.2080: pred[]) -> pred[] {
  %x.2079 = pred[] parameter(0)
  %y.2080 = pred[] parameter(1)
  ROOT %and.2081 = pred[] and(pred[] %x.2079, pred[] %y.2080)
}

%All_19-reduction.2066 (x.2067: pred[], y.2068: pred[]) -> pred[] {
  %x.2067 = pred[] parameter(0)
  %y.2068 = pred[] parameter(1)
  ROOT %and.2069 = pred[] and(pred[] %x.2067, pred[] %y.2068)
}

%All_14-reduction.1994 (x.1995: pred[], y.1996: pred[]) -> pred[] {
  %x.1995 = pred[] parameter(0)
  %y.1996 = pred[] parameter(1)
  ROOT %and.1997 = pred[] and(pred[] %x.1995, pred[] %y.1996)
}

%All_13-reduction.1982 (x.1983: pred[], y.1984: pred[]) -> pred[] {
  %x.1983 = pred[] parameter(0)
  %y.1984 = pred[] parameter(1)
  ROOT %and.1985 = pred[] and(pred[] %x.1983, pred[] %y.1984)
}

%All_4-reduction.2414 (x.2415: pred[], y.2416: pred[]) -> pred[] {
  %x.2415 = pred[] parameter(0)
  %y.2416 = pred[] parameter(1)
  ROOT %and.2417 = pred[] and(pred[] %x.2415, pred[] %y.2416)
}

%All_3-reduction.2318 (x.2319: pred[], y.2320: pred[]) -> pred[] {
  %x.2319 = pred[] parameter(0)
  %y.2320 = pred[] parameter(1)
  ROOT %and.2321 = pred[] and(pred[] %x.2319, pred[] %y.2320)
}

%All_43-reduction.2378 (x.2379: pred[], y.2380: pred[]) -> pred[] {
  %x.2379 = pred[] parameter(0)
  %y.2380 = pred[] parameter(1)
  ROOT %and.2381 = pred[] and(pred[] %x.2379, pred[] %y.2380)
}

%All_38-reduction.2306 (x.2307: pred[], y.2308: pred[]) -> pred[] {
  %x.2307 = pred[] parameter(0)
  %y.2308 = pred[] parameter(1)
  ROOT %and.2309 = pred[] and(pred[] %x.2307, pred[] %y.2308)
}

%add_float_.1000 (x.1001: f32[], y.1002: f32[]) -> f32[] {
  %x.1001 = f32[] parameter(0)
  %y.1002 = f32[] parameter(1)
  ROOT %add.1003 = f32[] add(f32[] %x.1001, f32[] %y.1002)
}

%All_34-reduction.2258 (x.2259: pred[], y.2260: pred[]) -> pred[] {
  %x.2259 = pred[] parameter(0)
  %y.2260 = pred[] parameter(1)
  ROOT %and.2261 = pred[] and(pred[] %x.2259, pred[] %y.2260)
}

%All_28-reduction.2174 (x.2175: pred[], y.2176: pred[]) -> pred[] {
  %x.2175 = pred[] parameter(0)
  %y.2176 = pred[] parameter(1)
  ROOT %and.2177 = pred[] and(pred[] %x.2175, pred[] %y.2176)
}

%All_18-reduction.2042 (x.2043: pred[], y.2044: pred[]) -> pred[] {
  %x.2043 = pred[] parameter(0)
  %y.2044 = pred[] parameter(1)
  ROOT %and.2045 = pred[] and(pred[] %x.2043, pred[] %y.2044)
}

%All_12-reduction.1970 (x.1971: pred[], y.1972: pred[]) -> pred[] {
  %x.1971 = pred[] parameter(0)
  %y.1972 = pred[] parameter(1)
  ROOT %and.1973 = pred[] and(pred[] %x.1971, pred[] %y.1972)
}

%fused_computation.69 (param_0.713: f32[12,64], param_1.1459: f32[12,64], param_2.1036: f32[12,64], param_3.847: f32[12,64], param_4.685: f32[12,64], param_5.617: f32[12,64], param_6.603: f32[768], param_7.509: f32[768], param_8.432: f32[768], param_9.374: f32[768], param_10.298: f32[768], param_11.244: f32[768], param_12.189: f32[768], param_13.135: f32[768], param_14.83: f32[768], param_15.62: f32[768], param_16.47: f32[768], param_17.38: f32[768], param_18.35: f32[768], param_19.36: f16[16,768], param_20.35: f32[768], param_21.33: f32[768], param_22.30: f32[768], param_23.29: f32[], param_24.30: f32[768]) -> (pred[], pred[], pred[], pred[], pred[], pred[], pred[], f32[768], pred[], f32[768], pred[], f32[768], pred[], f32[768], pred[], f32[768], pred[], f32[768], pred[], pred[], pred[], pred[], pred[], pred[], pred[], pred[], pred[], pred[], pred[], pred[]) {
  %param_0.713 = f32[12,64]{1,0} parameter(0)
  %is-finite.23 = pred[12,64]{1,0} is-finite(f32[12,64]{1,0} %param_0.713), metadata={op_type="IsFinite" op_name="IsFinite_22"}
  %bitcast.197 = pred[768]{0} bitcast(pred[12,64]{1,0} %is-finite.23)
  %constant_198 = pred[] constant(true), metadata={op_type="All" op_name="All"}
  %reduce.157 = pred[] reduce(pred[768]{0} %bitcast.197, pred[] %constant_198), dimensions={0}, to_apply=%All_22-reduction.2102, metadata={op_type="All" op_name="All_22"}
  %param_1.1459 = f32[12,64]{1,0} parameter(1)
  %is-finite.19.clone.1 = pred[12,64]{1,0} is-finite(f32[12,64]{1,0} %param_1.1459), metadata={op_type="IsFinite" op_name="IsFinite_26"}
  %bitcast.187.clone.1 = pred[768]{0} bitcast(pred[12,64]{1,0} %is-finite.19.clone.1)
  %reduce.152.clone.1 = pred[] reduce(pred[768]{0} %bitcast.187.clone.1, pred[] %constant_198), dimensions={0}, to_apply=%All_26-reduction.2150, metadata={op_type="All" op_name="All_26"}
  %param_2.1036 = f32[12,64]{1,0} parameter(2)
  %is-finite.39.clone.1 = pred[12,64]{1,0} is-finite(f32[12,64]{1,0} %param_2.1036), metadata={op_type="IsFinite" op_name="IsFinite_6"}
  %bitcast.226.clone.1 = pred[768]{0} bitcast(pred[12,64]{1,0} %is-finite.39.clone.1)
  %reduce.182.clone.1 = pred[] reduce(pred[768]{0} %bitcast.226.clone.1, pred[] %constant_198), dimensions={0}, to_apply=%All_6-reduction.2438, metadata={op_type="All" op_name="All_6"}
  %param_3.847 = f32[12,64]{1,0} parameter(3)
  %is-finite.35.clone.1 = pred[12,64]{1,0} is-finite(f32[12,64]{1,0} %param_3.847), metadata={op_type="IsFinite" op_name="IsFinite_10"}
  %bitcast.216.clone.1 = pred[768]{0} bitcast(pred[12,64]{1,0} %is-finite.35.clone.1)
  %reduce.177.clone.1 = pred[] reduce(pred[768]{0} %bitcast.216.clone.1, pred[] %constant_198), dimensions={0}, to_apply=%All_10-reduction.1946, metadata={op_type="All" op_name="All_10"}
  %param_4.685 = f32[12,64]{1,0} parameter(4)
  %is-finite.21.clone.1 = pred[12,64]{1,0} is-finite(f32[12,64]{1,0} %param_4.685), metadata={op_type="IsFinite" op_name="IsFinite_24"}
  %bitcast.192.clone.1 = pred[768]{0} bitcast(pred[12,64]{1,0} %is-finite.21.clone.1)
  %reduce.154.clone.1 = pred[] reduce(pred[768]{0} %bitcast.192.clone.1, pred[] %constant_198), dimensions={0}, to_apply=%All_24-reduction.2126, metadata={op_type="All" op_name="All_24"}
  %param_5.617 = f32[12,64]{1,0} parameter(5)
  %is-finite.37.clone.1 = pred[12,64]{1,0} is-finite(f32[12,64]{1,0} %param_5.617), metadata={op_type="IsFinite" op_name="IsFinite_8"}
  %bitcast.221.clone.1 = pred[768]{0} bitcast(pred[12,64]{1,0} %is-finite.37.clone.1)
  %reduce.179.clone.1 = pred[] reduce(pred[768]{0} %bitcast.221.clone.1, pred[] %constant_198), dimensions={0}, to_apply=%All_8-reduction.2462, metadata={op_type="All" op_name="All_8"}
  %param_24.30 = f32[768]{0} parameter(24)
  %convert.81.clone.1.clone.1 = f16[768]{0} convert(f32[768]{0} %param_24.30), metadata={op_type="Sum" op_name="gradient_tape/model/bert_pretrainer/bert_encoder_1/transformer/layer_0/self_attention/attention_output/add/Sum"}
  %convert.80.clone.1.clone.1 = f32[768]{0} convert(f16[768]{0} %convert.81.clone.1.clone.1), metadata={op_type="Cast" op_name="gradient_tape/model/bert_pretrainer/bert_encoder_1/transformer/layer_0/self_attention/attention_output/add/Cast/Cast"}
  %constant_134_clone_1_clone_1 = f32[] constant(1), metadata={op_type="SparseSoftmaxCrossEntropyWithLogits" op_name="model/bert_pretrain_loss_and_metric_layer/SparseSoftmaxCrossEntropyWithLogits/SparseSoftmaxCrossEntropyWithLogits"}
  %param_23.29 = f32[] parameter(23)
  %divide.21.clone.1.clone.1 = f32[] divide(f32[] %constant_134_clone_1_clone_1, f32[] %param_23.29), metadata={op_type="Reciprocal" op_name="truediv"}
  %broadcast.367.clone.1.clone.1 = f32[768]{0} broadcast(f32[] %divide.21.clone.1.clone.1), dimensions={}, metadata={op_type="Mul" op_name="mul_4"}
  %multiply.129.clone.1.clone.1 = f32[768]{0} multiply(f32[768]{0} %convert.80.clone.1.clone.1, f32[768]{0} %broadcast.367.clone.1.clone.1), metadata={op_type="Mul" op_name="mul_13"}
  %is-finite.33.clone.1 = pred[768]{0} is-finite(f32[768]{0} %multiply.129.clone.1.clone.1), metadata={op_type="IsFinite" op_name="IsFinite_12"}
  %reduce.174.clone.1 = pred[] reduce(pred[768]{0} %is-finite.33.clone.1, pred[] %constant_198), dimensions={0}, to_apply=%All_12-reduction.1970, metadata={op_type="All" op_name="All_12"}
  %param_22.30 = f32[768]{0} parameter(22)
  %convert.73.clone.1.clone.1.clone.1 = f16[768]{0} convert(f32[768]{0} %param_22.30), metadata={op_type="Sum" op_name="gradient_tape/model/bert_pretrainer/bert_encoder_1/transformer/layer_0/output/add/Sum"}
  %convert.72.clone.1.clone.1.clone.1 = f32[768]{0} convert(f16[768]{0} %convert.73.clone.1.clone.1.clone.1), metadata={op_type="Cast" op_name="gradient_tape/model/bert_pretrainer/bert_encoder_1/transformer/layer_0/output/add/Cast/Cast"}
  %multiply.123.clone.1.clone.1.clone.1 = f32[768]{0} multiply(f32[768]{0} %convert.72.clone.1.clone.1.clone.1, f32[768]{0} %broadcast.367.clone.1.clone.1), metadata={op_type="Mul" op_name="mul_19"}
  %is-finite.27.clone.1.clone.1 = pred[768]{0} is-finite(f32[768]{0} %multiply.123.clone.1.clone.1.clone.1), metadata={op_type="IsFinite" op_name="IsFinite_18"}
  %reduce.164.clone.1.clone.1 = pred[] reduce(pred[768]{0} %is-finite.27.clone.1.clone.1, pred[] %constant_198), dimensions={0}, to_apply=%All_18-reduction.2042, metadata={op_type="All" op_name="All_18"}
  %param_21.33 = f32[768]{0} parameter(21)
  %convert.56.clone.1.clone.1.clone.1 = f16[768]{0} convert(f32[768]{0} %param_21.33), metadata={op_type="Sum" op_name="gradient_tape/model/bert_pretrainer/bert_encoder_1/transformer/layer_1/self_attention/attention_output/add/Sum"}
  %convert.55.clone.1.clone.1.clone.1 = f32[768]{0} convert(f16[768]{0} %convert.56.clone.1.clone.1.clone.1), metadata={op_type="Cast" op_name="gradient_tape/model/bert_pretrainer/bert_encoder_1/transformer/layer_1/self_attention/attention_output/add/Cast/Cast"}
  %multiply.114.clone.1.clone.1.clone.1 = f32[768]{0} multiply(f32[768]{0} %convert.55.clone.1.clone.1.clone.1, f32[768]{0} %broadcast.367.clone.1.clone.1), metadata={op_type="Mul" op_name="mul_29"}
  %is-finite.17.clone.1.clone.1 = pred[768]{0} is-finite(f32[768]{0} %multiply.114.clone.1.clone.1.clone.1), metadata={op_type="IsFinite" op_name="IsFinite_28"}
  %reduce.149.clone.1.clone.1 = pred[] reduce(pred[768]{0} %is-finite.17.clone.1.clone.1, pred[] %constant_198), dimensions={0}, to_apply=%All_28-reduction.2174, metadata={op_type="All" op_name="All_28"}
  %param_20.35 = f32[768]{0} parameter(20)
  %convert.48.clone.1.clone.1.clone.1 = f16[768]{0} convert(f32[768]{0} %param_20.35), metadata={op_type="Sum" op_name="gradient_tape/model/bert_pretrainer/bert_encoder_1/transformer/layer_1/output/add/Sum"}
  %convert.47.clone.1.clone.1.clone.1 = f32[768]{0} convert(f16[768]{0} %convert.48.clone.1.clone.1.clone.1), metadata={op_type="Cast" op_name="gradient_tape/model/bert_pretrainer/bert_encoder_1/transformer/layer_1/output/add/Cast/Cast"}
  %multiply.108.clone.1.clone.1.clone.1 = f32[768]{0} multiply(f32[768]{0} %convert.47.clone.1.clone.1.clone.1, f32[768]{0} %broadcast.367.clone.1.clone.1), metadata={op_type="Mul" op_name="mul_35"}
  %is-finite.11.clone.1.clone.1 = pred[768]{0} is-finite(f32[768]{0} %multiply.108.clone.1.clone.1.clone.1), metadata={op_type="IsFinite" op_name="IsFinite_34"}
  %reduce.139.clone.1.clone.1 = pred[] reduce(pred[768]{0} %is-finite.11.clone.1.clone.1, pred[] %constant_198), dimensions={0}, to_apply=%All_34-reduction.2258, metadata={op_type="All" op_name="All_34"}
  %param_19.36 = f16[16,768]{1,0} parameter(19)
  %convert.45.clone.1.clone.1.clone.1 = f32[16,768]{1,0} convert(f16[16,768]{1,0} %param_19.36), metadata={op_type="BiasAddGrad" op_name="gradient_tape/model/bert_pretrainer/bert_encoder_1/pooler_transform/BiasAdd/BiasAddGrad"}
  %constant_276_clone_1_clone_1_clone_1 = f32[] constant(0), metadata={op_type="Sum" op_name="model/bert_pretrain_loss_and_metric_layer/Sum_3"}
  %reduce.133.clone.1.clone.1.clone.1 = f32[768]{0} reduce(f32[16,768]{1,0} %convert.45.clone.1.clone.1.clone.1, f32[] %constant_276_clone_1_clone_1_clone_1), dimensions={0}, to_apply=%add_float_.1000, metadata={op_type="BiasAddGrad" op_name="gradient_tape/model/bert_pretrainer/bert_encoder_1/pooler_transform/BiasAdd/BiasAddGrad"}
  %convert.44.clone.1.clone.1.clone.1 = f16[768]{0} convert(f32[768]{0} %reduce.133.clone.1.clone.1.clone.1), metadata={op_type="BiasAddGrad" op_name="gradient_tape/model/bert_pretrainer/bert_encoder_1/pooler_transform/BiasAdd/BiasAddGrad"}
  %convert.43.clone.1.clone.1.clone.1 = f32[768]{0} convert(f16[768]{0} %convert.44.clone.1.clone.1.clone.1), metadata={op_type="Cast" op_name="gradient_tape/model/bert_pretrainer/bert_encoder_1/pooler_transform/BiasAdd/Cast/Cast"}
  %multiply.105.clone.1.clone.1.clone.1 = f32[768]{0} multiply(f32[768]{0} %convert.43.clone.1.clone.1.clone.1, f32[768]{0} %broadcast.367.clone.1.clone.1), metadata={op_type="Mul" op_name="mul_39"}
  %is-finite.7.clone.1.clone.1 = pred[768]{0} is-finite(f32[768]{0} %multiply.105.clone.1.clone.1.clone.1), metadata={op_type="IsFinite" op_name="IsFinite_38"}
  %reduce.132.clone.1.clone.1 = pred[] reduce(pred[768]{0} %is-finite.7.clone.1.clone.1, pred[] %constant_198), dimensions={0}, to_apply=%All_38-reduction.2306, metadata={op_type="All" op_name="All_38"}
  %param_18.35 = f32[768]{0} parameter(18)
  %convert.33.clone.1.clone.1.clone.1 = f16[768]{0} convert(f32[768]{0} %param_18.35), metadata={op_type="BiasAddGrad" op_name="gradient_tape/model/bert_pretrainer/cls/predictions/transform/dense/BiasAdd/BiasAddGrad"}
  %convert.32.clone.1.clone.1.clone.1 = f32[768]{0} convert(f16[768]{0} %convert.33.clone.1.clone.1.clone.1), metadata={op_type="Cast" op_name="gradient_tape/model/bert_pretrainer/cls/predictions/transform/dense/BiasAdd/Cast/Cast"}
  %multiply.100.clone.1.clone.1.clone.1 = f32[768]{0} multiply(f32[768]{0} %convert.32.clone.1.clone.1.clone.1, f32[768]{0} %broadcast.367.clone.1.clone.1), metadata={op_type="Mul" op_name="mul_44"}
  %is-finite.3.clone.1.clone.1 = pred[768]{0} is-finite(f32[768]{0} %multiply.100.clone.1.clone.1.clone.1), metadata={op_type="IsFinite" op_name="IsFinite_43"}
  %reduce.125.clone.1.clone.1 = pred[] reduce(pred[768]{0} %is-finite.3.clone.1.clone.1, pred[] %constant_198), dimensions={0}, to_apply=%All_43-reduction.2378, metadata={op_type="All" op_name="All_43"}
  %param_17.38 = f32[768]{0} parameter(17)
  %multiply.330.clone.1.clone.1 = f32[768]{0} multiply(f32[768]{0} %param_17.38, f32[768]{0} %broadcast.367.clone.1.clone.1), metadata={op_type="Mul" op_name="mul_4"}
  %is-finite.42.clone.1.clone.1 = pred[768]{0} is-finite(f32[768]{0} %multiply.330.clone.1.clone.1), metadata={op_type="IsFinite" op_name="IsFinite_3"}
  %reduce.187.clone.1.clone.1 = pred[] reduce(pred[768]{0} %is-finite.42.clone.1.clone.1, pred[] %constant_198), dimensions={0}, to_apply=%All_3-reduction.2318, metadata={op_type="All" op_name="All_3"}
  %param_16.47 = f32[768]{0} parameter(16)
  %multiply.333.clone.1.clone.1 = f32[768]{0} multiply(f32[768]{0} %param_16.47, f32[768]{0} %broadcast.367.clone.1.clone.1), metadata={op_type="Mul" op_name="mul_5"}
  %is-finite.41.clone.1.clone.1 = pred[768]{0} is-finite(f32[768]{0} %multiply.333.clone.1.clone.1), metadata={op_type="IsFinite" op_name="IsFinite_4"}
  %reduce.185.clone.1.clone.1 = pred[] reduce(pred[768]{0} %is-finite.41.clone.1.clone.1, pred[] %constant_198), dimensions={0}, to_apply=%All_4-reduction.2414, metadata={op_type="All" op_name="All_4"}
  %param_15.62 = f32[768]{0} parameter(15)
  %multiply.337.clone.1.clone.1 = f32[768]{0} multiply(f32[768]{0} %param_15.62, f32[768]{0} %broadcast.367.clone.1.clone.1), metadata={op_type="Mul" op_name="mul_14"}
  %is-finite.32.clone.1.clone.1 = pred[768]{0} is-finite(f32[768]{0} %multiply.337.clone.1.clone.1), metadata={op_type="IsFinite" op_name="IsFinite_13"}
  %reduce.172.clone.1.clone.1 = pred[] reduce(pred[768]{0} %is-finite.32.clone.1.clone.1, pred[] %constant_198), dimensions={0}, to_apply=%All_13-reduction.1982, metadata={op_type="All" op_name="All_13"}
  %param_14.83 = f32[768]{0} parameter(14)
  %multiply.339.clone.1.clone.1 = f32[768]{0} multiply(f32[768]{0} %param_14.83, f32[768]{0} %broadcast.367.clone.1.clone.1), metadata={op_type="Mul" op_name="mul_15"}
  %is-finite.31.clone.1.clone.1 = pred[768]{0} is-finite(f32[768]{0} %multiply.339.clone.1.clone.1), metadata={op_type="IsFinite" op_name="IsFinite_14"}
  %reduce.170.clone.1.clone.1 = pred[] reduce(pred[768]{0} %is-finite.31.clone.1.clone.1, pred[] %constant_198), dimensions={0}, to_apply=%All_14-reduction.1994, metadata={op_type="All" op_name="All_14"}
  %param_13.135 = f32[768]{0} parameter(13)
  %multiply.345.clone.1.clone.1 = f32[768]{0} multiply(f32[768]{0} %param_13.135, f32[768]{0} %broadcast.367.clone.1.clone.1), metadata={op_type="Mul" op_name="mul_20"}
  %is-finite.26.clone.1.clone.1 = pred[768]{0} is-finite(f32[768]{0} %multiply.345.clone.1.clone.1), metadata={op_type="IsFinite" op_name="IsFinite_19"}
  %reduce.162.clone.1.clone.1 = pred[] reduce(pred[768]{0} %is-finite.26.clone.1.clone.1, pred[] %constant_198), dimensions={0}, to_apply=%All_19-reduction.2066, metadata={op_type="All" op_name="All_19"}
  %param_12.189 = f32[768]{0} parameter(12)
  %multiply.347.clone.1.clone.1 = f32[768]{0} multiply(f32[768]{0} %param_12.189, f32[768]{0} %broadcast.367.clone.1.clone.1), metadata={op_type="Mul" op_name="mul_21"}
  %is-finite.25.clone.1.clone.1 = pred[768]{0} is-finite(f32[768]{0} %multiply.347.clone.1.clone.1), metadata={op_type="IsFinite" op_name="IsFinite_20"}
  %reduce.160.clone.1.clone.1 = pred[] reduce(pred[768]{0} %is-finite.25.clone.1.clone.1, pred[] %constant_198), dimensions={0}, to_apply=%All_20-reduction.2078, metadata={op_type="All" op_name="All_20"}
  %param_11.244 = f32[768]{0} parameter(11)
  %multiply.351.clone.1.clone.1 = f32[768]{0} multiply(f32[768]{0} %param_11.244, f32[768]{0} %broadcast.367.clone.1.clone.1), metadata={op_type="Mul" op_name="mul_30"}
  %is-finite.16.clone.1.clone.1 = pred[768]{0} is-finite(f32[768]{0} %multiply.351.clone.1.clone.1), metadata={op_type="IsFinite" op_name="IsFinite_29"}
  %reduce.147.clone.1.clone.1 = pred[] reduce(pred[768]{0} %is-finite.16.clone.1.clone.1, pred[] %constant_198), dimensions={0}, to_apply=%All_29-reduction.2198, metadata={op_type="All" op_name="All_29"}
  %param_10.298 = f32[768]{0} parameter(10)
  %multiply.354.clone.1.clone.1 = f32[768]{0} multiply(f32[768]{0} %param_10.298, f32[768]{0} %broadcast.367.clone.1.clone.1), metadata={op_type="Mul" op_name="mul_31"}
  %is-finite.15.clone.1.clone.1 = pred[768]{0} is-finite(f32[768]{0} %multiply.354.clone.1.clone.1), metadata={op_type="IsFinite" op_name="IsFinite_30"}
  %reduce.145.clone.1.clone.1 = pred[] reduce(pred[768]{0} %is-finite.15.clone.1.clone.1, pred[] %constant_198), dimensions={0}, to_apply=%All_30-reduction.2210, metadata={op_type="All" op_name="All_30"}
  %param_9.374 = f32[768]{0} parameter(9)
  %multiply.360.clone.1.clone.1 = f32[768]{0} multiply(f32[768]{0} %param_9.374, f32[768]{0} %broadcast.367.clone.1.clone.1), metadata={op_type="Mul" op_name="mul_36"}
  %is-finite.10.clone.1.clone.1 = pred[768]{0} is-finite(f32[768]{0} %multiply.360.clone.1.clone.1), metadata={op_type="IsFinite" op_name="IsFinite_35"}
  %reduce.137.clone.1.clone.1 = pred[] reduce(pred[768]{0} %is-finite.10.clone.1.clone.1, pred[] %constant_198), dimensions={0}, to_apply=%All_35-reduction.2270, metadata={op_type="All" op_name="All_35"}
  %param_8.432 = f32[768]{0} parameter(8)
  %multiply.362.clone.1.clone.1 = f32[768]{0} multiply(f32[768]{0} %param_8.432, f32[768]{0} %broadcast.367.clone.1.clone.1), metadata={op_type="Mul" op_name="mul_37"}
  %is-finite.9.clone.1.clone.1 = pred[768]{0} is-finite(f32[768]{0} %multiply.362.clone.1.clone.1), metadata={op_type="IsFinite" op_name="IsFinite_36"}
  %reduce.135.clone.1.clone.1 = pred[] reduce(pred[768]{0} %is-finite.9.clone.1.clone.1, pred[] %constant_198), dimensions={0}, to_apply=%All_36-reduction.2282, metadata={op_type="All" op_name="All_36"}
  %param_7.509 = f32[768]{0} parameter(7)
  %multiply.368.clone.1.clone.1 = f32[768]{0} multiply(f32[768]{0} %param_7.509, f32[768]{0} %broadcast.367.clone.1.clone.1), metadata={op_type="Mul" op_name="mul_45"}
  %is-finite.2.clone.1.clone.1 = pred[768]{0} is-finite(f32[768]{0} %multiply.368.clone.1.clone.1), metadata={op_type="IsFinite" op_name="IsFinite_44"}
  %reduce.123.clone.1.clone.1 = pred[] reduce(pred[768]{0} %is-finite.2.clone.1.clone.1, pred[] %constant_198), dimensions={0}, to_apply=%All_44-reduction.2390, metadata={op_type="All" op_name="All_44"}
  %param_6.603 = f32[768]{0} parameter(6)
  %multiply.370.clone.1.clone.1 = f32[768]{0} multiply(f32[768]{0} %param_6.603, f32[768]{0} %broadcast.367.clone.1.clone.1), metadata={op_type="Mul" op_name="mul_46"}
  %is-finite.1.clone.1.clone.1 = pred[768]{0} is-finite(f32[768]{0} %multiply.370.clone.1.clone.1), metadata={op_type="IsFinite" op_name="IsFinite_45"}
  %reduce.121.clone.1.clone.1 = pred[] reduce(pred[768]{0} %is-finite.1.clone.1.clone.1, pred[] %constant_198), dimensions={0}, to_apply=%All_45-reduction.2402, metadata={op_type="All" op_name="All_45"}
  ROOT %tuple.99 = (pred[], pred[], pred[], pred[], pred[], pred[], pred[], f32[768]{0}, pred[], f32[768]{0}, pred[], f32[768]{0}, pred[], f32[768]{0}, pred[], f32[768]{0}, pred[], f32[768]{0}, pred[], pred[], pred[], pred[], pred[], pred[], pred[], pred[], pred[], pred[], pred[], pred[]) tuple(pred[] %reduce.157, pred[] %reduce.152.clone.1, pred[] %reduce.182.clone.1, pred[] %reduce.177.clone.1, pred[] %reduce.154.clone.1, pred[] %reduce.179.clone.1, pred[] %reduce.174.clone.1, f32[768]{0} %multiply.129.clone.1.clone.1, pred[] %reduce.164.clone.1.clone.1, f32[768]{0} %multiply.123.clone.1.clone.1.clone.1, pred[] %reduce.149.clone.1.clone.1, f32[768]{0} %multiply.114.clone.1.clone.1.clone.1, pred[] %reduce.139.clone.1.clone.1, f32[768]{0} %multiply.108.clone.1.clone.1.clone.1, pred[] %reduce.132.clone.1.clone.1, f32[768]{0} %multiply.105.clone.1.clone.1.clone.1, pred[] %reduce.125.clone.1.clone.1, f32[768]{0} %multiply.100.clone.1.clone.1.clone.1, pred[] %reduce.187.clone.1.clone.1, pred[] %reduce.185.clone.1.clone.1, pred[] %reduce.172.clone.1.clone.1, pred[] %reduce.170.clone.1.clone.1, pred[] %reduce.162.clone.1.clone.1, pred[] %reduce.160.clone.1.clone.1, pred[] %reduce.147.clone.1.clone.1, pred[] %reduce.145.clone.1.clone.1, pred[] %reduce.137.clone.1.clone.1, pred[] %reduce.135.clone.1.clone.1, pred[] %reduce.123.clone.1.clone.1, pred[] %reduce.121.clone.1.clone.1)
}

%fused_computation.74 (param_0.160: f16[16,12,512,64]) -> f16[768,8192] {
  %param_0.160 = f16[16,12,512,64]{3,2,1,0} parameter(0)
  %transpose.129 = f16[12,64,16,512]{1,3,0,2} transpose(f16[16,12,512,64]{3,2,1,0} %param_0.160), dimensions={1,3,0,2}
  %copy.88 = f16[12,64,16,512]{3,2,1,0} copy(f16[12,64,16,512]{1,3,0,2} %transpose.129)
  ROOT %bitcast.201 = f16[768,8192]{1,0} bitcast(f16[12,64,16,512]{3,2,1,0} %copy.88)
}

%gradient_tape_model_bert_pretrainer_bert_encoder_1_transformer_layer_0_output_add_Sum-reduction.1472 (x.1473: f32[], y.1474: f32[]) -> f32[] {
  %x.1473 = f32[] parameter(0)
  %y.1474 = f32[] parameter(1)
  ROOT %add.1475 = f32[] add(f32[] %x.1473, f32[] %y.1474)
}

%gradient_tape_model_bert_pretrainer_bert_encoder_1_transformer_layer_1_output_add_Sum-reduction.1214 (x.1215: f32[], y.1216: f32[]) -> f32[] {
  %x.1215 = f32[] parameter(0)
  %y.1216 = f32[] parameter(1)
  ROOT %add.1217 = f32[] add(f32[] %x.1215, f32[] %y.1216)
}

%gradient_tape_model_bert_pretrainer_bert_encoder_1_transformer_layer_1_self_attention_attention_output_add_Sum-reduction.1322 (x.1323: f32[], y.1324: f32[]) -> f32[] {
  %x.1323 = f32[] parameter(0)
  %y.1324 = f32[] parameter(1)
  ROOT %add.1325 = f32[] add(f32[] %x.1323, f32[] %y.1324)
}

%gradient_tape_model_bert_pretrainer_bert_encoder_1_transformer_layer_0_self_attention_attention_output_add_Sum-reduction.1580 (x.1581: f32[], y.1582: f32[]) -> f32[] {
  %x.1581 = f32[] parameter(0)
  %y.1582 = f32[] parameter(1)
  ROOT %add.1583 = f32[] add(f32[] %x.1581, f32[] %y.1582)
}

%fused_computation.81 (param_0.692: f16[16,512,768], param_1.1445: f16[16,512,768], param_2.1025: f16[16,512,768], param_3.838: f16[16,512,768]) -> (f32[768], f32[768], f32[768], f32[768]) {
  %param_0.692 = f16[16,512,768]{2,1,0} parameter(0)
  %convert.74 = f32[16,512,768]{2,1,0} convert(f16[16,512,768]{2,1,0} %param_0.692), metadata={op_type="Sum" op_name="gradient_tape/model/bert_pretrainer/bert_encoder_1/transformer/layer_0/output/add/Sum"}
  %bitcast.204 = f32[8192,768]{1,0} bitcast(f32[16,512,768]{2,1,0} %convert.74)
  %constant_174 = f32[] constant(0), metadata={op_type="Sum" op_name="model/bert_pretrain_loss_and_metric_layer/Sum_3"}
  %reduce.165 = f32[768]{0} reduce(f32[8192,768]{1,0} %bitcast.204, f32[] %constant_174), dimensions={0}, to_apply=%gradient_tape_model_bert_pretrainer_bert_encoder_1_transformer_layer_0_output_add_Sum-reduction.1472, metadata={op_type="Sum" op_name="gradient_tape/model/bert_pretrainer/bert_encoder_1/transformer/layer_0/output/add/Sum"}
  %param_1.1445 = f16[16,512,768]{2,1,0} parameter(1)
  %convert.49.clone.1 = f32[16,512,768]{2,1,0} convert(f16[16,512,768]{2,1,0} %param_1.1445), metadata={op_type="Sum" op_name="gradient_tape/model/bert_pretrainer/bert_encoder_1/transformer/layer_1/output/add/Sum"}
  %bitcast.175.clone.1 = f32[8192,768]{1,0} bitcast(f32[16,512,768]{2,1,0} %convert.49.clone.1)
  %reduce.140.clone.1 = f32[768]{0} reduce(f32[8192,768]{1,0} %bitcast.175.clone.1, f32[] %constant_174), dimensions={0}, to_apply=%gradient_tape_model_bert_pretrainer_bert_encoder_1_transformer_layer_1_output_add_Sum-reduction.1214, metadata={op_type="Sum" op_name="gradient_tape/model/bert_pretrainer/bert_encoder_1/transformer/layer_1/output/add/Sum"}
  %param_2.1025 = f16[16,512,768]{2,1,0} parameter(2)
  %convert.57.clone.1 = f32[16,512,768]{2,1,0} convert(f16[16,512,768]{2,1,0} %param_2.1025), metadata={op_type="Sum" op_name="gradient_tape/model/bert_pretrainer/bert_encoder_1/transformer/layer_1/self_attention/attention_output/add/Sum"}
  %bitcast.183.clone.1 = f32[8192,768]{1,0} bitcast(f32[16,512,768]{2,1,0} %convert.57.clone.1)
  %reduce.150.clone.1 = f32[768]{0} reduce(f32[8192,768]{1,0} %bitcast.183.clone.1, f32[] %constant_174), dimensions={0}, to_apply=%gradient_tape_model_bert_pretrainer_bert_encoder_1_transformer_layer_1_self_attention_attention_output_add_Sum-reduction.1322, metadata={op_type="Sum" op_name="gradient_tape/model/bert_pretrainer/bert_encoder_1/transformer/layer_1/self_attention/attention_output/add/Sum"}
  %param_3.838 = f16[16,512,768]{2,1,0} parameter(3)
  %convert.82.clone.1 = f32[16,512,768]{2,1,0} convert(f16[16,512,768]{2,1,0} %param_3.838), metadata={op_type="Sum" op_name="gradient_tape/model/bert_pretrainer/bert_encoder_1/transformer/layer_0/self_attention/attention_output/add/Sum"}
  %bitcast.212.clone.1 = f32[8192,768]{1,0} bitcast(f32[16,512,768]{2,1,0} %convert.82.clone.1)
  %reduce.175.clone.1 = f32[768]{0} reduce(f32[8192,768]{1,0} %bitcast.212.clone.1, f32[] %constant_174), dimensions={0}, to_apply=%gradient_tape_model_bert_pretrainer_bert_encoder_1_transformer_layer_0_self_attention_attention_output_add_Sum-reduction.1580, metadata={op_type="Sum" op_name="gradient_tape/model/bert_pretrainer/bert_encoder_1/transformer/layer_0/self_attention/attention_output/add/Sum"}
  ROOT %tuple.88 = (f32[768]{0}, f32[768]{0}, f32[768]{0}, f32[768]{0}) tuple(f32[768]{0} %reduce.165, f32[768]{0} %reduce.140.clone.1, f32[768]{0} %reduce.150.clone.1, f32[768]{0} %reduce.175.clone.1)
}

%fused_computation.83 (param_0.689: f16[3072,768], param_1.739: f32[], param_2.967: f16[3072,768]) -> (f32[3072,768], f32[3072,768]) {
  %param_0.689 = f16[3072,768]{1,0} parameter(0)
  %convert.75 = f32[3072,768]{1,0} convert(f16[3072,768]{1,0} %param_0.689), metadata={op_type="Cast" op_name="gradient_tape/model/bert_pretrainer/bert_encoder_1/transformer/layer_0/output/einsum/Einsum/Cast/Cast"}
  %constant_169 = f32[] constant(1), metadata={op_type="SparseSoftmaxCrossEntropyWithLogits" op_name="model/bert_pretrain_loss_and_metric_layer/SparseSoftmaxCrossEntropyWithLogits/SparseSoftmaxCrossEntropyWithLogits"}
  %param_1.739 = f32[] parameter(1)
  %divide.28 = f32[] divide(f32[] %constant_169, f32[] %param_1.739), metadata={op_type="Reciprocal" op_name="truediv"}
  %broadcast.402 = f32[3072,768]{1,0} broadcast(f32[] %divide.28), dimensions={}, metadata={op_type="Mul" op_name="mul_18"}
  %multiply.125 = f32[3072,768]{1,0} multiply(f32[3072,768]{1,0} %convert.75, f32[3072,768]{1,0} %broadcast.402), metadata={op_type="Mul" op_name="mul_18"}
  %param_2.967 = f16[3072,768]{1,0} parameter(2)
  %convert.50.clone.1 = f32[3072,768]{1,0} convert(f16[3072,768]{1,0} %param_2.967), metadata={op_type="Cast" op_name="gradient_tape/model/bert_pretrainer/bert_encoder_1/transformer/layer_1/output/einsum/Einsum/Cast/Cast"}
  %multiply.109.clone.1 = f32[3072,768]{1,0} multiply(f32[3072,768]{1,0} %convert.50.clone.1, f32[3072,768]{1,0} %broadcast.402), metadata={op_type="Mul" op_name="mul_34"}
  ROOT %tuple.72 = (f32[3072,768]{1,0}, f32[3072,768]{1,0}) tuple(f32[3072,768]{1,0} %multiply.125, f32[3072,768]{1,0} %multiply.109.clone.1)
}

%fused_computation.84 (param_0.180: f16[16,512,768]) -> f16[768,8192] {
  %param_0.180 = f16[16,512,768]{2,1,0} parameter(0)
  %transpose.130 = f16[768,16,512]{0,2,1} transpose(f16[16,512,768]{2,1,0} %param_0.180), dimensions={2,0,1}
  ROOT %bitcast.206 = f16[768,8192]{0,1} bitcast(f16[768,16,512]{0,2,1} %transpose.130)
}

%All_16-reduction.2018 (x.2019: pred[], y.2020: pred[]) -> pred[] {
  %x.2019 = pred[] parameter(0)
  %y.2020 = pred[] parameter(1)
  ROOT %and.2021 = pred[] and(pred[] %x.2019, pred[] %y.2020)
}

%All_32-reduction.2234 (x.2235: pred[], y.2236: pred[]) -> pred[] {
  %x.2235 = pred[] parameter(0)
  %y.2236 = pred[] parameter(1)
  ROOT %and.2237 = pred[] and(pred[] %x.2235, pred[] %y.2236)
}

%fused_computation.85 (param_0.1191: f32[], param_1.1342: f32[3072], param_2.948: f32[3072]) -> (pred[], f32[3072], pred[], f32[3072]) {
  %param_1.1342 = f32[3072]{0} parameter(1)
  %convert.77.clone.1 = f16[3072]{0} convert(f32[3072]{0} %param_1.1342), metadata={op_type="Sum" op_name="gradient_tape/model/bert_pretrainer/bert_encoder_1/transformer/layer_0/intermediate/add/Sum"}
  %convert.76.clone.1 = f32[3072]{0} convert(f16[3072]{0} %convert.77.clone.1), metadata={op_type="Cast" op_name="gradient_tape/model/bert_pretrainer/bert_encoder_1/transformer/layer_0/intermediate/add/Cast/Cast"}
  %constant_159_clone_1 = f32[] constant(1), metadata={op_type="SparseSoftmaxCrossEntropyWithLogits" op_name="model/bert_pretrain_loss_and_metric_layer/SparseSoftmaxCrossEntropyWithLogits/SparseSoftmaxCrossEntropyWithLogits"}
  %param_0.1191 = f32[] parameter(0)
  %divide.27.clone.1 = f32[] divide(f32[] %constant_159_clone_1, f32[] %param_0.1191), metadata={op_type="Reciprocal" op_name="truediv"}
  %broadcast.394.clone.1 = f32[3072]{0} broadcast(f32[] %divide.27.clone.1), dimensions={}, metadata={op_type="Mul" op_name="mul_17"}
  %multiply.126.clone.1 = f32[3072]{0} multiply(f32[3072]{0} %convert.76.clone.1, f32[3072]{0} %broadcast.394.clone.1), metadata={op_type="Mul" op_name="mul_17"}
  %is-finite.29 = pred[3072]{0} is-finite(f32[3072]{0} %multiply.126.clone.1), metadata={op_type="IsFinite" op_name="IsFinite_16"}
  %constant_158 = pred[] constant(true), metadata={op_type="All" op_name="All"}
  %reduce.167 = pred[] reduce(pred[3072]{0} %is-finite.29, pred[] %constant_158), dimensions={0}, to_apply=%All_16-reduction.2018, metadata={op_type="All" op_name="All_16"}
  %param_2.948 = f32[3072]{0} parameter(2)
  %convert.52.clone.1.clone.1 = f16[3072]{0} convert(f32[3072]{0} %param_2.948), metadata={op_type="Sum" op_name="gradient_tape/model/bert_pretrainer/bert_encoder_1/transformer/layer_1/intermediate/add/Sum"}
  %convert.51.clone.1.clone.1 = f32[3072]{0} convert(f16[3072]{0} %convert.52.clone.1.clone.1), metadata={op_type="Cast" op_name="gradient_tape/model/bert_pretrainer/bert_encoder_1/transformer/layer_1/intermediate/add/Cast/Cast"}
  %multiply.110.clone.1.clone.1 = f32[3072]{0} multiply(f32[3072]{0} %convert.51.clone.1.clone.1, f32[3072]{0} %broadcast.394.clone.1), metadata={op_type="Mul" op_name="mul_33"}
  %is-finite.13.clone.1 = pred[3072]{0} is-finite(f32[3072]{0} %multiply.110.clone.1.clone.1), metadata={op_type="IsFinite" op_name="IsFinite_32"}
  %reduce.142.clone.1 = pred[] reduce(pred[3072]{0} %is-finite.13.clone.1, pred[] %constant_158), dimensions={0}, to_apply=%All_32-reduction.2234, metadata={op_type="All" op_name="All_32"}
  ROOT %tuple.48 = (pred[], f32[3072]{0}, pred[], f32[3072]{0}) tuple(pred[] %reduce.167, f32[3072]{0} %multiply.126.clone.1, pred[] %reduce.142.clone.1, f32[3072]{0} %multiply.110.clone.1.clone.1)
}

%gradient_tape_model_bert_pretrainer_bert_encoder_1_transformer_layer_0_intermediate_add_Sum-reduction.1504 (x.1505: f32[], y.1506: f32[]) -> f32[] {
  %x.1505 = f32[] parameter(0)
  %y.1506 = f32[] parameter(1)
  ROOT %add.1507 = f32[] add(f32[] %x.1505, f32[] %y.1506)
}

%gradient_tape_model_bert_pretrainer_bert_encoder_1_transformer_layer_1_intermediate_add_Sum-reduction.1246 (x.1247: f32[], y.1248: f32[]) -> f32[] {
  %x.1247 = f32[] parameter(0)
  %y.1248 = f32[] parameter(1)
  ROOT %add.1249 = f32[] add(f32[] %x.1247, f32[] %y.1248)
}

%fused_computation.87 (param_0.683: f16[16,512,3072], param_1.1448: f16[16,512,3072]) -> (f32[3072], f32[3072]) {
  %param_0.683 = f16[16,512,3072]{2,1,0} parameter(0)
  %convert.78 = f32[16,512,3072]{2,1,0} convert(f16[16,512,3072]{2,1,0} %param_0.683), metadata={op_type="Sum" op_name="gradient_tape/model/bert_pretrainer/bert_encoder_1/transformer/layer_0/intermediate/add/Sum"}
  %bitcast.207 = f32[8192,3072]{1,0} bitcast(f32[16,512,3072]{2,1,0} %convert.78)
  %constant_160 = f32[] constant(0), metadata={op_type="Sum" op_name="model/bert_pretrain_loss_and_metric_layer/Sum_3"}
  %reduce.168 = f32[3072]{0} reduce(f32[8192,3072]{1,0} %bitcast.207, f32[] %constant_160), dimensions={0}, to_apply=%gradient_tape_model_bert_pretrainer_bert_encoder_1_transformer_layer_0_intermediate_add_Sum-reduction.1504, metadata={op_type="Sum" op_name="gradient_tape/model/bert_pretrainer/bert_encoder_1/transformer/layer_0/intermediate/add/Sum"}
  %param_1.1448 = f16[16,512,3072]{2,1,0} parameter(1)
  %convert.53.clone.1 = f32[16,512,3072]{2,1,0} convert(f16[16,512,3072]{2,1,0} %param_1.1448), metadata={op_type="Sum" op_name="gradient_tape/model/bert_pretrainer/bert_encoder_1/transformer/layer_1/intermediate/add/Sum"}
  %bitcast.178.clone.1 = f32[8192,3072]{1,0} bitcast(f32[16,512,3072]{2,1,0} %convert.53.clone.1)
  %reduce.143.clone.1 = f32[3072]{0} reduce(f32[8192,3072]{1,0} %bitcast.178.clone.1, f32[] %constant_160), dimensions={0}, to_apply=%gradient_tape_model_bert_pretrainer_bert_encoder_1_transformer_layer_1_intermediate_add_Sum-reduction.1246, metadata={op_type="Sum" op_name="gradient_tape/model/bert_pretrainer/bert_encoder_1/transformer/layer_1/intermediate/add/Sum"}
  ROOT %tuple.89 = (f32[3072]{0}, f32[3072]{0}) tuple(f32[3072]{0} %reduce.168, f32[3072]{0} %reduce.143.clone.1)
}

%fused_computation.89 (param_0.680: f16[768,3072], param_1.726: f32[], param_2.965: f16[768,3072]) -> (f32[768,3072], f32[768,3072]) {
  %param_0.680 = f16[768,3072]{1,0} parameter(0)
  %convert.79 = f32[768,3072]{1,0} convert(f16[768,3072]{1,0} %param_0.680), metadata={op_type="Cast" op_name="gradient_tape/model/bert_pretrainer/bert_encoder_1/transformer/layer_0/intermediate/einsum/Einsum/Cast/Cast"}
  %constant_157 = f32[] constant(1), metadata={op_type="SparseSoftmaxCrossEntropyWithLogits" op_name="model/bert_pretrain_loss_and_metric_layer/SparseSoftmaxCrossEntropyWithLogits/SparseSoftmaxCrossEntropyWithLogits"}
  %param_1.726 = f32[] parameter(1)
  %divide.26 = f32[] divide(f32[] %constant_157, f32[] %param_1.726), metadata={op_type="Reciprocal" op_name="truediv"}
  %broadcast.393 = f32[768,3072]{1,0} broadcast(f32[] %divide.26), dimensions={}, metadata={op_type="Mul" op_name="mul_16"}
  %multiply.127 = f32[768,3072]{1,0} multiply(f32[768,3072]{1,0} %convert.79, f32[768,3072]{1,0} %broadcast.393), metadata={op_type="Mul" op_name="mul_16"}
  %param_2.965 = f16[768,3072]{1,0} parameter(2)
  %convert.54.clone.1 = f32[768,3072]{1,0} convert(f16[768,3072]{1,0} %param_2.965), metadata={op_type="Cast" op_name="gradient_tape/model/bert_pretrainer/bert_encoder_1/transformer/layer_1/intermediate/einsum/Einsum/Cast/Cast"}
  %multiply.111.clone.1 = f32[768,3072]{1,0} multiply(f32[768,3072]{1,0} %convert.54.clone.1, f32[768,3072]{1,0} %broadcast.393), metadata={op_type="Mul" op_name="mul_32"}
  ROOT %tuple.71 = (f32[768,3072]{1,0}, f32[768,3072]{1,0}) tuple(f32[768,3072]{1,0} %multiply.127, f32[768,3072]{1,0} %multiply.111.clone.1)
}

%fused_computation.90 (param_0.192: f16[16,512,3072]) -> f16[3072,8192] {
  %param_0.192 = f16[16,512,3072]{2,1,0} parameter(0)
  %transpose.131 = f16[3072,16,512]{0,2,1} transpose(f16[16,512,3072]{2,1,0} %param_0.192), dimensions={2,0,1}
  ROOT %bitcast.209 = f16[3072,8192]{0,1} bitcast(f16[3072,16,512]{0,2,1} %transpose.131)
}

%gradient_tape_model_bert_pretrainer_bert_encoder_1_transformer_layer_0_self_attention_layer_norm_batchnorm_mul_Sum_1-reduction.1790 (x.1791: f32[], y.1792: f32[]) -> f32[] {
  %x.1791 = f32[] parameter(0)
  %y.1792 = f32[] parameter(1)
  ROOT %add.1793 = f32[] add(f32[] %x.1791, f32[] %y.1792)
}

%gradient_tape_model_bert_pretrainer_bert_encoder_1_transformer_layer_0_self_attention_layer_norm_batchnorm_sub_Sum-reduction.1799 (x.1800: f32[], y.1801: f32[]) -> f32[] {
  %x.1800 = f32[] parameter(0)
  %y.1801 = f32[] parameter(1)
  ROOT %add.1802 = f32[] add(f32[] %x.1800, f32[] %y.1801)
}

%gradient_tape_model_bert_pretrainer_bert_encoder_1_transformer_layer_0_output_layer_norm_batchnorm_mul_Sum_1-reduction.1817 (x.1818: f32[], y.1819: f32[]) -> f32[] {
  %x.1818 = f32[] parameter(0)
  %y.1819 = f32[] parameter(1)
  ROOT %add.1820 = f32[] add(f32[] %x.1818, f32[] %y.1819)
}

%gradient_tape_model_bert_pretrainer_bert_encoder_1_transformer_layer_0_output_layer_norm_batchnorm_sub_Sum-reduction.1826 (x.1827: f32[], y.1828: f32[]) -> f32[] {
  %x.1827 = f32[] parameter(0)
  %y.1828 = f32[] parameter(1)
  ROOT %add.1829 = f32[] add(f32[] %x.1827, f32[] %y.1828)
}

%fused_computation.94 (param_0.1154: f32[16,512], param_1.1278: f32[16,512], param_2.854: f32[16,512,768], param_3.650: f16[16,512,768], param_4.672: f32[16,512], param_5.608: f32[16,512], param_6.597: f16[16,512,768], param_7.502: f32[768], param_8.425: f32[768], param_9.367: f16[8192,768], param_10.289: f32[768], param_11.235: f16[16,512,768]) -> (f32[768], f32[768], f32[768], f32[768]) {
  %param_2.854 = f32[16,512,768]{2,1,0} parameter(2)
  %param_3.650 = f16[16,512,768]{2,1,0} parameter(3)
  %convert.629 = f32[16,512,768]{2,1,0} convert(f16[16,512,768]{2,1,0} %param_3.650), metadata={op_type="Cast" op_name="model/bert_pretrainer/bert_encoder_1/transformer/layer_0/Cast"}
  %multiply.980 = f32[16,512,768]{2,1,0} multiply(f32[16,512,768]{2,1,0} %param_2.854, f32[16,512,768]{2,1,0} %convert.629), metadata={op_type="Mul" op_name="gradient_tape/model/bert_pretrainer/bert_encoder_1/transformer/layer_0/self_attention_layer_norm/batchnorm/mul_1/Mul_1"}
  %negate.38 = f32[16,512,768]{2,1,0} negate(f32[16,512,768]{2,1,0} %param_2.854), metadata={op_type="Neg" op_name="gradient_tape/model/bert_pretrainer/bert_encoder_1/transformer/layer_0/self_attention_layer_norm/batchnorm/sub/Neg"}
  %param_1.1278 = f32[16,512]{1,0} parameter(1)
  %constant_539 = f32[] constant(0.00130208337), metadata={op_type="Mul" op_name="gradient_tape/model/bert_pretrainer/cls/predictions/transform/LayerNorm/moments/truediv_1"}
  %broadcast.1725 = f32[16,512]{1,0} broadcast(f32[] %constant_539), dimensions={}
  %multiply.979 = f32[16,512]{1,0} multiply(f32[16,512]{1,0} %param_1.1278, f32[16,512]{1,0} %broadcast.1725), metadata={op_type="Mean" op_name="model/bert_pretrainer/bert_encoder_1/transformer/layer_0/self_attention_layer_norm/moments/mean"}
  %broadcast.1724 = f32[16,512,768]{2,1,0} broadcast(f32[16,512]{1,0} %multiply.979), dimensions={0,1}, metadata={op_type="SquaredDifference" op_name="model/bert_pretrainer/bert_encoder_1/transformer/layer_0/self_attention_layer_norm/moments/SquaredDifference"}
  %multiply.977 = f32[16,512,768]{2,1,0} multiply(f32[16,512,768]{2,1,0} %negate.38, f32[16,512,768]{2,1,0} %broadcast.1724), metadata={op_type="Mul" op_name="gradient_tape/model/bert_pretrainer/bert_encoder_1/transformer/layer_0/self_attention_layer_norm/batchnorm/mul_2/Mul_1"}
  %add.437 = f32[16,512,768]{2,1,0} add(f32[16,512,768]{2,1,0} %multiply.980, f32[16,512,768]{2,1,0} %multiply.977), metadata={op_type="AddN" op_name="AddN_15"}
  %param_0.1154 = f32[16,512]{1,0} parameter(0)
  %multiply.439 = f32[16,512]{1,0} multiply(f32[16,512]{1,0} %param_0.1154, f32[16,512]{1,0} %broadcast.1725), metadata={op_type="Mean" op_name="model/bert_pretrainer/bert_encoder_1/transformer/layer_0/self_attention_layer_norm/moments/variance"}
  %constant_538 = f32[] constant(1e-12), metadata={op_type="AddV2" op_name="model/bert_pretrainer/bert_encoder_1/embeddings/layer_norm/batchnorm/add"}
  %broadcast.764 = f32[16,512]{1,0} broadcast(f32[] %constant_538), dimensions={}, metadata={op_type="AddV2" op_name="model/bert_pretrainer/bert_encoder_1/embeddings/layer_norm/batchnorm/add"}
  %add.126 = f32[16,512]{1,0} add(f32[16,512]{1,0} %multiply.439, f32[16,512]{1,0} %broadcast.764), metadata={op_type="AddV2" op_name="model/bert_pretrainer/bert_encoder_1/transformer/layer_0/self_attention_layer_norm/batchnorm/add"}
  %rsqrt.27 = f32[16,512]{1,0} rsqrt(f32[16,512]{1,0} %add.126), metadata={op_type="Rsqrt" op_name="model/bert_pretrainer/bert_encoder_1/transformer/layer_0/self_attention_layer_norm/batchnorm/Rsqrt"}
  %broadcast.388 = f32[16,512,768]{2,1,0} broadcast(f32[16,512]{1,0} %rsqrt.27), dimensions={0,1}, metadata={op_type="Mul" op_name="model/bert_pretrainer/bert_encoder_1/transformer/layer_0/self_attention_layer_norm/batchnorm/mul"}
  %multiply.128 = f32[16,512,768]{2,1,0} multiply(f32[16,512,768]{2,1,0} %add.437, f32[16,512,768]{2,1,0} %broadcast.388), metadata={op_type="Mul" op_name="gradient_tape/model/bert_pretrainer/bert_encoder_1/transformer/layer_0/self_attention_layer_norm/batchnorm/mul/Mul_1"}
  %bitcast.211 = f32[8192,768]{1,0} bitcast(f32[16,512,768]{2,1,0} %multiply.128)
  %constant_150 = f32[] constant(0), metadata={op_type="Sum" op_name="model/bert_pretrain_loss_and_metric_layer/Sum_3"}
  %reduce.173 = f32[768]{0} reduce(f32[8192,768]{1,0} %bitcast.211, f32[] %constant_150), dimensions={0}, to_apply=%gradient_tape_model_bert_pretrainer_bert_encoder_1_transformer_layer_0_self_attention_layer_norm_batchnorm_mul_Sum_1-reduction.1790, metadata={op_type="Sum" op_name="gradient_tape/model/bert_pretrainer/bert_encoder_1/transformer/layer_0/self_attention_layer_norm/batchnorm/mul/Sum_1"}
  %bitcast.210.clone.1 = f32[8192,768]{1,0} bitcast(f32[16,512,768]{2,1,0} %param_2.854)
  %reduce.171.clone.1 = f32[768]{0} reduce(f32[8192,768]{1,0} %bitcast.210.clone.1, f32[] %constant_150), dimensions={0}, to_apply=%gradient_tape_model_bert_pretrainer_bert_encoder_1_transformer_layer_0_self_attention_layer_norm_batchnorm_sub_Sum-reduction.1799, metadata={op_type="Sum" op_name="gradient_tape/model/bert_pretrainer/bert_encoder_1/transformer/layer_0/self_attention_layer_norm/batchnorm/sub/Sum"}
  %param_6.597 = f16[16,512,768]{2,1,0} parameter(6)
  %convert.71.clone.1 = f32[16,512,768]{2,1,0} convert(f16[16,512,768]{2,1,0} %param_6.597), metadata={op_type="Cast" op_name="gradient_tape/model/bert_pretrainer/bert_encoder_1/Cast_2/Cast"}
  %bitcast.202.clone.1 = f32[8192,768]{1,0} bitcast(f32[16,512,768]{2,1,0} %convert.71.clone.1)
  %reduce.161.clone.1 = f32[768]{0} reduce(f32[8192,768]{1,0} %bitcast.202.clone.1, f32[] %constant_150), dimensions={0}, to_apply=%gradient_tape_model_bert_pretrainer_bert_encoder_1_transformer_layer_0_output_layer_norm_batchnorm_sub_Sum-reduction.1826, metadata={op_type="Sum" op_name="gradient_tape/model/bert_pretrainer/bert_encoder_1/transformer/layer_0/output_layer_norm/batchnorm/sub/Sum"}
  %param_11.235 = f16[16,512,768]{2,1,0} parameter(11)
  %constant_1161_clone_1_clone_1 = f16[] constant(0.099976), metadata={op_type="GreaterEqual" op_name="model/bert_pretrainer/bert_encoder_1/dropout/dropout/GreaterEqual"}
  %broadcast.1666.clone.1.clone.1 = f16[16,512,768]{2,1,0} broadcast(f16[] %constant_1161_clone_1_clone_1), dimensions={}, metadata={op_type="GreaterEqual" op_name="model/bert_pretrainer/bert_encoder_1/transformer/layer_1/dropout_2/dropout/GreaterEqual"}
  %compare.110.clone.1.clone.1 = pred[16,512,768]{2,1,0} compare(f16[16,512,768]{2,1,0} %param_11.235, f16[16,512,768]{2,1,0} %broadcast.1666.clone.1.clone.1), direction=GE, metadata={op_type="GreaterEqual" op_name="model/bert_pretrainer/bert_encoder_1/transformer/layer_0/dropout_2/dropout/GreaterEqual"}
  %constant_1160_clone_1_clone_1 = f16[] constant(1.1113), metadata={op_type="Mul" op_name="model/bert_pretrainer/bert_encoder_1/dropout/dropout/Mul"}
  %broadcast.1664.clone.1.clone.1 = f16[16,512,768]{2,1,0} broadcast(f16[] %constant_1160_clone_1_clone_1), dimensions={}, metadata={op_type="Mul" op_name="model/bert_pretrainer/bert_encoder_1/transformer/layer_1/dropout_2/dropout/Mul"}
  %constant_1159_clone_1_clone_1 = f16[] constant(0), metadata={op_type="GreaterEqual" op_name="model/bert_pretrainer/bert_encoder_1/transformer/layer_0/dropout_1/dropout/GreaterEqual"}
  %broadcast.1663.clone.1.clone.1 = f16[16,512,768]{2,1,0} broadcast(f16[] %constant_1159_clone_1_clone_1), dimensions={}
  %select.106.clone.1.clone.1 = f16[16,512,768]{2,1,0} select(pred[16,512,768]{2,1,0} %compare.110.clone.1.clone.1, f16[16,512,768]{2,1,0} %broadcast.1664.clone.1.clone.1, f16[16,512,768]{2,1,0} %broadcast.1663.clone.1.clone.1), metadata={op_type="Mul" op_name="model/bert_pretrainer/bert_encoder_1/transformer/layer_0/dropout_2/dropout/Mul"}
  %param_10.289 = f32[768]{0} parameter(10)
  %convert.619.clone.1.clone.1 = f16[768]{0} convert(f32[768]{0} %param_10.289), metadata={op_type="Cast" op_name="model/bert_pretrainer/bert_encoder_1/transformer/layer_0/output/add/Cast"}
  %broadcast.1662.clone.1.clone.1 = f16[16,512,768]{2,1,0} broadcast(f16[768]{0} %convert.619.clone.1.clone.1), dimensions={2}, metadata={op_type="AddV2" op_name="model/bert_pretrainer/bert_encoder_1/transformer/layer_0/output/add"}
  %param_9.367 = f16[8192,768]{1,0} parameter(9)
  %bitcast.438.clone.1.clone.1 = f16[16,512,768]{2,1,0} bitcast(f16[8192,768]{1,0} %param_9.367), metadata={op_type="Einsum" op_name="model/bert_pretrainer/bert_encoder_1/transformer/layer_0/output/einsum/Einsum"}
  %add.421.clone.1.clone.1 = f16[16,512,768]{2,1,0} add(f16[16,512,768]{2,1,0} %broadcast.1662.clone.1.clone.1, f16[16,512,768]{2,1,0} %bitcast.438.clone.1.clone.1), metadata={op_type="AddV2" op_name="model/bert_pretrainer/bert_encoder_1/transformer/layer_0/output/add"}
  %multiply.921.clone.1.clone.1 = f16[16,512,768]{2,1,0} multiply(f16[16,512,768]{2,1,0} %select.106.clone.1.clone.1, f16[16,512,768]{2,1,0} %add.421.clone.1.clone.1), metadata={op_type="Mul" op_name="model/bert_pretrainer/bert_encoder_1/transformer/layer_0/dropout_2/dropout/Mul_1"}
  %convert.618.clone.1.clone.1 = f32[16,512,768]{2,1,0} convert(f16[16,512,768]{2,1,0} %multiply.921.clone.1.clone.1), metadata={op_type="Cast" op_name="model/bert_pretrainer/bert_encoder_1/transformer/layer_0/Cast_2"}
  %param_8.425 = f32[768]{0} parameter(8)
  %broadcast.1658.clone.1.clone.1 = f32[16,512,768]{2,1,0} broadcast(f32[768]{0} %param_8.425), dimensions={2}, metadata={op_type="Mul" op_name="model/bert_pretrainer/bert_encoder_1/transformer/layer_0/self_attention_layer_norm/batchnorm/mul"}
…
  %fusion.50 = (f32[768]{0}, f32[768]{0}, f32[768]{0}, f32[768]{0}) fusion(f32[16,512]{1,0} %fusion.230, f32[16,512]{1,0} %get-tuple-element.122, f32[16,512,768]{2,1,0} %get-tuple-element.30, f16[16,512,768]{2,1,0} %get-tuple-element.123, f32[16,512]{1,0} %get-tuple-element.118, f32[16,512]{1,0} %fusion.315, f32[768]{0} %arg52.53, f32[768]{0} %arg53.54, f16[8192,768]{1,0} %custom-call.16, f32[768]{0} %arg40.41, f16[16,512,768]{2,1,0} %arg4.5, f16[16,768]{1,0} %custom-call.27, f16[8192,768]{1,0} %fusion.198), kind=kInput, calls=%fused_computation.50, metadata={op_type="Sum" op_name="gradient_tape/model/bert_pretrainer/bert_encoder_1/transformer/layer_1/self_attention_layer_norm/batchnorm/mul/Sum_1"}
  %get-tuple-element.120 = f32[768]{0} get-tuple-element((f32[768]{0}, f32[768]{0}, f32[768]{0}, f32[768]{0}) %fusion.50), index=2
  %get-tuple-element.121 = f32[768]{0} get-tuple-element((f32[768]{0}, f32[768]{0}, f32[768]{0}, f32[768]{0}) %fusion.50), index=3
  %get-tuple-element.27 = f32[768]{0} get-tuple-element((f32[768]{0}, f32[768]{0}, f32[768]{0}, f32[768]{0}) %fusion.50), index=1
  %get-tuple-element.26 = f32[768]{0} get-tuple-element((f32[768]{0}, f32[768]{0}, f32[768]{0}, f32[768]{0}) %fusion.50), index=0
  %fusion.94 = (f32[768]{0}, f32[768]{0}, f32[768]{0}, f32[768]{0}) fusion(f32[16,512]{1,0} %fusion.256, f32[16,512]{1,0} %get-tuple-element.128, f32[16,512,768]{2,1,0} %get-tuple-element.14, f16[16,512,768]{2,1,0} %get-tuple-element.129, f32[16,512]{1,0} %get-tuple-element.124, f32[16,512]{1,0} %fusion.311, f16[16,512,768]{2,1,0} %get-tuple-element.23, f32[768]{0} %arg36.37, f32[768]{0} %arg37.38, f16[8192,768]{1,0} %custom-call.8, f32[768]{0} %arg24.25, f16[16,512,768]{2,1,0} %arg6.7), kind=kInput, calls=%fused_computation.94, metadata={op_type="Sum" op_name="gradient_tape/model/bert_pretrainer/bert_encoder_1/transformer/layer_0/self_attention_layer_norm/batchnorm/mul/Sum_1"}
  %get-tuple-element.126 = f32[768]{0} get-tuple-element((f32[768]{0}, f32[768]{0}, f32[768]{0}, f32[768]{0}) %fusion.94), index=2
  %get-tuple-element.127 = f32[768]{0} get-tuple-element((f32[768]{0}, f32[768]{0}, f32[768]{0}, f32[768]{0}) %fusion.94), index=3
  %get-tuple-element.11 = f32[768]{0} get-tuple-element((f32[768]{0}, f32[768]{0}, f32[768]{0}, f32[768]{0}) %fusion.94), index=1
  %get-tuple-element.10 = f32[768]{0} get-tuple-element((f32[768]{0}, f32[768]{0}, f32[768]{0}, f32[768]{0}) %fusion.94), index=0
  %fusion.137 = f16[8192,768]{1,0} fusion(f16[16,12,64,512]{3,2,1,0} %custom-call.46), kind=kLoop, calls=%fused_computation.137
  %fusion.136 = f16[768,768]{0,1} fusion(f32[768,12,64]{2,1,0} %arg35.36), kind=kLoop, calls=%fused_computation.136
  %custom-call.47 = f16[8192,768]{1,0} custom-call(f16[8192,768]{1,0} %fusion.137, f16[768,768]{0,1} %fusion.136), custom_call_target="__cublas$gemm", backend_config="{\"alpha_real\":1,\"alpha_imag\":0,\"beta\":0,\"dot_dimension_numbers\":{\"lhs_contracting_dimensions\":[\"1\"],\"rhs_contracting_dimensions\":[\"0\"],\"lhs_batch_dimensions\":[],\"rhs_batch_dimensions\":[]},\"batch_size\":\"1\",\"selected_algorithm\":\"110\"}"
  %fusion.140 = f16[8192,768]{1,0} fusion(f16[16,12,512,64]{3,2,1,0} %custom-call.44), kind=kLoop, calls=%fused_computation.140
  %fusion.139 = f16[768,768]{0,1} fusion(f32[768,12,64]{2,1,0} %arg33.34), kind=kLoop, calls=%fused_computation.139
  %custom-call.45 = f16[8192,768]{1,0} custom-call(f16[8192,768]{1,0} %fusion.140, f16[768,768]{0,1} %fusion.139), custom_call_target="__cublas$gemm", backend_config="{\"alpha_real\":1,\"alpha_imag\":0,\"beta\":0,\"dot_dimension_numbers\":{\"lhs_contracting_dimensions\":[\"1\"],\"rhs_contracting_dimensions\":[\"0\"],\"lhs_batch_dimensions\":[],\"rhs_batch_dimensions\":[]},\"batch_size\":\"1\",\"selected_algorithm\":\"110\"}"
  %fusion.142 = f16[8192,768]{1,0} fusion(f16[16,12,512,64]{3,2,1,0} %custom-call.42), kind=kLoop, calls=%fused_computation.142
  %fusion.141 = f16[768,768]{0,1} fusion(f32[768,12,64]{2,1,0} %arg31.32), kind=kLoop, calls=%fused_computation.141
  %custom-call.43 = f16[8192,768]{1,0} custom-call(f16[8192,768]{1,0} %fusion.142, f16[768,768]{0,1} %fusion.141), custom_call_target="__cublas$gemm", backend_config="{\"alpha_real\":1,\"alpha_imag\":0,\"beta\":0,\"dot_dimension_numbers\":{\"lhs_contracting_dimensions\":[\"1\"],\"rhs_contracting_dimensions\":[\"0\"],\"lhs_batch_dimensions\":[],\"rhs_batch_dimensions\":[]},\"batch_size\":\"1\",\"selected_algorithm\":\"110\"}"
  %fusion.131 = (f32[16,512]{1,0}, f32[16,512]{1,0}, f16[16,512,768]{2,1,0}) fusion(f32[768]{0} %arg18.19, f32[16,512]{1,0} %fusion.274, f32[16,512]{1,0} %get-tuple-element.130, f16[16,512,768]{2,1,0} %get-tuple-element.131, f16[8192,768]{1,0} %custom-call.47, f16[8192,768]{1,0} %custom-call.45, f16[8192,768]{1,0} %custom-call.43, f32[16,512]{1,0} %get-tuple-element.12, f32[16,512]{1,0} %get-tuple-element.128, f16[16,512,768]{2,1,0} %get-tuple-element.129, f32[16,512]{1,0} %get-tuple-element.13, f32[16,512,768]{2,1,0} %get-tuple-element.14, f32[768]{0} %arg37.38, f32[16,512]{1,0} %fusion.256, f16[16,512,768]{2,1,0} %arg8.9), kind=kInput, calls=%fused_computation.131, metadata={op_type="Sum" op_name="gradient_tape/model/bert_pretrainer/bert_encoder_1/embeddings/layer_norm/batchnorm/mul_2/Sum"}
  %get-tuple-element.7 = f16[16,512,768]{2,1,0} get-tuple-element((f32[16,512]{1,0}, f32[16,512]{1,0}, f16[16,512,768]{2,1,0}) %fusion.131), index=2
  %fusion.120 = (f32[768]{0}, f32[768]{0}) fusion(f16[16,512,768]{2,1,0} %get-tuple-element.7, f32[16,512]{1,0} %fusion.274, f32[16,512]{1,0} %get-tuple-element.130, f16[16,512,768]{2,1,0} %get-tuple-element.131), kind=kInput, calls=%fused_computation.120, metadata={op_type="Sum" op_name="gradient_tape/model/bert_pretrainer/bert_encoder_1/embeddings/layer_norm/batchnorm/sub/Sum"}
  %get-tuple-element.5 = f32[768]{0} get-tuple-element((f32[768]{0}, f32[768]{0}) %fusion.120), index=0
  %get-tuple-element.6 = f32[768]{0} get-tuple-element((f32[768]{0}, f32[768]{0}) %fusion.120), index=1
  %get-tuple-element.47 = f32[768]{0} get-tuple-element((f32[768]{0}, f16[1216,768]{1,0}, f32[768]{0}, f32[768]{0}) %fusion.18), index=0
  %fusion.81 = (f32[768]{0}, f32[768]{0}, f32[768]{0}, f32[768]{0}) fusion(f16[16,512,768]{2,1,0} %fusion.156, f16[16,512,768]{2,1,0} %fusion.183, f16[16,512,768]{2,1,0} %fusion.176, f16[16,512,768]{2,1,0} %fusion.149), kind=kInput, calls=%fused_computation.81, metadata={op_type="Sum" op_name="gradient_tape/model/bert_pretrainer/bert_encoder_1/transformer/layer_0/output/add/Sum"}
  %get-tuple-element.133 = f32[768]{0} get-tuple-element((f32[768]{0}, f32[768]{0}, f32[768]{0}, f32[768]{0}) %fusion.81), index=1
  %get-tuple-element.134 = f32[768]{0} get-tuple-element((f32[768]{0}, f32[768]{0}, f32[768]{0}, f32[768]{0}) %fusion.81), index=2
  %get-tuple-element.132 = f32[768]{0} get-tuple-element((f32[768]{0}, f32[768]{0}, f32[768]{0}, f32[768]{0}) %fusion.81), index=0
  %get-tuple-element.135 = f32[768]{0} get-tuple-element((f32[768]{0}, f32[768]{0}, f32[768]{0}, f32[768]{0}) %fusion.81), index=3
  %fusion.69 = (pred[], pred[], pred[], pred[], pred[], pred[], pred[], f32[768]{0}, pred[], f32[768]{0}, pred[], f32[768]{0}, pred[], f32[768]{0}, pred[], f32[768]{0}, pred[], f32[768]{0}, pred[], pred[], pred[], pred[], pred[], pred[], pred[], pred[], pred[], pred[], pred[], pred[]) fusion(f32[12,64]{1,0} %get-tuple-element.99, f32[12,64]{1,0} %get-tuple-element.101, f32[12,64]{1,0} %get-tuple-element.96, f32[12,64]{1,0} %get-tuple-element.98, f32[12,64]{1,0} %get-tuple-element.100, f32[12,64]{1,0} %get-tuple-element.97, f32[768]{0} %get-tuple-element.49, f32[768]{0} %get-tuple-element.50, f32[768]{0} %get-tuple-element.120, f32[768]{0} %get-tuple-element.121, f32[768]{0} %get-tuple-element.27, f32[768]{0} %get-tuple-element.26, f32[768]{0} %get-tuple-element.126, f32[768]{0} %get-tuple-element.127, f32[768]{0} %get-tuple-element.11, f32[768]{0} %get-tuple-element.10, f32[768]{0} %get-tuple-element.5, f32[768]{0} %get-tuple-element.6, f32[768]{0} %get-tuple-element.47, f16[16,768]{1,0} %fusion.189, f32[768]{0} %get-tuple-element.133, f32[768]{0} %get-tuple-element.134, f32[768]{0} %get-tuple-element.132, f32[] %arg16.17, f32[768]{0} %get-tuple-element.135), kind=kInput, calls=%fused_computation.69, metadata={op_type="All" op_name="All_22"}
  %get-tuple-element.173 = pred[] get-tuple-element((pred[], pred[], pred[], pred[], pred[], pred[], pred[], f32[768]{0}, pred[], f32[768]{0}, pred[], f32[768]{0}, pred[], f32[768]{0}, pred[], f32[768]{0}, pred[], f32[768]{0}, pred[], pred[], pred[], pred[], pred[], pred[], pred[], pred[], pred[], pred[], pred[], pred[]) %fusion.69), index=29
  %get-tuple-element.172 = pred[] get-tuple-element((pred[], pred[], pred[], pred[], pred[], pred[], pred[], f32[768]{0}, pred[], f32[768]{0}, pred[], f32[768]{0}, pred[], f32[768]{0}, pred[], f32[768]{0}, pred[], f32[768]{0}, pred[], pred[], pred[], pred[], pred[], pred[], pred[], pred[], pred[], pred[], pred[], pred[]) %fusion.69), index=28
  %get-tuple-element.160 = pred[] get-tuple-element((pred[], pred[], pred[], pred[], pred[], pred[], pred[], f32[768]{0}, pred[], f32[768]{0}, pred[], f32[768]{0}, pred[], f32[768]{0}, pred[], f32[768]{0}, pred[], f32[768]{0}, pred[], pred[], pred[], pred[], pred[], pred[], pred[], pred[], pred[], pred[], pred[], pred[]) %fusion.69), index=16
  %custom-call.61 = f16[768,768]{1,0} custom-call(f16[16,768]{1,0} %fusion.197, f16[16,768]{1,0} %fusion.189), custom_call_target="__cublas$gemm", metadata={op_type="MatMul" op_name="gradient_tape/model/bert_pretrainer/bert_encoder_1/pooler_transform/MatMul_1"}, backend_config="{\"alpha_real\":1,\"alpha_imag\":0,\"beta\":0,\"dot_dimension_numbers\":{\"lhs_contracting_dimensions\":[\"0\"],\"rhs_contracting_dimensions\":[\"0\"],\"lhs_batch_dimensions\":[],\"rhs_batch_dimensions\":[]},\"batch_size\":\"1\",\"selected_algorithm\":\"112\"}"
  %custom-call.63 = f16[768,768]{1,0} custom-call(f16[1216,768]{1,0} %fusion.217, f16[1216,768]{1,0} %get-tuple-element.48), custom_call_target="__cublas$gemm", metadata={op_type="MatMul" op_name="gradient_tape/model/bert_pretrainer/cls/predictions/transform/dense/MatMul_1"}, backend_config="{\"alpha_real\":1,\"alpha_imag\":0,\"beta\":0,\"dot_dimension_numbers\":{\"lhs_contracting_dimensions\":[\"0\"],\"rhs_contracting_dimensions\":[\"0\"],\"lhs_batch_dimensions\":[],\"rhs_batch_dimensions\":[]},\"batch_size\":\"1\",\"selected_algorithm\":\"115\"}"
  %fusion.30 = (f32[768,768]{1,0}, f32[768,768]{1,0}) fusion(f16[768,768]{1,0} %custom-call.61, f32[] %arg16.17, f16[768,768]{1,0} %custom-call.63), kind=kLoop, calls=%fused_computation.30, metadata={op_type="Mul" op_name="mul_38"}
  %get-tuple-element.109 = f32[768,768]{1,0} get-tuple-element((f32[768,768]{1,0}, f32[768,768]{1,0}) %fusion.30), index=1
  %fusion.118 = f16[768,8192]{1,0} fusion(f16[16,12,512,64]{3,2,1,0} %custom-call.44), kind=kLoop, calls=%fused_computation.118
  %custom-call.49 = f16[768,768]{1,0} custom-call(f16[768,8192]{1,0} %fusion.118, f16[8192,768]{1,0} %bitcast.61), custom_call_target="__cublas$gemm", backend_config="{\"alpha_real\":1,\"alpha_imag\":0,\"beta\":0,\"dot_dimension_numbers\":{\"lhs_contracting_dimensions\":[\"1\"],\"rhs_contracting_dimensions\":[\"0\"],\"lhs_batch_dimensions\":[],\"rhs_batch_dimensions\":[]},\"batch_size\":\"1\",\"selected_algorithm\":\"103\"}"
  %fusion.112 = f16[768,8192]{1,0} fusion(f16[16,12,512,64]{3,2,1,0} %custom-call.42), kind=kLoop, calls=%fused_computation.112
  %custom-call.50 = f16[768,768]{1,0} custom-call(f16[768,8192]{1,0} %fusion.112, f16[8192,768]{1,0} %bitcast.61), custom_call_target="__cublas$gemm", backend_config="{\"alpha_real\":1,\"alpha_imag\":0,\"beta\":0,\"dot_dimension_numbers\":{\"lhs_contracting_dimensions\":[\"1\"],\"rhs_contracting_dimensions\":[\"0\"],\"lhs_batch_dimensions\":[],\"rhs_batch_dimensions\":[]},\"batch_size\":\"1\",\"selected_algorithm\":\"103\"}"
  %fusion.106 = f16[768,8192]{1,0} fusion(f16[16,12,64,512]{3,2,1,0} %custom-call.46), kind=kLoop, calls=%fused_computation.106
  %custom-call.51 = f16[768,768]{1,0} custom-call(f16[768,8192]{1,0} %fusion.106, f16[8192,768]{1,0} %bitcast.61), custom_call_target="__cublas$gemm", backend_config="{\"alpha_real\":1,\"alpha_imag\":0,\"beta\":0,\"dot_dimension_numbers\":{\"lhs_contracting_dimensions\":[\"1\"],\"rhs_contracting_dimensions\":[\"0\"],\"lhs_batch_dimensions\":[],\"rhs_batch_dimensions\":[]},\"batch_size\":\"1\",\"selected_algorithm\":\"103\"}"
  %fusion.74 = f16[768,8192]{1,0} fusion(f16[16,12,512,64]{3,2,1,0} %custom-call.34), kind=kLoop, calls=%fused_computation.74
  %custom-call.55 = f16[768,768]{1,0} custom-call(f16[768,8192]{1,0} %fusion.74, f16[8192,768]{1,0} %bitcast.72), custom_call_target="__cublas$gemm", backend_config="{\"alpha_real\":1,\"alpha_imag\":0,\"beta\":0,\"dot_dimension_numbers\":{\"lhs_contracting_dimensions\":[\"1\"],\"rhs_contracting_dimensions\":[\"0\"],\"lhs_batch_dimensions\":[],\"rhs_batch_dimensions\":[]},\"batch_size\":\"1\",\"selected_algorithm\":\"103\"}"
  %fusion.68 = f16[768,8192]{1,0} fusion(f16[16,12,512,64]{3,2,1,0} %custom-call.32), kind=kLoop, calls=%fused_computation.68
  %custom-call.56 = f16[768,768]{1,0} custom-call(f16[768,8192]{1,0} %fusion.68, f16[8192,768]{1,0} %bitcast.72), custom_call_target="__cublas$gemm", backend_config="{\"alpha_real\":1,\"alpha_imag\":0,\"beta\":0,\"dot_dimension_numbers\":{\"lhs_contracting_dimensions\":[\"1\"],\"rhs_contracting_dimensions\":[\"0\"],\"lhs_batch_dimensions\":[],\"rhs_batch_dimensions\":[]},\"batch_size\":\"1\",\"selected_algorithm\":\"103\"}"
  %fusion.62 = f16[768,8192]{1,0} fusion(f16[16,12,64,512]{3,2,1,0} %custom-call.36), kind=kLoop, calls=%fused_computation.62
  %custom-call.57 = f16[768,768]{1,0} custom-call(f16[768,8192]{1,0} %fusion.62, f16[8192,768]{1,0} %bitcast.72), custom_call_target="__cublas$gemm", backend_config="{\"alpha_real\":1,\"alpha_imag\":0,\"beta\":0,\"dot_dimension_numbers\":{\"lhs_contracting_dimensions\":[\"1\"],\"rhs_contracting_dimensions\":[\"0\"],\"lhs_batch_dimensions\":[],\"rhs_batch_dimensions\":[]},\"batch_size\":\"1\",\"selected_algorithm\":\"103\"}"
  %fusion.117 = (f32[768,12,64]{2,1,0}, f32[768,12,64]{2,1,0}, f32[768,12,64]{2,1,0}, f32[768,12,64]{2,1,0}, f32[768,12,64]{2,1,0}, f32[768,12,64]{2,1,0}) fusion(f16[768,768]{1,0} %custom-call.49, f32[] %arg16.17, f16[768,768]{1,0} %custom-call.50, f16[768,768]{1,0} %custom-call.51, f16[768,768]{1,0} %custom-call.55, f16[768,768]{1,0} %custom-call.56, f16[768,768]{1,0} %custom-call.57), kind=kLoop, calls=%fused_computation.117, metadata={op_type="Mul" op_name="mul_6"}
  %get-tuple-element.90 = f32[768,12,64]{2,1,0} get-tuple-element((f32[768,12,64]{2,1,0}, f32[768,12,64]{2,1,0}, f32[768,12,64]{2,1,0}, f32[768,12,64]{2,1,0}, f32[768,12,64]{2,1,0}, f32[768,12,64]{2,1,0}) %fusion.117), index=0
  %get-tuple-element.91 = f32[768,12,64]{2,1,0} get-tuple-element((f32[768,12,64]{2,1,0}, f32[768,12,64]{2,1,0}, f32[768,12,64]{2,1,0}, f32[768,12,64]{2,1,0}, f32[768,12,64]{2,1,0}, f32[768,12,64]{2,1,0}) %fusion.117), index=1
  %get-tuple-element.92 = f32[768,12,64]{2,1,0} get-tuple-element((f32[768,12,64]{2,1,0}, f32[768,12,64]{2,1,0}, f32[768,12,64]{2,1,0}, f32[768,12,64]{2,1,0}, f32[768,12,64]{2,1,0}, f32[768,12,64]{2,1,0}) %fusion.117), index=2
  %fusion.100 = f16[768,8192]{0,1} fusion(f16[16,512,768]{2,1,0} %fusion.149), kind=kLoop, calls=%fused_computation.100
  %custom-call.52 = f16[768,768]{1,0} custom-call(f16[768,8192]{0,1} %fusion.100, f16[8192,768]{1,0} %fusion.261), custom_call_target="__cublas$gemm", backend_config="{\"alpha_real\":1,\"alpha_imag\":0,\"beta\":0,\"dot_dimension_numbers\":{\"lhs_contracting_dimensions\":[\"1\"],\"rhs_contracting_dimensions\":[\"0\"],\"lhs_batch_dimensions\":[],\"rhs_batch_dimensions\":[]},\"batch_size\":\"1\",\"selected_algorithm\":\"112\"}"
  %fusion.56 = f16[768,8192]{0,1} fusion(f16[16,512,768]{2,1,0} %fusion.176), kind=kLoop, calls=%fused_computation.56
  %custom-call.58 = f16[768,768]{1,0} custom-call(f16[768,8192]{0,1} %fusion.56, f16[8192,768]{1,0} %fusion.235), custom_call_target="__cublas$gemm", backend_config="{\"alpha_real\":1,\"alpha_imag\":0,\"beta\":0,\"dot_dimension_numbers\":{\"lhs_contracting_dimensions\":[\"1\"],\"rhs_contracting_dimensions\":[\"0\"],\"lhs_batch_dimensions\":[],\"rhs_batch_dimensions\":[]},\"batch_size\":\"1\",\"selected_algorithm\":\"112\"}"
  %fusion.99 = (f32[12,64,768]{2,1,0}, f32[12,64,768]{2,1,0}) fusion(f16[768,768]{1,0} %custom-call.52, f32[] %arg16.17, f16[768,768]{1,0} %custom-call.58), kind=kLoop, calls=%fused_computation.99, metadata={op_type="Mul" op_name="mul_12"}
  %get-tuple-element.103 = f32[12,64,768]{2,1,0} get-tuple-element((f32[12,64,768]{2,1,0}, f32[12,64,768]{2,1,0}) %fusion.99), index=1
  %get-tuple-element.108 = f32[768,768]{1,0} get-tuple-element((f32[768,768]{1,0}, f32[768,768]{1,0}) %fusion.30), index=0
  %get-tuple-element.93 = f32[768,12,64]{2,1,0} get-tuple-element((f32[768,12,64]{2,1,0}, f32[768,12,64]{2,1,0}, f32[768,12,64]{2,1,0}, f32[768,12,64]{2,1,0}, f32[768,12,64]{2,1,0}, f32[768,12,64]{2,1,0}) %fusion.117), index=3
  %get-tuple-element.95 = f32[768,12,64]{2,1,0} get-tuple-element((f32[768,12,64]{2,1,0}, f32[768,12,64]{2,1,0}, f32[768,12,64]{2,1,0}, f32[768,12,64]{2,1,0}, f32[768,12,64]{2,1,0}, f32[768,12,64]{2,1,0}) %fusion.117), index=5
  %get-tuple-element.102 = f32[12,64,768]{2,1,0} get-tuple-element((f32[12,64,768]{2,1,0}, f32[12,64,768]{2,1,0}) %fusion.99), index=0
  %get-tuple-element.94 = f32[768,12,64]{2,1,0} get-tuple-element((f32[768,12,64]{2,1,0}, f32[768,12,64]{2,1,0}, f32[768,12,64]{2,1,0}, f32[768,12,64]{2,1,0}, f32[768,12,64]{2,1,0}, f32[768,12,64]{2,1,0}) %fusion.117), index=4
  %fusion.19 = (pred[], pred[], pred[], pred[], pred[], pred[], pred[], pred[], pred[], pred[]) fusion(f32[768,768]{1,0} %get-tuple-element.109, f32[768,12,64]{2,1,0} %get-tuple-element.90, f32[768,12,64]{2,1,0} %get-tuple-element.91, f32[768,12,64]{2,1,0} %get-tuple-element.92, f32[12,64,768]{2,1,0} %get-tuple-element.103, f32[768,768]{1,0} %get-tuple-element.108, f32[768,12,64]{2,1,0} %get-tuple-element.93, f32[768,12,64]{2,1,0} %get-tuple-element.95, f32[12,64,768]{2,1,0} %get-tuple-element.102, f32[768,12,64]{2,1,0} %get-tuple-element.94), kind=kInput, calls=%fused_computation.19, metadata={op_type="All" op_name="All_42"}
  %get-tuple-element.176 = pred[] get-tuple-element((pred[], pred[], pred[], pred[], pred[], pred[], pred[], pred[], pred[], pred[]) %fusion.19), index=0
  %fusion.23 = f32[30522]{0} fusion(s32[16,76]{1,0} %arg10.11, f32[1216,30522]{1,0} %get-tuple-element.114, f32[1216]{0} %get-tuple-element.113, f32[16,76]{1,0} %arg12.13, f32[] %fusion.281, f32[] %get-tuple-element.110), kind=kInput, calls=%fused_computation.23, metadata={op_type="BiasAddGrad" op_name="gradient_tape/model/bert_pretrainer/cls/predictions/BiasAdd/BiasAddGrad"}
  %fusion.21 = (pred[], f32[30522]{0}) fusion(f32[] %arg16.17, f32[30522]{0} %fusion.23), kind=kInput, calls=%fused_computation.21, metadata={op_type="All" op_name="All_41"}
  %get-tuple-element.43 = pred[] get-tuple-element((pred[], f32[30522]{0}) %fusion.21), index=0
  %fusion.24 = f32[2]{0} fusion(f16[16,2]{1,0} %fusion.190, f32[] %arg16.17), kind=kLoop, calls=%fused_computation.24, metadata={op_type="Mul" op_name="mul_41"}
  %get-tuple-element.3 = f32[16,512]{1,0} get-tuple-element((f32[16,512]{1,0}, f32[16,512]{1,0}, f16[16,512,768]{2,1,0}) %fusion.131), index=0
  %get-tuple-element.4 = f32[16,512]{1,0} get-tuple-element((f32[16,512]{1,0}, f32[16,512]{1,0}, f16[16,512,768]{2,1,0}) %fusion.131), index=1
  %fusion.130 = f16[16,512,768]{2,1,0} fusion(f32[16,512]{1,0} %get-tuple-element.3, f32[16,512]{1,0} %get-tuple-element.4, f16[16,512,768]{2,1,0} %get-tuple-element.7, f32[768]{0} %arg18.19, f32[16,512]{1,0} %get-tuple-element.130, f16[16,512,768]{2,1,0} %get-tuple-element.131, f32[16,512]{1,0} %fusion.274), kind=kLoop, calls=%fused_computation.130, metadata={op_type="Cast" op_name="gradient_tape/model/bert_pretrainer/bert_encoder_1/Cast/Cast"}
  %bitcast.139 = f16[8192,768]{1,0} bitcast(f16[16,512,768]{2,1,0} %fusion.130), metadata={op_type="Reshape" op_name="gradient_tape/model/bert_pretrainer/bert_encoder_1/word_embeddings/Reshape"}
  %custom-call.48 = f16[8,768]{1,0} custom-call(f16[8192,8]{1,0} %fusion.280, f16[8192,768]{1,0} %bitcast.139), custom_call_target="__cublas$gemm", metadata={op_type="MatMul" op_name="gradient_tape/model/bert_pretrainer/bert_encoder_1/type_embeddings/MatMul/MatMul"}, backend_config="{\"alpha_real\":1,\"alpha_imag\":0,\"beta\":0,\"dot_dimension_numbers\":{\"lhs_contracting_dimensions\":[\"0\"],\"rhs_contracting_dimensions\":[\"0\"],\"lhs_batch_dimensions\":[],\"rhs_batch_dimensions\":[]},\"batch_size\":\"1\",\"selected_algorithm\":\"112\"}"
  %fusion.124 = f32[2,768]{1,0} fusion(f16[8,768]{1,0} %custom-call.48, f32[] %arg16.17), kind=kLoop, calls=%fused_computation.124, metadata={op_type="Mul" op_name="mul_3"}
  %custom-call.62 = f16[768,8]{1,0} custom-call(f16[16,768]{1,0} %tanh.831, f16[16,8]{1,0} %pad.6), custom_call_target="__cublas$gemm", metadata={op_type="MatMul" op_name="gradient_tape/model/bert_pretrainer/classification/predictions/transform/logits/MatMul_1"}, backend_config="{\"alpha_real\":1,\"alpha_imag\":0,\"beta\":0,\"dot_dimension_numbers\":{\"lhs_contracting_dimensions\":[\"0\"],\"rhs_contracting_dimensions\":[\"0\"],\"lhs_batch_dimensions\":[],\"rhs_batch_dimensions\":[]},\"batch_size\":\"1\",\"selected_algorithm\":\"104\"}"
  %fusion.26 = f32[768,2]{1,0} fusion(f16[768,8]{1,0} %custom-call.62, f32[] %arg16.17), kind=kLoop, calls=%fused_computation.26, metadata={op_type="Mul" op_name="mul_40"}
  %fusion.123 = (pred[], pred[]) fusion(f32[2,768]{1,0} %fusion.124, f32[768,2]{1,0} %fusion.26), kind=kInput, calls=%fused_computation.123, metadata={op_type="All" op_name="All_2"}
  %get-tuple-element.175 = pred[] get-tuple-element((pred[], pred[]) %fusion.123), index=1
  %get-tuple-element.158 = pred[] get-tuple-element((pred[], pred[], pred[], pred[], pred[], pred[], pred[], f32[768]{0}, pred[], f32[768]{0}, pred[], f32[768]{0}, pred[], f32[768]{0}, pred[], f32[768]{0}, pred[], f32[768]{0}, pred[], pred[], pred[], pred[], pred[], pred[], pred[], pred[], pred[], pred[], pred[], pred[]) %fusion.69), index=14
  %get-tuple-element.181 = pred[] get-tuple-element((pred[], pred[], pred[], pred[], pred[], pred[], pred[], pred[], pred[], pred[]) %fusion.19), index=5
  %get-tuple-element.171 = pred[] get-tuple-element((pred[], pred[], pred[], pred[], pred[], pred[], pred[], f32[768]{0}, pred[], f32[768]{0}, pred[], f32[768]{0}, pred[], f32[768]{0}, pred[], f32[768]{0}, pred[], f32[768]{0}, pred[], pred[], pred[], pred[], pred[], pred[], pred[], pred[], pred[], pred[], pred[], pred[]) %fusion.69), index=27
  %get-tuple-element.170 = pred[] get-tuple-element((pred[], pred[], pred[], pred[], pred[], pred[], pred[], f32[768]{0}, pred[], f32[768]{0}, pred[], f32[768]{0}, pred[], f32[768]{0}, pred[], f32[768]{0}, pred[], f32[768]{0}, pred[], pred[], pred[], pred[], pred[], pred[], pred[], pred[], pred[], pred[], pred[], pred[]) %fusion.69), index=26
  %get-tuple-element.156 = pred[] get-tuple-element((pred[], pred[], pred[], pred[], pred[], pred[], pred[], f32[768]{0}, pred[], f32[768]{0}, pred[], f32[768]{0}, pred[], f32[768]{0}, pred[], f32[768]{0}, pred[], f32[768]{0}, pred[], pred[], pred[], pred[], pred[], pred[], pred[], pred[], pred[], pred[], pred[], pred[]) %fusion.69), index=12
  %fusion.90 = f16[3072,8192]{0,1} fusion(f16[16,512,3072]{2,1,0} %fusion.155), kind=kLoop, calls=%fused_computation.90
  %custom-call.53 = f16[768,3072]{1,0} custom-call(f16[8192,768]{1,0} %fusion.253, f16[3072,8192]{0,1} %fusion.90), custom_call_target="__cublas$gemm", metadata={op_type="Einsum" op_name="gradient_tape/model/bert_pretrainer/bert_encoder_1/transformer/layer_0/intermediate/einsum/Einsum_1"}, backend_config="{\"alpha_real\":1,\"alpha_imag\":0,\"beta\":0,\"dot_dimension_numbers\":{\"lhs_contracting_dimensions\":[\"0\"],\"rhs_contracting_dimensions\":[\"1\"],\"lhs_batch_dimensions\":[],\"rhs_batch_dimensions\":[]},\"batch_size\":\"1\",\"selected_algorithm\":\"110\"}"
  %fusion.46 = f16[3072,8192]{0,1} fusion(f16[16,512,3072]{2,1,0} %fusion.182), kind=kLoop, calls=%fused_computation.46
  %custom-call.59 = f16[768,3072]{1,0} custom-call(f16[8192,768]{1,0} %fusion.227, f16[3072,8192]{0,1} %fusion.46), custom_call_target="__cublas$gemm", metadata={op_type="Einsum" op_name="gradient_tape/model/bert_pretrainer/bert_encoder_1/transformer/layer_1/intermediate/einsum/Einsum_1"}, backend_config="{\"alpha_real\":1,\"alpha_imag\":0,\"beta\":0,\"dot_dimension_numbers\":{\"lhs_contracting_dimensions\":[\"0\"],\"rhs_contracting_dimensions\":[\"1\"],\"lhs_batch_dimensions\":[],\"rhs_batch_dimensions\":[]},\"batch_size\":\"1\",\"selected_algorithm\":\"110\"}"
  %fusion.89 = (f32[768,3072]{1,0}, f32[768,3072]{1,0}) fusion(f16[768,3072]{1,0} %custom-call.53, f32[] %arg16.17, f16[768,3072]{1,0} %custom-call.59), kind=kLoop, calls=%fused_computation.89, metadata={op_type="Mul" op_name="mul_16"}
  %get-tuple-element.105 = f32[768,3072]{1,0} get-tuple-element((f32[768,3072]{1,0}, f32[768,3072]{1,0}) %fusion.89), index=1
  %get-tuple-element.104 = f32[768,3072]{1,0} get-tuple-element((f32[768,3072]{1,0}, f32[768,3072]{1,0}) %fusion.89), index=0
  %fusion.84 = f16[768,8192]{0,1} fusion(f16[16,512,768]{2,1,0} %fusion.156), kind=kLoop, calls=%fused_computation.84
  %custom-call.54 = f16[3072,768]{1,0} custom-call(f16[8192,3072]{1,0} %fusion.250, f16[768,8192]{0,1} %fusion.84), custom_call_target="__cublas$gemm", metadata={op_type="Einsum" op_name="gradient_tape/model/bert_pretrainer/bert_encoder_1/transformer/layer_0/output/einsum/Einsum_1"}, backend_config="{\"alpha_real\":1,\"alpha_imag\":0,\"beta\":0,\"dot_dimension_numbers\":{\"lhs_contracting_dimensions\":[\"0\"],\"rhs_contracting_dimensions\":[\"1\"],\"lhs_batch_dimensions\":[],\"rhs_batch_dimensions\":[]},\"batch_size\":\"1\",\"selected_algorithm\":\"110\"}"
  %fusion.40 = f16[768,8192]{0,1} fusion(f16[16,512,768]{2,1,0} %fusion.183), kind=kLoop, calls=%fused_computation.40
  %custom-call.60 = f16[3072,768]{1,0} custom-call(f16[8192,3072]{1,0} %fusion.224, f16[768,8192]{0,1} %fusion.40), custom_call_target="__cublas$gemm", metadata={op_type="Einsum" op_name="gradient_tape/model/bert_pretrainer/bert_encoder_1/transformer/layer_1/output/einsum/Einsum_1"}, backend_config="{\"alpha_real\":1,\"alpha_imag\":0,\"beta\":0,\"dot_dimension_numbers\":{\"lhs_contracting_dimensions\":[\"0\"],\"rhs_contracting_dimensions\":[\"1\"],\"lhs_batch_dimensions\":[],\"rhs_batch_dimensions\":[]},\"batch_size\":\"1\",\"selected_algorithm\":\"110\"}"
  %fusion.83 = (f32[3072,768]{1,0}, f32[3072,768]{1,0}) fusion(f16[3072,768]{1,0} %custom-call.54, f32[] %arg16.17, f16[3072,768]{1,0} %custom-call.60), kind=kLoop, calls=%fused_computation.83, metadata={op_type="Mul" op_name="mul_18"}
  %get-tuple-element.107 = f32[3072,768]{1,0} get-tuple-element((f32[3072,768]{1,0}, f32[3072,768]{1,0}) %fusion.83), index=1
  %get-tuple-element.106 = f32[3072,768]{1,0} get-tuple-element((f32[3072,768]{1,0}, f32[3072,768]{1,0}) %fusion.83), index=0
  %fusion.44 = (pred[], pred[], pred[], pred[]) fusion(f32[768,3072]{1,0} %get-tuple-element.105, f32[768,3072]{1,0} %get-tuple-element.104, f32[3072,768]{1,0} %get-tuple-element.107, f32[3072,768]{1,0} %get-tuple-element.106), kind=kInput, calls=%fused_computation.44, metadata={op_type="All" op_name="All_31"}
  %get-tuple-element.188 = pred[] get-tuple-element((pred[], pred[], pred[], pred[]) %fusion.44), index=2
  %fusion.87 = (f32[3072]{0}, f32[3072]{0}) fusion(f16[16,512,3072]{2,1,0} %fusion.155, f16[16,512,3072]{2,1,0} %fusion.182), kind=kInput, calls=%fused_computation.87, metadata={op_type="Sum" op_name="gradient_tape/model/bert_pretrainer/bert_encoder_1/transformer/layer_0/intermediate/add/Sum"}
  %get-tuple-element.136 = f32[3072]{0} get-tuple-element((f32[3072]{0}, f32[3072]{0}) %fusion.87), index=0
  %get-tuple-element.137 = f32[3072]{0} get-tuple-element((f32[3072]{0}, f32[3072]{0}) %fusion.87), index=1
  %fusion.85 = (pred[], f32[3072]{0}, pred[], f32[3072]{0}) fusion(f32[] %arg16.17, f32[3072]{0} %get-tuple-element.136, f32[3072]{0} %get-tuple-element.137), kind=kInput, calls=%fused_computation.85, metadata={op_type="All" op_name="All_16"}
  %get-tuple-element.76 = pred[] get-tuple-element((pred[], f32[3072]{0}, pred[], f32[3072]{0}) %fusion.85), index=2
  %get-tuple-element.186 = pred[] get-tuple-element((pred[], pred[], pred[], pred[]) %fusion.44), index=0
  %get-tuple-element.169 = pred[] get-tuple-element((pred[], pred[], pred[], pred[], pred[], pred[], pred[], f32[768]{0}, pred[], f32[768]{0}, pred[], f32[768]{0}, pred[], f32[768]{0}, pred[], f32[768]{0}, pred[], f32[768]{0}, pred[], pred[], pred[], pred[], pred[], pred[], pred[], pred[], pred[], pred[], pred[], pred[]) %fusion.69), index=25
  %get-tuple-element.168 = pred[] get-tuple-element((pred[], pred[], pred[], pred[], pred[], pred[], pred[], f32[768]{0}, pred[], f32[768]{0}, pred[], f32[768]{0}, pred[], f32[768]{0}, pred[], f32[768]{0}, pred[], f32[768]{0}, pred[], pred[], pred[], pred[], pred[], pred[], pred[], pred[], pred[], pred[], pred[], pred[]) %fusion.69), index=24
  %get-tuple-element.154 = pred[] get-tuple-element((pred[], pred[], pred[], pred[], pred[], pred[], pred[], f32[768]{0}, pred[], f32[768]{0}, pred[], f32[768]{0}, pred[], f32[768]{0}, pred[], f32[768]{0}, pred[], f32[768]{0}, pred[], pred[], pred[], pred[], pred[], pred[], pred[], pred[], pred[], pred[], pred[], pred[]) %fusion.69), index=10
  %get-tuple-element.180 = pred[] get-tuple-element((pred[], pred[], pred[], pred[], pred[], pred[], pred[], pred[], pred[], pred[]) %fusion.19), index=4
  %get-tuple-element.145 = pred[] get-tuple-element((pred[], pred[], pred[], pred[], pred[], pred[], pred[], f32[768]{0}, pred[], f32[768]{0}, pred[], f32[768]{0}, pred[], f32[768]{0}, pred[], f32[768]{0}, pred[], f32[768]{0}, pred[], pred[], pred[], pred[], pred[], pred[], pred[], pred[], pred[], pred[], pred[], pred[]) %fusion.69), index=1
  %get-tuple-element.183 = pred[] get-tuple-element((pred[], pred[], pred[], pred[], pred[], pred[], pred[], pred[], pred[], pred[]) %fusion.19), index=7
  %get-tuple-element.148 = pred[] get-tuple-element((pred[], pred[], pred[], pred[], pred[], pred[], pred[], f32[768]{0}, pred[], f32[768]{0}, pred[], f32[768]{0}, pred[], f32[768]{0}, pred[], f32[768]{0}, pred[], f32[768]{0}, pred[], pred[], pred[], pred[], pred[], pred[], pred[], pred[], pred[], pred[], pred[], pred[]) %fusion.69), index=4
  %get-tuple-element.185 = pred[] get-tuple-element((pred[], pred[], pred[], pred[], pred[], pred[], pred[], pred[], pred[], pred[]) %fusion.19), index=9
  %get-tuple-element.144 = pred[] get-tuple-element((pred[], pred[], pred[], pred[], pred[], pred[], pred[], f32[768]{0}, pred[], f32[768]{0}, pred[], f32[768]{0}, pred[], f32[768]{0}, pred[], f32[768]{0}, pred[], f32[768]{0}, pred[], pred[], pred[], pred[], pred[], pred[], pred[], pred[], pred[], pred[], pred[], pred[]) %fusion.69), index=0
  %get-tuple-element.182 = pred[] get-tuple-element((pred[], pred[], pred[], pred[], pred[], pred[], pred[], pred[], pred[], pred[]) %fusion.19), index=6
  %get-tuple-element.167 = pred[] get-tuple-element((pred[], pred[], pred[], pred[], pred[], pred[], pred[], f32[768]{0}, pred[], f32[768]{0}, pred[], f32[768]{0}, pred[], f32[768]{0}, pred[], f32[768]{0}, pred[], f32[768]{0}, pred[], pred[], pred[], pred[], pred[], pred[], pred[], pred[], pred[], pred[], pred[], pred[]) %fusion.69), index=23
  %get-tuple-element.166 = pred[] get-tuple-element((pred[], pred[], pred[], pred[], pred[], pred[], pred[], f32[768]{0}, pred[], f32[768]{0}, pred[], f32[768]{0}, pred[], f32[768]{0}, pred[], f32[768]{0}, pred[], f32[768]{0}, pred[], pred[], pred[], pred[], pred[], pred[], pred[], pred[], pred[], pred[], pred[], pred[]) %fusion.69), index=22
  %get-tuple-element.152 = pred[] get-tuple-element((pred[], pred[], pred[], pred[], pred[], pred[], pred[], f32[768]{0}, pred[], f32[768]{0}, pred[], f32[768]{0}, pred[], f32[768]{0}, pred[], f32[768]{0}, pred[], f32[768]{0}, pred[], pred[], pred[], pred[], pred[], pred[], pred[], pred[], pred[], pred[], pred[], pred[]) %fusion.69), index=8
  %get-tuple-element.189 = pred[] get-tuple-element((pred[], pred[], pred[], pred[]) %fusion.44), index=3
  %get-tuple-element.15 = pred[] get-tuple-element((pred[], f32[3072]{0}, pred[], f32[3072]{0}) %fusion.85), index=0
  %get-tuple-element.187 = pred[] get-tuple-element((pred[], pred[], pred[], pred[]) %fusion.44), index=1
  %get-tuple-element.165 = pred[] get-tuple-element((pred[], pred[], pred[], pred[], pred[], pred[], pred[], f32[768]{0}, pred[], f32[768]{0}, pred[], f32[768]{0}, pred[], f32[768]{0}, pred[], f32[768]{0}, pred[], f32[768]{0}, pred[], pred[], pred[], pred[], pred[], pred[], pred[], pred[], pred[], pred[], pred[], pred[]) %fusion.69), index=21
  %get-tuple-element.164 = pred[] get-tuple-element((pred[], pred[], pred[], pred[], pred[], pred[], pred[], f32[768]{0}, pred[], f32[768]{0}, pred[], f32[768]{0}, pred[], f32[768]{0}, pred[], f32[768]{0}, pred[], f32[768]{0}, pred[], pred[], pred[], pred[], pred[], pred[], pred[], pred[], pred[], pred[], pred[], pred[]) %fusion.69), index=20
  %get-tuple-element.150 = pred[] get-tuple-element((pred[], pred[], pred[], pred[], pred[], pred[], pred[], f32[768]{0}, pred[], f32[768]{0}, pred[], f32[768]{0}, pred[], f32[768]{0}, pred[], f32[768]{0}, pred[], f32[768]{0}, pred[], pred[], pred[], pred[], pred[], pred[], pred[], pred[], pred[], pred[], pred[], pred[]) %fusion.69), index=6
  %get-tuple-element.184 = pred[] get-tuple-element((pred[], pred[], pred[], pred[], pred[], pred[], pred[], pred[], pred[], pred[]) %fusion.19), index=8
  %get-tuple-element.147 = pred[] get-tuple-element((pred[], pred[], pred[], pred[], pred[], pred[], pred[], f32[768]{0}, pred[], f32[768]{0}, pred[], f32[768]{0}, pred[], f32[768]{0}, pred[], f32[768]{0}, pred[], f32[768]{0}, pred[], pred[], pred[], pred[], pred[], pred[], pred[], pred[], pred[], pred[], pred[], pred[]) %fusion.69), index=3
  %get-tuple-element.179 = pred[] get-tuple-element((pred[], pred[], pred[], pred[], pred[], pred[], pred[], pred[], pred[], pred[]) %fusion.19), index=3
  %get-tuple-element.149 = pred[] get-tuple-element((pred[], pred[], pred[], pred[], pred[], pred[], pred[], f32[768]{0}, pred[], f32[768]{0}, pred[], f32[768]{0}, pred[], f32[768]{0}, pred[], f32[768]{0}, pred[], f32[768]{0}, pred[], pred[], pred[], pred[], pred[], pred[], pred[], pred[], pred[], pred[], pred[], pred[]) %fusion.69), index=5
  %get-tuple-element.178 = pred[] get-tuple-element((pred[], pred[], pred[], pred[], pred[], pred[], pred[], pred[], pred[], pred[]) %fusion.19), index=2
  %get-tuple-element.146 = pred[] get-tuple-element((pred[], pred[], pred[], pred[], pred[], pred[], pred[], f32[768]{0}, pred[], f32[768]{0}, pred[], f32[768]{0}, pred[], f32[768]{0}, pred[], f32[768]{0}, pred[], f32[768]{0}, pred[], pred[], pred[], pred[], pred[], pred[], pred[], pred[], pred[], pred[], pred[], pred[]) %fusion.69), index=2
  %get-tuple-element.177 = pred[] get-tuple-element((pred[], pred[], pred[], pred[], pred[], pred[], pred[], pred[], pred[], pred[]) %fusion.19), index=1
  %get-tuple-element.163 = pred[] get-tuple-element((pred[], pred[], pred[], pred[], pred[], pred[], pred[], f32[768]{0}, pred[], f32[768]{0}, pred[], f32[768]{0}, pred[], f32[768]{0}, pred[], f32[768]{0}, pred[], f32[768]{0}, pred[], pred[], pred[], pred[], pred[], pred[], pred[], pred[], pred[], pred[], pred[], pred[]) %fusion.69), index=19
  %get-tuple-element.162 = pred[] get-tuple-element((pred[], pred[], pred[], pred[], pred[], pred[], pred[], f32[768]{0}, pred[], f32[768]{0}, pred[], f32[768]{0}, pred[], f32[768]{0}, pred[], f32[768]{0}, pred[], f32[768]{0}, pred[], pred[], pred[], pred[], pred[], pred[], pred[], pred[], pred[], pred[], pred[], pred[]) %fusion.69), index=18
  %get-tuple-element.174 = pred[] get-tuple-element((pred[], pred[]) %fusion.123), index=0
  %custom-call.20 = f16[30528,768]{1,0} custom-call(f16[1216,30528]{1,0} %fusion.318, f16[1216,768]{1,0} %fusion.209), custom_call_target="__cublas$gemm", metadata={op_type="MatMul" op_name="gradient_tape/model/bert_pretrainer/cls/predictions/MatMul/MatMul_1"}, backend_config="{\"alpha_real\":1,\"alpha_imag\":0,\"beta\":0,\"dot_dimension_numbers\":{\"lhs_contracting_dimensions\":[\"0\"],\"rhs_contracting_dimensions\":[\"0\"],\"lhs_batch_dimensions\":[],\"rhs_batch_dimensions\":[]},\"batch_size\":\"1\",\"selected_algorithm\":\"110\"}"
  %fusion.129 = f32[30522,768]{1,0} fusion(f16[30528,768]{1,0} %custom-call.20, f16[16,512,768]{2,1,0} %fusion.130, s32[16,512]{1,0} %arg14.15), kind=kInput, calls=%fused_computation.129, metadata={op_type="UnsortedSegmentSum" op_name="AddN_20/inputs_1"}
  %fusion.128 = f32[30522,768]{1,0} fusion(f32[30522,768]{1,0} %fusion.129, f32[] %arg16.17), kind=kLoop, calls=%fused_computation.128, metadata={op_type="Mul" op_name="mul_1"}
  %fusion.127 = pred[] fusion(f32[30522,768]{1,0} %fusion.128), kind=kInput, calls=%fused_computation.127, metadata={op_type="All" op_name="All"}
  %fusion.126 = f32[512,768]{1,0} fusion(f16[16,512,768]{2,1,0} %fusion.130, f32[] %arg16.17), kind=kLoop, calls=%fused_computation.126, metadata={op_type="Mul" op_name="mul_2"}
  %fusion.125 = pred[] fusion(f32[512,768]{1,0} %fusion.126), kind=kInput, calls=%fused_computation.125, metadata={op_type="All" op_name="All_1"}
  %fusion.11 = pred[] fusion(pred[] %get-tuple-element.173, pred[] %get-tuple-element.172, pred[] %get-tuple-element.160, pred[] %get-tuple-element.176, pred[] %get-tuple-element.43, f32[2]{0} %fusion.24, pred[] %get-tuple-element.175, pred[] %get-tuple-element.158, pred[] %get-tuple-element.181, pred[] %get-tuple-element.171, pred[] %get-tuple-element.170, pred[] %get-tuple-element.156, pred[] %get-tuple-element.188, pred[] %get-tuple-element.76, pred[] %get-tuple-element.186, pred[] %get-tuple-element.169, pred[] %get-tuple-element.168, pred[] %get-tuple-element.154, pred[] %get-tuple-element.180, pred[] %get-tuple-element.145, pred[] %get-tuple-element.183, pred[] %get-tuple-element.148, pred[] %get-tuple-element.185, pred[] %get-tuple-element.144, pred[] %get-tuple-element.182, pred[] %get-tuple-element.167, pred[] %get-tuple-element.166, pred[] %get-tuple-element.152, pred[] %get-tuple-element.189, pred[] %get-tuple-element.15, pred[] %get-tuple-element.187, pred[] %get-tuple-element.165, pred[] %get-tuple-element.164, pred[] %get-tuple-element.150, pred[] %get-tuple-element.184, pred[] %get-tuple-element.147, pred[] %get-tuple-element.179, pred[] %get-tuple-element.149, pred[] %get-tuple-element.178, pred[] %get-tuple-element.146, pred[] %get-tuple-element.177, pred[] %get-tuple-element.163, pred[] %get-tuple-element.162, pred[] %get-tuple-element.174, pred[] %fusion.127, pred[] %fusion.125), kind=kLoop, calls=%fused_computation.11, metadata={op_type="Equal" op_name="Equal"}
  %get-tuple-element.151 = f32[768]{0} get-tuple-element((pred[], pred[], pred[], pred[], pred[], pred[], pred[], f32[768]{0}, pred[], f32[768]{0}, pred[], f32[768]{0}, pred[], f32[768]{0}, pred[], f32[768]{0}, pred[], f32[768]{0}, pred[], pred[], pred[], pred[], pred[], pred[], pred[], pred[], pred[], pred[], pred[], pred[]) %fusion.69), index=7
  %fusion.298 = (f32[768]{0}, f32[768]{0}, f32[768]{0}, f32[768]{0}, f32[768]{0}, f32[768]{0}, f32[768]{0}, f32[768]{0}, f32[768]{0}, f32[768]{0}, f32[768]{0}, f32[768]{0}) fusion(f32[768]{0} %get-tuple-element.49, f32[] %arg16.17, f32[768]{0} %get-tuple-element.6, f32[768]{0} %get-tuple-element.5, f32[768]{0} %get-tuple-element.10, f32[768]{0} %get-tuple-element.11, f32[768]{0} %get-tuple-element.127, f32[768]{0} %get-tuple-element.126, f32[768]{0} %get-tuple-element.26, f32[768]{0} %get-tuple-element.27, f32[768]{0} %get-tuple-element.121, f32[768]{0} %get-tuple-element.120, f32[768]{0} %get-tuple-element.50), kind=kLoop, calls=%fused_computation.298, metadata={op_type="Mul" op_name="mul_46"}
  %get-tuple-element.81 = f32[768]{0} get-tuple-element((f32[768]{0}, f32[768]{0}, f32[768]{0}, f32[768]{0}, f32[768]{0}, f32[768]{0}, f32[768]{0}, f32[768]{0}, f32[768]{0}, f32[768]{0}, f32[768]{0}, f32[768]{0}) %fusion.298), index=3
  %get-tuple-element.82 = f32[768]{0} get-tuple-element((f32[768]{0}, f32[768]{0}, f32[768]{0}, f32[768]{0}, f32[768]{0}, f32[768]{0}, f32[768]{0}, f32[768]{0}, f32[768]{0}, f32[768]{0}, f32[768]{0}, f32[768]{0}) %fusion.298), index=4
  %get-tuple-element.153 = f32[768]{0} get-tuple-element((pred[], pred[], pred[], pred[], pred[], pred[], pred[], f32[768]{0}, pred[], f32[768]{0}, pred[], f32[768]{0}, pred[], f32[768]{0}, pred[], f32[768]{0}, pred[], f32[768]{0}, pred[], pred[], pred[], pred[], pred[], pred[], pred[], pred[], pred[], pred[], pred[], pred[]) %fusion.69), index=9
  %get-tuple-element.83 = f32[768]{0} get-tuple-element((f32[768]{0}, f32[768]{0}, f32[768]{0}, f32[768]{0}, f32[768]{0}, f32[768]{0}, f32[768]{0}, f32[768]{0}, f32[768]{0}, f32[768]{0}, f32[768]{0}, f32[768]{0}) %fusion.298), index=5
  %get-tuple-element.84 = f32[768]{0} get-tuple-element((f32[768]{0}, f32[768]{0}, f32[768]{0}, f32[768]{0}, f32[768]{0}, f32[768]{0}, f32[768]{0}, f32[768]{0}, f32[768]{0}, f32[768]{0}, f32[768]{0}, f32[768]{0}) %fusion.298), index=6
  %get-tuple-element.155 = f32[768]{0} get-tuple-element((pred[], pred[], pred[], pred[], pred[], pred[], pred[], f32[768]{0}, pred[], f32[768]{0}, pred[], f32[768]{0}, pred[], f32[768]{0}, pred[], f32[768]{0}, pred[], f32[768]{0}, pred[], pred[], pred[], pred[], pred[], pred[], pred[], pred[], pred[], pred[], pred[], pred[]) %fusion.69), index=11
  %get-tuple-element.85 = f32[768]{0} get-tuple-element((f32[768]{0}, f32[768]{0}, f32[768]{0}, f32[768]{0}, f32[768]{0}, f32[768]{0}, f32[768]{0}, f32[768]{0}, f32[768]{0}, f32[768]{0}, f32[768]{0}, f32[768]{0}) %fusion.298), index=7
  %get-tuple-element.79 = f32[768]{0} get-tuple-element((f32[768]{0}, f32[768]{0}, f32[768]{0}, f32[768]{0}, f32[768]{0}, f32[768]{0}, f32[768]{0}, f32[768]{0}, f32[768]{0}, f32[768]{0}, f32[768]{0}, f32[768]{0}) %fusion.298), index=1
  %get-tuple-element.86 = f32[768]{0} get-tuple-element((f32[768]{0}, f32[768]{0}, f32[768]{0}, f32[768]{0}, f32[768]{0}, f32[768]{0}, f32[768]{0}, f32[768]{0}, f32[768]{0}, f32[768]{0}, f32[768]{0}, f32[768]{0}) %fusion.298), index=8
  %get-tuple-element.77 = f32[3072]{0} get-tuple-element((pred[], f32[3072]{0}, pred[], f32[3072]{0}) %fusion.85), index=3
  %get-tuple-element.157 = f32[768]{0} get-tuple-element((pred[], pred[], pred[], pred[], pred[], pred[], pred[], f32[768]{0}, pred[], f32[768]{0}, pred[], f32[768]{0}, pred[], f32[768]{0}, pred[], f32[768]{0}, pred[], f32[768]{0}, pred[], pred[], pred[], pred[], pred[], pred[], pred[], pred[], pred[], pred[], pred[], pred[]) %fusion.69), index=13
  %get-tuple-element.87 = f32[768]{0} get-tuple-element((f32[768]{0}, f32[768]{0}, f32[768]{0}, f32[768]{0}, f32[768]{0}, f32[768]{0}, f32[768]{0}, f32[768]{0}, f32[768]{0}, f32[768]{0}, f32[768]{0}, f32[768]{0}) %fusion.298), index=9
  %get-tuple-element.88 = f32[768]{0} get-tuple-element((f32[768]{0}, f32[768]{0}, f32[768]{0}, f32[768]{0}, f32[768]{0}, f32[768]{0}, f32[768]{0}, f32[768]{0}, f32[768]{0}, f32[768]{0}, f32[768]{0}, f32[768]{0}) %fusion.298), index=10
  %get-tuple-element.159 = f32[768]{0} get-tuple-element((pred[], pred[], pred[], pred[], pred[], pred[], pred[], f32[768]{0}, pred[], f32[768]{0}, pred[], f32[768]{0}, pred[], f32[768]{0}, pred[], f32[768]{0}, pred[], f32[768]{0}, pred[], pred[], pred[], pred[], pred[], pred[], pred[], pred[], pred[], pred[], pred[], pred[]) %fusion.69), index=15
  %get-tuple-element.80 = f32[768]{0} get-tuple-element((f32[768]{0}, f32[768]{0}, f32[768]{0}, f32[768]{0}, f32[768]{0}, f32[768]{0}, f32[768]{0}, f32[768]{0}, f32[768]{0}, f32[768]{0}, f32[768]{0}, f32[768]{0}) %fusion.298), index=2
  %get-tuple-element.44 = f32[30522]{0} get-tuple-element((pred[], f32[30522]{0}) %fusion.21), index=1
  %get-tuple-element.161 = f32[768]{0} get-tuple-element((pred[], pred[], pred[], pred[], pred[], pred[], pred[], f32[768]{0}, pred[], f32[768]{0}, pred[], f32[768]{0}, pred[], f32[768]{0}, pred[], f32[768]{0}, pred[], f32[768]{0}, pred[], pred[], pred[], pred[], pred[], pred[], pred[], pred[], pred[], pred[], pred[], pred[]) %fusion.69), index=17
  %get-tuple-element.89 = f32[768]{0} get-tuple-element((f32[768]{0}, f32[768]{0}, f32[768]{0}, f32[768]{0}, f32[768]{0}, f32[768]{0}, f32[768]{0}, f32[768]{0}, f32[768]{0}, f32[768]{0}, f32[768]{0}, f32[768]{0}) %fusion.298), index=11
  %get-tuple-element.78 = f32[768]{0} get-tuple-element((f32[768]{0}, f32[768]{0}, f32[768]{0}, f32[768]{0}, f32[768]{0}, f32[768]{0}, f32[768]{0}, f32[768]{0}, f32[768]{0}, f32[768]{0}, f32[768]{0}, f32[768]{0}) %fusion.298), index=0
  %get-tuple-element.16 = f32[3072]{0} get-tuple-element((pred[], f32[3072]{0}, pred[], f32[3072]{0}) %fusion.85), index=1
  %arg67.68 = f32[] parameter(67), parameter_replication={false}, metadata={op_name="XLA_Args"}
  %get-tuple-element.41 = f32[16]{0} get-tuple-element((f32[16]{0}, f32[16]{0}) %fusion.328), index=0
  %fusion.10 = f32[] fusion(f32[16]{0} %get-tuple-element.41, s32[16,1]{1,0} %arg13.14, f32[16]{0} %fusion.193, f32[2]{0} %arg55.56, f16[16,8]{1,0} %custom-call.25), kind=kInput, calls=%fused_computation.10, metadata={op_type="Mean" op_name="model/bert_pretrain_loss_and_metric_layer/Mean"}
  %get-tuple-element.111 = f32[] get-tuple-element((f32[], f32[], f32[]) %fusion.282), index=1
  %arg65.66 = f32[] parameter(65), parameter_replication={false}, metadata={op_name="XLA_Args"}
  %arg63.64 = f32[] parameter(63), parameter_replication={false}, metadata={op_name="XLA_Args"}
  %arg66.67 = f32[] parameter(66), parameter_replication={false}, metadata={op_name="XLA_Args"}
  %get-tuple-element.112 = f32[] get-tuple-element((f32[], f32[], f32[]) %fusion.282), index=2
  %fusion = (f32[], f32[], f32[], f32[]) fusion(f32[] %arg67.68, f32[] %fusion.10, f32[] %get-tuple-element.111, f32[] %get-tuple-element.110, f32[] %arg65.66, f32[] %arg63.64, f32[] %arg66.67, f32[] %get-tuple-element.112), kind=kLoop, calls=%fused_computation, metadata={op_type="AssignAddVariableOp" op_name="AssignAddVariableOp"}
  %get-tuple-element.2 = f32[] get-tuple-element((f32[], f32[], f32[], f32[]) %fusion), index=2
  %arg64.65 = f32[] parameter(64), parameter_replication={false}, metadata={op_name="XLA_Args"}
  %fusion.9 = s64[16]{0} fusion(f32[16]{0} %fusion.193, f32[2]{0} %arg55.56, f16[16,8]{1,0} %custom-call.25), kind=kLoop, calls=%fused_computation.9, metadata={op_type="ArgMax" op_name="model/bert_pretrain_loss_and_metric_layer/ArgMax_1"}
  %fusion.8 = f32[] fusion(f32[] %arg64.65, s32[16,1]{1,0} %arg13.14, s64[16]{0} %fusion.9), kind=kLoop, calls=%fused_computation.8, metadata={op_type="AssignAddVariableOp" op_name="model/bert_pretrain_loss_and_metric_layer/AssignAddVariableOp_4"}
  %get-tuple-element.1 = f32[] get-tuple-element((f32[], f32[], f32[], f32[]) %fusion), index=1
  %get-tuple-element.53 = f32[] get-tuple-element((f32[], f32[], f32[], f32[]) %fusion), index=3
  %get-tuple-element = f32[] get-tuple-element((f32[], f32[], f32[], f32[]) %fusion), index=0
  ROOT %tuple.113 = (f32[], pred[], f32[768,12,64]{2,1,0}, f32[30522,768]{1,0}, f32[512,768]{1,0}, f32[12,64]{1,0}, f32[12,64,768]{2,1,0}, f32[768]{0}, f32[768]{0}, f32[768]{0}, f32[768,3072]{1,0}, f32[3072,768]{1,0}, f32[768]{0}, f32[768]{0}, f32[2,768]{1,0}, f32[768]{0}, f32[768,12,64]{2,1,0}, f32[12,64]{1,0}, f32[768,12,64]{2,1,0}, f32[12,64]{1,0}, f32[768,12,64]{2,1,0}, f32[12,64]{1,0}, f32[12,64,768]{2,1,0}, f32[768]{0}, f32[768]{0}, f32[768]{0}, f32[768]{0}, f32[768,3072]{1,0}, f32[3072]{0}, f32[3072,768]{1,0}, f32[768]{0}, f32[768]{0}, f32[768]{0}, f32[768,768]{1,0}, f32[768]{0}, f32[768,2]{1,0}, f32[768]{0}, f32[2]{0}, f32[30522]{0}, f32[768,768]{1,0}, f32[768]{0}, f32[768]{0}, f32[768]{0}, f32[768,12,64]{2,1,0}, f32[12,64]{1,0}, f32[768,12,64]{2,1,0}, f32[12,64]{1,0}, f32[3072]{0}, f32[], f32[], f32[], f32[], f32[]) tuple(f32[] %copy.142, pred[] %fusion.11, f32[768,12,64]{2,1,0} %get-tuple-element.92, f32[30522,768]{1,0} %fusion.128, f32[512,768]{1,0} %fusion.126, f32[12,64]{1,0} %get-tuple-element.98, f32[12,64,768]{2,1,0} %get-tuple-element.102, f32[768]{0} %get-tuple-element.151, f32[768]{0} %get-tuple-element.81, f32[768]{0} %get-tuple-element.82, f32[768,3072]{1,0} %get-tuple-element.104, f32[3072,768]{1,0} %get-tuple-element.106, f32[768]{0} %get-tuple-element.153, f32[768]{0} %get-tuple-element.83, f32[2,768]{1,0} %fusion.124, f32[768]{0} %get-tuple-element.84, f32[768,12,64]{2,1,0} %get-tuple-element.93, f32[12,64]{1,0} %get-tuple-element.99, f32[768,12,64]{2,1,0} %get-tuple-element.94, f32[12,64]{1,0} %get-tuple-element.100, f32[768,12,64]{2,1,0} %get-tuple-element.95, f32[12,64]{1,0} %get-tuple-element.101, f32[12,64,768]{2,1,0} %get-tuple-element.103, f32[768]{0} %get-tuple-element.155, f32[768]{0} %get-tuple-element.85, f32[768]{0} %get-tuple-element.79, f32[768]{0} %get-tuple-element.86, f32[768,3072]{1,0} %get-tuple-element.105, f32[3072]{0} %get-tuple-element.77, f32[3072,768]{1,0} %get-tuple-element.107, f32[768]{0} %get-tuple-element.157, f32[768]{0} %get-tuple-element.87, f32[768]{0} %get-tuple-element.88, f32[768,768]{1,0} %get-tuple-element.108, f32[768]{0} %get-tuple-element.159, f32[768,2]{1,0} %fusion.26, f32[768]{0} %get-tuple-element.80, f32[2]{0} %fusion.24, f32[30522]{0} %get-tuple-element.44, f32[768,768]{1,0} %get-tuple-element.109, f32[768]{0} %get-tuple-element.161, f32[768]{0} %get-tuple-element.89, f32[768]{0} %get-tuple-element.78, f32[768,12,64]{2,1,0} %get-tuple-element.90, f32[12,64]{1,0} %get-tuple-element.96, f32[768,12,64]{2,1,0} %get-tuple-element.91, f32[12,64]{1,0} %get-tuple-element.97, f32[3072]{0} %get-tuple-element.16, f32[] %get-tuple-element.2, f32[] %fusion.8, f32[] %get-tuple-element.1, f32[] %get-tuple-element.53, f32[] %get-tuple-element)
}

