HloModule cluster_0__XlaCompiledKernel_true__XlaHasReferenceVars_false__XlaNumConstantArgs_120__XlaNumResourceArgs_146_.3712

%max_half_.415 (x.416: f16[], y.417: f16[]) -> f16[] {
  %x.416 = f16[] parameter(0)
  %y.417 = f16[] parameter(1)
  ROOT %maximum.418 = f16[] maximum(f16[] %x.416, f16[] %y.417)
}

%add_float_.425 (x.426: f32[], y.427: f32[]) -> f32[] {
  %x.426 = f32[] parameter(0)
  %y.427 = f32[] parameter(1)
  ROOT %add.428 = f32[] add(f32[] %x.426, f32[] %y.427)
}

%max_half_.591 (x.592: f16[], y.593: f16[]) -> f16[] {
  %x.592 = f16[] parameter(0)
  %y.593 = f16[] parameter(1)
  ROOT %maximum.594 = f16[] maximum(f16[] %x.592, f16[] %y.593)
}

%add_float_.601 (x.602: f32[], y.603: f32[]) -> f32[] {
  %x.602 = f32[] parameter(0)
  %y.603 = f32[] parameter(1)
  ROOT %add.604 = f32[] add(f32[] %x.602, f32[] %y.603)
}

%gradient_tape_model_bert_pretrainer_bert_encoder_1_transformer_layer_1_self_attention_softmax_Sum-reduction.1354 (x.1355: f32[], y.1356: f32[]) -> f32[] {
  %x.1355 = f32[] parameter(0)
  %y.1356 = f32[] parameter(1)
  ROOT %add.1357 = f32[] add(f32[] %x.1355, f32[] %y.1356)
}

%gradient_tape_model_bert_pretrainer_bert_encoder_1_transformer_layer_0_self_attention_softmax_Sum-reduction.1612 (x.1613: f32[], y.1614: f32[]) -> f32[] {
  %x.1613 = f32[] parameter(0)
  %y.1614 = f32[] parameter(1)
  ROOT %add.1615 = f32[] add(f32[] %x.1613, f32[] %y.1614)
}

%Mean-reduction.1950 (x.1951: f32[], y.1952: f32[]) -> f32[] {
  %x.1951 = f32[] parameter(0)
  %y.1952 = f32[] parameter(1)
  ROOT %add.1953 = f32[] add(f32[] %x.1951, f32[] %y.1952)
}

%fused_computation (param_0: f32[], param_1.1656: f32[], param_2.1726: f32[], param_3.1122: f32[], param_4.703: f32[], param_5.452: f32[], param_6.798: f32[], param_7.834: f32[]) -> (f32[], f32[], f32[], f32[]) {
  %param_0 = f32[] parameter(0)
  %param_1.1656 = f32[] parameter(1)
  %constant_71 = f32[] constant(0.0625)
  %multiply.519 = f32[] multiply(f32[] %param_1.1656, f32[] %constant_71), metadata={op_type="Mean" op_name="model/bert_pretrain_loss_and_metric_layer/Mean"}
  %param_3.1122 = f32[] parameter(3)
  %constant_72 = f32[] constant(0), metadata={op_type="Sum" op_name="model/bert_pretrain_loss_and_metric_layer/Sum_3"}
  %compare.116 = pred[] compare(f32[] %param_3.1122, f32[] %constant_72), direction=EQ, metadata={op_type="DivNoNan" op_name="gradient_tape/model/bert_pretrain_loss_and_metric_layer/div_no_nan/div_no_nan"}
  %param_2.1726 = f32[] parameter(2)
  %divide.77 = f32[] divide(f32[] %param_2.1726, f32[] %param_3.1122), metadata={op_type="DivNoNan" op_name="model/bert_pretrain_loss_and_metric_layer/div_no_nan"}
  %select.114 = f32[] select(pred[] %compare.116, f32[] %constant_72, f32[] %divide.77), metadata={op_type="DivNoNan" op_name="model/bert_pretrain_loss_and_metric_layer/div_no_nan"}
  %add.8 = f32[] add(f32[] %multiply.519, f32[] %select.114), metadata={op_type="AddV2" op_name="model/bert_pretrain_loss_and_metric_layer/add"}
  %broadcast.192 = f32[16]{0} broadcast(f32[] %add.8), dimensions={}
  %reduce.41 = f32[] reduce(f32[16]{0} %broadcast.192, f32[] %constant_72), dimensions={0}, to_apply=%Mean-reduction.1950, metadata={op_type="Mean" op_name="Mean"}
  %multiply.93 = f32[] multiply(f32[] %reduce.41, f32[] %constant_71), metadata={op_type="Mean" op_name="Mean"}
  %add.7 = f32[] add(f32[] %param_0, f32[] %multiply.93), metadata={op_type="AssignAddVariableOp" op_name="AssignAddVariableOp"}
  %param_4.703 = f32[] parameter(4)
  %add.600.clone.1 = f32[] add(f32[] %param_4.703, f32[] %select.114), metadata={op_type="AssignAddVariableOp" op_name="model/bert_pretrain_loss_and_metric_layer/AssignAddVariableOp_2"}
  %param_5.452 = f32[] parameter(5)
  %add.228.clone.1 = f32[] add(f32[] %param_5.452, f32[] %multiply.519), metadata={op_type="AssignAddVariableOp" op_name="model/bert_pretrain_loss_and_metric_layer/AssignAddVariableOp_6"}
  %param_6.798 = f32[] parameter(6)
  %param_7.834 = f32[] parameter(7)
  %constant_64_clone_1 = f32[] constant(1e-05), metadata={op_type="AddV2" op_name="model/bert_pretrain_loss_and_metric_layer/add_1"}
  %add.10.clone.1 = f32[] add(f32[] %param_3.1122, f32[] %constant_64_clone_1), metadata={op_type="AddV2" op_name="model/bert_pretrain_loss_and_metric_layer/add_1"}
  %divide.0.clone.1 = f32[] divide(f32[] %param_7.834, f32[] %add.10.clone.1), metadata={op_type="RealDiv" op_name="model/bert_pretrain_loss_and_metric_layer/truediv"}
  %add.9.clone.1 = f32[] add(f32[] %param_6.798, f32[] %divide.0.clone.1), metadata={op_type="AssignAddVariableOp" op_name="model/bert_pretrain_loss_and_metric_layer/AssignAddVariableOp"}
  ROOT %tuple.142 = (f32[], f32[], f32[], f32[]) tuple(f32[] %add.7, f32[] %add.600.clone.1, f32[] %add.228.clone.1, f32[] %add.9.clone.1)
}

%model_bert_pretrain_loss_and_metric_layer_Sum_2-reduction.1986 (x.1987: f32[], y.1988: f32[]) -> f32[] {
  %x.1987 = f32[] parameter(0)
  %y.1988 = f32[] parameter(1)
  ROOT %add.1989 = f32[] add(f32[] %x.1987, f32[] %y.1988)
}

%model_bert_pretrain_loss_and_metric_layer_Sum_3-reduction.195 (x.196: f32[], y.197: f32[]) -> f32[] {
  %x.196 = f32[] parameter(0)
  %y.197 = f32[] parameter(1)
  ROOT %add.198 = f32[] add(f32[] %x.196, f32[] %y.197)
}

%model_bert_pretrain_loss_and_metric_layer_Sum-reduction.1932 (x.1933: f32[], y.1934: f32[]) -> f32[] {
  %x.1933 = f32[] parameter(0)
  %y.1934 = f32[] parameter(1)
  ROOT %add.1935 = f32[] add(f32[] %x.1933, f32[] %y.1934)
}

%fused_computation.2 (param_0.1071: s32[16,76], param_1.1477: s64[16,76], param_2.1394: f32[16,76], param_3.1279: f32[1216]) -> (f32[], f32[], f32[]) {
  %param_0.1071 = s32[16,76]{1,0} parameter(0)
  %param_1.1477 = s64[16,76]{1,0} parameter(1)
  %convert.25 = s32[16,76]{1,0} convert(s64[16,76]{1,0} %param_1.1477), metadata={op_type="Cast" op_name="model/bert_pretrain_loss_and_metric_layer/Cast_7"}
  %compare.0 = pred[16,76]{1,0} compare(s32[16,76]{1,0} %param_0.1071, s32[16,76]{1,0} %convert.25), direction=EQ, metadata={op_type="Equal" op_name="model/bert_pretrain_loss_and_metric_layer/Equal"}
  %param_2.1394 = f32[16,76]{1,0} parameter(2)
  %convert.461 = s32[16,76]{1,0} convert(f32[16,76]{1,0} %param_2.1394), metadata={op_type="Cast" op_name="model/Cast"}
  %convert.460 = f32[16,76]{1,0} convert(s32[16,76]{1,0} %convert.461), metadata={op_type="Cast" op_name="model/bert_pretrain_loss_and_metric_layer/Cast"}
  %constant_73 = f32[] constant(0), metadata={op_type="Sum" op_name="model/bert_pretrain_loss_and_metric_layer/Sum_3"}
  %broadcast.193 = f32[16,76]{1,0} broadcast(f32[] %constant_73), dimensions={}
  %select.19 = f32[16,76]{1,0} select(pred[16,76]{1,0} %compare.0, f32[16,76]{1,0} %convert.460, f32[16,76]{1,0} %broadcast.193), metadata={op_type="Mul" op_name="model/bert_pretrain_loss_and_metric_layer/mul_1"}
  %bitcast.140 = f32[1216]{0} bitcast(f32[16,76]{1,0} %select.19)
  %reduce.42 = f32[] reduce(f32[1216]{0} %bitcast.140, f32[] %constant_73), dimensions={0}, to_apply=%model_bert_pretrain_loss_and_metric_layer_Sum_2-reduction.1986, metadata={op_type="Sum" op_name="model/bert_pretrain_loss_and_metric_layer/Sum_2"}
  %bitcast.238.clone.1 = f32[1216]{0} bitcast(f32[16,76]{1,0} %convert.460)
  %reduce.92.clone.1 = f32[] reduce(f32[1216]{0} %bitcast.238.clone.1, f32[] %constant_73), dimensions={0}, to_apply=%model_bert_pretrain_loss_and_metric_layer_Sum_3-reduction.195, metadata={op_type="Sum" op_name="model/bert_pretrain_loss_and_metric_layer/Sum_3"}
  %param_3.1279 = f32[1216]{0} parameter(3)
  %bitcast.143.clone.1 = f32[16,76]{1,0} bitcast(f32[1216]{0} %param_3.1279), metadata={op_type="Reshape" op_name="model/bert_pretrain_loss_and_metric_layer/SparseSoftmaxCrossEntropyWithLogits/Reshape_2"}
  %multiply.94.clone.1 = f32[16,76]{1,0} multiply(f32[16,76]{1,0} %convert.460, f32[16,76]{1,0} %bitcast.143.clone.1), metadata={op_type="Mul" op_name="model/bert_pretrain_loss_and_metric_layer/mul"}
  %bitcast.142.clone.1 = f32[1216]{0} bitcast(f32[16,76]{1,0} %multiply.94.clone.1)
  %reduce.44.clone.1 = f32[] reduce(f32[1216]{0} %bitcast.142.clone.1, f32[] %constant_73), dimensions={0}, to_apply=%model_bert_pretrain_loss_and_metric_layer_Sum-reduction.1932, metadata={op_type="Sum" op_name="model/bert_pretrain_loss_and_metric_layer/Sum"}
  ROOT %tuple.144 = (f32[], f32[], f32[]) tuple(f32[] %reduce.42, f32[] %reduce.92.clone.1, f32[] %reduce.44.clone.1)
}

%min_S64.1974 (lhs.1975: s64[], rhs.1976: s64[]) -> s64[] {
  %lhs.1975 = s64[] parameter(0)
  %rhs.1976 = s64[] parameter(1)
  ROOT %minimum.1977 = s64[] minimum(s64[] %lhs.1975, s64[] %rhs.1976)
}

%fused_computation.3 (param_0.1224: f32[16,76], param_1.1667: f32[30522], param_2.1734: f16[1216,30528]) -> s64[16,76] {
  %param_2.1734 = f16[1216,30528]{1,0} parameter(2)
  %slice.45 = f16[1216,30522]{1,0} slice(f16[1216,30528]{1,0} %param_2.1734), slice={[0:1216], [0:30522]}, metadata={op_type="MatMul" op_name="model/bert_pretrainer/cls/predictions/MatMul"}
  %param_1.1667 = f32[30522]{0} parameter(1)
  %convert.819 = f16[30522]{0} convert(f32[30522]{0} %param_1.1667), metadata={op_type="Cast" op_name="model/bert_pretrainer/cls/predictions/BiasAdd/Cast"}
  %broadcast.2104 = f16[1216,30522]{1,0} broadcast(f16[30522]{0} %convert.819), dimensions={1}, metadata={op_type="BiasAdd" op_name="model/bert_pretrainer/cls/predictions/BiasAdd"}
  %add.605 = f16[1216,30522]{1,0} add(f16[1216,30522]{1,0} %slice.45, f16[1216,30522]{1,0} %broadcast.2104), metadata={op_type="BiasAdd" op_name="model/bert_pretrainer/cls/predictions/BiasAdd"}
  %convert.818 = f32[1216,30522]{1,0} convert(f16[1216,30522]{1,0} %add.605), metadata={op_type="Cast" op_name="model/bert_pretrain_loss_and_metric_layer/ArithmeticOptimizer/ReorderCastLikeAndValuePreserving_float_Cast_1"}
  %bitcast.456 = f32[16,76,30522]{2,1,0} bitcast(f32[1216,30522]{1,0} %convert.818), metadata={op_type="Cast" op_name="model/bert_pretrain_loss_and_metric_layer/Cast_1"}
  %param_0.1224 = f32[16,76]{1,0} parameter(0)
  %broadcast.195 = f32[16,76,30522]{2,1,0} broadcast(f32[16,76]{1,0} %param_0.1224), dimensions={0,1}, metadata={op_type="ArgMax" op_name="model/bert_pretrain_loss_and_metric_layer/ArgMax"}
  %compare.1 = pred[16,76,30522]{2,1,0} compare(f32[16,76,30522]{2,1,0} %bitcast.456, f32[16,76,30522]{2,1,0} %broadcast.195), direction=EQ, metadata={op_type="ArgMax" op_name="model/bert_pretrain_loss_and_metric_layer/ArgMax"}
  %iota.0 = s64[16,76,30522]{2,1,0} iota(), iota_dimension=2, metadata={op_type="ArgMax" op_name="model/bert_pretrain_loss_and_metric_layer/ArgMax"}
  %constant_74 = s64[] constant(9223372036854775807), metadata={op_type="ArgMax" op_name="model/bert_pretrain_loss_and_metric_layer/ArgMax_1"}
  %broadcast.194 = s64[16,76,30522]{2,1,0} broadcast(s64[] %constant_74), dimensions={}, metadata={op_type="ArgMax" op_name="model/bert_pretrain_loss_and_metric_layer/ArgMax"}
  %select.20 = s64[16,76,30522]{2,1,0} select(pred[16,76,30522]{2,1,0} %compare.1, s64[16,76,30522]{2,1,0} %iota.0, s64[16,76,30522]{2,1,0} %broadcast.194), metadata={op_type="ArgMax" op_name="model/bert_pretrain_loss_and_metric_layer/ArgMax"}
  ROOT %reduce.43 = s64[16,76]{1,0} reduce(s64[16,76,30522]{2,1,0} %select.20, s64[] %constant_74), dimensions={2}, to_apply=%min_S64.1974, metadata={op_type="ArgMax" op_name="model/bert_pretrain_loss_and_metric_layer/ArgMax"}
}

%add_float_.1037 (x.1038: f32[], y.1039: f32[]) -> f32[] {
  %x.1038 = f32[] parameter(0)
  %y.1039 = f32[] parameter(1)
  ROOT %add.1040 = f32[] add(f32[] %x.1038, f32[] %y.1039)
}

%fused_computation.7 (param_0.1063: f32[1216], param_1.1474: s32[16,76], param_2.1391: f32[1216], param_3.830: f32[30522], param_4.524: f16[1216,30528]) -> f32[1216] {
  %param_1.1474 = s32[16,76]{1,0} parameter(1)
  %convert.416 = f32[16,76]{1,0} convert(s32[16,76]{1,0} %param_1.1474), metadata={op_type="Cast" op_name="model/bert_pretrain_loss_and_metric_layer/Cast_2"}
  %convert.415 = s64[16,76]{1,0} convert(f32[16,76]{1,0} %convert.416), metadata={op_type="Cast" op_name="model/bert_pretrain_loss_and_metric_layer/ArithmeticOptimizer/ReorderCastLikeAndValuePreserving_int64_Cast_3"}
  %bitcast.310 = s64[1216]{0} bitcast(s64[16,76]{1,0} %convert.415), metadata={op_type="Cast" op_name="model/bert_pretrain_loss_and_metric_layer/ArithmeticOptimizer/ReorderCastLikeAndValuePreserving_int64_Cast_3"}
  %broadcast.1484 = s64[1216,30522]{1,0} broadcast(s64[1216]{0} %bitcast.310), dimensions={0}, metadata={op_type="SparseSoftmaxCrossEntropyWithLogits" op_name="model/bert_pretrain_loss_and_metric_layer/SparseSoftmaxCrossEntropyWithLogits/SparseSoftmaxCrossEntropyWithLogits"}
  %iota.10 = s64[1216,30522]{1,0} iota(), iota_dimension=1, metadata={op_type="SparseSoftmaxCrossEntropyWithLogits" op_name="model/bert_pretrain_loss_and_metric_layer/SparseSoftmaxCrossEntropyWithLogits/SparseSoftmaxCrossEntropyWithLogits"}
  %compare.74 = pred[1216,30522]{1,0} compare(s64[1216,30522]{1,0} %broadcast.1484, s64[1216,30522]{1,0} %iota.10), direction=EQ, metadata={op_type="SparseSoftmaxCrossEntropyWithLogits" op_name="model/bert_pretrain_loss_and_metric_layer/SparseSoftmaxCrossEntropyWithLogits/SparseSoftmaxCrossEntropyWithLogits"}
  %constant_976 = f32[] constant(1), metadata={op_type="SparseSoftmaxCrossEntropyWithLogits" op_name="model/bert_pretrain_loss_and_metric_layer/SparseSoftmaxCrossEntropyWithLogits_1/SparseSoftmaxCrossEntropyWithLogits"}
  %broadcast.1483 = f32[1216,30522]{1,0} broadcast(f32[] %constant_976), dimensions={}, metadata={op_type="SparseSoftmaxCrossEntropyWithLogits" op_name="model/bert_pretrain_loss_and_metric_layer/SparseSoftmaxCrossEntropyWithLogits/SparseSoftmaxCrossEntropyWithLogits"}
  %constant_77 = f32[] constant(0), metadata={op_type="Sum" op_name="model/bert_pretrain_loss_and_metric_layer/Sum_3"}
  %broadcast.1482 = f32[1216,30522]{1,0} broadcast(f32[] %constant_77), dimensions={}, metadata={op_type="SparseSoftmaxCrossEntropyWithLogits" op_name="model/bert_pretrain_loss_and_metric_layer/SparseSoftmaxCrossEntropyWithLogits/SparseSoftmaxCrossEntropyWithLogits"}
  %select.78 = f32[1216,30522]{1,0} select(pred[1216,30522]{1,0} %compare.74, f32[1216,30522]{1,0} %broadcast.1483, f32[1216,30522]{1,0} %broadcast.1482), metadata={op_type="SparseSoftmaxCrossEntropyWithLogits" op_name="model/bert_pretrain_loss_and_metric_layer/SparseSoftmaxCrossEntropyWithLogits/SparseSoftmaxCrossEntropyWithLogits"}
  %constant_974 = s64[] constant(0), metadata={op_type="SparseSoftmaxCrossEntropyWithLogits" op_name="model/bert_pretrain_loss_and_metric_layer/SparseSoftmaxCrossEntropyWithLogits_1/SparseSoftmaxCrossEntropyWithLogits"}
  %broadcast.1481 = s64[1216]{0} broadcast(s64[] %constant_974), dimensions={}, metadata={op_type="SparseSoftmaxCrossEntropyWithLogits" op_name="model/bert_pretrain_loss_and_metric_layer/SparseSoftmaxCrossEntropyWithLogits/SparseSoftmaxCrossEntropyWithLogits"}
  %compare.73 = pred[1216]{0} compare(s64[1216]{0} %broadcast.1481, s64[1216]{0} %bitcast.310), direction=LE, metadata={op_type="SparseSoftmaxCrossEntropyWithLogits" op_name="model/bert_pretrain_loss_and_metric_layer/SparseSoftmaxCrossEntropyWithLogits/SparseSoftmaxCrossEntropyWithLogits"}
  %constant_973 = s64[] constant(30522), metadata={op_type="SparseSoftmaxCrossEntropyWithLogits" op_name="model/bert_pretrain_loss_and_metric_layer/SparseSoftmaxCrossEntropyWithLogits/SparseSoftmaxCrossEntropyWithLogits"}
  %broadcast.1480 = s64[1216]{0} broadcast(s64[] %constant_973), dimensions={}, metadata={op_type="SparseSoftmaxCrossEntropyWithLogits" op_name="model/bert_pretrain_loss_and_metric_layer/SparseSoftmaxCrossEntropyWithLogits/SparseSoftmaxCrossEntropyWithLogits"}
  %compare.72 = pred[1216]{0} compare(s64[1216]{0} %bitcast.310, s64[1216]{0} %broadcast.1480), direction=LT, metadata={op_type="SparseSoftmaxCrossEntropyWithLogits" op_name="model/bert_pretrain_loss_and_metric_layer/SparseSoftmaxCrossEntropyWithLogits/SparseSoftmaxCrossEntropyWithLogits"}
  %and.7 = pred[1216]{0} and(pred[1216]{0} %compare.73, pred[1216]{0} %compare.72), metadata={op_type="SparseSoftmaxCrossEntropyWithLogits" op_name="model/bert_pretrain_loss_and_metric_layer/SparseSoftmaxCrossEntropyWithLogits/SparseSoftmaxCrossEntropyWithLogits"}
  %broadcast.1478 = f32[1216]{0} broadcast(f32[] %constant_77), dimensions={}, metadata={op_type="SparseSoftmaxCrossEntropyWithLogits" op_name="model/bert_pretrain_loss_and_metric_layer/SparseSoftmaxCrossEntropyWithLogits/SparseSoftmaxCrossEntropyWithLogits"}
  %constant_972 = f32[] constant(nan), metadata={op_type="SparseSoftmaxCrossEntropyWithLogits" op_name="model/bert_pretrain_loss_and_metric_layer/SparseSoftmaxCrossEntropyWithLogits_1/SparseSoftmaxCrossEntropyWithLogits"}
  %broadcast.1477 = f32[1216]{0} broadcast(f32[] %constant_972), dimensions={}, metadata={op_type="SparseSoftmaxCrossEntropyWithLogits" op_name="model/bert_pretrain_loss_and_metric_layer/SparseSoftmaxCrossEntropyWithLogits/SparseSoftmaxCrossEntropyWithLogits"}
  %select.77 = f32[1216]{0} select(pred[1216]{0} %and.7, f32[1216]{0} %broadcast.1478, f32[1216]{0} %broadcast.1477), metadata={op_type="SparseSoftmaxCrossEntropyWithLogits" op_name="model/bert_pretrain_loss_and_metric_layer/SparseSoftmaxCrossEntropyWithLogits/SparseSoftmaxCrossEntropyWithLogits"}
  %broadcast.1476 = f32[1216,30522]{1,0} broadcast(f32[1216]{0} %select.77), dimensions={0}, metadata={op_type="SparseSoftmaxCrossEntropyWithLogits" op_name="model/bert_pretrain_loss_and_metric_layer/SparseSoftmaxCrossEntropyWithLogits/SparseSoftmaxCrossEntropyWithLogits"}
  %add.436 = f32[1216,30522]{1,0} add(f32[1216,30522]{1,0} %select.78, f32[1216,30522]{1,0} %broadcast.1476), metadata={op_type="SparseSoftmaxCrossEntropyWithLogits" op_name="model/bert_pretrain_loss_and_metric_layer/SparseSoftmaxCrossEntropyWithLogits/SparseSoftmaxCrossEntropyWithLogits"}
  %negate.0 = f32[1216,30522]{1,0} negate(f32[1216,30522]{1,0} %add.436), metadata={op_type="SparseSoftmaxCrossEntropyWithLogits" op_name="model/bert_pretrain_loss_and_metric_layer/SparseSoftmaxCrossEntropyWithLogits/SparseSoftmaxCrossEntropyWithLogits"}
  %param_4.524 = f16[1216,30528]{1,0} parameter(4)
  %slice.33 = f16[1216,30522]{1,0} slice(f16[1216,30528]{1,0} %param_4.524), slice={[0:1216], [0:30522]}, metadata={op_type="MatMul" op_name="model/bert_pretrainer/cls/predictions/MatMul"}
  %param_3.830 = f32[30522]{0} parameter(3)
  %convert.440 = f16[30522]{0} convert(f32[30522]{0} %param_3.830), metadata={op_type="Cast" op_name="model/bert_pretrainer/cls/predictions/BiasAdd/Cast"}
  %broadcast.1559 = f16[1216,30522]{1,0} broadcast(f16[30522]{0} %convert.440), dimensions={1}, metadata={op_type="BiasAdd" op_name="model/bert_pretrainer/cls/predictions/BiasAdd"}
  %add.460 = f16[1216,30522]{1,0} add(f16[1216,30522]{1,0} %slice.33, f16[1216,30522]{1,0} %broadcast.1559), metadata={op_type="BiasAdd" op_name="model/bert_pretrainer/cls/predictions/BiasAdd"}
  %convert.439 = f32[1216,30522]{1,0} convert(f16[1216,30522]{1,0} %add.460), metadata={op_type="Cast" op_name="model/bert_pretrain_loss_and_metric_layer/ArithmeticOptimizer/ReorderCastLikeAndValuePreserving_float_Cast_1"}
  %param_2.1391 = f32[1216]{0} parameter(2)
  %broadcast.1558 = f32[1216,30522]{1,0} broadcast(f32[1216]{0} %param_2.1391), dimensions={0}, metadata={op_type="SparseSoftmaxCrossEntropyWithLogits" op_name="model/bert_pretrain_loss_and_metric_layer/SparseSoftmaxCrossEntropyWithLogits/SparseSoftmaxCrossEntropyWithLogits"}
  %subtract.320 = f32[1216,30522]{1,0} subtract(f32[1216,30522]{1,0} %convert.439, f32[1216,30522]{1,0} %broadcast.1558), metadata={op_type="SparseSoftmaxCrossEntropyWithLogits" op_name="model/bert_pretrain_loss_and_metric_layer/SparseSoftmaxCrossEntropyWithLogits/SparseSoftmaxCrossEntropyWithLogits"}
  %param_0.1063 = f32[1216]{0} parameter(0)
  %broadcast.196 = f32[1216,30522]{1,0} broadcast(f32[1216]{0} %param_0.1063), dimensions={0}, metadata={op_type="SparseSoftmaxCrossEntropyWithLogits" op_name="model/bert_pretrain_loss_and_metric_layer/SparseSoftmaxCrossEntropyWithLogits/SparseSoftmaxCrossEntropyWithLogits"}
  %subtract.1 = f32[1216,30522]{1,0} subtract(f32[1216,30522]{1,0} %subtract.320, f32[1216,30522]{1,0} %broadcast.196), metadata={op_type="SparseSoftmaxCrossEntropyWithLogits" op_name="model/bert_pretrain_loss_and_metric_layer/SparseSoftmaxCrossEntropyWithLogits/SparseSoftmaxCrossEntropyWithLogits"}
  %multiply.95 = f32[1216,30522]{1,0} multiply(f32[1216,30522]{1,0} %negate.0, f32[1216,30522]{1,0} %subtract.1), metadata={op_type="SparseSoftmaxCrossEntropyWithLogits" op_name="model/bert_pretrain_loss_and_metric_layer/SparseSoftmaxCrossEntropyWithLogits/SparseSoftmaxCrossEntropyWithLogits"}
  ROOT %reduce.45 = f32[1216]{0} reduce(f32[1216,30522]{1,0} %multiply.95, f32[] %constant_77), dimensions={1}, to_apply=%add_float_.1037, metadata={op_type="SparseSoftmaxCrossEntropyWithLogits" op_name="model/bert_pretrain_loss_and_metric_layer/SparseSoftmaxCrossEntropyWithLogits/SparseSoftmaxCrossEntropyWithLogits"}
}

%model_bert_pretrain_loss_and_metric_layer_Sum_6-reduction.789 (x.790: f32[], y.791: f32[]) -> f32[] {
  %x.790 = f32[] parameter(0)
  %y.791 = f32[] parameter(1)
  ROOT %add.792 = f32[] add(f32[] %x.790, f32[] %y.791)
}

%fused_computation.8 (param_0.13: f32[], param_1.933: s32[16,1], param_2.679: s64[16]) -> f32[] {
  %param_0.13 = f32[] parameter(0)
  %param_2.679 = s64[16]{0} parameter(2)
  %convert.28 = s32[16]{0} convert(s64[16]{0} %param_2.679), metadata={op_type="Cast" op_name="model/bert_pretrain_loss_and_metric_layer/Cast_11"}
  %param_1.933 = s32[16,1]{1,0} parameter(1)
  %bitcast.144 = s32[16]{0} bitcast(s32[16,1]{1,0} %param_1.933), metadata={op_type="Squeeze" op_name="model/bert_pretrain_loss_and_metric_layer/Squeeze"}
  %compare.2 = pred[16]{0} compare(s32[16]{0} %convert.28, s32[16]{0} %bitcast.144), direction=EQ, metadata={op_type="Equal" op_name="model/bert_pretrain_loss_and_metric_layer/Equal_1"}
  %convert.27 = f32[16]{0} convert(pred[16]{0} %compare.2), metadata={op_type="Cast" op_name="model/bert_pretrain_loss_and_metric_layer/Cast_12"}
  %constant_78 = f32[] constant(0), metadata={op_type="Sum" op_name="model/bert_pretrain_loss_and_metric_layer/Sum_3"}
  %reduce.46 = f32[] reduce(f32[16]{0} %convert.27, f32[] %constant_78), dimensions={0}, to_apply=%model_bert_pretrain_loss_and_metric_layer_Sum_6-reduction.789, metadata={op_type="Sum" op_name="model/bert_pretrain_loss_and_metric_layer/Sum_6"}
  ROOT %add.11 = f32[] add(f32[] %param_0.13, f32[] %reduce.46), metadata={op_type="AssignAddVariableOp" op_name="model/bert_pretrain_loss_and_metric_layer/AssignAddVariableOp_4"}
}

%min_S64.778 (lhs.779: s64[], rhs.780: s64[]) -> s64[] {
  %lhs.779 = s64[] parameter(0)
  %rhs.780 = s64[] parameter(1)
  ROOT %minimum.781 = s64[] minimum(s64[] %lhs.779, s64[] %rhs.780)
}

%fused_computation.9 (param_0.1022: f32[16], param_1.1423: f32[2], param_2.1344: f16[16,8]) -> s64[16] {
  %param_2.1344 = f16[16,8]{1,0} parameter(2)
  %slice.17 = f16[16,2]{1,0} slice(f16[16,8]{1,0} %param_2.1344), slice={[0:16], [0:2]}, metadata={op_type="MatMul" op_name="model/bert_pretrainer/classification/predictions/transform/logits/MatMul"}
  %param_1.1423 = f32[2]{0} parameter(1)
  %convert.402 = f16[2]{0} convert(f32[2]{0} %param_1.1423), metadata={op_type="Cast" op_name="model/bert_pretrainer/classification/predictions/transform/logits/BiasAdd/Cast"}
  %broadcast.1447 = f16[16,2]{1,0} broadcast(f16[2]{0} %convert.402), dimensions={1}, metadata={op_type="BiasAdd" op_name="model/bert_pretrainer/classification/predictions/transform/logits/BiasAdd"}
  %add.423 = f16[16,2]{1,0} add(f16[16,2]{1,0} %slice.17, f16[16,2]{1,0} %broadcast.1447), metadata={op_type="BiasAdd" op_name="model/bert_pretrainer/classification/predictions/transform/logits/BiasAdd"}
  %convert.29 = f32[16,2]{1,0} convert(f16[16,2]{1,0} %add.423), metadata={op_type="Cast" op_name="model/bert_pretrain_loss_and_metric_layer/Cast_4"}
  %param_0.1022 = f32[16]{0} parameter(0)
  %broadcast.342 = f32[16,2]{1,0} broadcast(f32[16]{0} %param_0.1022), dimensions={0}, metadata={op_type="SparseSoftmaxCrossEntropyWithLogits" op_name="model/bert_pretrain_loss_and_metric_layer/SparseSoftmaxCrossEntropyWithLogits_1/SparseSoftmaxCrossEntropyWithLogits"}
  %compare.3 = pred[16,2]{1,0} compare(f32[16,2]{1,0} %convert.29, f32[16,2]{1,0} %broadcast.342), direction=EQ, metadata={op_type="ArgMax" op_name="model/bert_pretrain_loss_and_metric_layer/ArgMax_1"}
  %iota.1 = s64[16,2]{1,0} iota(), iota_dimension=1, metadata={op_type="ArgMax" op_name="model/bert_pretrain_loss_and_metric_layer/ArgMax_1"}
  %constant_79 = s64[] constant(9223372036854775807), metadata={op_type="ArgMax" op_name="model/bert_pretrain_loss_and_metric_layer/ArgMax_1"}
  %broadcast.197 = s64[16,2]{1,0} broadcast(s64[] %constant_79), dimensions={}, metadata={op_type="ArgMax" op_name="model/bert_pretrain_loss_and_metric_layer/ArgMax_1"}
  %select.22 = s64[16,2]{1,0} select(pred[16,2]{1,0} %compare.3, s64[16,2]{1,0} %iota.1, s64[16,2]{1,0} %broadcast.197), metadata={op_type="ArgMax" op_name="model/bert_pretrain_loss_and_metric_layer/ArgMax_1"}
  ROOT %reduce.47 = s64[16]{0} reduce(s64[16,2]{1,0} %select.22, s64[] %constant_79), dimensions={1}, to_apply=%min_S64.778, metadata={op_type="ArgMax" op_name="model/bert_pretrain_loss_and_metric_layer/ArgMax_1"}
}

%model_bert_pretrain_loss_and_metric_layer_Mean-reduction.898 (x.899: f32[], y.900: f32[]) -> f32[] {
  %x.899 = f32[] parameter(0)
  %y.900 = f32[] parameter(1)
  ROOT %add.901 = f32[] add(f32[] %x.899, f32[] %y.900)
}

%fused_computation.10 (param_0.1030: f32[16], param_1.1434: s32[16,1], param_2.1356: f32[16], param_3.805: f32[2], param_4.494: f16[16,8]) -> f32[] {
  %param_1.1434 = s32[16,1]{1,0} parameter(1)
  %convert.217 = f32[16,1]{1,0} convert(s32[16,1]{1,0} %param_1.1434), metadata={op_type="Cast" op_name="model/bert_pretrain_loss_and_metric_layer/Cast_5"}
  %convert.216 = s64[16,1]{1,0} convert(f32[16,1]{1,0} %convert.217), metadata={op_type="Cast" op_name="model/bert_pretrain_loss_and_metric_layer/ArithmeticOptimizer/ReorderCastLikeAndValuePreserving_int64_Cast_6"}
  %bitcast.270 = s64[16]{0} bitcast(s64[16,1]{1,0} %convert.216), metadata={op_type="Cast" op_name="model/bert_pretrain_loss_and_metric_layer/ArithmeticOptimizer/ReorderCastLikeAndValuePreserving_int64_Cast_6"}
  %broadcast.802 = s64[16,2]{1,0} broadcast(s64[16]{0} %bitcast.270), dimensions={0}, metadata={op_type="SparseSoftmaxCrossEntropyWithLogits" op_name="model/bert_pretrain_loss_and_metric_layer/SparseSoftmaxCrossEntropyWithLogits_1/SparseSoftmaxCrossEntropyWithLogits"}
  %iota.6 = s64[16,2]{1,0} iota(), iota_dimension=1, metadata={op_type="SparseSoftmaxCrossEntropyWithLogits" op_name="model/bert_pretrain_loss_and_metric_layer/SparseSoftmaxCrossEntropyWithLogits_1/SparseSoftmaxCrossEntropyWithLogits"}
  %compare.34 = pred[16,2]{1,0} compare(s64[16,2]{1,0} %broadcast.802, s64[16,2]{1,0} %iota.6), direction=EQ, metadata={op_type="SparseSoftmaxCrossEntropyWithLogits" op_name="model/bert_pretrain_loss_and_metric_layer/SparseSoftmaxCrossEntropyWithLogits_1/SparseSoftmaxCrossEntropyWithLogits"}
  %constant_510 = f32[] constant(1), metadata={op_type="SparseSoftmaxCrossEntropyWithLogits" op_name="model/bert_pretrain_loss_and_metric_layer/SparseSoftmaxCrossEntropyWithLogits_1/SparseSoftmaxCrossEntropyWithLogits"}
  %broadcast.800 = f32[16,2]{1,0} broadcast(f32[] %constant_510), dimensions={}, metadata={op_type="SparseSoftmaxCrossEntropyWithLogits" op_name="model/bert_pretrain_loss_and_metric_layer/SparseSoftmaxCrossEntropyWithLogits_1/SparseSoftmaxCrossEntropyWithLogits"}
  %constant_81 = f32[] constant(0), metadata={op_type="Sum" op_name="model/bert_pretrain_loss_and_metric_layer/Sum_3"}
  %broadcast.797 = f32[16,2]{1,0} broadcast(f32[] %constant_81), dimensions={}, metadata={op_type="SparseSoftmaxCrossEntropyWithLogits" op_name="model/bert_pretrain_loss_and_metric_layer/SparseSoftmaxCrossEntropyWithLogits_1/SparseSoftmaxCrossEntropyWithLogits"}
  %select.50 = f32[16,2]{1,0} select(pred[16,2]{1,0} %compare.34, f32[16,2]{1,0} %broadcast.800, f32[16,2]{1,0} %broadcast.797), metadata={op_type="SparseSoftmaxCrossEntropyWithLogits" op_name="model/bert_pretrain_loss_and_metric_layer/SparseSoftmaxCrossEntropyWithLogits_1/SparseSoftmaxCrossEntropyWithLogits"}
  %constant_508 = s64[] constant(0), metadata={op_type="SparseSoftmaxCrossEntropyWithLogits" op_name="model/bert_pretrain_loss_and_metric_layer/SparseSoftmaxCrossEntropyWithLogits_1/SparseSoftmaxCrossEntropyWithLogits"}
  %broadcast.796 = s64[16]{0} broadcast(s64[] %constant_508), dimensions={}, metadata={op_type="SparseSoftmaxCrossEntropyWithLogits" op_name="model/bert_pretrain_loss_and_metric_layer/SparseSoftmaxCrossEntropyWithLogits_1/SparseSoftmaxCrossEntropyWithLogits"}
  %compare.33 = pred[16]{0} compare(s64[16]{0} %broadcast.796, s64[16]{0} %bitcast.270), direction=LE, metadata={op_type="SparseSoftmaxCrossEntropyWithLogits" op_name="model/bert_pretrain_loss_and_metric_layer/SparseSoftmaxCrossEntropyWithLogits_1/SparseSoftmaxCrossEntropyWithLogits"}
  %constant_506 = s64[] constant(2), metadata={op_type="SparseSoftmaxCrossEntropyWithLogits" op_name="model/bert_pretrain_loss_and_metric_layer/SparseSoftmaxCrossEntropyWithLogits_1/SparseSoftmaxCrossEntropyWithLogits"}
  %broadcast.795 = s64[16]{0} broadcast(s64[] %constant_506), dimensions={}, metadata={op_type="SparseSoftmaxCrossEntropyWithLogits" op_name="model/bert_pretrain_loss_and_metric_layer/SparseSoftmaxCrossEntropyWithLogits_1/SparseSoftmaxCrossEntropyWithLogits"}
  %compare.32 = pred[16]{0} compare(s64[16]{0} %bitcast.270, s64[16]{0} %broadcast.795), direction=LT, metadata={op_type="SparseSoftmaxCrossEntropyWithLogits" op_name="model/bert_pretrain_loss_and_metric_layer/SparseSoftmaxCrossEntropyWithLogits_1/SparseSoftmaxCrossEntropyWithLogits"}
  %and.3 = pred[16]{0} and(pred[16]{0} %compare.33, pred[16]{0} %compare.32), metadata={op_type="SparseSoftmaxCrossEntropyWithLogits" op_name="model/bert_pretrain_loss_and_metric_layer/SparseSoftmaxCrossEntropyWithLogits_1/SparseSoftmaxCrossEntropyWithLogits"}
  %broadcast.794 = f32[16]{0} broadcast(f32[] %constant_81), dimensions={}, metadata={op_type="SparseSoftmaxCrossEntropyWithLogits" op_name="model/bert_pretrain_loss_and_metric_layer/SparseSoftmaxCrossEntropyWithLogits_1/SparseSoftmaxCrossEntropyWithLogits"}
  %constant_505 = f32[] constant(nan), metadata={op_type="SparseSoftmaxCrossEntropyWithLogits" op_name="model/bert_pretrain_loss_and_metric_layer/SparseSoftmaxCrossEntropyWithLogits_1/SparseSoftmaxCrossEntropyWithLogits"}
  %broadcast.793 = f32[16]{0} broadcast(f32[] %constant_505), dimensions={}, metadata={op_type="SparseSoftmaxCrossEntropyWithLogits" op_name="model/bert_pretrain_loss_and_metric_layer/SparseSoftmaxCrossEntropyWithLogits_1/SparseSoftmaxCrossEntropyWithLogits"}
  %select.49 = f32[16]{0} select(pred[16]{0} %and.3, f32[16]{0} %broadcast.794, f32[16]{0} %broadcast.793), metadata={op_type="SparseSoftmaxCrossEntropyWithLogits" op_name="model/bert_pretrain_loss_and_metric_layer/SparseSoftmaxCrossEntropyWithLogits_1/SparseSoftmaxCrossEntropyWithLogits"}
  %broadcast.792 = f32[16,2]{1,0} broadcast(f32[16]{0} %select.49), dimensions={0}, metadata={op_type="SparseSoftmaxCrossEntropyWithLogits" op_name="model/bert_pretrain_loss_and_metric_layer/SparseSoftmaxCrossEntropyWithLogits_1/SparseSoftmaxCrossEntropyWithLogits"}
  %add.236 = f32[16,2]{1,0} add(f32[16,2]{1,0} %select.50, f32[16,2]{1,0} %broadcast.792), metadata={op_type="SparseSoftmaxCrossEntropyWithLogits" op_name="model/bert_pretrain_loss_and_metric_layer/SparseSoftmaxCrossEntropyWithLogits_1/SparseSoftmaxCrossEntropyWithLogits"}
  %negate.1 = f32[16,2]{1,0} negate(f32[16,2]{1,0} %add.236), metadata={op_type="SparseSoftmaxCrossEntropyWithLogits" op_name="model/bert_pretrain_loss_and_metric_layer/SparseSoftmaxCrossEntropyWithLogits_1/SparseSoftmaxCrossEntropyWithLogits"}
  %param_4.494 = f16[16,8]{1,0} parameter(4)
  %slice.23 = f16[16,2]{1,0} slice(f16[16,8]{1,0} %param_4.494), slice={[0:16], [0:2]}, metadata={op_type="MatMul" op_name="model/bert_pretrainer/classification/predictions/transform/logits/MatMul"}
  %param_3.805 = f32[2]{0} parameter(3)
  %convert.412 = f16[2]{0} convert(f32[2]{0} %param_3.805), metadata={op_type="Cast" op_name="model/bert_pretrainer/classification/predictions/transform/logits/BiasAdd/Cast"}
  %broadcast.1458 = f16[16,2]{1,0} broadcast(f16[2]{0} %convert.412), dimensions={1}, metadata={op_type="BiasAdd" op_name="model/bert_pretrainer/classification/predictions/transform/logits/BiasAdd"}
  %add.430 = f16[16,2]{1,0} add(f16[16,2]{1,0} %slice.23, f16[16,2]{1,0} %broadcast.1458), metadata={op_type="BiasAdd" op_name="model/bert_pretrainer/classification/predictions/transform/logits/BiasAdd"}
  %convert.411 = f32[16,2]{1,0} convert(f16[16,2]{1,0} %add.430), metadata={op_type="Cast" op_name="model/bert_pretrain_loss_and_metric_layer/Cast_4"}
  %param_2.1356 = f32[16]{0} parameter(2)
  %broadcast.1456 = f32[16,2]{1,0} broadcast(f32[16]{0} %param_2.1356), dimensions={0}, metadata={op_type="SparseSoftmaxCrossEntropyWithLogits" op_name="model/bert_pretrain_loss_and_metric_layer/SparseSoftmaxCrossEntropyWithLogits_1/SparseSoftmaxCrossEntropyWithLogits"}
  %subtract.311 = f32[16,2]{1,0} subtract(f32[16,2]{1,0} %convert.411, f32[16,2]{1,0} %broadcast.1456), metadata={op_type="SparseSoftmaxCrossEntropyWithLogits" op_name="model/bert_pretrain_loss_and_metric_layer/SparseSoftmaxCrossEntropyWithLogits_1/SparseSoftmaxCrossEntropyWithLogits"}
  %param_0.1030 = f32[16]{0} parameter(0)
  %broadcast.198 = f32[16,2]{1,0} broadcast(f32[16]{0} %param_0.1030), dimensions={0}, metadata={op_type="SparseSoftmaxCrossEntropyWithLogits" op_name="model/bert_pretrain_loss_and_metric_layer/SparseSoftmaxCrossEntropyWithLogits_1/SparseSoftmaxCrossEntropyWithLogits"}
  %subtract.2 = f32[16,2]{1,0} subtract(f32[16,2]{1,0} %subtract.311, f32[16,2]{1,0} %broadcast.198), metadata={op_type="SparseSoftmaxCrossEntropyWithLogits" op_name="model/bert_pretrain_loss_and_metric_layer/SparseSoftmaxCrossEntropyWithLogits_1/SparseSoftmaxCrossEntropyWithLogits"}
  %multiply.96 = f32[16,2]{1,0} multiply(f32[16,2]{1,0} %negate.1, f32[16,2]{1,0} %subtract.2), metadata={op_type="SparseSoftmaxCrossEntropyWithLogits" op_name="model/bert_pretrain_loss_and_metric_layer/SparseSoftmaxCrossEntropyWithLogits_1/SparseSoftmaxCrossEntropyWithLogits"}
  %bitcast.145 = f32[32]{0} bitcast(f32[16,2]{1,0} %multiply.96)
  ROOT %reduce.48 = f32[] reduce(f32[32]{0} %bitcast.145, f32[] %constant_81), dimensions={0}, to_apply=%model_bert_pretrain_loss_and_metric_layer_Mean-reduction.898, metadata={op_type="Mean" op_name="model/bert_pretrain_loss_and_metric_layer/Mean"}
}

%fused_computation.15 (param_0.23: f32[768], param_1.1669: f32[], param_2.1738: f32[768], param_3.1126: f32[], param_4.711: f32[768], param_5.469: f32[768], param_6.447: f32[], param_7.771: f32[768], param_8.435: f32[768], param_9.282: f32[768], param_10.196: f32[768], param_11.237: f32[768], param_12.174: f32[768], param_13.45: f32[768], param_14.31: f32[768], param_15.63: f32[768], param_16.51: f32[768], param_17.19: f32[768], param_18.18: f32[768], param_19.52: f32[768], param_20.41: f32[768], param_21.14: f32[768], param_22.14: f32[768], param_23.55: f32[768], param_24.45: f32[768], param_25.15: f32[768], param_26.18: f32[768], param_27.48: f32[768], param_28.35: f32[768], param_29.4: f32[768], param_30.4: f32[768], param_31.15: f32[768], param_32.13: f32[768], param_33.4: f32[768], param_34.4: f32[768], param_35.13: f32[768], param_36.12: f32[768], param_37.3: f32[768]) -> (f32[768], f32[768], f32[768], f32[768], f32[768], f32[768], f32[768], f32[768], f32[768], f32[768], f32[768], f32[768], f32[768], f32[768], f32[768], f32[768], f32[768], f32[768], f32[768], f32[768], f32[768], f32[768], f32[768], f32[768], f32[768]) {
  %param_0.23 = f32[768]{0} parameter(0)
  %param_2.1738 = f32[768]{0} parameter(2)
  %param_4.711 = f32[768]{0} parameter(4)
  %convert.803.clone.1 = f16[768]{0} convert(f32[768]{0} %param_4.711), metadata={op_type="BiasAddGrad" op_name="gradient_tape/model/bert_pretrainer/cls/predictions/transform/dense/BiasAdd/BiasAddGrad"}
  %convert.802.clone.1 = f32[768]{0} convert(f16[768]{0} %convert.803.clone.1), metadata={op_type="Cast" op_name="gradient_tape/model/bert_pretrainer/cls/predictions/transform/dense/BiasAdd/Cast/Cast"}
  %constant_1518_clone_1 = f32[] constant(0.0009765625), metadata={op_type="Mul" op_name="mul_1"}
  %broadcast.2091.clone.1 = f32[768]{0} broadcast(f32[] %constant_1518_clone_1), dimensions={}, metadata={op_type="Mul" op_name="mul_5"}
  %multiply.1389.clone.1 = f32[768]{0} multiply(f32[768]{0} %convert.802.clone.1, f32[768]{0} %broadcast.2091.clone.1), metadata={op_type="Mul" op_name="mul_44"}
  %subtract.8.clone.1 = f32[768]{0} subtract(f32[768]{0} %multiply.1389.clone.1, f32[768]{0} %param_2.1738), metadata={op_type="ResourceApplyAdam" op_name="Adam/Adam/update_43/update_0/ResourceApplyAdam"}
  %constant_87_clone_1 = f32[] constant(1), metadata={op_type="SparseSoftmaxCrossEntropyWithLogits" op_name="model/bert_pretrain_loss_and_metric_layer/SparseSoftmaxCrossEntropyWithLogits_1/SparseSoftmaxCrossEntropyWithLogits"}
  %param_3.1126 = f32[] parameter(3)
  %subtract.168.clone.1 = f32[] subtract(f32[] %constant_87_clone_1, f32[] %param_3.1126), metadata={op_type="ResourceApplyAdam" op_name="Adam/Adam/update_4/update_0/ResourceApplyAdam"}
  %broadcast.350.clone.1 = f32[768]{0} broadcast(f32[] %subtract.168.clone.1), dimensions={}, metadata={op_type="ResourceApplyAdam" op_name="Adam/Adam/update_4/update_0/ResourceApplyAdam"}
  %multiply.105.clone.1 = f32[768]{0} multiply(f32[768]{0} %subtract.8.clone.1, f32[768]{0} %broadcast.350.clone.1), metadata={op_type="ResourceApplyAdam" op_name="Adam/Adam/update_43/update_0/ResourceApplyAdam"}
  %add.17.clone.1 = f32[768]{0} add(f32[768]{0} %param_2.1738, f32[768]{0} %multiply.105.clone.1), metadata={op_type="ResourceApplyAdam" op_name="Adam/Adam/update_43/update_0/ResourceApplyAdam"}
  %param_1.1669 = f32[] parameter(1)
  %broadcast.348 = f32[768]{0} broadcast(f32[] %param_1.1669), dimensions={}, metadata={op_type="ResourceApplyAdam" op_name="Adam/Adam/update_4/update_0/ResourceApplyAdam"}
  %multiply.102 = f32[768]{0} multiply(f32[768]{0} %add.17.clone.1, f32[768]{0} %broadcast.348), metadata={op_type="ResourceApplyAdam" op_name="Adam/Adam/update_43/update_0/ResourceApplyAdam"}
  %param_5.469 = f32[768]{0} parameter(5)
  %multiply.104.clone.1 = f32[768]{0} multiply(f32[768]{0} %multiply.1389.clone.1, f32[768]{0} %multiply.1389.clone.1), metadata={op_type="ResourceApplyAdam" op_name="Adam/Adam/update_43/update_0/ResourceApplyAdam"}
  %subtract.7.clone.1 = f32[768]{0} subtract(f32[768]{0} %multiply.104.clone.1, f32[768]{0} %param_5.469), metadata={op_type="ResourceApplyAdam" op_name="Adam/Adam/update_43/update_0/ResourceApplyAdam"}
  %param_6.447 = f32[] parameter(6)
  %subtract.169.clone.1 = f32[] subtract(f32[] %constant_87_clone_1, f32[] %param_6.447), metadata={op_type="ResourceApplyAdam" op_name="Adam/Adam/update_4/update_0/ResourceApplyAdam"}
  %broadcast.351.clone.1 = f32[768]{0} broadcast(f32[] %subtract.169.clone.1), dimensions={}, metadata={op_type="ResourceApplyAdam" op_name="Adam/Adam/update_4/update_0/ResourceApplyAdam"}
  %multiply.103.clone.1 = f32[768]{0} multiply(f32[768]{0} %subtract.7.clone.1, f32[768]{0} %broadcast.351.clone.1), metadata={op_type="ResourceApplyAdam" op_name="Adam/Adam/update_43/update_0/ResourceApplyAdam"}
  %add.16.clone.1 = f32[768]{0} add(f32[768]{0} %param_5.469, f32[768]{0} %multiply.103.clone.1), metadata={op_type="ResourceApplyAdam" op_name="Adam/Adam/update_43/update_0/ResourceApplyAdam"}
  %sqrt.1 = f32[768]{0} sqrt(f32[768]{0} %add.16.clone.1), metadata={op_type="ResourceApplyAdam" op_name="Adam/Adam/update_43/update_0/ResourceApplyAdam"}
  %constant_86 = f32[] constant(1e-06), metadata={op_type="ResourceApplyAdam" op_name="Adam/Adam/update/update_0/ResourceApplyAdam"}
  %broadcast.349 = f32[768]{0} broadcast(f32[] %constant_86), dimensions={}, metadata={op_type="ResourceApplyAdam" op_name="Adam/Adam/update_4/update_0/ResourceApplyAdam"}
  %add.15 = f32[768]{0} add(f32[768]{0} %sqrt.1, f32[768]{0} %broadcast.349), metadata={op_type="ResourceApplyAdam" op_name="Adam/Adam/update_43/update_0/ResourceApplyAdam"}
  %divide.3 = f32[768]{0} divide(f32[768]{0} %multiply.102, f32[768]{0} %add.15), metadata={op_type="ResourceApplyAdam" op_name="Adam/Adam/update_43/update_0/ResourceApplyAdam"}
  %subtract.6 = f32[768]{0} subtract(f32[768]{0} %param_0.23, f32[768]{0} %divide.3), metadata={op_type="ResourceApplyAdam" op_name="Adam/Adam/update_43/update_0/ResourceApplyAdam"}
  %param_7.771 = f32[768]{0} parameter(7)
  %param_10.196 = f32[768]{0} parameter(10)
  %param_9.282 = f32[768]{0} parameter(9)
  %multiply.521.clone.1.clone.1 = f32[768]{0} multiply(f32[768]{0} %param_9.282, f32[768]{0} %broadcast.2091.clone.1), metadata={op_type="Mul" op_name="mul_45"}
  %subtract.11.clone.1.clone.1 = f32[768]{0} subtract(f32[768]{0} %multiply.521.clone.1.clone.1, f32[768]{0} %param_10.196), metadata={op_type="ResourceApplyAdam" op_name="Adam/Adam/update_44/update_0/ResourceApplyAdam"}
  %multiply.110.clone.1.clone.1 = f32[768]{0} multiply(f32[768]{0} %subtract.11.clone.1.clone.1, f32[768]{0} %broadcast.350.clone.1), metadata={op_type="ResourceApplyAdam" op_name="Adam/Adam/update_44/update_0/ResourceApplyAdam"}
  %add.20.clone.1.clone.1 = f32[768]{0} add(f32[768]{0} %param_10.196, f32[768]{0} %multiply.110.clone.1.clone.1), metadata={op_type="ResourceApplyAdam" op_name="Adam/Adam/update_44/update_0/ResourceApplyAdam"}
  %multiply.107.clone.1 = f32[768]{0} multiply(f32[768]{0} %add.20.clone.1.clone.1, f32[768]{0} %broadcast.348), metadata={op_type="ResourceApplyAdam" op_name="Adam/Adam/update_44/update_0/ResourceApplyAdam"}
  %param_8.435 = f32[768]{0} parameter(8)
  %multiply.109.clone.1.clone.1 = f32[768]{0} multiply(f32[768]{0} %multiply.521.clone.1.clone.1, f32[768]{0} %multiply.521.clone.1.clone.1), metadata={op_type="ResourceApplyAdam" op_name="Adam/Adam/update_44/update_0/ResourceApplyAdam"}
  %subtract.10.clone.1.clone.1 = f32[768]{0} subtract(f32[768]{0} %multiply.109.clone.1.clone.1, f32[768]{0} %param_8.435), metadata={op_type="ResourceApplyAdam" op_name="Adam/Adam/update_44/update_0/ResourceApplyAdam"}
  %multiply.108.clone.1.clone.1 = f32[768]{0} multiply(f32[768]{0} %subtract.10.clone.1.clone.1, f32[768]{0} %broadcast.351.clone.1), metadata={op_type="ResourceApplyAdam" op_name="Adam/Adam/update_44/update_0/ResourceApplyAdam"}
  %add.19.clone.1.clone.1 = f32[768]{0} add(f32[768]{0} %param_8.435, f32[768]{0} %multiply.108.clone.1.clone.1), metadata={op_type="ResourceApplyAdam" op_name="Adam/Adam/update_44/update_0/ResourceApplyAdam"}
  %sqrt.2.clone.1 = f32[768]{0} sqrt(f32[768]{0} %add.19.clone.1.clone.1), metadata={op_type="ResourceApplyAdam" op_name="Adam/Adam/update_44/update_0/ResourceApplyAdam"}
  %add.18.clone.1 = f32[768]{0} add(f32[768]{0} %sqrt.2.clone.1, f32[768]{0} %broadcast.349), metadata={op_type="ResourceApplyAdam" op_name="Adam/Adam/update_44/update_0/ResourceApplyAdam"}
  %divide.4.clone.1 = f32[768]{0} divide(f32[768]{0} %multiply.107.clone.1, f32[768]{0} %add.18.clone.1), metadata={op_type="ResourceApplyAdam" op_name="Adam/Adam/update_44/update_0/ResourceApplyAdam"}
  %subtract.9.clone.1 = f32[768]{0} subtract(f32[768]{0} %param_7.771, f32[768]{0} %divide.4.clone.1), metadata={op_type="ResourceApplyAdam" op_name="Adam/Adam/update_44/update_0/ResourceApplyAdam"}
  %param_11.237 = f32[768]{0} parameter(11)
  %param_14.31 = f32[768]{0} parameter(14)
  %param_13.45 = f32[768]{0} parameter(13)
  %multiply.524.clone.1.clone.1 = f32[768]{0} multiply(f32[768]{0} %param_13.45, f32[768]{0} %broadcast.2091.clone.1), metadata={op_type="Mul" op_name="mul_46"}
  %subtract.14.clone.1.clone.1 = f32[768]{0} subtract(f32[768]{0} %multiply.524.clone.1.clone.1, f32[768]{0} %param_14.31), metadata={op_type="ResourceApplyAdam" op_name="Adam/Adam/update_45/update_0/ResourceApplyAdam"}
  %multiply.115.clone.1.clone.1 = f32[768]{0} multiply(f32[768]{0} %subtract.14.clone.1.clone.1, f32[768]{0} %broadcast.350.clone.1), metadata={op_type="ResourceApplyAdam" op_name="Adam/Adam/update_45/update_0/ResourceApplyAdam"}
  %add.23.clone.1.clone.1 = f32[768]{0} add(f32[768]{0} %param_14.31, f32[768]{0} %multiply.115.clone.1.clone.1), metadata={op_type="ResourceApplyAdam" op_name="Adam/Adam/update_45/update_0/ResourceApplyAdam"}
  %multiply.112.clone.1 = f32[768]{0} multiply(f32[768]{0} %add.23.clone.1.clone.1, f32[768]{0} %broadcast.348), metadata={op_type="ResourceApplyAdam" op_name="Adam/Adam/update_45/update_0/ResourceApplyAdam"}
  %param_12.174 = f32[768]{0} parameter(12)
  %multiply.114.clone.1.clone.1 = f32[768]{0} multiply(f32[768]{0} %multiply.524.clone.1.clone.1, f32[768]{0} %multiply.524.clone.1.clone.1), metadata={op_type="ResourceApplyAdam" op_name="Adam/Adam/update_45/update_0/ResourceApplyAdam"}
  %subtract.13.clone.1.clone.1 = f32[768]{0} subtract(f32[768]{0} %multiply.114.clone.1.clone.1, f32[768]{0} %param_12.174), metadata={op_type="ResourceApplyAdam" op_name="Adam/Adam/update_45/update_0/ResourceApplyAdam"}
  %multiply.113.clone.1.clone.1 = f32[768]{0} multiply(f32[768]{0} %subtract.13.clone.1.clone.1, f32[768]{0} %broadcast.351.clone.1), metadata={op_type="ResourceApplyAdam" op_name="Adam/Adam/update_45/update_0/ResourceApplyAdam"}
  %add.22.clone.1.clone.1 = f32[768]{0} add(f32[768]{0} %param_12.174, f32[768]{0} %multiply.113.clone.1.clone.1), metadata={op_type="ResourceApplyAdam" op_name="Adam/Adam/update_45/update_0/ResourceApplyAdam"}
  %sqrt.3.clone.1 = f32[768]{0} sqrt(f32[768]{0} %add.22.clone.1.clone.1), metadata={op_type="ResourceApplyAdam" op_name="Adam/Adam/update_45/update_0/ResourceApplyAdam"}
  %add.21.clone.1 = f32[768]{0} add(f32[768]{0} %sqrt.3.clone.1, f32[768]{0} %broadcast.349), metadata={op_type="ResourceApplyAdam" op_name="Adam/Adam/update_45/update_0/ResourceApplyAdam"}
  %divide.5.clone.1 = f32[768]{0} divide(f32[768]{0} %multiply.112.clone.1, f32[768]{0} %add.21.clone.1), metadata={op_type="ResourceApplyAdam" op_name="Adam/Adam/update_45/update_0/ResourceApplyAdam"}
  %subtract.12.clone.1 = f32[768]{0} subtract(f32[768]{0} %param_11.237, f32[768]{0} %divide.5.clone.1), metadata={op_type="ResourceApplyAdam" op_name="Adam/Adam/update_45/update_0/ResourceApplyAdam"}
  %param_15.63 = f32[768]{0} parameter(15)
  %param_18.18 = f32[768]{0} parameter(18)
  %param_17.19 = f32[768]{0} parameter(17)
  %multiply.526.clone.1.clone.1 = f32[768]{0} multiply(f32[768]{0} %param_17.19, f32[768]{0} %broadcast.2091.clone.1), metadata={op_type="Mul" op_name="mul_30"}
  %subtract.32.clone.1.clone.1 = f32[768]{0} subtract(f32[768]{0} %multiply.526.clone.1.clone.1, f32[768]{0} %param_18.18), metadata={op_type="ResourceApplyAdam" op_name="Adam/Adam/update_29/update_0/ResourceApplyAdam"}
  %multiply.144.clone.1.clone.1 = f32[768]{0} multiply(f32[768]{0} %subtract.32.clone.1.clone.1, f32[768]{0} %broadcast.350.clone.1), metadata={op_type="ResourceApplyAdam" op_name="Adam/Adam/update_29/update_0/ResourceApplyAdam"}
  %add.41.clone.1.clone.1 = f32[768]{0} add(f32[768]{0} %param_18.18, f32[768]{0} %multiply.144.clone.1.clone.1), metadata={op_type="ResourceApplyAdam" op_name="Adam/Adam/update_29/update_0/ResourceApplyAdam"}
  %multiply.141.clone.1 = f32[768]{0} multiply(f32[768]{0} %add.41.clone.1.clone.1, f32[768]{0} %broadcast.348), metadata={op_type="ResourceApplyAdam" op_name="Adam/Adam/update_29/update_0/ResourceApplyAdam"}
  %param_16.51 = f32[768]{0} parameter(16)
  %multiply.143.clone.1.clone.1 = f32[768]{0} multiply(f32[768]{0} %multiply.526.clone.1.clone.1, f32[768]{0} %multiply.526.clone.1.clone.1), metadata={op_type="ResourceApplyAdam" op_name="Adam/Adam/update_29/update_0/ResourceApplyAdam"}
  %subtract.31.clone.1.clone.1 = f32[768]{0} subtract(f32[768]{0} %multiply.143.clone.1.clone.1, f32[768]{0} %param_16.51), metadata={op_type="ResourceApplyAdam" op_name="Adam/Adam/update_29/update_0/ResourceApplyAdam"}
  %multiply.142.clone.1.clone.1 = f32[768]{0} multiply(f32[768]{0} %subtract.31.clone.1.clone.1, f32[768]{0} %broadcast.351.clone.1), metadata={op_type="ResourceApplyAdam" op_name="Adam/Adam/update_29/update_0/ResourceApplyAdam"}
  %add.40.clone.1.clone.1 = f32[768]{0} add(f32[768]{0} %param_16.51, f32[768]{0} %multiply.142.clone.1.clone.1), metadata={op_type="ResourceApplyAdam" op_name="Adam/Adam/update_29/update_0/ResourceApplyAdam"}
  %sqrt.9.clone.1 = f32[768]{0} sqrt(f32[768]{0} %add.40.clone.1.clone.1), metadata={op_type="ResourceApplyAdam" op_name="Adam/Adam/update_29/update_0/ResourceApplyAdam"}
  %add.39.clone.1 = f32[768]{0} add(f32[768]{0} %sqrt.9.clone.1, f32[768]{0} %broadcast.349), metadata={op_type="ResourceApplyAdam" op_name="Adam/Adam/update_29/update_0/ResourceApplyAdam"}
  %divide.11.clone.1 = f32[768]{0} divide(f32[768]{0} %multiply.141.clone.1, f32[768]{0} %add.39.clone.1), metadata={op_type="ResourceApplyAdam" op_name="Adam/Adam/update_29/update_0/ResourceApplyAdam"}
  %subtract.30.clone.1 = f32[768]{0} subtract(f32[768]{0} %param_15.63, f32[768]{0} %divide.11.clone.1), metadata={op_type="ResourceApplyAdam" op_name="Adam/Adam/update_29/update_0/ResourceApplyAdam"}
  %param_19.52 = f32[768]{0} parameter(19)
  %param_22.14 = f32[768]{0} parameter(22)
  %param_21.14 = f32[768]{0} parameter(21)
  %multiply.528.clone.1.clone.1 = f32[768]{0} multiply(f32[768]{0} %param_21.14, f32[768]{0} %broadcast.2091.clone.1), metadata={op_type="Mul" op_name="mul_31"}
  %subtract.35.clone.1.clone.1 = f32[768]{0} subtract(f32[768]{0} %multiply.528.clone.1.clone.1, f32[768]{0} %param_22.14), metadata={op_type="ResourceApplyAdam" op_name="Adam/Adam/update_30/update_0/ResourceApplyAdam"}
  %multiply.149.clone.1.clone.1 = f32[768]{0} multiply(f32[768]{0} %subtract.35.clone.1.clone.1, f32[768]{0} %broadcast.350.clone.1), metadata={op_type="ResourceApplyAdam" op_name="Adam/Adam/update_30/update_0/ResourceApplyAdam"}
  %add.44.clone.1.clone.1 = f32[768]{0} add(f32[768]{0} %param_22.14, f32[768]{0} %multiply.149.clone.1.clone.1), metadata={op_type="ResourceApplyAdam" op_name="Adam/Adam/update_30/update_0/ResourceApplyAdam"}
  %multiply.146.clone.1 = f32[768]{0} multiply(f32[768]{0} %add.44.clone.1.clone.1, f32[768]{0} %broadcast.348), metadata={op_type="ResourceApplyAdam" op_name="Adam/Adam/update_30/update_0/ResourceApplyAdam"}
  %param_20.41 = f32[768]{0} parameter(20)
  %multiply.148.clone.1.clone.1 = f32[768]{0} multiply(f32[768]{0} %multiply.528.clone.1.clone.1, f32[768]{0} %multiply.528.clone.1.clone.1), metadata={op_type="ResourceApplyAdam" op_name="Adam/Adam/update_30/update_0/ResourceApplyAdam"}
  %subtract.34.clone.1.clone.1 = f32[768]{0} subtract(f32[768]{0} %multiply.148.clone.1.clone.1, f32[768]{0} %param_20.41), metadata={op_type="ResourceApplyAdam" op_name="Adam/Adam/update_30/update_0/ResourceApplyAdam"}
  %multiply.147.clone.1.clone.1 = f32[768]{0} multiply(f32[768]{0} %subtract.34.clone.1.clone.1, f32[768]{0} %broadcast.351.clone.1), metadata={op_type="ResourceApplyAdam" op_name="Adam/Adam/update_30/update_0/ResourceApplyAdam"}
  %add.43.clone.1.clone.1 = f32[768]{0} add(f32[768]{0} %param_20.41, f32[768]{0} %multiply.147.clone.1.clone.1), metadata={op_type="ResourceApplyAdam" op_name="Adam/Adam/update_30/update_0/ResourceApplyAdam"}
  %sqrt.10.clone.1 = f32[768]{0} sqrt(f32[768]{0} %add.43.clone.1.clone.1), metadata={op_type="ResourceApplyAdam" op_name="Adam/Adam/update_30/update_0/ResourceApplyAdam"}
  %add.42.clone.1 = f32[768]{0} add(f32[768]{0} %sqrt.10.clone.1, f32[768]{0} %broadcast.349), metadata={op_type="ResourceApplyAdam" op_name="Adam/Adam/update_30/update_0/ResourceApplyAdam"}
  %divide.12.clone.1 = f32[768]{0} divide(f32[768]{0} %multiply.146.clone.1, f32[768]{0} %add.42.clone.1), metadata={op_type="ResourceApplyAdam" op_name="Adam/Adam/update_30/update_0/ResourceApplyAdam"}
  %subtract.33.clone.1 = f32[768]{0} subtract(f32[768]{0} %param_19.52, f32[768]{0} %divide.12.clone.1), metadata={op_type="ResourceApplyAdam" op_name="Adam/Adam/update_30/update_0/ResourceApplyAdam"}
  %param_23.55 = f32[768]{0} parameter(23)
  %param_26.18 = f32[768]{0} parameter(26)
  %param_25.15 = f32[768]{0} parameter(25)
  %convert.739.clone.1.clone.1 = f16[768]{0} convert(f32[768]{0} %param_25.15), metadata={op_type="Sum" op_name="gradient_tape/model/bert_pretrainer/bert_encoder_1/transformer/layer_1/self_attention/attention_output/add/Sum"}
  %convert.738.clone.1.clone.1 = f32[768]{0} convert(f16[768]{0} %convert.739.clone.1.clone.1), metadata={op_type="Cast" op_name="gradient_tape/model/bert_pretrainer/bert_encoder_1/transformer/layer_1/self_attention/attention_output/add/Cast/Cast"}
  %multiply.1344.clone.1.clone.1 = f32[768]{0} multiply(f32[768]{0} %convert.738.clone.1.clone.1, f32[768]{0} %broadcast.2091.clone.1), metadata={op_type="Mul" op_name="mul_29"}
  %subtract.59.clone.1.clone.1 = f32[768]{0} subtract(f32[768]{0} %multiply.1344.clone.1.clone.1, f32[768]{0} %param_26.18), metadata={op_type="ResourceApplyAdam" op_name="Adam/Adam/update_28/update_0/ResourceApplyAdam"}
  %multiply.188.clone.1.clone.1 = f32[768]{0} multiply(f32[768]{0} %subtract.59.clone.1.clone.1, f32[768]{0} %broadcast.350.clone.1), metadata={op_type="ResourceApplyAdam" op_name="Adam/Adam/update_28/update_0/ResourceApplyAdam"}
  %add.68.clone.1.clone.1 = f32[768]{0} add(f32[768]{0} %param_26.18, f32[768]{0} %multiply.188.clone.1.clone.1), metadata={op_type="ResourceApplyAdam" op_name="Adam/Adam/update_28/update_0/ResourceApplyAdam"}
  %multiply.185.clone.1 = f32[768]{0} multiply(f32[768]{0} %add.68.clone.1.clone.1, f32[768]{0} %broadcast.348), metadata={op_type="ResourceApplyAdam" op_name="Adam/Adam/update_28/update_0/ResourceApplyAdam"}
  %param_24.45 = f32[768]{0} parameter(24)
  %multiply.187.clone.1.clone.1 = f32[768]{0} multiply(f32[768]{0} %multiply.1344.clone.1.clone.1, f32[768]{0} %multiply.1344.clone.1.clone.1), metadata={op_type="ResourceApplyAdam" op_name="Adam/Adam/update_28/update_0/ResourceApplyAdam"}
  %subtract.58.clone.1.clone.1 = f32[768]{0} subtract(f32[768]{0} %multiply.187.clone.1.clone.1, f32[768]{0} %param_24.45), metadata={op_type="ResourceApplyAdam" op_name="Adam/Adam/update_28/update_0/ResourceApplyAdam"}
  %multiply.186.clone.1.clone.1 = f32[768]{0} multiply(f32[768]{0} %subtract.58.clone.1.clone.1, f32[768]{0} %broadcast.351.clone.1), metadata={op_type="ResourceApplyAdam" op_name="Adam/Adam/update_28/update_0/ResourceApplyAdam"}
  %add.67.clone.1.clone.1 = f32[768]{0} add(f32[768]{0} %param_24.45, f32[768]{0} %multiply.186.clone.1.clone.1), metadata={op_type="ResourceApplyAdam" op_name="Adam/Adam/update_28/update_0/ResourceApplyAdam"}
  %sqrt.18.clone.1 = f32[768]{0} sqrt(f32[768]{0} %add.67.clone.1.clone.1), metadata={op_type="ResourceApplyAdam" op_name="Adam/Adam/update_28/update_0/ResourceApplyAdam"}
  %add.66.clone.1 = f32[768]{0} add(f32[768]{0} %sqrt.18.clone.1, f32[768]{0} %broadcast.349), metadata={op_type="ResourceApplyAdam" op_name="Adam/Adam/update_28/update_0/ResourceApplyAdam"}
  %divide.20.clone.1 = f32[768]{0} divide(f32[768]{0} %multiply.185.clone.1, f32[768]{0} %add.66.clone.1), metadata={op_type="ResourceApplyAdam" op_name="Adam/Adam/update_28/update_0/ResourceApplyAdam"}
  %subtract.57.clone.1 = f32[768]{0} subtract(f32[768]{0} %param_23.55, f32[768]{0} %divide.20.clone.1), metadata={op_type="ResourceApplyAdam" op_name="Adam/Adam/update_28/update_0/ResourceApplyAdam"}
  %param_27.48 = f32[768]{0} parameter(27)
  %param_30.4 = f32[768]{0} parameter(30)
  %param_29.4 = f32[768]{0} parameter(29)
  %multiply.530.clone.1.clone.1 = f32[768]{0} multiply(f32[768]{0} %param_29.4, f32[768]{0} %broadcast.2091.clone.1), metadata={op_type="Mul" op_name="mul_36"}
  %subtract.62.clone.1.clone.1 = f32[768]{0} subtract(f32[768]{0} %multiply.530.clone.1.clone.1, f32[768]{0} %param_30.4), metadata={op_type="ResourceApplyAdam" op_name="Adam/Adam/update_35/update_0/ResourceApplyAdam"}
  %multiply.193.clone.1.clone.1 = f32[768]{0} multiply(f32[768]{0} %subtract.62.clone.1.clone.1, f32[768]{0} %broadcast.350.clone.1), metadata={op_type="ResourceApplyAdam" op_name="Adam/Adam/update_35/update_0/ResourceApplyAdam"}
  %add.71.clone.1.clone.1 = f32[768]{0} add(f32[768]{0} %param_30.4, f32[768]{0} %multiply.193.clone.1.clone.1), metadata={op_type="ResourceApplyAdam" op_name="Adam/Adam/update_35/update_0/ResourceApplyAdam"}
  %multiply.190.clone.1 = f32[768]{0} multiply(f32[768]{0} %add.71.clone.1.clone.1, f32[768]{0} %broadcast.348), metadata={op_type="ResourceApplyAdam" op_name="Adam/Adam/update_35/update_0/ResourceApplyAdam"}
  %param_28.35 = f32[768]{0} parameter(28)
  %multiply.192.clone.1.clone.1 = f32[768]{0} multiply(f32[768]{0} %multiply.530.clone.1.clone.1, f32[768]{0} %multiply.530.clone.1.clone.1), metadata={op_type="ResourceApplyAdam" op_name="Adam/Adam/update_35/update_0/ResourceApplyAdam"}
  %subtract.61.clone.1.clone.1 = f32[768]{0} subtract(f32[768]{0} %multiply.192.clone.1.clone.1, f32[768]{0} %param_28.35), metadata={op_type="ResourceApplyAdam" op_name="Adam/Adam/update_35/update_0/ResourceApplyAdam"}
  %multiply.191.clone.1.clone.1 = f32[768]{0} multiply(f32[768]{0} %subtract.61.clone.1.clone.1, f32[768]{0} %broadcast.351.clone.1), metadata={op_type="ResourceApplyAdam" op_name="Adam/Adam/update_35/update_0/ResourceApplyAdam"}
  %add.70.clone.1.clone.1 = f32[768]{0} add(f32[768]{0} %param_28.35, f32[768]{0} %multiply.191.clone.1.clone.1), metadata={op_type="ResourceApplyAdam" op_name="Adam/Adam/update_35/update_0/ResourceApplyAdam"}
  %sqrt.19.clone.1 = f32[768]{0} sqrt(f32[768]{0} %add.70.clone.1.clone.1), metadata={op_type="ResourceApplyAdam" op_name="Adam/Adam/update_35/update_0/ResourceApplyAdam"}
  %add.69.clone.1 = f32[768]{0} add(f32[768]{0} %sqrt.19.clone.1, f32[768]{0} %broadcast.349), metadata={op_type="ResourceApplyAdam" op_name="Adam/Adam/update_35/update_0/ResourceApplyAdam"}
  %divide.21.clone.1 = f32[768]{0} divide(f32[768]{0} %multiply.190.clone.1, f32[768]{0} %add.69.clone.1), metadata={op_type="ResourceApplyAdam" op_name="Adam/Adam/update_35/update_0/ResourceApplyAdam"}
  %subtract.60.clone.1 = f32[768]{0} subtract(f32[768]{0} %param_27.48, f32[768]{0} %divide.21.clone.1), metadata={op_type="ResourceApplyAdam" op_name="Adam/Adam/update_35/update_0/ResourceApplyAdam"}
  %param_31.15 = f32[768]{0} parameter(31)
  %param_34.4 = f32[768]{0} parameter(34)
  %param_33.4 = f32[768]{0} parameter(33)
  %multiply.532.clone.1.clone.1 = f32[768]{0} multiply(f32[768]{0} %param_33.4, f32[768]{0} %broadcast.2091.clone.1), metadata={op_type="Mul" op_name="mul_37"}
  %subtract.65.clone.1.clone.1 = f32[768]{0} subtract(f32[768]{0} %multiply.532.clone.1.clone.1, f32[768]{0} %param_34.4), metadata={op_type="ResourceApplyAdam" op_name="Adam/Adam/update_36/update_0/ResourceApplyAdam"}
  %multiply.198.clone.1.clone.1 = f32[768]{0} multiply(f32[768]{0} %subtract.65.clone.1.clone.1, f32[768]{0} %broadcast.350.clone.1), metadata={op_type="ResourceApplyAdam" op_name="Adam/Adam/update_36/update_0/ResourceApplyAdam"}
  %add.74.clone.1.clone.1 = f32[768]{0} add(f32[768]{0} %param_34.4, f32[768]{0} %multiply.198.clone.1.clone.1), metadata={op_type="ResourceApplyAdam" op_name="Adam/Adam/update_36/update_0/ResourceApplyAdam"}
  %multiply.195.clone.1 = f32[768]{0} multiply(f32[768]{0} %add.74.clone.1.clone.1, f32[768]{0} %broadcast.348), metadata={op_type="ResourceApplyAdam" op_name="Adam/Adam/update_36/update_0/ResourceApplyAdam"}
  %param_32.13 = f32[768]{0} parameter(32)
  %multiply.197.clone.1.clone.1 = f32[768]{0} multiply(f32[768]{0} %multiply.532.clone.1.clone.1, f32[768]{0} %multiply.532.clone.1.clone.1), metadata={op_type="ResourceApplyAdam" op_name="Adam/Adam/update_36/update_0/ResourceApplyAdam"}
  %subtract.64.clone.1.clone.1 = f32[768]{0} subtract(f32[768]{0} %multiply.197.clone.1.clone.1, f32[768]{0} %param_32.13), metadata={op_type="ResourceApplyAdam" op_name="Adam/Adam/update_36/update_0/ResourceApplyAdam"}
  %multiply.196.clone.1.clone.1 = f32[768]{0} multiply(f32[768]{0} %subtract.64.clone.1.clone.1, f32[768]{0} %broadcast.351.clone.1), metadata={op_type="ResourceApplyAdam" op_name="Adam/Adam/update_36/update_0/ResourceApplyAdam"}
  %add.73.clone.1.clone.1 = f32[768]{0} add(f32[768]{0} %param_32.13, f32[768]{0} %multiply.196.clone.1.clone.1), metadata={op_type="ResourceApplyAdam" op_name="Adam/Adam/update_36/update_0/ResourceApplyAdam"}
  %sqrt.20.clone.1 = f32[768]{0} sqrt(f32[768]{0} %add.73.clone.1.clone.1), metadata={op_type="ResourceApplyAdam" op_name="Adam/Adam/update_36/update_0/ResourceApplyAdam"}
  %add.72.clone.1 = f32[768]{0} add(f32[768]{0} %sqrt.20.clone.1, f32[768]{0} %broadcast.349), metadata={op_type="ResourceApplyAdam" op_name="Adam/Adam/update_36/update_0/ResourceApplyAdam"}
  %divide.22.clone.1 = f32[768]{0} divide(f32[768]{0} %multiply.195.clone.1, f32[768]{0} %add.72.clone.1), metadata={op_type="ResourceApplyAdam" op_name="Adam/Adam/update_36/update_0/ResourceApplyAdam"}
  %subtract.63.clone.1 = f32[768]{0} subtract(f32[768]{0} %param_31.15, f32[768]{0} %divide.22.clone.1), metadata={op_type="ResourceApplyAdam" op_name="Adam/Adam/update_36/update_0/ResourceApplyAdam"}
  %param_35.13 = f32[768]{0} parameter(35)
  %param_37.3 = f32[768]{0} parameter(37)
  %multiply.340.clone.1 = f32[768]{0} multiply(f32[768]{0} %param_37.3, f32[768]{0} %broadcast.348), metadata={op_type="ResourceApplyAdam" op_name="Adam/Adam/update_4/update_0/ResourceApplyAdam"}
  %param_36.12 = f32[768]{0} parameter(36)
  %sqrt.45.clone.1 = f32[768]{0} sqrt(f32[768]{0} %param_36.12), metadata={op_type="ResourceApplyAdam" op_name="Adam/Adam/update_4/update_0/ResourceApplyAdam"}
  %add.150.clone.1 = f32[768]{0} add(f32[768]{0} %sqrt.45.clone.1, f32[768]{0} %broadcast.349), metadata={op_type="ResourceApplyAdam" op_name="Adam/Adam/update_4/update_0/ResourceApplyAdam"}
  %divide.47.clone.1 = f32[768]{0} divide(f32[768]{0} %multiply.340.clone.1, f32[768]{0} %add.150.clone.1), metadata={op_type="ResourceApplyAdam" op_name="Adam/Adam/update_4/update_0/ResourceApplyAdam"}
  %subtract.138.clone.1 = f32[768]{0} subtract(f32[768]{0} %param_35.13, f32[768]{0} %divide.47.clone.1), metadata={op_type="ResourceApplyAdam" op_name="Adam/Adam/update_4/update_0/ResourceApplyAdam"}
  ROOT %tuple.114 = (f32[768]{0}, f32[768]{0}, f32[768]{0}, f32[768]{0}, f32[768]{0}, f32[768]{0}, f32[768]{0}, f32[768]{0}, f32[768]{0}, f32[768]{0}, f32[768]{0}, f32[768]{0}, f32[768]{0}, f32[768]{0}, f32[768]{0}, f32[768]{0}, f32[768]{0}, f32[768]{0}, f32[768]{0}, f32[768]{0}, f32[768]{0}, f32[768]{0}, f32[768]{0}, f32[768]{0}, f32[768]{0}) tuple(f32[768]{0} %subtract.6, f32[768]{0} %add.17.clone.1, f32[768]{0} %add.16.clone.1, f32[768]{0} %subtract.9.clone.1, f32[768]{0} %add.20.clone.1.clone.1, f32[768]{0} %add.19.clone.1.clone.1, f32[768]{0} %subtract.12.clone.1, f32[768]{0} %add.23.clone.1.clone.1, f32[768]{0} %add.22.clone.1.clone.1, f32[768]{0} %subtract.30.clone.1, f32[768]{0} %add.41.clone.1.clone.1, f32[768]{0} %add.40.clone.1.clone.1, f32[768]{0} %subtract.33.clone.1, f32[768]{0} %add.44.clone.1.clone.1, f32[768]{0} %add.43.clone.1.clone.1, f32[768]{0} %subtract.57.clone.1, f32[768]{0} %add.68.clone.1.clone.1, f32[768]{0} %add.67.clone.1.clone.1, f32[768]{0} %subtract.60.clone.1, f32[768]{0} %add.71.clone.1.clone.1, f32[768]{0} %add.70.clone.1.clone.1, f32[768]{0} %subtract.63.clone.1, f32[768]{0} %add.74.clone.1.clone.1, f32[768]{0} %add.73.clone.1.clone.1, f32[768]{0} %subtract.138.clone.1)
}

%add_float_.1141 (x.1142: f32[], y.1143: f32[]) -> f32[] {
  %x.1142 = f32[] parameter(0)
  %y.1143 = f32[] parameter(1)
  ROOT %add.1144 = f32[] add(f32[] %x.1142, f32[] %y.1143)
}

%gradient_tape_model_bert_pretrainer_cls_predictions_transform_LayerNorm_batchnorm_sub_Sum-reduction.1917 (x.1918: f32[], y.1919: f32[]) -> f32[] {
  %x.1918 = f32[] parameter(0)
  %y.1919 = f32[] parameter(1)
  ROOT %add.1920 = f32[] add(f32[] %x.1918, f32[] %y.1919)
}

%gradient_tape_model_bert_pretrainer_cls_predictions_transform_LayerNorm_batchnorm_mul_Sum_1-reduction.1908 (x.1909: f32[], y.1910: f32[]) -> f32[] {
  %x.1909 = f32[] parameter(0)
  %y.1910 = f32[] parameter(1)
  ROOT %add.1911 = f32[] add(f32[] %x.1909, f32[] %y.1910)
}

%fused_computation.19 (param_0.1230: f16[1216,768], param_1.1729: f16[1216,768], param_2.1858: f32[1216], param_3.1268: f32[1216], param_4.965: f16[1216,768], param_5.908: f32[1216], param_6.795: f32[768], param_7.832: f32[1216], param_8.510: f16[1216,768]) -> (f32[768], f16[1216,768], f32[768], f32[768]) {
  %constant_396_clone_1 = f16[] constant(0.13416), metadata={op_type="Mul" op_name="gradient_tape/model/bert_pretrainer/cls/predictions/transform/dense/Gelu/Pow/mul_1"}
  %broadcast.277.clone.1 = f16[1216,768]{1,0} broadcast(f16[] %constant_396_clone_1), dimensions={}, metadata={op_type="Mul" op_name="gradient_tape/model/bert_pretrainer/cls/predictions/transform/dense/Gelu/Pow/mul_1"}
  %param_1.1729 = f16[1216,768]{1,0} parameter(1)
  %multiply.563.clone.1 = f16[1216,768]{1,0} multiply(f16[1216,768]{1,0} %param_1.1729, f16[1216,768]{1,0} %param_1.1729), metadata={op_type="Square" op_name="gradient_tape/model/bert_pretrainer/cls/predictions/transform/dense/Gelu/Pow/Pow"}
  %param_8.510 = f16[1216,768]{1,0} parameter(8)
  %convert.135.clone.1 = f32[1216,768]{1,0} convert(f16[1216,768]{1,0} %param_8.510), metadata={op_type="Cast" op_name="gradient_tape/model/bert_pretrainer/cls/predictions/transform/LayerNorm/Cast_1/Cast"}
  %constant_1014_clone_1 = f32[] constant(1e-12), metadata={op_type="AddV2" op_name="model/bert_pretrainer/bert_encoder_1/embeddings/layer_norm/batchnorm/add"}
  %broadcast.1528.clone.1 = f32[1216]{0} broadcast(f32[] %constant_1014_clone_1), dimensions={}, metadata={op_type="AddV2" op_name="model/bert_pretrainer/cls/predictions/transform/LayerNorm/batchnorm/add"}
  %param_7.832 = f32[1216]{0} parameter(7)
  %constant_1008_clone_1 = f32[] constant(0.00130208337), metadata={op_type="Mul" op_name="gradient_tape/model/bert_pretrainer/cls/predictions/transform/LayerNorm/moments/truediv_1"}
  %broadcast.1527.clone.1 = f32[1216]{0} broadcast(f32[] %constant_1008_clone_1), dimensions={}
  %multiply.888.clone.1 = f32[1216]{0} multiply(f32[1216]{0} %param_7.832, f32[1216]{0} %broadcast.1527.clone.1), metadata={op_type="Mean" op_name="model/bert_pretrainer/cls/predictions/transform/LayerNorm/moments/variance"}
  %add.441.clone.1 = f32[1216]{0} add(f32[1216]{0} %broadcast.1528.clone.1, f32[1216]{0} %multiply.888.clone.1), metadata={op_type="AddV2" op_name="model/bert_pretrainer/cls/predictions/transform/LayerNorm/batchnorm/add"}
  %rsqrt.85.clone.1 = f32[1216]{0} rsqrt(f32[1216]{0} %add.441.clone.1), metadata={op_type="Rsqrt" op_name="model/bert_pretrainer/cls/predictions/transform/LayerNorm/batchnorm/Rsqrt"}
  %broadcast.698.clone.1 = f32[1216,768]{1,0} broadcast(f32[1216]{0} %rsqrt.85.clone.1), dimensions={0}, metadata={op_type="Mul" op_name="model/bert_pretrainer/cls/predictions/transform/LayerNorm/batchnorm/mul"}
  %param_6.795 = f32[768]{0} parameter(6)
  %broadcast.696.clone.1 = f32[1216,768]{1,0} broadcast(f32[768]{0} %param_6.795), dimensions={1}, metadata={op_type="Mul" op_name="model/bert_pretrainer/cls/predictions/transform/LayerNorm/batchnorm/mul"}
  %multiply.561.clone.1 = f32[1216,768]{1,0} multiply(f32[1216,768]{1,0} %broadcast.698.clone.1, f32[1216,768]{1,0} %broadcast.696.clone.1), metadata={op_type="Mul" op_name="model/bert_pretrainer/cls/predictions/transform/LayerNorm/batchnorm/mul"}
  %multiply.451.clone.1 = f32[1216,768]{1,0} multiply(f32[1216,768]{1,0} %convert.135.clone.1, f32[1216,768]{1,0} %multiply.561.clone.1), metadata={op_type="Mul" op_name="gradient_tape/model/bert_pretrainer/cls/predictions/transform/LayerNorm/batchnorm/mul_1/Mul"}
  %constant_397_clone_1 = f32[] constant(2), metadata={op_type="Mul" op_name="gradient_tape/model/bert_pretrainer/cls/predictions/transform/LayerNorm/moments/Mul"}
  %broadcast.276.clone.1 = f32[1216,1]{1,0} broadcast(f32[] %constant_397_clone_1), dimensions={}
  %broadcast.275.clone.1 = f32[1216,1]{1,0} broadcast(f32[] %constant_1008_clone_1), dimensions={}
  %bitcast.235.clone.1 = f32[1216,1]{1,0} bitcast(f32[1216]{0} %rsqrt.85.clone.1), metadata={op_type="Rsqrt" op_name="model/bert_pretrainer/cls/predictions/transform/LayerNorm/batchnorm/Rsqrt"}
  %multiply.450.clone.1 = f32[1216,1]{1,0} multiply(f32[1216,1]{1,0} %bitcast.235.clone.1, f32[1216,1]{1,0} %bitcast.235.clone.1), metadata={op_type="RsqrtGrad" op_name="gradient_tape/model/bert_pretrainer/cls/predictions/transform/LayerNorm/batchnorm/RsqrtGrad"}
  %multiply.449.clone.1 = f32[1216,1]{1,0} multiply(f32[1216,1]{1,0} %multiply.450.clone.1, f32[1216,1]{1,0} %bitcast.235.clone.1), metadata={op_type="RsqrtGrad" op_name="gradient_tape/model/bert_pretrainer/cls/predictions/transform/LayerNorm/batchnorm/RsqrtGrad"}
  %param_5.908 = f32[1216]{0} parameter(5)
  %constant_398_clone_1 = f32[] constant(-0.5)
  %broadcast.274.clone.1 = f32[1216]{0} broadcast(f32[] %constant_398_clone_1), dimensions={}
  %multiply.448.clone.1 = f32[1216]{0} multiply(f32[1216]{0} %param_5.908, f32[1216]{0} %broadcast.274.clone.1), metadata={op_type="RsqrtGrad" op_name="gradient_tape/model/bert_pretrainer/cls/predictions/transform/LayerNorm/batchnorm/RsqrtGrad"}
  %bitcast.234.clone.1 = f32[1216,1]{1,0} bitcast(f32[1216]{0} %multiply.448.clone.1), metadata={op_type="RsqrtGrad" op_name="gradient_tape/model/bert_pretrainer/cls/predictions/transform/LayerNorm/batchnorm/RsqrtGrad"}
  %multiply.447.clone.1 = f32[1216,1]{1,0} multiply(f32[1216,1]{1,0} %multiply.449.clone.1, f32[1216,1]{1,0} %bitcast.234.clone.1), metadata={op_type="RsqrtGrad" op_name="gradient_tape/model/bert_pretrainer/cls/predictions/transform/LayerNorm/batchnorm/RsqrtGrad"}
  %multiply.446.clone.1 = f32[1216,1]{1,0} multiply(f32[1216,1]{1,0} %broadcast.275.clone.1, f32[1216,1]{1,0} %multiply.447.clone.1), metadata={op_type="Mul" op_name="gradient_tape/model/bert_pretrainer/cls/predictions/transform/LayerNorm/moments/truediv"}
  %multiply.445.clone.1 = f32[1216,1]{1,0} multiply(f32[1216,1]{1,0} %broadcast.276.clone.1, f32[1216,1]{1,0} %multiply.446.clone.1), metadata={op_type="Mul" op_name="gradient_tape/model/bert_pretrainer/cls/predictions/transform/LayerNorm/moments/Mul"}
  %bitcast.233.clone.1 = f32[1216]{0} bitcast(f32[1216,1]{1,0} %multiply.445.clone.1), metadata={op_type="Mul" op_name="gradient_tape/model/bert_pretrainer/cls/predictions/transform/LayerNorm/moments/Mul"}
  %broadcast.273.clone.1 = f32[1216,768]{1,0} broadcast(f32[1216]{0} %bitcast.233.clone.1), dimensions={0}
  %param_4.965 = f16[1216,768]{1,0} parameter(4)
  %convert.425.clone.1 = f32[1216,768]{1,0} convert(f16[1216,768]{1,0} %param_4.965), metadata={op_type="Cast" op_name="model/bert_pretrainer/cls/predictions/transform/LayerNorm/Cast"}
  %param_3.1268 = f32[1216]{0} parameter(3)
  %multiply.886.clone.1 = f32[1216]{0} multiply(f32[1216]{0} %param_3.1268, f32[1216]{0} %broadcast.1527.clone.1), metadata={op_type="Mean" op_name="model/bert_pretrainer/cls/predictions/transform/LayerNorm/moments/mean"}
  %broadcast.1523.clone.1 = f32[1216,768]{1,0} broadcast(f32[1216]{0} %multiply.886.clone.1), dimensions={0}, metadata={op_type="SquaredDifference" op_name="model/bert_pretrainer/cls/predictions/transform/LayerNorm/moments/SquaredDifference"}
  %subtract.316.clone.1 = f32[1216,768]{1,0} subtract(f32[1216,768]{1,0} %convert.425.clone.1, f32[1216,768]{1,0} %broadcast.1523.clone.1), metadata={op_type="SquaredDifference" op_name="model/bert_pretrainer/cls/predictions/transform/LayerNorm/moments/SquaredDifference"}
  %multiply.443.clone.1 = f32[1216,768]{1,0} multiply(f32[1216,768]{1,0} %broadcast.273.clone.1, f32[1216,768]{1,0} %subtract.316.clone.1), metadata={op_type="Mul" op_name="gradient_tape/model/bert_pretrainer/cls/predictions/transform/LayerNorm/moments/mul_1"}
  %add.185.clone.1 = f32[1216,768]{1,0} add(f32[1216,768]{1,0} %multiply.451.clone.1, f32[1216,768]{1,0} %multiply.443.clone.1), metadata={op_type="AddN" op_name="AddN_1"}
  %param_2.1858 = f32[1216]{0} parameter(2)
  %multiply.442.clone.1 = f32[1216]{0} multiply(f32[1216]{0} %broadcast.1527.clone.1, f32[1216]{0} %param_2.1858), metadata={op_type="Mul" op_name="gradient_tape/model/bert_pretrainer/cls/predictions/transform/LayerNorm/moments/truediv_1"}
  %broadcast.272.clone.1 = f32[1216,768]{1,0} broadcast(f32[1216]{0} %multiply.442.clone.1), dimensions={0}
  %add.184.clone.1 = f32[1216,768]{1,0} add(f32[1216,768]{1,0} %add.185.clone.1, f32[1216,768]{1,0} %broadcast.272.clone.1), metadata={op_type="AddN" op_name="AddN_1"}
  %convert.134.clone.1 = f16[1216,768]{1,0} convert(f32[1216,768]{1,0} %add.184.clone.1), metadata={op_type="Cast" op_name="gradient_tape/model/bert_pretrainer/cls/predictions/transform/LayerNorm/Cast/Cast"}
  %constant_399_clone_1 = f16[] constant(0.5), metadata={op_type="Mul" op_name="model/bert_pretrainer/bert_encoder_1/transformer/layer_0/activation/Gelu/mul"}
  %broadcast.700.clone.1 = f16[1216,768]{1,0} broadcast(f16[] %constant_399_clone_1), dimensions={}, metadata={op_type="Mul" op_name="model/bert_pretrainer/cls/predictions/transform/dense/Gelu/mul"}
  %multiply.562.clone.1 = f16[1216,768]{1,0} multiply(f16[1216,768]{1,0} %param_1.1729, f16[1216,768]{1,0} %broadcast.700.clone.1), metadata={op_type="Mul" op_name="model/bert_pretrainer/cls/predictions/transform/dense/Gelu/mul"}
  %multiply.441.clone.1 = f16[1216,768]{1,0} multiply(f16[1216,768]{1,0} %convert.134.clone.1, f16[1216,768]{1,0} %multiply.562.clone.1), metadata={op_type="Mul" op_name="gradient_tape/model/bert_pretrainer/cls/predictions/transform/dense/Gelu/mul_3/Mul_1"}
  %constant_401_clone_1 = f16[] constant(1), metadata={op_type="Sub" op_name="model/bert_pretrainer/bert_encoder_1/transformer/layer_1/self_attention/softmax/sub"}
  %broadcast.702.clone.1 = f16[1216,768]{1,0} broadcast(f16[] %constant_401_clone_1), dimensions={}, metadata={op_type="AddV2" op_name="model/bert_pretrainer/cls/predictions/transform/dense/Gelu/add_1"}
  %param_0.1230 = f16[1216,768]{1,0} parameter(0)
  %multiply.440.clone.1 = f16[1216,768]{1,0} multiply(f16[1216,768]{1,0} %param_0.1230, f16[1216,768]{1,0} %param_0.1230), metadata={op_type="TanhGrad" op_name="gradient_tape/model/bert_pretrainer/cls/predictions/transform/dense/Gelu/TanhGrad"}
  %subtract.150.clone.1 = f16[1216,768]{1,0} subtract(f16[1216,768]{1,0} %broadcast.702.clone.1, f16[1216,768]{1,0} %multiply.440.clone.1), metadata={op_type="TanhGrad" op_name="gradient_tape/model/bert_pretrainer/cls/predictions/transform/dense/Gelu/TanhGrad"}
  %multiply.439.clone.1 = f16[1216,768]{1,0} multiply(f16[1216,768]{1,0} %multiply.441.clone.1, f16[1216,768]{1,0} %subtract.150.clone.1), metadata={op_type="TanhGrad" op_name="gradient_tape/model/bert_pretrainer/cls/predictions/transform/dense/Gelu/TanhGrad"}
  %constant_400_clone_1 = f16[] constant(0.79785), metadata={op_type="Mul" op_name="model/bert_pretrainer/bert_encoder_1/transformer/layer_0/activation/Gelu/mul_2"}
  %broadcast.701.clone.1 = f16[1216,768]{1,0} broadcast(f16[] %constant_400_clone_1), dimensions={}, metadata={op_type="Mul" op_name="model/bert_pretrainer/cls/predictions/transform/dense/Gelu/mul_2"}
  %multiply.438.clone.1 = f16[1216,768]{1,0} multiply(f16[1216,768]{1,0} %multiply.439.clone.1, f16[1216,768]{1,0} %broadcast.701.clone.1), metadata={op_type="Mul" op_name="gradient_tape/model/bert_pretrainer/cls/predictions/transform/dense/Gelu/mul_2/Mul"}
  %multiply.437.clone.1 = f16[1216,768]{1,0} multiply(f16[1216,768]{1,0} %multiply.563.clone.1, f16[1216,768]{1,0} %multiply.438.clone.1), metadata={op_type="Mul" op_name="gradient_tape/model/bert_pretrainer/cls/predictions/transform/dense/Gelu/Pow/mul"}
  %multiply.436.clone.1 = f16[1216,768]{1,0} multiply(f16[1216,768]{1,0} %broadcast.277.clone.1, f16[1216,768]{1,0} %multiply.437.clone.1), metadata={op_type="Mul" op_name="gradient_tape/model/bert_pretrainer/cls/predictions/transform/dense/Gelu/Pow/mul_1"}
  %multiply.435.clone.1 = f16[1216,768]{1,0} multiply(f16[1216,768]{1,0} %convert.134.clone.1, f16[1216,768]{1,0} %broadcast.700.clone.1), metadata={op_type="Mul" op_name="gradient_tape/model/bert_pretrainer/cls/predictions/transform/dense/Gelu/mul_3/Mul"}
  %add.231.clone.1 = f16[1216,768]{1,0} add(f16[1216,768]{1,0} %broadcast.702.clone.1, f16[1216,768]{1,0} %param_0.1230), metadata={op_type="AddV2" op_name="model/bert_pretrainer/cls/predictions/transform/dense/Gelu/add_1"}
  %multiply.434.clone.1 = f16[1216,768]{1,0} multiply(f16[1216,768]{1,0} %multiply.435.clone.1, f16[1216,768]{1,0} %add.231.clone.1), metadata={op_type="Mul" op_name="gradient_tape/model/bert_pretrainer/cls/predictions/transform/dense/Gelu/mul/Mul"}
  %add.183.clone.1 = f16[1216,768]{1,0} add(f16[1216,768]{1,0} %multiply.436.clone.1, f16[1216,768]{1,0} %multiply.434.clone.1), metadata={op_type="AddN" op_name="AddN_2"}
  %add.181.clone.1 = f16[1216,768]{1,0} add(f16[1216,768]{1,0} %add.183.clone.1, f16[1216,768]{1,0} %multiply.438.clone.1), metadata={op_type="AddN" op_name="AddN_2"}
  %convert.33 = f32[1216,768]{1,0} convert(f16[1216,768]{1,0} %add.181.clone.1), metadata={op_type="BiasAddGrad" op_name="gradient_tape/model/bert_pretrainer/cls/predictions/transform/dense/BiasAdd/BiasAddGrad"}
  %constant_90 = f32[] constant(0), metadata={op_type="Sum" op_name="model/bert_pretrain_loss_and_metric_layer/Sum_3"}
  %reduce.49 = f32[768]{0} reduce(f32[1216,768]{1,0} %convert.33, f32[] %constant_90), dimensions={0}, to_apply=%add_float_.1141, metadata={op_type="BiasAddGrad" op_name="gradient_tape/model/bert_pretrainer/cls/predictions/transform/dense/BiasAdd/BiasAddGrad"}
  %reduce.51.clone.1 = f32[768]{0} reduce(f32[1216,768]{1,0} %convert.135.clone.1, f32[] %constant_90), dimensions={0}, to_apply=%gradient_tape_model_bert_pretrainer_cls_predictions_transform_LayerNorm_batchnorm_sub_Sum-reduction.1917, metadata={op_type="Sum" op_name="gradient_tape/model/bert_pretrainer/cls/predictions/transform/LayerNorm/batchnorm/sub/Sum"}
  %multiply.914.clone.1 = f32[1216,768]{1,0} multiply(f32[1216,768]{1,0} %convert.135.clone.1, f32[1216,768]{1,0} %convert.425.clone.1), metadata={op_type="Mul" op_name="gradient_tape/model/bert_pretrainer/cls/predictions/transform/LayerNorm/batchnorm/mul_1/Mul_1"}
  %negate.18.clone.1 = f32[1216,768]{1,0} negate(f32[1216,768]{1,0} %convert.135.clone.1), metadata={op_type="Neg" op_name="gradient_tape/model/bert_pretrainer/cls/predictions/transform/LayerNorm/batchnorm/sub/Neg"}
  %multiply.912.clone.1 = f32[1216,768]{1,0} multiply(f32[1216,768]{1,0} %negate.18.clone.1, f32[1216,768]{1,0} %broadcast.1523.clone.1), metadata={op_type="Mul" op_name="gradient_tape/model/bert_pretrainer/cls/predictions/transform/LayerNorm/batchnorm/mul_2/Mul_1"}
  %add.468.clone.1 = f32[1216,768]{1,0} add(f32[1216,768]{1,0} %multiply.914.clone.1, f32[1216,768]{1,0} %multiply.912.clone.1), metadata={op_type="AddN" op_name="AddN"}
  %multiply.111.clone.1 = f32[1216,768]{1,0} multiply(f32[1216,768]{1,0} %add.468.clone.1, f32[1216,768]{1,0} %broadcast.698.clone.1), metadata={op_type="Mul" op_name="gradient_tape/model/bert_pretrainer/cls/predictions/transform/LayerNorm/batchnorm/mul/Mul_1"}
  %reduce.50.clone.1 = f32[768]{0} reduce(f32[1216,768]{1,0} %multiply.111.clone.1, f32[] %constant_90), dimensions={0}, to_apply=%gradient_tape_model_bert_pretrainer_cls_predictions_transform_LayerNorm_batchnorm_mul_Sum_1-reduction.1908, metadata={op_type="Sum" op_name="gradient_tape/model/bert_pretrainer/cls/predictions/transform/LayerNorm/batchnorm/mul/Sum_1"}
  ROOT %tuple.140 = (f32[768]{0}, f16[1216,768]{1,0}, f32[768]{0}, f32[768]{0}) tuple(f32[768]{0} %reduce.49, f16[1216,768]{1,0} %add.181.clone.1, f32[768]{0} %reduce.51.clone.1, f32[768]{0} %reduce.50.clone.1)
}

%fused_computation.28 (param_0.40: f32[30522,768], param_1.1672: f32[], param_2.1744: f32[30522,768], param_3.1132: f32[], param_4.723: f32[30522,768], param_5.490: f32[30522,768], param_6.465: f32[]) -> (f32[30522,768], f32[30522,768], f32[30522,768]) {
  %param_0.40 = f32[30522,768]{1,0} parameter(0)
  %param_2.1744 = f32[30522,768]{1,0} parameter(2)
  %param_4.723 = f32[30522,768]{1,0} parameter(4)
  %constant_1511_clone_1 = f32[] constant(0.0009765625), metadata={op_type="Mul" op_name="mul_1"}
  %broadcast.2086.clone.1 = f32[30522,768]{1,0} broadcast(f32[] %constant_1511_clone_1), dimensions={}, metadata={op_type="Mul" op_name="mul_1"}
  %multiply.1384.clone.1 = f32[30522,768]{1,0} multiply(f32[30522,768]{1,0} %param_4.723, f32[30522,768]{1,0} %broadcast.2086.clone.1), metadata={op_type="Mul" op_name="mul_1"}
  %subtract.17.clone.1 = f32[30522,768]{1,0} subtract(f32[30522,768]{1,0} %multiply.1384.clone.1, f32[30522,768]{1,0} %param_2.1744), metadata={op_type="ResourceApplyAdam" op_name="Adam/Adam/update/update_0/ResourceApplyAdam"}
  %constant_104_clone_1 = f32[] constant(1), metadata={op_type="SparseSoftmaxCrossEntropyWithLogits" op_name="model/bert_pretrain_loss_and_metric_layer/SparseSoftmaxCrossEntropyWithLogits_1/SparseSoftmaxCrossEntropyWithLogits"}
  %param_3.1132 = f32[] parameter(3)
  %subtract.174.clone.1 = f32[] subtract(f32[] %constant_104_clone_1, f32[] %param_3.1132), metadata={op_type="ResourceApplyAdam" op_name="Adam/Adam/update_4/update_0/ResourceApplyAdam"}
  %broadcast.202.clone.1 = f32[30522,768]{1,0} broadcast(f32[] %subtract.174.clone.1), dimensions={}, metadata={op_type="ResourceApplyAdam" op_name="Adam/Adam/update/update_0/ResourceApplyAdam"}
  %multiply.119.clone.1 = f32[30522,768]{1,0} multiply(f32[30522,768]{1,0} %subtract.17.clone.1, f32[30522,768]{1,0} %broadcast.202.clone.1), metadata={op_type="ResourceApplyAdam" op_name="Adam/Adam/update/update_0/ResourceApplyAdam"}
  %add.26.clone.1 = f32[30522,768]{1,0} add(f32[30522,768]{1,0} %param_2.1744, f32[30522,768]{1,0} %multiply.119.clone.1), metadata={op_type="ResourceApplyAdam" op_name="Adam/Adam/update/update_0/ResourceApplyAdam"}
  %param_1.1672 = f32[] parameter(1)
  %broadcast.200 = f32[30522,768]{1,0} broadcast(f32[] %param_1.1672), dimensions={}, metadata={op_type="ResourceApplyAdam" op_name="Adam/Adam/update/update_0/ResourceApplyAdam"}
  %multiply.116 = f32[30522,768]{1,0} multiply(f32[30522,768]{1,0} %add.26.clone.1, f32[30522,768]{1,0} %broadcast.200), metadata={op_type="ResourceApplyAdam" op_name="Adam/Adam/update/update_0/ResourceApplyAdam"}
  %param_5.490 = f32[30522,768]{1,0} parameter(5)
  %multiply.118.clone.1 = f32[30522,768]{1,0} multiply(f32[30522,768]{1,0} %multiply.1384.clone.1, f32[30522,768]{1,0} %multiply.1384.clone.1), metadata={op_type="ResourceApplyAdam" op_name="Adam/Adam/update/update_0/ResourceApplyAdam"}
  %subtract.16.clone.1 = f32[30522,768]{1,0} subtract(f32[30522,768]{1,0} %multiply.118.clone.1, f32[30522,768]{1,0} %param_5.490), metadata={op_type="ResourceApplyAdam" op_name="Adam/Adam/update/update_0/ResourceApplyAdam"}
  %param_6.465 = f32[] parameter(6)
  %subtract.175.clone.1 = f32[] subtract(f32[] %constant_104_clone_1, f32[] %param_6.465), metadata={op_type="ResourceApplyAdam" op_name="Adam/Adam/update_4/update_0/ResourceApplyAdam"}
  %broadcast.201.clone.1 = f32[30522,768]{1,0} broadcast(f32[] %subtract.175.clone.1), dimensions={}, metadata={op_type="ResourceApplyAdam" op_name="Adam/Adam/update/update_0/ResourceApplyAdam"}
  %multiply.117.clone.1 = f32[30522,768]{1,0} multiply(f32[30522,768]{1,0} %subtract.16.clone.1, f32[30522,768]{1,0} %broadcast.201.clone.1), metadata={op_type="ResourceApplyAdam" op_name="Adam/Adam/update/update_0/ResourceApplyAdam"}
  %add.25.clone.1 = f32[30522,768]{1,0} add(f32[30522,768]{1,0} %param_5.490, f32[30522,768]{1,0} %multiply.117.clone.1), metadata={op_type="ResourceApplyAdam" op_name="Adam/Adam/update/update_0/ResourceApplyAdam"}
  %sqrt.4 = f32[30522,768]{1,0} sqrt(f32[30522,768]{1,0} %add.25.clone.1), metadata={op_type="ResourceApplyAdam" op_name="Adam/Adam/update/update_0/ResourceApplyAdam"}
  %constant_103 = f32[] constant(1e-06), metadata={op_type="ResourceApplyAdam" op_name="Adam/Adam/update/update_0/ResourceApplyAdam"}
  %broadcast.199 = f32[30522,768]{1,0} broadcast(f32[] %constant_103), dimensions={}, metadata={op_type="ResourceApplyAdam" op_name="Adam/Adam/update/update_0/ResourceApplyAdam"}
  %add.24 = f32[30522,768]{1,0} add(f32[30522,768]{1,0} %sqrt.4, f32[30522,768]{1,0} %broadcast.199), metadata={op_type="ResourceApplyAdam" op_name="Adam/Adam/update/update_0/ResourceApplyAdam"}
  %divide.6 = f32[30522,768]{1,0} divide(f32[30522,768]{1,0} %multiply.116, f32[30522,768]{1,0} %add.24), metadata={op_type="ResourceApplyAdam" op_name="Adam/Adam/update/update_0/ResourceApplyAdam"}
  %subtract.15 = f32[30522,768]{1,0} subtract(f32[30522,768]{1,0} %param_0.40, f32[30522,768]{1,0} %divide.6), metadata={op_type="ResourceApplyAdam" op_name="Adam/Adam/update/update_0/ResourceApplyAdam"}
  ROOT %tuple.11 = (f32[30522,768]{1,0}, f32[30522,768]{1,0}, f32[30522,768]{1,0}) tuple(f32[30522,768]{1,0} %subtract.15, f32[30522,768]{1,0} %add.26.clone.1, f32[30522,768]{1,0} %add.25.clone.1)
}

%scatter-combiner.1765 (p0.1766: f32[], p1.1767: f32[]) -> f32[] {
  %p0.1766 = f32[] parameter(0)
  %p1.1767 = f32[] parameter(1)
  ROOT %add.1768 = f32[] add(f32[] %p0.1766, f32[] %p1.1767)
}

%fused_computation.32 (param_0.670: f16[30528,768], param_1.958: f16[16,512,768], param_2.721: s32[16,512]) -> f32[30522,768] {
  %param_0.670 = f16[30528,768]{1,0} parameter(0)
  %slice.8 = f16[30522,768]{1,0} slice(f16[30528,768]{1,0} %param_0.670), slice={[0:30522], [0:768]}, metadata={op_type="MatMul" op_name="gradient_tape/model/bert_pretrainer/cls/predictions/MatMul/MatMul_1"}
  %convert.36 = f32[30522,768]{1,0} convert(f16[30522,768]{1,0} %slice.8), metadata={op_type="Cast" op_name="gradient_tape/model/bert_pretrainer/cls/predictions/MatMul/Cast/Cast"}
  %param_2.721 = s32[16,512]{1,0} parameter(2)
  %bitcast.259 = s32[8192]{0} bitcast(s32[16,512]{1,0} %param_2.721), metadata={op_type="Reshape" op_name="model/bert_pretrainer/bert_encoder_1/word_embeddings/Reshape"}
  %param_1.958 = f16[16,512,768]{2,1,0} parameter(1)
  %bitcast.258 = f16[8192,768]{1,0} bitcast(f16[16,512,768]{2,1,0} %param_1.958), metadata={op_type="Reshape" op_name="gradient_tape/model/bert_pretrainer/bert_encoder_1/word_embeddings/Reshape"}
  %convert.35 = f32[8192,768]{1,0} convert(f16[8192,768]{1,0} %bitcast.258), metadata={op_type="Cast" op_name="gradient_tape/model/bert_pretrainer/bert_encoder_1/word_embeddings/GatherV2/Cast/Cast"}
  ROOT %scatter.0 = f32[30522,768]{1,0} scatter(f32[30522,768]{1,0} %convert.36, s32[8192]{0} %bitcast.259, f32[8192,768]{1,0} %convert.35), update_window_dims={1}, inserted_window_dims={0}, scatter_dims_to_operand_dims={0}, index_vector_dim=1, to_apply=%scatter-combiner.1765, metadata={op_type="UnsortedSegmentSum" op_name="AddN_20/inputs_1"}
}

%fused_computation.33 (param_0.46: f32[30522], param_1.1673: f32[], param_2.1746: f32[30522], param_3.1134: f32[], param_4.727: f32[30522], param_5.499: f32[30522], param_6.471: f32[]) -> (f32[30522], f32[30522], f32[30522]) {
  %param_0.46 = f32[30522]{0} parameter(0)
  %param_2.1746 = f32[30522]{0} parameter(2)
  %param_4.727 = f32[30522]{0} parameter(4)
  %convert.795.clone.1 = f16[30522]{0} convert(f32[30522]{0} %param_4.727), metadata={op_type="BiasAddGrad" op_name="gradient_tape/model/bert_pretrainer/cls/predictions/BiasAdd/BiasAddGrad"}
  %convert.793.clone.1 = f32[30522]{0} convert(f16[30522]{0} %convert.795.clone.1), metadata={op_type="Cast" op_name="gradient_tape/model/bert_pretrainer/cls/predictions/BiasAdd/Cast/Cast"}
  %constant_1503_clone_1 = f32[] constant(0.0009765625), metadata={op_type="Mul" op_name="mul_1"}
  %broadcast.2082.clone.1 = f32[30522]{0} broadcast(f32[] %constant_1503_clone_1), dimensions={}, metadata={op_type="Mul" op_name="mul_42"}
  %multiply.1380.clone.1 = f32[30522]{0} multiply(f32[30522]{0} %convert.793.clone.1, f32[30522]{0} %broadcast.2082.clone.1), metadata={op_type="Mul" op_name="mul_42"}
  %subtract.20.clone.1 = f32[30522]{0} subtract(f32[30522]{0} %multiply.1380.clone.1, f32[30522]{0} %param_2.1746), metadata={op_type="ResourceApplyAdam" op_name="Adam/Adam/update_41/update_0/ResourceApplyAdam"}
  %constant_108_clone_1 = f32[] constant(1), metadata={op_type="SparseSoftmaxCrossEntropyWithLogits" op_name="model/bert_pretrain_loss_and_metric_layer/SparseSoftmaxCrossEntropyWithLogits_1/SparseSoftmaxCrossEntropyWithLogits"}
  %param_3.1134 = f32[] parameter(3)
  %subtract.176.clone.1 = f32[] subtract(f32[] %constant_108_clone_1, f32[] %param_3.1134), metadata={op_type="ResourceApplyAdam" op_name="Adam/Adam/update_4/update_0/ResourceApplyAdam"}
  %broadcast.208.clone.1 = f32[30522]{0} broadcast(f32[] %subtract.176.clone.1), dimensions={}, metadata={op_type="ResourceApplyAdam" op_name="Adam/Adam/update_41/update_0/ResourceApplyAdam"}
  %multiply.124.clone.1 = f32[30522]{0} multiply(f32[30522]{0} %subtract.20.clone.1, f32[30522]{0} %broadcast.208.clone.1), metadata={op_type="ResourceApplyAdam" op_name="Adam/Adam/update_41/update_0/ResourceApplyAdam"}
  %add.29.clone.1 = f32[30522]{0} add(f32[30522]{0} %param_2.1746, f32[30522]{0} %multiply.124.clone.1), metadata={op_type="ResourceApplyAdam" op_name="Adam/Adam/update_41/update_0/ResourceApplyAdam"}
  %param_1.1673 = f32[] parameter(1)
  %broadcast.206 = f32[30522]{0} broadcast(f32[] %param_1.1673), dimensions={}, metadata={op_type="ResourceApplyAdam" op_name="Adam/Adam/update_41/update_0/ResourceApplyAdam"}
  %multiply.121 = f32[30522]{0} multiply(f32[30522]{0} %add.29.clone.1, f32[30522]{0} %broadcast.206), metadata={op_type="ResourceApplyAdam" op_name="Adam/Adam/update_41/update_0/ResourceApplyAdam"}
  %param_5.499 = f32[30522]{0} parameter(5)
  %multiply.123.clone.1 = f32[30522]{0} multiply(f32[30522]{0} %multiply.1380.clone.1, f32[30522]{0} %multiply.1380.clone.1), metadata={op_type="ResourceApplyAdam" op_name="Adam/Adam/update_41/update_0/ResourceApplyAdam"}
  %subtract.19.clone.1 = f32[30522]{0} subtract(f32[30522]{0} %multiply.123.clone.1, f32[30522]{0} %param_5.499), metadata={op_type="ResourceApplyAdam" op_name="Adam/Adam/update_41/update_0/ResourceApplyAdam"}
  %param_6.471 = f32[] parameter(6)
  %subtract.177.clone.1 = f32[] subtract(f32[] %constant_108_clone_1, f32[] %param_6.471), metadata={op_type="ResourceApplyAdam" op_name="Adam/Adam/update_4/update_0/ResourceApplyAdam"}
  %broadcast.207.clone.1 = f32[30522]{0} broadcast(f32[] %subtract.177.clone.1), dimensions={}, metadata={op_type="ResourceApplyAdam" op_name="Adam/Adam/update_41/update_0/ResourceApplyAdam"}
  %multiply.122.clone.1 = f32[30522]{0} multiply(f32[30522]{0} %subtract.19.clone.1, f32[30522]{0} %broadcast.207.clone.1), metadata={op_type="ResourceApplyAdam" op_name="Adam/Adam/update_41/update_0/ResourceApplyAdam"}
  %add.28.clone.1 = f32[30522]{0} add(f32[30522]{0} %param_5.499, f32[30522]{0} %multiply.122.clone.1), metadata={op_type="ResourceApplyAdam" op_name="Adam/Adam/update_41/update_0/ResourceApplyAdam"}
  %sqrt.5 = f32[30522]{0} sqrt(f32[30522]{0} %add.28.clone.1), metadata={op_type="ResourceApplyAdam" op_name="Adam/Adam/update_41/update_0/ResourceApplyAdam"}
  %constant_107 = f32[] constant(1e-06), metadata={op_type="ResourceApplyAdam" op_name="Adam/Adam/update/update_0/ResourceApplyAdam"}
  %broadcast.204 = f32[30522]{0} broadcast(f32[] %constant_107), dimensions={}, metadata={op_type="ResourceApplyAdam" op_name="Adam/Adam/update_41/update_0/ResourceApplyAdam"}
  %add.27 = f32[30522]{0} add(f32[30522]{0} %sqrt.5, f32[30522]{0} %broadcast.204), metadata={op_type="ResourceApplyAdam" op_name="Adam/Adam/update_41/update_0/ResourceApplyAdam"}
  %divide.7 = f32[30522]{0} divide(f32[30522]{0} %multiply.121, f32[30522]{0} %add.27), metadata={op_type="ResourceApplyAdam" op_name="Adam/Adam/update_41/update_0/ResourceApplyAdam"}
  %subtract.18 = f32[30522]{0} subtract(f32[30522]{0} %param_0.46, f32[30522]{0} %divide.7), metadata={op_type="ResourceApplyAdam" op_name="Adam/Adam/update_41/update_0/ResourceApplyAdam"}
  ROOT %tuple.13 = (f32[30522]{0}, f32[30522]{0}, f32[30522]{0}) tuple(f32[30522]{0} %subtract.18, f32[30522]{0} %add.29.clone.1, f32[30522]{0} %add.28.clone.1)
}

%add_float_.1052 (x.1053: f32[], y.1054: f32[]) -> f32[] {
  %x.1053 = f32[] parameter(0)
  %y.1054 = f32[] parameter(1)
  ROOT %add.1055 = f32[] add(f32[] %x.1053, f32[] %y.1054)
}

%fused_computation.37 (param_0.1075: s32[16,76], param_1.1482: f32[1216,30522], param_2.1404: f32[1216], param_3.845: f32[16,76], param_4.542: f32[]) -> f32[30522] {
  %param_4.542 = f32[] parameter(4)
  %constant_111 = f32[] constant(0), metadata={op_type="Sum" op_name="model/bert_pretrain_loss_and_metric_layer/Sum_3"}
  %compare.88 = pred[] compare(f32[] %param_4.542, f32[] %constant_111), direction=EQ, metadata={op_type="DivNoNan" op_name="gradient_tape/model/bert_pretrain_loss_and_metric_layer/div_no_nan/div_no_nan"}
  %constant_1055 = f32[] constant(1024), metadata={op_type="DivNoNan" op_name="gradient_tape/model/bert_pretrain_loss_and_metric_layer/div_no_nan/div_no_nan"}
  %divide.69 = f32[] divide(f32[] %constant_1055, f32[] %param_4.542), metadata={op_type="DivNoNan" op_name="gradient_tape/model/bert_pretrain_loss_and_metric_layer/div_no_nan/div_no_nan"}
  %select.88 = f32[] select(pred[] %compare.88, f32[] %constant_111, f32[] %divide.69), metadata={op_type="DivNoNan" op_name="gradient_tape/model/bert_pretrain_loss_and_metric_layer/div_no_nan/div_no_nan"}
  %broadcast.1588 = f32[16,76]{1,0} broadcast(f32[] %select.88), dimensions={}, metadata={op_type="Tile" op_name="gradient_tape/model/bert_pretrain_loss_and_metric_layer/Tile_1"}
  %param_3.845 = f32[16,76]{1,0} parameter(3)
  %convert.473 = s32[16,76]{1,0} convert(f32[16,76]{1,0} %param_3.845), metadata={op_type="Cast" op_name="model/Cast"}
  %convert.472 = f32[16,76]{1,0} convert(s32[16,76]{1,0} %convert.473), metadata={op_type="Cast" op_name="model/bert_pretrain_loss_and_metric_layer/Cast"}
  %multiply.898 = f32[16,76]{1,0} multiply(f32[16,76]{1,0} %broadcast.1588, f32[16,76]{1,0} %convert.472), metadata={op_type="Mul" op_name="gradient_tape/model/bert_pretrain_loss_and_metric_layer/mul/Mul"}
  %bitcast.316 = f32[1216]{0} bitcast(f32[16,76]{1,0} %multiply.898), metadata={op_type="Mul" op_name="gradient_tape/model/bert_pretrain_loss_and_metric_layer/SparseSoftmaxCrossEntropyWithLogits/mul"}
  %broadcast.1586 = f32[1216,30522]{1,0} broadcast(f32[1216]{0} %bitcast.316), dimensions={0}, metadata={op_type="Mul" op_name="gradient_tape/model/bert_pretrain_loss_and_metric_layer/SparseSoftmaxCrossEntropyWithLogits/mul"}
  %param_1.1482 = f32[1216,30522]{1,0} parameter(1)
  %param_2.1404 = f32[1216]{0} parameter(2)
  %broadcast.1585 = f32[1216,30522]{1,0} broadcast(f32[1216]{0} %param_2.1404), dimensions={0}, metadata={op_type="SparseSoftmaxCrossEntropyWithLogits" op_name="model/bert_pretrain_loss_and_metric_layer/SparseSoftmaxCrossEntropyWithLogits/SparseSoftmaxCrossEntropyWithLogits"}
  %divide.68 = f32[1216,30522]{1,0} divide(f32[1216,30522]{1,0} %param_1.1482, f32[1216,30522]{1,0} %broadcast.1585), metadata={op_type="SparseSoftmaxCrossEntropyWithLogits" op_name="model/bert_pretrain_loss_and_metric_layer/SparseSoftmaxCrossEntropyWithLogits/SparseSoftmaxCrossEntropyWithLogits"}
  %param_0.1075 = s32[16,76]{1,0} parameter(0)
  %convert.471 = f32[16,76]{1,0} convert(s32[16,76]{1,0} %param_0.1075), metadata={op_type="Cast" op_name="model/bert_pretrain_loss_and_metric_layer/Cast_2"}
  %convert.470 = s64[16,76]{1,0} convert(f32[16,76]{1,0} %convert.471), metadata={op_type="Cast" op_name="model/bert_pretrain_loss_and_metric_layer/ArithmeticOptimizer/ReorderCastLikeAndValuePreserving_int64_Cast_3"}
  %bitcast.315 = s64[1216]{0} bitcast(s64[16,76]{1,0} %convert.470), metadata={op_type="Cast" op_name="model/bert_pretrain_loss_and_metric_layer/ArithmeticOptimizer/ReorderCastLikeAndValuePreserving_int64_Cast_3"}
  %broadcast.1584 = s64[1216,30522]{1,0} broadcast(s64[1216]{0} %bitcast.315), dimensions={0}, metadata={op_type="SparseSoftmaxCrossEntropyWithLogits" op_name="model/bert_pretrain_loss_and_metric_layer/SparseSoftmaxCrossEntropyWithLogits/SparseSoftmaxCrossEntropyWithLogits"}
  %iota.14 = s64[1216,30522]{1,0} iota(), iota_dimension=1, metadata={op_type="SparseSoftmaxCrossEntropyWithLogits" op_name="model/bert_pretrain_loss_and_metric_layer/SparseSoftmaxCrossEntropyWithLogits/SparseSoftmaxCrossEntropyWithLogits"}
  %compare.87 = pred[1216,30522]{1,0} compare(s64[1216,30522]{1,0} %broadcast.1584, s64[1216,30522]{1,0} %iota.14), direction=EQ, metadata={op_type="SparseSoftmaxCrossEntropyWithLogits" op_name="model/bert_pretrain_loss_and_metric_layer/SparseSoftmaxCrossEntropyWithLogits/SparseSoftmaxCrossEntropyWithLogits"}
  %constant_1054 = f32[] constant(1), metadata={op_type="SparseSoftmaxCrossEntropyWithLogits" op_name="model/bert_pretrain_loss_and_metric_layer/SparseSoftmaxCrossEntropyWithLogits_1/SparseSoftmaxCrossEntropyWithLogits"}
  %broadcast.1583 = f32[1216,30522]{1,0} broadcast(f32[] %constant_1054), dimensions={}, metadata={op_type="SparseSoftmaxCrossEntropyWithLogits" op_name="model/bert_pretrain_loss_and_metric_layer/SparseSoftmaxCrossEntropyWithLogits/SparseSoftmaxCrossEntropyWithLogits"}
  %broadcast.1582 = f32[1216,30522]{1,0} broadcast(f32[] %constant_111), dimensions={}, metadata={op_type="SparseSoftmaxCrossEntropyWithLogits" op_name="model/bert_pretrain_loss_and_metric_layer/SparseSoftmaxCrossEntropyWithLogits/SparseSoftmaxCrossEntropyWithLogits"}
  %select.87 = f32[1216,30522]{1,0} select(pred[1216,30522]{1,0} %compare.87, f32[1216,30522]{1,0} %broadcast.1583, f32[1216,30522]{1,0} %broadcast.1582), metadata={op_type="SparseSoftmaxCrossEntropyWithLogits" op_name="model/bert_pretrain_loss_and_metric_layer/SparseSoftmaxCrossEntropyWithLogits/SparseSoftmaxCrossEntropyWithLogits"}
  %constant_1052 = s64[] constant(0), metadata={op_type="SparseSoftmaxCrossEntropyWithLogits" op_name="model/bert_pretrain_loss_and_metric_layer/SparseSoftmaxCrossEntropyWithLogits_1/SparseSoftmaxCrossEntropyWithLogits"}
  %broadcast.1581 = s64[1216]{0} broadcast(s64[] %constant_1052), dimensions={}, metadata={op_type="SparseSoftmaxCrossEntropyWithLogits" op_name="model/bert_pretrain_loss_and_metric_layer/SparseSoftmaxCrossEntropyWithLogits/SparseSoftmaxCrossEntropyWithLogits"}
  %compare.86 = pred[1216]{0} compare(s64[1216]{0} %broadcast.1581, s64[1216]{0} %bitcast.315), direction=LE, metadata={op_type="SparseSoftmaxCrossEntropyWithLogits" op_name="model/bert_pretrain_loss_and_metric_layer/SparseSoftmaxCrossEntropyWithLogits/SparseSoftmaxCrossEntropyWithLogits"}
  %constant_1050 = s64[] constant(30522), metadata={op_type="SparseSoftmaxCrossEntropyWithLogits" op_name="model/bert_pretrain_loss_and_metric_layer/SparseSoftmaxCrossEntropyWithLogits/SparseSoftmaxCrossEntropyWithLogits"}
  %broadcast.1579 = s64[1216]{0} broadcast(s64[] %constant_1050), dimensions={}, metadata={op_type="SparseSoftmaxCrossEntropyWithLogits" op_name="model/bert_pretrain_loss_and_metric_layer/SparseSoftmaxCrossEntropyWithLogits/SparseSoftmaxCrossEntropyWithLogits"}
  %compare.85 = pred[1216]{0} compare(s64[1216]{0} %bitcast.315, s64[1216]{0} %broadcast.1579), direction=LT, metadata={op_type="SparseSoftmaxCrossEntropyWithLogits" op_name="model/bert_pretrain_loss_and_metric_layer/SparseSoftmaxCrossEntropyWithLogits/SparseSoftmaxCrossEntropyWithLogits"}
  %and.11 = pred[1216]{0} and(pred[1216]{0} %compare.86, pred[1216]{0} %compare.85), metadata={op_type="SparseSoftmaxCrossEntropyWithLogits" op_name="model/bert_pretrain_loss_and_metric_layer/SparseSoftmaxCrossEntropyWithLogits/SparseSoftmaxCrossEntropyWithLogits"}
  %broadcast.1578 = f32[1216]{0} broadcast(f32[] %constant_111), dimensions={}, metadata={op_type="SparseSoftmaxCrossEntropyWithLogits" op_name="model/bert_pretrain_loss_and_metric_layer/SparseSoftmaxCrossEntropyWithLogits/SparseSoftmaxCrossEntropyWithLogits"}
  %constant_1049 = f32[] constant(nan), metadata={op_type="SparseSoftmaxCrossEntropyWithLogits" op_name="model/bert_pretrain_loss_and_metric_layer/SparseSoftmaxCrossEntropyWithLogits_1/SparseSoftmaxCrossEntropyWithLogits"}
  %broadcast.1576 = f32[1216]{0} broadcast(f32[] %constant_1049), dimensions={}, metadata={op_type="SparseSoftmaxCrossEntropyWithLogits" op_name="model/bert_pretrain_loss_and_metric_layer/SparseSoftmaxCrossEntropyWithLogits/SparseSoftmaxCrossEntropyWithLogits"}
  %select.86 = f32[1216]{0} select(pred[1216]{0} %and.11, f32[1216]{0} %broadcast.1578, f32[1216]{0} %broadcast.1576), metadata={op_type="SparseSoftmaxCrossEntropyWithLogits" op_name="model/bert_pretrain_loss_and_metric_layer/SparseSoftmaxCrossEntropyWithLogits/SparseSoftmaxCrossEntropyWithLogits"}
  %broadcast.1575 = f32[1216,30522]{1,0} broadcast(f32[1216]{0} %select.86), dimensions={0}, metadata={op_type="SparseSoftmaxCrossEntropyWithLogits" op_name="model/bert_pretrain_loss_and_metric_layer/SparseSoftmaxCrossEntropyWithLogits/SparseSoftmaxCrossEntropyWithLogits"}
  %add.462 = f32[1216,30522]{1,0} add(f32[1216,30522]{1,0} %select.87, f32[1216,30522]{1,0} %broadcast.1575), metadata={op_type="SparseSoftmaxCrossEntropyWithLogits" op_name="model/bert_pretrain_loss_and_metric_layer/SparseSoftmaxCrossEntropyWithLogits/SparseSoftmaxCrossEntropyWithLogits"}
  %subtract.322 = f32[1216,30522]{1,0} subtract(f32[1216,30522]{1,0} %divide.68, f32[1216,30522]{1,0} %add.462), metadata={op_type="SparseSoftmaxCrossEntropyWithLogits" op_name="model/bert_pretrain_loss_and_metric_layer/SparseSoftmaxCrossEntropyWithLogits/SparseSoftmaxCrossEntropyWithLogits"}
  %multiply.897 = f32[1216,30522]{1,0} multiply(f32[1216,30522]{1,0} %broadcast.1586, f32[1216,30522]{1,0} %subtract.322), metadata={op_type="Mul" op_name="gradient_tape/model/bert_pretrain_loss_and_metric_layer/SparseSoftmaxCrossEntropyWithLogits/mul"}
  %convert.469 = f16[1216,30522]{1,0} convert(f32[1216,30522]{1,0} %multiply.897), metadata={op_type="Cast" op_name="gradient_tape/model/bert_pretrain_loss_and_metric_layer/Cast_1/ArithmeticOptimizer/ReorderCastLikeAndValuePreserving_float_Cast"}
  %convert.39 = f32[1216,30522]{1,0} convert(f16[1216,30522]{1,0} %convert.469), metadata={op_type="BiasAddGrad" op_name="gradient_tape/model/bert_pretrainer/cls/predictions/BiasAdd/BiasAddGrad"}
  ROOT %reduce.52 = f32[30522]{0} reduce(f32[1216,30522]{1,0} %convert.39, f32[] %constant_111), dimensions={0}, to_apply=%add_float_.1052, metadata={op_type="BiasAddGrad" op_name="gradient_tape/model/bert_pretrainer/cls/predictions/BiasAdd/BiasAddGrad"}
}

%fused_computation.38 (param_0.53: f32[768,2], param_1.1674: f32[], param_2.1748: f32[768,2], param_3.1136: f32[], param_4.731: f16[768,8], param_5.508: f32[768,2], param_6.477: f32[]) -> (f32[768,2], f32[768,2], f32[768,2]) {
  %param_0.53 = f32[768,2]{1,0} parameter(0)
  %param_2.1748 = f32[768,2]{1,0} parameter(2)
  %param_4.731 = f16[768,8]{1,0} parameter(4)
  %slice.39.clone.1 = f16[768,2]{1,0} slice(f16[768,8]{1,0} %param_4.731), slice={[0:768], [0:2]}, metadata={op_type="MatMul" op_name="gradient_tape/model/bert_pretrainer/classification/predictions/transform/logits/MatMul_1"}
  %convert.787.clone.1 = f32[768,2]{1,0} convert(f16[768,2]{1,0} %slice.39.clone.1), metadata={op_type="Cast" op_name="gradient_tape/model/bert_pretrainer/classification/predictions/transform/logits/MatMul/Cast/Cast"}
  %constant_1496_clone_1 = f32[] constant(0.0009765625), metadata={op_type="Mul" op_name="mul_1"}
  %broadcast.2077.clone.1 = f32[768,2]{1,0} broadcast(f32[] %constant_1496_clone_1), dimensions={}, metadata={op_type="Mul" op_name="mul_40"}
  %multiply.1376.clone.1 = f32[768,2]{1,0} multiply(f32[768,2]{1,0} %convert.787.clone.1, f32[768,2]{1,0} %broadcast.2077.clone.1), metadata={op_type="Mul" op_name="mul_40"}
  %subtract.23.clone.1 = f32[768,2]{1,0} subtract(f32[768,2]{1,0} %multiply.1376.clone.1, f32[768,2]{1,0} %param_2.1748), metadata={op_type="ResourceApplyAdam" op_name="Adam/Adam/update_39/update_0/ResourceApplyAdam"}
  %constant_113_clone_1 = f32[] constant(1), metadata={op_type="SparseSoftmaxCrossEntropyWithLogits" op_name="model/bert_pretrain_loss_and_metric_layer/SparseSoftmaxCrossEntropyWithLogits_1/SparseSoftmaxCrossEntropyWithLogits"}
  %param_3.1136 = f32[] parameter(3)
  %subtract.178.clone.1 = f32[] subtract(f32[] %constant_113_clone_1, f32[] %param_3.1136), metadata={op_type="ResourceApplyAdam" op_name="Adam/Adam/update_4/update_0/ResourceApplyAdam"}
  %broadcast.215.clone.1 = f32[768,2]{1,0} broadcast(f32[] %subtract.178.clone.1), dimensions={}, metadata={op_type="ResourceApplyAdam" op_name="Adam/Adam/update_39/update_0/ResourceApplyAdam"}
  %multiply.129.clone.1 = f32[768,2]{1,0} multiply(f32[768,2]{1,0} %subtract.23.clone.1, f32[768,2]{1,0} %broadcast.215.clone.1), metadata={op_type="ResourceApplyAdam" op_name="Adam/Adam/update_39/update_0/ResourceApplyAdam"}
  %add.32.clone.1 = f32[768,2]{1,0} add(f32[768,2]{1,0} %param_2.1748, f32[768,2]{1,0} %multiply.129.clone.1), metadata={op_type="ResourceApplyAdam" op_name="Adam/Adam/update_39/update_0/ResourceApplyAdam"}
  %param_1.1674 = f32[] parameter(1)
  %broadcast.213 = f32[768,2]{1,0} broadcast(f32[] %param_1.1674), dimensions={}, metadata={op_type="ResourceApplyAdam" op_name="Adam/Adam/update_39/update_0/ResourceApplyAdam"}
  %multiply.126 = f32[768,2]{1,0} multiply(f32[768,2]{1,0} %add.32.clone.1, f32[768,2]{1,0} %broadcast.213), metadata={op_type="ResourceApplyAdam" op_name="Adam/Adam/update_39/update_0/ResourceApplyAdam"}
  %param_5.508 = f32[768,2]{1,0} parameter(5)
  %multiply.128.clone.1 = f32[768,2]{1,0} multiply(f32[768,2]{1,0} %multiply.1376.clone.1, f32[768,2]{1,0} %multiply.1376.clone.1), metadata={op_type="ResourceApplyAdam" op_name="Adam/Adam/update_39/update_0/ResourceApplyAdam"}
  %subtract.22.clone.1 = f32[768,2]{1,0} subtract(f32[768,2]{1,0} %multiply.128.clone.1, f32[768,2]{1,0} %param_5.508), metadata={op_type="ResourceApplyAdam" op_name="Adam/Adam/update_39/update_0/ResourceApplyAdam"}
  %param_6.477 = f32[] parameter(6)
  %subtract.179.clone.1 = f32[] subtract(f32[] %constant_113_clone_1, f32[] %param_6.477), metadata={op_type="ResourceApplyAdam" op_name="Adam/Adam/update_4/update_0/ResourceApplyAdam"}
  %broadcast.214.clone.1 = f32[768,2]{1,0} broadcast(f32[] %subtract.179.clone.1), dimensions={}, metadata={op_type="ResourceApplyAdam" op_name="Adam/Adam/update_39/update_0/ResourceApplyAdam"}
  %multiply.127.clone.1 = f32[768,2]{1,0} multiply(f32[768,2]{1,0} %subtract.22.clone.1, f32[768,2]{1,0} %broadcast.214.clone.1), metadata={op_type="ResourceApplyAdam" op_name="Adam/Adam/update_39/update_0/ResourceApplyAdam"}
  %add.31.clone.1 = f32[768,2]{1,0} add(f32[768,2]{1,0} %param_5.508, f32[768,2]{1,0} %multiply.127.clone.1), metadata={op_type="ResourceApplyAdam" op_name="Adam/Adam/update_39/update_0/ResourceApplyAdam"}
  %sqrt.6 = f32[768,2]{1,0} sqrt(f32[768,2]{1,0} %add.31.clone.1), metadata={op_type="ResourceApplyAdam" op_name="Adam/Adam/update_39/update_0/ResourceApplyAdam"}
  %constant_112 = f32[] constant(1e-06), metadata={op_type="ResourceApplyAdam" op_name="Adam/Adam/update/update_0/ResourceApplyAdam"}
  %broadcast.212 = f32[768,2]{1,0} broadcast(f32[] %constant_112), dimensions={}, metadata={op_type="ResourceApplyAdam" op_name="Adam/Adam/update_39/update_0/ResourceApplyAdam"}
  %add.30 = f32[768,2]{1,0} add(f32[768,2]{1,0} %sqrt.6, f32[768,2]{1,0} %broadcast.212), metadata={op_type="ResourceApplyAdam" op_name="Adam/Adam/update_39/update_0/ResourceApplyAdam"}
  %divide.8 = f32[768,2]{1,0} divide(f32[768,2]{1,0} %multiply.126, f32[768,2]{1,0} %add.30), metadata={op_type="ResourceApplyAdam" op_name="Adam/Adam/update_39/update_0/ResourceApplyAdam"}
  %subtract.21 = f32[768,2]{1,0} subtract(f32[768,2]{1,0} %param_0.53, f32[768,2]{1,0} %divide.8), metadata={op_type="ResourceApplyAdam" op_name="Adam/Adam/update_39/update_0/ResourceApplyAdam"}
  ROOT %tuple.15 = (f32[768,2]{1,0}, f32[768,2]{1,0}, f32[768,2]{1,0}) tuple(f32[768,2]{1,0} %subtract.21, f32[768,2]{1,0} %add.32.clone.1, f32[768,2]{1,0} %add.31.clone.1)
}

%add_float_.857 (x.858: f32[], y.859: f32[]) -> f32[] {
  %x.858 = f32[] parameter(0)
  %y.859 = f32[] parameter(1)
  ROOT %add.860 = f32[] add(f32[] %x.858, f32[] %y.859)
}

%fused_computation.42 (param_0.58: f32[2], param_1.1675: f32[], param_2.1750: f32[2], param_3.1138: f32[], param_4.736: f32[2], param_5.515: f32[], param_6.486: f16[16,2]) -> (f32[2], f32[2], f32[2]) {
  %param_0.58 = f32[2]{0} parameter(0)
  %param_2.1750 = f32[2]{0} parameter(2)
  %param_6.486 = f16[16,2]{1,0} parameter(6)
  %convert.43.clone.1 = f32[16,2]{1,0} convert(f16[16,2]{1,0} %param_6.486), metadata={op_type="BiasAddGrad" op_name="gradient_tape/model/bert_pretrainer/classification/predictions/transform/logits/BiasAdd/BiasAddGrad"}
  %constant_120_clone_1 = f32[] constant(0), metadata={op_type="Sum" op_name="model/bert_pretrain_loss_and_metric_layer/Sum_3"}
  %reduce.53.clone.1 = f32[2]{0} reduce(f32[16,2]{1,0} %convert.43.clone.1, f32[] %constant_120_clone_1), dimensions={0}, to_apply=%add_float_.857, metadata={op_type="BiasAddGrad" op_name="gradient_tape/model/bert_pretrainer/classification/predictions/transform/logits/BiasAdd/BiasAddGrad"}
  %convert.42.clone.1 = f16[2]{0} convert(f32[2]{0} %reduce.53.clone.1), metadata={op_type="BiasAddGrad" op_name="gradient_tape/model/bert_pretrainer/classification/predictions/transform/logits/BiasAdd/BiasAddGrad"}
  %convert.41.clone.1 = f32[2]{0} convert(f16[2]{0} %convert.42.clone.1), metadata={op_type="Cast" op_name="gradient_tape/model/bert_pretrainer/classification/predictions/transform/logits/BiasAdd/Cast/Cast"}
  %constant_119_clone_1 = f32[] constant(0.0009765625), metadata={op_type="Mul" op_name="mul_1"}
  %broadcast.222.clone.1 = f32[2]{0} broadcast(f32[] %constant_119_clone_1), dimensions={}, metadata={op_type="Mul" op_name="mul_41"}
  %multiply.135.clone.1 = f32[2]{0} multiply(f32[2]{0} %convert.41.clone.1, f32[2]{0} %broadcast.222.clone.1), metadata={op_type="Mul" op_name="mul_41"}
  %subtract.26.clone.1 = f32[2]{0} subtract(f32[2]{0} %multiply.135.clone.1, f32[2]{0} %param_2.1750), metadata={op_type="ResourceApplyAdam" op_name="Adam/Adam/update_40/update_0/ResourceApplyAdam"}
  %constant_117_clone_1 = f32[] constant(1), metadata={op_type="SparseSoftmaxCrossEntropyWithLogits" op_name="model/bert_pretrain_loss_and_metric_layer/SparseSoftmaxCrossEntropyWithLogits_1/SparseSoftmaxCrossEntropyWithLogits"}
  %param_3.1138 = f32[] parameter(3)
  %subtract.180.clone.1 = f32[] subtract(f32[] %constant_117_clone_1, f32[] %param_3.1138), metadata={op_type="ResourceApplyAdam" op_name="Adam/Adam/update_4/update_0/ResourceApplyAdam"}
  %broadcast.220.clone.1 = f32[2]{0} broadcast(f32[] %subtract.180.clone.1), dimensions={}, metadata={op_type="ResourceApplyAdam" op_name="Adam/Adam/update_40/update_0/ResourceApplyAdam"}
  %multiply.134.clone.1 = f32[2]{0} multiply(f32[2]{0} %subtract.26.clone.1, f32[2]{0} %broadcast.220.clone.1), metadata={op_type="ResourceApplyAdam" op_name="Adam/Adam/update_40/update_0/ResourceApplyAdam"}
  %add.35.clone.1 = f32[2]{0} add(f32[2]{0} %param_2.1750, f32[2]{0} %multiply.134.clone.1), metadata={op_type="ResourceApplyAdam" op_name="Adam/Adam/update_40/update_0/ResourceApplyAdam"}
  %param_1.1675 = f32[] parameter(1)
  %broadcast.218 = f32[2]{0} broadcast(f32[] %param_1.1675), dimensions={}, metadata={op_type="ResourceApplyAdam" op_name="Adam/Adam/update_40/update_0/ResourceApplyAdam"}
  %multiply.131 = f32[2]{0} multiply(f32[2]{0} %add.35.clone.1, f32[2]{0} %broadcast.218), metadata={op_type="ResourceApplyAdam" op_name="Adam/Adam/update_40/update_0/ResourceApplyAdam"}
  %param_4.736 = f32[2]{0} parameter(4)
  %multiply.133.clone.1 = f32[2]{0} multiply(f32[2]{0} %multiply.135.clone.1, f32[2]{0} %multiply.135.clone.1), metadata={op_type="ResourceApplyAdam" op_name="Adam/Adam/update_40/update_0/ResourceApplyAdam"}
  %subtract.25.clone.1 = f32[2]{0} subtract(f32[2]{0} %multiply.133.clone.1, f32[2]{0} %param_4.736), metadata={op_type="ResourceApplyAdam" op_name="Adam/Adam/update_40/update_0/ResourceApplyAdam"}
  %param_5.515 = f32[] parameter(5)
  %subtract.181.clone.1 = f32[] subtract(f32[] %constant_117_clone_1, f32[] %param_5.515), metadata={op_type="ResourceApplyAdam" op_name="Adam/Adam/update_4/update_0/ResourceApplyAdam"}
  %broadcast.219.clone.1 = f32[2]{0} broadcast(f32[] %subtract.181.clone.1), dimensions={}, metadata={op_type="ResourceApplyAdam" op_name="Adam/Adam/update_40/update_0/ResourceApplyAdam"}
  %multiply.132.clone.1 = f32[2]{0} multiply(f32[2]{0} %subtract.25.clone.1, f32[2]{0} %broadcast.219.clone.1), metadata={op_type="ResourceApplyAdam" op_name="Adam/Adam/update_40/update_0/ResourceApplyAdam"}
  %add.34.clone.1 = f32[2]{0} add(f32[2]{0} %param_4.736, f32[2]{0} %multiply.132.clone.1), metadata={op_type="ResourceApplyAdam" op_name="Adam/Adam/update_40/update_0/ResourceApplyAdam"}
  %sqrt.7 = f32[2]{0} sqrt(f32[2]{0} %add.34.clone.1), metadata={op_type="ResourceApplyAdam" op_name="Adam/Adam/update_40/update_0/ResourceApplyAdam"}
  %constant_116 = f32[] constant(1e-06), metadata={op_type="ResourceApplyAdam" op_name="Adam/Adam/update/update_0/ResourceApplyAdam"}
  %broadcast.217 = f32[2]{0} broadcast(f32[] %constant_116), dimensions={}, metadata={op_type="ResourceApplyAdam" op_name="Adam/Adam/update_40/update_0/ResourceApplyAdam"}
  %add.33 = f32[2]{0} add(f32[2]{0} %sqrt.7, f32[2]{0} %broadcast.217), metadata={op_type="ResourceApplyAdam" op_name="Adam/Adam/update_40/update_0/ResourceApplyAdam"}
  %divide.9 = f32[2]{0} divide(f32[2]{0} %multiply.131, f32[2]{0} %add.33), metadata={op_type="ResourceApplyAdam" op_name="Adam/Adam/update_40/update_0/ResourceApplyAdam"}
  %subtract.24 = f32[2]{0} subtract(f32[2]{0} %param_0.58, f32[2]{0} %divide.9), metadata={op_type="ResourceApplyAdam" op_name="Adam/Adam/update_40/update_0/ResourceApplyAdam"}
  ROOT %tuple.17 = (f32[2]{0}, f32[2]{0}, f32[2]{0}) tuple(f32[2]{0} %subtract.24, f32[2]{0} %add.35.clone.1, f32[2]{0} %add.34.clone.1)
}

%fused_computation.46 (param_0.63: f32[2,768], param_1.1676: f32[], param_2.1752: f32[2,768], param_3.1140: f32[], param_4.740: f16[8,768], param_5.524: f32[2,768], param_6.492: f32[]) -> (f32[2,768], f32[2,768], f32[2,768]) {
  %param_0.63 = f32[2,768]{1,0} parameter(0)
  %param_2.1752 = f32[2,768]{1,0} parameter(2)
  %param_4.740 = f16[8,768]{1,0} parameter(4)
  %slice.35.clone.1 = f16[2,768]{1,0} slice(f16[8,768]{1,0} %param_4.740), slice={[0:2], [0:768]}, metadata={op_type="MatMul" op_name="gradient_tape/model/bert_pretrainer/bert_encoder_1/type_embeddings/MatMul/MatMul"}
  %convert.780.clone.1 = f32[2,768]{1,0} convert(f16[2,768]{1,0} %slice.35.clone.1), metadata={op_type="Cast" op_name="gradient_tape/model/bert_pretrainer/bert_encoder_1/type_embeddings/MatMul/Cast/Cast"}
  %constant_1489_clone_1 = f32[] constant(0.0009765625), metadata={op_type="Mul" op_name="mul_1"}
  %broadcast.2071.clone.1 = f32[2,768]{1,0} broadcast(f32[] %constant_1489_clone_1), dimensions={}, metadata={op_type="Mul" op_name="mul_3"}
  %multiply.1372.clone.1 = f32[2,768]{1,0} multiply(f32[2,768]{1,0} %convert.780.clone.1, f32[2,768]{1,0} %broadcast.2071.clone.1), metadata={op_type="Mul" op_name="mul_3"}
  %subtract.29.clone.1 = f32[2,768]{1,0} subtract(f32[2,768]{1,0} %multiply.1372.clone.1, f32[2,768]{1,0} %param_2.1752), metadata={op_type="ResourceApplyAdam" op_name="Adam/Adam/update_2/update_0/ResourceApplyAdam"}
  %constant_122_clone_1 = f32[] constant(1), metadata={op_type="SparseSoftmaxCrossEntropyWithLogits" op_name="model/bert_pretrain_loss_and_metric_layer/SparseSoftmaxCrossEntropyWithLogits_1/SparseSoftmaxCrossEntropyWithLogits"}
  %param_3.1140 = f32[] parameter(3)
  %subtract.182.clone.1 = f32[] subtract(f32[] %constant_122_clone_1, f32[] %param_3.1140), metadata={op_type="ResourceApplyAdam" op_name="Adam/Adam/update_4/update_0/ResourceApplyAdam"}
  %broadcast.227.clone.1 = f32[2,768]{1,0} broadcast(f32[] %subtract.182.clone.1), dimensions={}, metadata={op_type="ResourceApplyAdam" op_name="Adam/Adam/update_2/update_0/ResourceApplyAdam"}
  %multiply.139.clone.1 = f32[2,768]{1,0} multiply(f32[2,768]{1,0} %subtract.29.clone.1, f32[2,768]{1,0} %broadcast.227.clone.1), metadata={op_type="ResourceApplyAdam" op_name="Adam/Adam/update_2/update_0/ResourceApplyAdam"}
  %add.38.clone.1 = f32[2,768]{1,0} add(f32[2,768]{1,0} %param_2.1752, f32[2,768]{1,0} %multiply.139.clone.1), metadata={op_type="ResourceApplyAdam" op_name="Adam/Adam/update_2/update_0/ResourceApplyAdam"}
  %param_1.1676 = f32[] parameter(1)
  %broadcast.225 = f32[2,768]{1,0} broadcast(f32[] %param_1.1676), dimensions={}, metadata={op_type="ResourceApplyAdam" op_name="Adam/Adam/update_2/update_0/ResourceApplyAdam"}
  %multiply.136 = f32[2,768]{1,0} multiply(f32[2,768]{1,0} %add.38.clone.1, f32[2,768]{1,0} %broadcast.225), metadata={op_type="ResourceApplyAdam" op_name="Adam/Adam/update_2/update_0/ResourceApplyAdam"}
  %param_5.524 = f32[2,768]{1,0} parameter(5)
  %multiply.138.clone.1 = f32[2,768]{1,0} multiply(f32[2,768]{1,0} %multiply.1372.clone.1, f32[2,768]{1,0} %multiply.1372.clone.1), metadata={op_type="ResourceApplyAdam" op_name="Adam/Adam/update_2/update_0/ResourceApplyAdam"}
  %subtract.28.clone.1 = f32[2,768]{1,0} subtract(f32[2,768]{1,0} %multiply.138.clone.1, f32[2,768]{1,0} %param_5.524), metadata={op_type="ResourceApplyAdam" op_name="Adam/Adam/update_2/update_0/ResourceApplyAdam"}
  %param_6.492 = f32[] parameter(6)
  %subtract.183.clone.1 = f32[] subtract(f32[] %constant_122_clone_1, f32[] %param_6.492), metadata={op_type="ResourceApplyAdam" op_name="Adam/Adam/update_4/update_0/ResourceApplyAdam"}
  %broadcast.226.clone.1 = f32[2,768]{1,0} broadcast(f32[] %subtract.183.clone.1), dimensions={}, metadata={op_type="ResourceApplyAdam" op_name="Adam/Adam/update_2/update_0/ResourceApplyAdam"}
  %multiply.137.clone.1 = f32[2,768]{1,0} multiply(f32[2,768]{1,0} %subtract.28.clone.1, f32[2,768]{1,0} %broadcast.226.clone.1), metadata={op_type="ResourceApplyAdam" op_name="Adam/Adam/update_2/update_0/ResourceApplyAdam"}
  %add.37.clone.1 = f32[2,768]{1,0} add(f32[2,768]{1,0} %param_5.524, f32[2,768]{1,0} %multiply.137.clone.1), metadata={op_type="ResourceApplyAdam" op_name="Adam/Adam/update_2/update_0/ResourceApplyAdam"}
  %sqrt.8 = f32[2,768]{1,0} sqrt(f32[2,768]{1,0} %add.37.clone.1), metadata={op_type="ResourceApplyAdam" op_name="Adam/Adam/update_2/update_0/ResourceApplyAdam"}
  %constant_121 = f32[] constant(1e-06), metadata={op_type="ResourceApplyAdam" op_name="Adam/Adam/update/update_0/ResourceApplyAdam"}
  %broadcast.223 = f32[2,768]{1,0} broadcast(f32[] %constant_121), dimensions={}, metadata={op_type="ResourceApplyAdam" op_name="Adam/Adam/update_2/update_0/ResourceApplyAdam"}
  %add.36 = f32[2,768]{1,0} add(f32[2,768]{1,0} %sqrt.8, f32[2,768]{1,0} %broadcast.223), metadata={op_type="ResourceApplyAdam" op_name="Adam/Adam/update_2/update_0/ResourceApplyAdam"}
  %divide.10 = f32[2,768]{1,0} divide(f32[2,768]{1,0} %multiply.136, f32[2,768]{1,0} %add.36), metadata={op_type="ResourceApplyAdam" op_name="Adam/Adam/update_2/update_0/ResourceApplyAdam"}
  %subtract.27 = f32[2,768]{1,0} subtract(f32[2,768]{1,0} %param_0.63, f32[2,768]{1,0} %divide.10), metadata={op_type="ResourceApplyAdam" op_name="Adam/Adam/update_2/update_0/ResourceApplyAdam"}
  ROOT %tuple.19 = (f32[2,768]{1,0}, f32[2,768]{1,0}, f32[2,768]{1,0}) tuple(f32[2,768]{1,0} %subtract.27, f32[2,768]{1,0} %add.38.clone.1, f32[2,768]{1,0} %add.37.clone.1)
}

%fused_computation.62 (param_0.88: f16[16,12,64,512]) -> f16[768,8192] {
  %param_0.88 = f16[16,12,64,512]{3,2,1,0} parameter(0)
  %transpose.121 = f16[12,64,16,512]{3,1,0,2} transpose(f16[16,12,64,512]{3,2,1,0} %param_0.88), dimensions={1,2,0,3}
  %copy.83 = f16[12,64,16,512]{3,2,1,0} copy(f16[12,64,16,512]{3,1,0,2} %transpose.121)
  ROOT %bitcast.149 = f16[768,8192]{1,0} bitcast(f16[12,64,16,512]{3,2,1,0} %copy.83)
}

%fused_computation.72 (param_0.106: f16[16,12,512,64]) -> f16[768,8192] {
  %param_0.106 = f16[16,12,512,64]{3,2,1,0} parameter(0)
  %transpose.123 = f16[12,64,16,512]{1,3,0,2} transpose(f16[16,12,512,64]{3,2,1,0} %param_0.106), dimensions={1,3,0,2}
  %copy.85 = f16[12,64,16,512]{3,2,1,0} copy(f16[12,64,16,512]{1,3,0,2} %transpose.123)
  ROOT %bitcast.152 = f16[768,8192]{1,0} bitcast(f16[12,64,16,512]{3,2,1,0} %copy.85)
}

%fused_computation.82 (param_0.124: f16[16,12,512,64]) -> f16[768,8192] {
  %param_0.124 = f16[16,12,512,64]{3,2,1,0} parameter(0)
  %transpose.125 = f16[12,64,16,512]{1,3,0,2} transpose(f16[16,12,512,64]{3,2,1,0} %param_0.124), dimensions={1,3,0,2}
  %copy.87 = f16[12,64,16,512]{3,2,1,0} copy(f16[12,64,16,512]{1,3,0,2} %transpose.125)
  ROOT %bitcast.155 = f16[768,8192]{1,0} bitcast(f16[12,64,16,512]{3,2,1,0} %copy.87)
}

%fused_computation.92 (param_0.141: f16[16,512,768]) -> f16[768,8192] {
  %param_0.141 = f16[16,512,768]{2,1,0} parameter(0)
  %transpose.127 = f16[768,16,512]{0,2,1} transpose(f16[16,512,768]{2,1,0} %param_0.141), dimensions={2,0,1}
  ROOT %bitcast.158 = f16[768,8192]{0,1} bitcast(f16[768,16,512]{0,2,1} %transpose.127)
}

%gradient_tape_model_bert_pretrainer_bert_encoder_1_transformer_layer_1_self_attention_attention_output_add_Sum-reduction.1335 (x.1336: f32[], y.1337: f32[]) -> f32[] {
  %x.1336 = f32[] parameter(0)
  %y.1337 = f32[] parameter(1)
  ROOT %add.1338 = f32[] add(f32[] %x.1336, f32[] %y.1337)
}

%gradient_tape_model_bert_pretrainer_bert_encoder_1_transformer_layer_1_self_attention_layer_norm_batchnorm_sub_Sum-reduction.1866 (x.1867: f32[], y.1868: f32[]) -> f32[] {
  %x.1867 = f32[] parameter(0)
  %y.1868 = f32[] parameter(1)
  ROOT %add.1869 = f32[] add(f32[] %x.1867, f32[] %y.1868)
}

%gradient_tape_model_bert_pretrainer_bert_encoder_1_transformer_layer_1_self_attention_layer_norm_batchnorm_mul_Sum_1-reduction.1857 (x.1858: f32[], y.1859: f32[]) -> f32[] {
  %x.1858 = f32[] parameter(0)
  %y.1859 = f32[] parameter(1)
  ROOT %add.1860 = f32[] add(f32[] %x.1858, f32[] %y.1859)
}

%gradient_tape_model_bert_pretrainer_bert_encoder_1_transformer_layer_1_output_layer_norm_batchnorm_mul_Sum_1-reduction.1884 (x.1885: f32[], y.1886: f32[]) -> f32[] {
  %x.1885 = f32[] parameter(0)
  %y.1886 = f32[] parameter(1)
  ROOT %add.1887 = f32[] add(f32[] %x.1885, f32[] %y.1886)
}

%gradient_tape_model_bert_pretrainer_bert_encoder_1_transformer_layer_1_output_layer_norm_batchnorm_sub_Sum-reduction.1893 (x.1894: f32[], y.1895: f32[]) -> f32[] {
  %x.1894 = f32[] parameter(0)
  %y.1895 = f32[] parameter(1)
  ROOT %add.1896 = f32[] add(f32[] %x.1894, f32[] %y.1895)
}

%fused_computation.97 (param_0.690: f16[16,512,768], param_1.1772: f32[16,512,768], param_2.1906: f32[16,512], param_3.1319: f32[16,512], param_4.1011: f32[16,512], param_5.952: f32[768], param_6.836: f32[768], param_7.869: f32[16,512], param_8.540: f16[16,512,768], param_9.400: f16[8192,768], param_10.325: f32[768], param_11.358: f16[16,512,768], param_12.279: f16[16,768], param_13.135: f16[8192,768]) -> (f32[768], f32[768], f32[768], f32[768], f32[768]) {
  %param_0.690 = f16[16,512,768]{2,1,0} parameter(0)
  %convert.60 = f32[16,512,768]{2,1,0} convert(f16[16,512,768]{2,1,0} %param_0.690), metadata={op_type="Sum" op_name="gradient_tape/model/bert_pretrainer/bert_encoder_1/transformer/layer_1/self_attention/attention_output/add/Sum"}
  %bitcast.159 = f32[8192,768]{1,0} bitcast(f32[16,512,768]{2,1,0} %convert.60)
  %constant_171 = f32[] constant(0), metadata={op_type="Sum" op_name="model/bert_pretrain_loss_and_metric_layer/Sum_3"}
  %reduce.58 = f32[768]{0} reduce(f32[8192,768]{1,0} %bitcast.159, f32[] %constant_171), dimensions={0}, to_apply=%gradient_tape_model_bert_pretrainer_bert_encoder_1_transformer_layer_1_self_attention_attention_output_add_Sum-reduction.1335, metadata={op_type="Sum" op_name="gradient_tape/model/bert_pretrainer/bert_encoder_1/transformer/layer_1/self_attention/attention_output/add/Sum"}
  %param_13.135 = f16[8192,768]{1,0} parameter(13)
  %convert.518.clone.1 = f32[8192,768]{1,0} convert(f16[8192,768]{1,0} %param_13.135), metadata={op_type="Cast" op_name="gradient_tape/model/bert_pretrainer/Cast/Cast"}
  %bitcast.336.clone.1 = f32[16,512,768]{2,1,0} bitcast(f32[8192,768]{1,0} %convert.518.clone.1), metadata={op_type="Cast" op_name="gradient_tape/model/bert_pretrainer/Cast/Cast"}
  %param_12.279 = f16[16,768]{1,0} parameter(12)
  %convert.517.clone.1 = f32[16,768]{1,0} convert(f16[16,768]{1,0} %param_12.279), metadata={op_type="Cast" op_name="gradient_tape/model/bert_pretrainer/bert_encoder_1/Cast_3/Cast"}
  %bitcast.335.clone.1 = f32[16,1,768]{2,1,0} bitcast(f32[16,768]{1,0} %convert.517.clone.1), metadata={op_type="StridedSliceGrad" op_name="gradient_tape/model/bert_pretrainer/bert_encoder_1/tf.__operators__.getitem/strided_slice/StridedSliceGrad"}
  %pad.29.clone.1 = f32[16,512,768]{2,1,0} pad(f32[16,1,768]{2,1,0} %bitcast.335.clone.1, f32[] %constant_171), padding=0_0x0_511x0_0, metadata={op_type="StridedSliceGrad" op_name="gradient_tape/model/bert_pretrainer/bert_encoder_1/tf.__operators__.getitem/strided_slice/StridedSliceGrad"}
  %add.477.clone.1 = f32[16,512,768]{2,1,0} add(f32[16,512,768]{2,1,0} %bitcast.336.clone.1, f32[16,512,768]{2,1,0} %pad.29.clone.1), metadata={op_type="AddN" op_name="AddN_3"}
  %bitcast.161.clone.1 = f32[8192,768]{1,0} bitcast(f32[16,512,768]{2,1,0} %add.477.clone.1)
  %reduce.60.clone.1 = f32[768]{0} reduce(f32[8192,768]{1,0} %bitcast.161.clone.1, f32[] %constant_171), dimensions={0}, to_apply=%gradient_tape_model_bert_pretrainer_bert_encoder_1_transformer_layer_1_output_layer_norm_batchnorm_sub_Sum-reduction.1893, metadata={op_type="Sum" op_name="gradient_tape/model/bert_pretrainer/bert_encoder_1/transformer/layer_1/output_layer_norm/batchnorm/sub/Sum"}
  %param_11.358 = f16[16,512,768]{2,1,0} parameter(11)
  %constant_1133_clone_1_clone_1 = f16[] constant(0.099976), metadata={op_type="GreaterEqual" op_name="model/bert_pretrainer/bert_encoder_1/dropout/dropout/GreaterEqual"}
  %broadcast.1673.clone.1.clone.1 = f16[16,512,768]{2,1,0} broadcast(f16[] %constant_1133_clone_1_clone_1), dimensions={}, metadata={op_type="GreaterEqual" op_name="model/bert_pretrainer/bert_encoder_1/dropout/dropout/GreaterEqual"}
  %compare.100.clone.1.clone.1 = pred[16,512,768]{2,1,0} compare(f16[16,512,768]{2,1,0} %param_11.358, f16[16,512,768]{2,1,0} %broadcast.1673.clone.1.clone.1), direction=GE, metadata={op_type="GreaterEqual" op_name="model/bert_pretrainer/bert_encoder_1/transformer/layer_1/dropout_2/dropout/GreaterEqual"}
  %constant_1132_clone_1_clone_1 = f16[] constant(1.1113), metadata={op_type="Mul" op_name="model/bert_pretrainer/bert_encoder_1/dropout/dropout/Mul"}
  %broadcast.1672.clone.1.clone.1 = f16[16,512,768]{2,1,0} broadcast(f16[] %constant_1132_clone_1_clone_1), dimensions={}, metadata={op_type="Mul" op_name="model/bert_pretrainer/bert_encoder_1/transformer/layer_1/dropout_2/dropout/Mul"}
  %constant_1131_clone_1_clone_1 = f16[] constant(0), metadata={op_type="GreaterEqual" op_name="model/bert_pretrainer/bert_encoder_1/transformer/layer_0/dropout_1/dropout/GreaterEqual"}
  %broadcast.1671.clone.1.clone.1 = f16[16,512,768]{2,1,0} broadcast(f16[] %constant_1131_clone_1_clone_1), dimensions={}
  %select.98.clone.1.clone.1 = f16[16,512,768]{2,1,0} select(pred[16,512,768]{2,1,0} %compare.100.clone.1.clone.1, f16[16,512,768]{2,1,0} %broadcast.1672.clone.1.clone.1, f16[16,512,768]{2,1,0} %broadcast.1671.clone.1.clone.1), metadata={op_type="Mul" op_name="model/bert_pretrainer/bert_encoder_1/transformer/layer_1/dropout_2/dropout/Mul"}
  %param_10.325 = f32[768]{0} parameter(10)
  %convert.541.clone.1.clone.1 = f16[768]{0} convert(f32[768]{0} %param_10.325), metadata={op_type="Cast" op_name="model/bert_pretrainer/bert_encoder_1/transformer/layer_1/output/add/Cast"}
  %broadcast.1670.clone.1.clone.1 = f16[16,512,768]{2,1,0} broadcast(f16[768]{0} %convert.541.clone.1.clone.1), dimensions={2}, metadata={op_type="AddV2" op_name="model/bert_pretrainer/bert_encoder_1/transformer/layer_1/output/add"}
  %param_9.400 = f16[8192,768]{1,0} parameter(9)
  %bitcast.346.clone.1.clone.1 = f16[16,512,768]{2,1,0} bitcast(f16[8192,768]{1,0} %param_9.400), metadata={op_type="Einsum" op_name="model/bert_pretrainer/bert_encoder_1/transformer/layer_1/output/einsum/Einsum"}
  %add.503.clone.1.clone.1 = f16[16,512,768]{2,1,0} add(f16[16,512,768]{2,1,0} %broadcast.1670.clone.1.clone.1, f16[16,512,768]{2,1,0} %bitcast.346.clone.1.clone.1), metadata={op_type="AddV2" op_name="model/bert_pretrainer/bert_encoder_1/transformer/layer_1/output/add"}
  %multiply.956.clone.1.clone.1 = f16[16,512,768]{2,1,0} multiply(f16[16,512,768]{2,1,0} %select.98.clone.1.clone.1, f16[16,512,768]{2,1,0} %add.503.clone.1.clone.1), metadata={op_type="Mul" op_name="model/bert_pretrainer/bert_encoder_1/transformer/layer_1/dropout_2/dropout/Mul_1"}
  %convert.540.clone.1.clone.1 = f32[16,512,768]{2,1,0} convert(f16[16,512,768]{2,1,0} %multiply.956.clone.1.clone.1), metadata={op_type="Cast" op_name="model/bert_pretrainer/bert_encoder_1/transformer/layer_1/Cast_2"}
  %param_8.540 = f16[16,512,768]{2,1,0} parameter(8)
  %convert.539.clone.1.clone.1 = f32[16,512,768]{2,1,0} convert(f16[16,512,768]{2,1,0} %param_8.540), metadata={op_type="Cast" op_name="model/bert_pretrainer/bert_encoder_1/transformer/layer_1/Cast"}
  %param_7.869 = f32[16,512]{1,0} parameter(7)
  %constant_905_clone_1_clone_1 = f32[] constant(0.00130208337), metadata={op_type="Mul" op_name="gradient_tape/model/bert_pretrainer/cls/predictions/transform/LayerNorm/moments/truediv_1"}
  %broadcast.1669.clone.1.clone.1 = f32[16,512]{1,0} broadcast(f32[] %constant_905_clone_1_clone_1), dimensions={}
  %multiply.954.clone.1.clone.1 = f32[16,512]{1,0} multiply(f32[16,512]{1,0} %param_7.869, f32[16,512]{1,0} %broadcast.1669.clone.1.clone.1), metadata={op_type="Mean" op_name="model/bert_pretrainer/bert_encoder_1/transformer/layer_1/self_attention_layer_norm/moments/variance"}
  %constant_904_clone_1_clone_1 = f32[] constant(1e-12), metadata={op_type="AddV2" op_name="model/bert_pretrainer/bert_encoder_1/embeddings/layer_norm/batchnorm/add"}
  %broadcast.1668.clone.1.clone.1 = f32[16,512]{1,0} broadcast(f32[] %constant_904_clone_1_clone_1), dimensions={}, metadata={op_type="AddV2" op_name="model/bert_pretrainer/bert_encoder_1/embeddings/layer_norm/batchnorm/add"}
  %add.502.clone.1.clone.1 = f32[16,512]{1,0} add(f32[16,512]{1,0} %multiply.954.clone.1.clone.1, f32[16,512]{1,0} %broadcast.1668.clone.1.clone.1), metadata={op_type="AddV2" op_name="model/bert_pretrainer/bert_encoder_1/transformer/layer_1/self_attention_layer_norm/batchnorm/add"}
  %rsqrt.95.clone.1.clone.1 = f32[16,512]{1,0} rsqrt(f32[16,512]{1,0} %add.502.clone.1.clone.1), metadata={op_type="Rsqrt" op_name="model/bert_pretrainer/bert_encoder_1/transformer/layer_1/self_attention_layer_norm/batchnorm/Rsqrt"}
  %broadcast.1667.clone.1.clone.1 = f32[16,512,768]{2,1,0} broadcast(f32[16,512]{1,0} %rsqrt.95.clone.1.clone.1), dimensions={0,1}, metadata={op_type="Mul" op_name="model/bert_pretrainer/bert_encoder_1/transformer/layer_1/self_attention_layer_norm/batchnorm/mul"}
  %param_6.836 = f32[768]{0} parameter(6)
  %broadcast.1666.clone.1.clone.1 = f32[16,512,768]{2,1,0} broadcast(f32[768]{0} %param_6.836), dimensions={2}, metadata={op_type="Mul" op_name="model/bert_pretrainer/bert_encoder_1/transformer/layer_1/self_attention_layer_norm/batchnorm/mul"}
  %multiply.953.clone.1.clone.1 = f32[16,512,768]{2,1,0} multiply(f32[16,512,768]{2,1,0} %broadcast.1667.clone.1.clone.1, f32[16,512,768]{2,1,0} %broadcast.1666.clone.1.clone.1), metadata={op_type="Mul" op_name="model/bert_pretrainer/bert_encoder_1/transformer/layer_1/self_attention_layer_norm/batchnorm/mul"}
  %multiply.952.clone.1.clone.1 = f32[16,512,768]{2,1,0} multiply(f32[16,512,768]{2,1,0} %convert.539.clone.1.clone.1, f32[16,512,768]{2,1,0} %multiply.953.clone.1.clone.1), metadata={op_type="Mul" op_name="model/bert_pretrainer/bert_encoder_1/transformer/layer_1/self_attention_layer_norm/batchnorm/mul_1"}
  %param_5.952 = f32[768]{0} parameter(5)
  %broadcast.1665.clone.1.clone.1 = f32[16,512,768]{2,1,0} broadcast(f32[768]{0} %param_5.952), dimensions={2}, metadata={op_type="Sub" op_name="model/bert_pretrainer/bert_encoder_1/transformer/layer_1/self_attention_layer_norm/batchnorm/sub"}
  %param_4.1011 = f32[16,512]{1,0} parameter(4)
  %multiply.951.clone.1.clone.1 = f32[16,512]{1,0} multiply(f32[16,512]{1,0} %param_4.1011, f32[16,512]{1,0} %broadcast.1669.clone.1.clone.1), metadata={op_type="Mean" op_name="model/bert_pretrainer/bert_encoder_1/transformer/layer_1/self_attention_layer_norm/moments/mean"}
  %broadcast.1663.clone.1.clone.1 = f32[16,512,768]{2,1,0} broadcast(f32[16,512]{1,0} %multiply.951.clone.1.clone.1), dimensions={0,1}, metadata={op_type="SquaredDifference" op_name="model/bert_pretrainer/bert_encoder_1/transformer/layer_1/self_attention_layer_norm/moments/SquaredDifference"}
  %multiply.950.clone.1.clone.1 = f32[16,512,768]{2,1,0} multiply(f32[16,512,768]{2,1,0} %multiply.953.clone.1.clone.1, f32[16,512,768]{2,1,0} %broadcast.1663.clone.1.clone.1), metadata={op_type="Mul" op_name="model/bert_pretrainer/bert_encoder_1/transformer/layer_1/self_attention_layer_norm/batchnorm/mul_2"}
  %subtract.328.clone.1.clone.1 = f32[16,512,768]{2,1,0} subtract(f32[16,512,768]{2,1,0} %broadcast.1665.clone.1.clone.1, f32[16,512,768]{2,1,0} %multiply.950.clone.1.clone.1), metadata={op_type="Sub" op_name="model/bert_pretrainer/bert_encoder_1/transformer/layer_1/self_attention_layer_norm/batchnorm/sub"}
  %add.501.clone.1.clone.1 = f32[16,512,768]{2,1,0} add(f32[16,512,768]{2,1,0} %multiply.952.clone.1.clone.1, f32[16,512,768]{2,1,0} %subtract.328.clone.1.clone.1), metadata={op_type="AddV2" op_name="model/bert_pretrainer/bert_encoder_1/transformer/layer_1/self_attention_layer_norm/batchnorm/add_1"}
  %add.500.clone.1.clone.1 = f32[16,512,768]{2,1,0} add(f32[16,512,768]{2,1,0} %convert.540.clone.1.clone.1, f32[16,512,768]{2,1,0} %add.501.clone.1.clone.1), metadata={op_type="AddV2" op_name="model/bert_pretrainer/bert_encoder_1/transformer/layer_1/add_1"}
  %multiply.949.clone.1.clone.1 = f32[16,512,768]{2,1,0} multiply(f32[16,512,768]{2,1,0} %add.477.clone.1, f32[16,512,768]{2,1,0} %add.500.clone.1.clone.1), metadata={op_type="Mul" op_name="gradient_tape/model/bert_pretrainer/bert_encoder_1/transformer/layer_1/output_layer_norm/batchnorm/mul_1/Mul_1"}
  %negate.22.clone.1.clone.1 = f32[16,512,768]{2,1,0} negate(f32[16,512,768]{2,1,0} %add.477.clone.1), metadata={op_type="Neg" op_name="gradient_tape/model/bert_pretrainer/bert_encoder_1/transformer/layer_1/output_layer_norm/batchnorm/sub/Neg"}
  %param_3.1319 = f32[16,512]{1,0} parameter(3)
  %multiply.948.clone.1.clone.1 = f32[16,512]{1,0} multiply(f32[16,512]{1,0} %param_3.1319, f32[16,512]{1,0} %broadcast.1669.clone.1.clone.1), metadata={op_type="Mean" op_name="model/bert_pretrainer/bert_encoder_1/transformer/layer_1/output_layer_norm/moments/mean"}
  %broadcast.1661.clone.1.clone.1 = f32[16,512,768]{2,1,0} broadcast(f32[16,512]{1,0} %multiply.948.clone.1.clone.1), dimensions={0,1}, metadata={op_type="SquaredDifference" op_name="model/bert_pretrainer/bert_encoder_1/transformer/layer_1/output_layer_norm/moments/SquaredDifference"}
  %multiply.947.clone.1.clone.1 = f32[16,512,768]{2,1,0} multiply(f32[16,512,768]{2,1,0} %negate.22.clone.1.clone.1, f32[16,512,768]{2,1,0} %broadcast.1661.clone.1.clone.1), metadata={op_type="Mul" op_name="gradient_tape/model/bert_pretrainer/bert_encoder_1/transformer/layer_1/output_layer_norm/batchnorm/mul_2/Mul_1"}
  %add.499.clone.1.clone.1 = f32[16,512,768]{2,1,0} add(f32[16,512,768]{2,1,0} %multiply.949.clone.1.clone.1, f32[16,512,768]{2,1,0} %multiply.947.clone.1.clone.1), metadata={op_type="AddN" op_name="AddN_4"}
  %param_2.1906 = f32[16,512]{1,0} parameter(2)
  %multiply.826.clone.1.clone.1 = f32[16,512]{1,0} multiply(f32[16,512]{1,0} %param_2.1906, f32[16,512]{1,0} %broadcast.1669.clone.1.clone.1), metadata={op_type="Mean" op_name="model/bert_pretrainer/bert_encoder_1/transformer/layer_1/output_layer_norm/moments/variance"}
  %add.389.clone.1.clone.1 = f32[16,512]{1,0} add(f32[16,512]{1,0} %multiply.826.clone.1.clone.1, f32[16,512]{1,0} %broadcast.1668.clone.1.clone.1), metadata={op_type="AddV2" op_name="model/bert_pretrainer/bert_encoder_1/transformer/layer_1/output_layer_norm/batchnorm/add"}
  %rsqrt.73.clone.1.clone.1 = f32[16,512]{1,0} rsqrt(f32[16,512]{1,0} %add.389.clone.1.clone.1), metadata={op_type="Rsqrt" op_name="model/bert_pretrainer/bert_encoder_1/transformer/layer_1/output_layer_norm/batchnorm/Rsqrt"}
  %broadcast.440.clone.1.clone.1 = f32[16,512,768]{2,1,0} broadcast(f32[16,512]{1,0} %rsqrt.73.clone.1.clone.1), dimensions={0,1}, metadata={op_type="Mul" op_name="model/bert_pretrainer/bert_encoder_1/transformer/layer_1/output_layer_norm/batchnorm/mul"}
  %multiply.194.clone.1.clone.1 = f32[16,512,768]{2,1,0} multiply(f32[16,512,768]{2,1,0} %add.499.clone.1.clone.1, f32[16,512,768]{2,1,0} %broadcast.440.clone.1.clone.1), metadata={op_type="Mul" op_name="gradient_tape/model/bert_pretrainer/bert_encoder_1/transformer/layer_1/output_layer_norm/batchnorm/mul/Mul_1"}
  %bitcast.160.clone.1.clone.1 = f32[8192,768]{1,0} bitcast(f32[16,512,768]{2,1,0} %multiply.194.clone.1.clone.1)
  %reduce.59.clone.1.clone.1 = f32[768]{0} reduce(f32[8192,768]{1,0} %bitcast.160.clone.1.clone.1, f32[] %constant_171), dimensions={0}, to_apply=%gradient_tape_model_bert_pretrainer_bert_encoder_1_transformer_layer_1_output_layer_norm_batchnorm_mul_Sum_1-reduction.1884, metadata={op_type="Sum" op_name="gradient_tape/model/bert_pretrainer/bert_encoder_1/transformer/layer_1/output_layer_norm/batchnorm/mul/Sum_1"}
  %param_1.1772 = f32[16,512,768]{2,1,0} parameter(1)
  %multiply.1015.clone.1.clone.1 = f32[16,512,768]{2,1,0} multiply(f32[16,512,768]{2,1,0} %param_1.1772, f32[16,512,768]{2,1,0} %convert.539.clone.1.clone.1), metadata={op_type="Mul" op_name="gradient_tape/model/bert_pretrainer/bert_encoder_1/transformer/layer_1/self_attention_layer_norm/batchnorm/mul_1/Mul_1"}
  %negate.26.clone.1.clone.1 = f32[16,512,768]{2,1,0} negate(f32[16,512,768]{2,1,0} %param_1.1772), metadata={op_type="Neg" op_name="gradient_tape/model/bert_pretrainer/bert_encoder_1/transformer/layer_1/self_attention_layer_norm/batchnorm/sub/Neg"}
  %multiply.1013.clone.1.clone.1 = f32[16,512,768]{2,1,0} multiply(f32[16,512,768]{2,1,0} %negate.26.clone.1.clone.1, f32[16,512,768]{2,1,0} %broadcast.1663.clone.1.clone.1), metadata={op_type="Mul" op_name="gradient_tape/model/bert_pretrainer/bert_encoder_1/transformer/layer_1/self_attention_layer_norm/batchnorm/mul_2/Mul_1"}
  %add.528.clone.1.clone.1 = f32[16,512,768]{2,1,0} add(f32[16,512,768]{2,1,0} %multiply.1015.clone.1.clone.1, f32[16,512,768]{2,1,0} %multiply.1013.clone.1.clone.1), metadata={op_type="AddN" op_name="AddN_8"}
  %multiply.145.clone.1.clone.1 = f32[16,512,768]{2,1,0} multiply(f32[16,512,768]{2,1,0} %add.528.clone.1.clone.1, f32[16,512,768]{2,1,0} %broadcast.1667.clone.1.clone.1), metadata={op_type="Mul" op_name="gradient_tape/model/bert_pretrainer/bert_encoder_1/transformer/layer_1/self_attention_layer_norm/batchnorm/mul/Mul_1"}
  %bitcast.146.clone.1.clone.1 = f32[8192,768]{1,0} bitcast(f32[16,512,768]{2,1,0} %multiply.145.clone.1.clone.1)
  %reduce.54.clone.1.clone.1 = f32[768]{0} reduce(f32[8192,768]{1,0} %bitcast.146.clone.1.clone.1, f32[] %constant_171), dimensions={0}, to_apply=%gradient_tape_model_bert_pretrainer_bert_encoder_1_transformer_layer_1_self_attention_layer_norm_batchnorm_mul_Sum_1-reduction.1857, metadata={op_type="Sum" op_name="gradient_tape/model/bert_pretrainer/bert_encoder_1/transformer/layer_1/self_attention_layer_norm/batchnorm/mul/Sum_1"}
  %bitcast.147.clone.1.clone.1.clone.1 = f32[8192,768]{1,0} bitcast(f32[16,512,768]{2,1,0} %param_1.1772)
  %reduce.55.clone.1.clone.1.clone.1 = f32[768]{0} reduce(f32[8192,768]{1,0} %bitcast.147.clone.1.clone.1.clone.1, f32[] %constant_171), dimensions={0}, to_apply=%gradient_tape_model_bert_pretrainer_bert_encoder_1_transformer_layer_1_self_attention_layer_norm_batchnorm_sub_Sum-reduction.1866, metadata={op_type="Sum" op_name="gradient_tape/model/bert_pretrainer/bert_encoder_1/transformer/layer_1/self_attention_layer_norm/batchnorm/sub/Sum"}
  ROOT %tuple.156 = (f32[768]{0}, f32[768]{0}, f32[768]{0}, f32[768]{0}, f32[768]{0}) tuple(f32[768]{0} %reduce.58, f32[768]{0} %reduce.60.clone.1, f32[768]{0} %reduce.59.clone.1.clone.1, f32[768]{0} %reduce.54.clone.1.clone.1, f32[768]{0} %reduce.55.clone.1.clone.1.clone.1)
}

%fused_computation.110 (param_0.165: f16[16,512,768]) -> f16[768,8192] {
  %param_0.165 = f16[16,512,768]{2,1,0} parameter(0)
  %transpose.128 = f16[768,16,512]{0,2,1} transpose(f16[16,512,768]{2,1,0} %param_0.165), dimensions={2,0,1}
  ROOT %bitcast.162 = f16[768,8192]{0,1} bitcast(f16[768,16,512]{0,2,1} %transpose.128)
}

%add_float_.875 (x.876: f32[], y.877: f32[]) -> f32[] {
  %x.876 = f32[] parameter(0)
  %y.877 = f32[] parameter(1)
  ROOT %add.878 = f32[] add(f32[] %x.876, f32[] %y.877)
}

%fused_computation.111 (param_0.166: f32[768], param_1.1690: f32[], param_2.1780: f32[768], param_3.1168: f32[], param_4.798: f32[768], param_5.645: f32[768], param_6.580: f32[], param_7.774: f32[768], param_8.439: f32[768], param_9.287: f32[768], param_10.201: f32[768], param_11.253: f32[768], param_12.188: f32[768], param_13.50: f32[768], param_14.36: f32[768], param_15.79: f32[768], param_16.65: f32[768], param_17.24: f32[768], param_18.23: f32[768], param_19.70: f32[768], param_20.57: f32[768], param_21.19: f32[768], param_22.19: f32[768], param_23.71: f32[768], param_24.59: f32[768], param_25.20: f32[768], param_26.23: f32[768], param_27.64: f32[768], param_28.49: f32[768], param_29.9: f32[768], param_30.9: f32[768], param_31.33: f32[768], param_32.29: f32[768], param_33.10: f32[768], param_34.14: f16[16,768]) -> (f32[768], f32[768], f32[768], f32[768], f32[768], f32[768], f32[768], f32[768], f32[768], f32[768], f32[768], f32[768], f32[768], f32[768], f32[768], f32[768], f32[768], f32[768], f32[768], f32[768], f32[768], f32[768], f32[768], f32[768]) {
  %param_0.166 = f32[768]{0} parameter(0)
  %param_2.1780 = f32[768]{0} parameter(2)
  %param_4.798 = f32[768]{0} parameter(4)
  %convert.725.clone.1 = f16[768]{0} convert(f32[768]{0} %param_4.798), metadata={op_type="Sum" op_name="gradient_tape/model/bert_pretrainer/bert_encoder_1/transformer/layer_1/output/add/Sum"}
  %convert.724.clone.1 = f32[768]{0} convert(f16[768]{0} %convert.725.clone.1), metadata={op_type="Cast" op_name="gradient_tape/model/bert_pretrainer/bert_encoder_1/transformer/layer_1/output/add/Cast/Cast"}
  %constant_1431_clone_1 = f32[] constant(0.0009765625), metadata={op_type="Mul" op_name="mul_1"}
  %broadcast.2032.clone.1 = f32[768]{0} broadcast(f32[] %constant_1431_clone_1), dimensions={}, metadata={op_type="Mul" op_name="mul_5"}
  %multiply.1336.clone.1 = f32[768]{0} multiply(f32[768]{0} %convert.724.clone.1, f32[768]{0} %broadcast.2032.clone.1), metadata={op_type="Mul" op_name="mul_35"}
  %subtract.71.clone.1 = f32[768]{0} subtract(f32[768]{0} %multiply.1336.clone.1, f32[768]{0} %param_2.1780), metadata={op_type="ResourceApplyAdam" op_name="Adam/Adam/update_34/update_0/ResourceApplyAdam"}
  %constant_191_clone_1 = f32[] constant(1), metadata={op_type="SparseSoftmaxCrossEntropyWithLogits" op_name="model/bert_pretrain_loss_and_metric_layer/SparseSoftmaxCrossEntropyWithLogits_1/SparseSoftmaxCrossEntropyWithLogits"}
  %param_3.1168 = f32[] parameter(3)
  %subtract.210.clone.1 = f32[] subtract(f32[] %constant_191_clone_1, f32[] %param_3.1168), metadata={op_type="ResourceApplyAdam" op_name="Adam/Adam/update_4/update_0/ResourceApplyAdam"}
  %broadcast.455.clone.1 = f32[768]{0} broadcast(f32[] %subtract.210.clone.1), dimensions={}, metadata={op_type="ResourceApplyAdam" op_name="Adam/Adam/update_4/update_0/ResourceApplyAdam"}
  %multiply.207.clone.1 = f32[768]{0} multiply(f32[768]{0} %subtract.71.clone.1, f32[768]{0} %broadcast.455.clone.1), metadata={op_type="ResourceApplyAdam" op_name="Adam/Adam/update_34/update_0/ResourceApplyAdam"}
  %add.80.clone.1 = f32[768]{0} add(f32[768]{0} %param_2.1780, f32[768]{0} %multiply.207.clone.1), metadata={op_type="ResourceApplyAdam" op_name="Adam/Adam/update_34/update_0/ResourceApplyAdam"}
  %param_1.1690 = f32[] parameter(1)
  %broadcast.453 = f32[768]{0} broadcast(f32[] %param_1.1690), dimensions={}, metadata={op_type="ResourceApplyAdam" op_name="Adam/Adam/update_4/update_0/ResourceApplyAdam"}
  %multiply.204 = f32[768]{0} multiply(f32[768]{0} %add.80.clone.1, f32[768]{0} %broadcast.453), metadata={op_type="ResourceApplyAdam" op_name="Adam/Adam/update_34/update_0/ResourceApplyAdam"}
  %param_5.645 = f32[768]{0} parameter(5)
  %multiply.206.clone.1 = f32[768]{0} multiply(f32[768]{0} %multiply.1336.clone.1, f32[768]{0} %multiply.1336.clone.1), metadata={op_type="ResourceApplyAdam" op_name="Adam/Adam/update_34/update_0/ResourceApplyAdam"}
  %subtract.70.clone.1 = f32[768]{0} subtract(f32[768]{0} %multiply.206.clone.1, f32[768]{0} %param_5.645), metadata={op_type="ResourceApplyAdam" op_name="Adam/Adam/update_34/update_0/ResourceApplyAdam"}
  %param_6.580 = f32[] parameter(6)
  %subtract.211.clone.1 = f32[] subtract(f32[] %constant_191_clone_1, f32[] %param_6.580), metadata={op_type="ResourceApplyAdam" op_name="Adam/Adam/update_4/update_0/ResourceApplyAdam"}
  %broadcast.456.clone.1 = f32[768]{0} broadcast(f32[] %subtract.211.clone.1), dimensions={}, metadata={op_type="ResourceApplyAdam" op_name="Adam/Adam/update_4/update_0/ResourceApplyAdam"}
  %multiply.205.clone.1 = f32[768]{0} multiply(f32[768]{0} %subtract.70.clone.1, f32[768]{0} %broadcast.456.clone.1), metadata={op_type="ResourceApplyAdam" op_name="Adam/Adam/update_34/update_0/ResourceApplyAdam"}
  %add.79.clone.1 = f32[768]{0} add(f32[768]{0} %param_5.645, f32[768]{0} %multiply.205.clone.1), metadata={op_type="ResourceApplyAdam" op_name="Adam/Adam/update_34/update_0/ResourceApplyAdam"}
  %sqrt.22 = f32[768]{0} sqrt(f32[768]{0} %add.79.clone.1), metadata={op_type="ResourceApplyAdam" op_name="Adam/Adam/update_34/update_0/ResourceApplyAdam"}
  %constant_190 = f32[] constant(1e-06), metadata={op_type="ResourceApplyAdam" op_name="Adam/Adam/update/update_0/ResourceApplyAdam"}
  %broadcast.454 = f32[768]{0} broadcast(f32[] %constant_190), dimensions={}, metadata={op_type="ResourceApplyAdam" op_name="Adam/Adam/update_4/update_0/ResourceApplyAdam"}
  %add.78 = f32[768]{0} add(f32[768]{0} %sqrt.22, f32[768]{0} %broadcast.454), metadata={op_type="ResourceApplyAdam" op_name="Adam/Adam/update_34/update_0/ResourceApplyAdam"}
  %divide.24 = f32[768]{0} divide(f32[768]{0} %multiply.204, f32[768]{0} %add.78), metadata={op_type="ResourceApplyAdam" op_name="Adam/Adam/update_34/update_0/ResourceApplyAdam"}
  %subtract.69 = f32[768]{0} subtract(f32[768]{0} %param_0.166, f32[768]{0} %divide.24), metadata={op_type="ResourceApplyAdam" op_name="Adam/Adam/update_34/update_0/ResourceApplyAdam"}
  %param_7.774 = f32[768]{0} parameter(7)
  %param_10.201 = f32[768]{0} parameter(10)
  %param_9.287 = f32[768]{0} parameter(9)
  %multiply.534.clone.1.clone.1 = f32[768]{0} multiply(f32[768]{0} %param_9.287, f32[768]{0} %broadcast.2032.clone.1), metadata={op_type="Mul" op_name="mul_14"}
  %subtract.80.clone.1.clone.1 = f32[768]{0} subtract(f32[768]{0} %multiply.534.clone.1.clone.1, f32[768]{0} %param_10.201), metadata={op_type="ResourceApplyAdam" op_name="Adam/Adam/update_13/update_0/ResourceApplyAdam"}
  %multiply.223.clone.1.clone.1 = f32[768]{0} multiply(f32[768]{0} %subtract.80.clone.1.clone.1, f32[768]{0} %broadcast.455.clone.1), metadata={op_type="ResourceApplyAdam" op_name="Adam/Adam/update_13/update_0/ResourceApplyAdam"}
  %add.89.clone.1.clone.1 = f32[768]{0} add(f32[768]{0} %param_10.201, f32[768]{0} %multiply.223.clone.1.clone.1), metadata={op_type="ResourceApplyAdam" op_name="Adam/Adam/update_13/update_0/ResourceApplyAdam"}
  %multiply.220.clone.1 = f32[768]{0} multiply(f32[768]{0} %add.89.clone.1.clone.1, f32[768]{0} %broadcast.453), metadata={op_type="ResourceApplyAdam" op_name="Adam/Adam/update_13/update_0/ResourceApplyAdam"}
  %param_8.439 = f32[768]{0} parameter(8)
  %multiply.222.clone.1.clone.1 = f32[768]{0} multiply(f32[768]{0} %multiply.534.clone.1.clone.1, f32[768]{0} %multiply.534.clone.1.clone.1), metadata={op_type="ResourceApplyAdam" op_name="Adam/Adam/update_13/update_0/ResourceApplyAdam"}
  %subtract.79.clone.1.clone.1 = f32[768]{0} subtract(f32[768]{0} %multiply.222.clone.1.clone.1, f32[768]{0} %param_8.439), metadata={op_type="ResourceApplyAdam" op_name="Adam/Adam/update_13/update_0/ResourceApplyAdam"}
  %multiply.221.clone.1.clone.1 = f32[768]{0} multiply(f32[768]{0} %subtract.79.clone.1.clone.1, f32[768]{0} %broadcast.456.clone.1), metadata={op_type="ResourceApplyAdam" op_name="Adam/Adam/update_13/update_0/ResourceApplyAdam"}
  %add.88.clone.1.clone.1 = f32[768]{0} add(f32[768]{0} %param_8.439, f32[768]{0} %multiply.221.clone.1.clone.1), metadata={op_type="ResourceApplyAdam" op_name="Adam/Adam/update_13/update_0/ResourceApplyAdam"}
  %sqrt.25.clone.1 = f32[768]{0} sqrt(f32[768]{0} %add.88.clone.1.clone.1), metadata={op_type="ResourceApplyAdam" op_name="Adam/Adam/update_13/update_0/ResourceApplyAdam"}
  %add.87.clone.1 = f32[768]{0} add(f32[768]{0} %sqrt.25.clone.1, f32[768]{0} %broadcast.454), metadata={op_type="ResourceApplyAdam" op_name="Adam/Adam/update_13/update_0/ResourceApplyAdam"}
  %divide.27.clone.1 = f32[768]{0} divide(f32[768]{0} %multiply.220.clone.1, f32[768]{0} %add.87.clone.1), metadata={op_type="ResourceApplyAdam" op_name="Adam/Adam/update_13/update_0/ResourceApplyAdam"}
  %subtract.78.clone.1 = f32[768]{0} subtract(f32[768]{0} %param_7.774, f32[768]{0} %divide.27.clone.1), metadata={op_type="ResourceApplyAdam" op_name="Adam/Adam/update_13/update_0/ResourceApplyAdam"}
  %param_11.253 = f32[768]{0} parameter(11)
  %param_14.36 = f32[768]{0} parameter(14)
  %param_13.50 = f32[768]{0} parameter(13)
  %multiply.536.clone.1.clone.1 = f32[768]{0} multiply(f32[768]{0} %param_13.50, f32[768]{0} %broadcast.2032.clone.1), metadata={op_type="Mul" op_name="mul_15"}
…
  %get-tuple-element.174 = f32[768,12,64]{2,1,0} get-tuple-element((f32[768,12,64]{2,1,0}, f32[768,12,64]{2,1,0}, f32[768,12,64]{2,1,0}, f32[768,12,64]{2,1,0}, f32[768,12,64]{2,1,0}, f32[768,12,64]{2,1,0}, f32[768,12,64]{2,1,0}, f32[768,12,64]{2,1,0}, f32[768,12,64]{2,1,0}, f32[768,12,64]{2,1,0}, f32[768,12,64]{2,1,0}, f32[768,12,64]{2,1,0}, f32[768,12,64]{2,1,0}, f32[768,12,64]{2,1,0}, f32[768,12,64]{2,1,0}, f32[768,12,64]{2,1,0}, f32[768,12,64]{2,1,0}, f32[768,12,64]{2,1,0}) %fusion.154), index=9
  %get-tuple-element.156 = f32[12,64]{1,0} get-tuple-element((f32[12,64]{1,0}, f32[12,64]{1,0}, f32[12,64]{1,0}, f32[12,64]{1,0}, f32[12,64]{1,0}, f32[12,64]{1,0}, f32[12,64]{1,0}, f32[12,64]{1,0}, f32[12,64]{1,0}, f32[12,64]{1,0}, f32[12,64]{1,0}, f32[12,64]{1,0}, f32[12,64]{1,0}, f32[12,64]{1,0}, f32[12,64]{1,0}, f32[12,64]{1,0}, f32[12,64]{1,0}, f32[12,64]{1,0}) %fusion.159), index=6
  %get-tuple-element.171 = f32[768,12,64]{2,1,0} get-tuple-element((f32[768,12,64]{2,1,0}, f32[768,12,64]{2,1,0}, f32[768,12,64]{2,1,0}, f32[768,12,64]{2,1,0}, f32[768,12,64]{2,1,0}, f32[768,12,64]{2,1,0}, f32[768,12,64]{2,1,0}, f32[768,12,64]{2,1,0}, f32[768,12,64]{2,1,0}, f32[768,12,64]{2,1,0}, f32[768,12,64]{2,1,0}, f32[768,12,64]{2,1,0}, f32[768,12,64]{2,1,0}, f32[768,12,64]{2,1,0}, f32[768,12,64]{2,1,0}, f32[768,12,64]{2,1,0}, f32[768,12,64]{2,1,0}, f32[768,12,64]{2,1,0}) %fusion.154), index=6
  %get-tuple-element.153 = f32[12,64]{1,0} get-tuple-element((f32[12,64]{1,0}, f32[12,64]{1,0}, f32[12,64]{1,0}, f32[12,64]{1,0}, f32[12,64]{1,0}, f32[12,64]{1,0}, f32[12,64]{1,0}, f32[12,64]{1,0}, f32[12,64]{1,0}, f32[12,64]{1,0}, f32[12,64]{1,0}, f32[12,64]{1,0}, f32[12,64]{1,0}, f32[12,64]{1,0}, f32[12,64]{1,0}, f32[12,64]{1,0}, f32[12,64]{1,0}, f32[12,64]{1,0}) %fusion.159), index=3
  %get-tuple-element.168 = f32[768,12,64]{2,1,0} get-tuple-element((f32[768,12,64]{2,1,0}, f32[768,12,64]{2,1,0}, f32[768,12,64]{2,1,0}, f32[768,12,64]{2,1,0}, f32[768,12,64]{2,1,0}, f32[768,12,64]{2,1,0}, f32[768,12,64]{2,1,0}, f32[768,12,64]{2,1,0}, f32[768,12,64]{2,1,0}, f32[768,12,64]{2,1,0}, f32[768,12,64]{2,1,0}, f32[768,12,64]{2,1,0}, f32[768,12,64]{2,1,0}, f32[768,12,64]{2,1,0}, f32[768,12,64]{2,1,0}, f32[768,12,64]{2,1,0}, f32[768,12,64]{2,1,0}, f32[768,12,64]{2,1,0}) %fusion.154), index=3
  %get-tuple-element.192 = f32[768]{0} get-tuple-element((f32[768]{0}, f32[768]{0}, f32[768]{0}, f32[768]{0}, f32[768]{0}, f32[768]{0}, f32[768]{0}, f32[768]{0}, f32[768]{0}, f32[768]{0}, f32[768]{0}, f32[768]{0}, f32[768]{0}, f32[768]{0}, f32[768]{0}, f32[768]{0}, f32[768]{0}, f32[768]{0}, f32[768]{0}, f32[768]{0}, f32[768]{0}, f32[768]{0}, f32[768]{0}, f32[768]{0}, f32[768]{0}) %fusion.15), index=12
  %get-tuple-element.189 = f32[768]{0} get-tuple-element((f32[768]{0}, f32[768]{0}, f32[768]{0}, f32[768]{0}, f32[768]{0}, f32[768]{0}, f32[768]{0}, f32[768]{0}, f32[768]{0}, f32[768]{0}, f32[768]{0}, f32[768]{0}, f32[768]{0}, f32[768]{0}, f32[768]{0}, f32[768]{0}, f32[768]{0}, f32[768]{0}, f32[768]{0}, f32[768]{0}, f32[768]{0}, f32[768]{0}, f32[768]{0}, f32[768]{0}, f32[768]{0}) %fusion.15), index=9
  %arg157.158 = f32[2,768]{1,0} parameter(157), parameter_replication={false}, metadata={op_name="XLA_Args"}
  %bitcast.136 = f16[8192,768]{1,0} bitcast(f16[16,512,768]{2,1,0} %fusion.206), metadata={op_type="Reshape" op_name="gradient_tape/model/bert_pretrainer/bert_encoder_1/word_embeddings/Reshape"}
  %custom-call.60 = f16[8,768]{1,0} custom-call(f16[8192,8]{1,0} %fusion.374, f16[8192,768]{1,0} %bitcast.136), custom_call_target="__cublas$gemm", metadata={op_type="MatMul" op_name="gradient_tape/model/bert_pretrainer/bert_encoder_1/type_embeddings/MatMul/MatMul"}, backend_config="{\"alpha_real\":1,\"alpha_imag\":0,\"beta\":0,\"dot_dimension_numbers\":{\"lhs_contracting_dimensions\":[\"0\"],\"rhs_contracting_dimensions\":[\"0\"],\"lhs_batch_dimensions\":[],\"rhs_batch_dimensions\":[]},\"batch_size\":\"1\",\"selected_algorithm\":\"108\"}"
  %arg158.159 = f32[2,768]{1,0} parameter(158), parameter_replication={false}, metadata={op_name="XLA_Args"}
  %fusion.46 = (f32[2,768]{1,0}, f32[2,768]{1,0}, f32[2,768]{1,0}) fusion(f32[2,768]{1,0} %arg57.58, f32[] %fusion.225, f32[2,768]{1,0} %arg157.158, f32[] %arg17.18, f16[8,768]{1,0} %custom-call.60, f32[2,768]{1,0} %arg158.159, f32[] %arg18.19), kind=kLoop, calls=%fused_computation.46, metadata={op_type="ResourceApplyAdam" op_name="Adam/Adam/update_2/update_0/ResourceApplyAdam"}
  %get-tuple-element.27 = f32[2,768]{1,0} get-tuple-element((f32[2,768]{1,0}, f32[2,768]{1,0}, f32[2,768]{1,0}) %fusion.46), index=0
  %arg68.69 = f32[2]{0} parameter(68), parameter_replication={false}, metadata={op_name="XLA_Args"}
  %arg69.70 = f32[2]{0} parameter(69), parameter_replication={false}, metadata={op_name="XLA_Args"}
  %fusion.42 = (f32[2]{0}, f32[2]{0}, f32[2]{0}) fusion(f32[2]{0} %arg58.59, f32[] %fusion.225, f32[2]{0} %arg68.69, f32[] %arg17.18, f32[2]{0} %arg69.70, f32[] %arg18.19, f16[16,2]{1,0} %fusion.283), kind=kLoop, calls=%fused_computation.42, metadata={op_type="ResourceApplyAdam" op_name="Adam/Adam/update_40/update_0/ResourceApplyAdam"}
  %get-tuple-element.24 = f32[2]{0} get-tuple-element((f32[2]{0}, f32[2]{0}, f32[2]{0}) %fusion.42), index=0
  %arg70.71 = f32[768,2]{1,0} parameter(70), parameter_replication={false}, metadata={op_name="XLA_Args"}
  %custom-call.61 = f16[768,8]{1,0} custom-call(f16[16,768]{1,0} %tanh.758, f16[16,8]{1,0} %pad.4), custom_call_target="__cublas$gemm", metadata={op_type="MatMul" op_name="gradient_tape/model/bert_pretrainer/classification/predictions/transform/logits/MatMul_1"}, backend_config="{\"alpha_real\":1,\"alpha_imag\":0,\"beta\":0,\"dot_dimension_numbers\":{\"lhs_contracting_dimensions\":[\"0\"],\"rhs_contracting_dimensions\":[\"0\"],\"lhs_batch_dimensions\":[],\"rhs_batch_dimensions\":[]},\"batch_size\":\"1\",\"selected_algorithm\":\"115\"}"
  %arg71.72 = f32[768,2]{1,0} parameter(71), parameter_replication={false}, metadata={op_name="XLA_Args"}
  %fusion.38 = (f32[768,2]{1,0}, f32[768,2]{1,0}, f32[768,2]{1,0}) fusion(f32[768,2]{1,0} %arg59.60, f32[] %fusion.225, f32[768,2]{1,0} %arg70.71, f32[] %arg17.18, f16[768,8]{1,0} %custom-call.61, f32[768,2]{1,0} %arg71.72, f32[] %arg18.19), kind=kLoop, calls=%fused_computation.38, metadata={op_type="ResourceApplyAdam" op_name="Adam/Adam/update_39/update_0/ResourceApplyAdam"}
  %get-tuple-element.21 = f32[768,2]{1,0} get-tuple-element((f32[768,2]{1,0}, f32[768,2]{1,0}, f32[768,2]{1,0}) %fusion.38), index=0
  %arg78.79 = f32[30522]{0} parameter(78), parameter_replication={false}, metadata={op_name="XLA_Args"}
  %fusion.37 = f32[30522]{0} fusion(s32[16,76]{1,0} %arg10.11, f32[1216,30522]{1,0} %get-tuple-element.263, f32[1216]{0} %get-tuple-element.262, f32[16,76]{1,0} %arg12.13, f32[] %get-tuple-element.260), kind=kInput, calls=%fused_computation.37, metadata={op_type="BiasAddGrad" op_name="gradient_tape/model/bert_pretrainer/cls/predictions/BiasAdd/BiasAddGrad"}
  %arg79.80 = f32[30522]{0} parameter(79), parameter_replication={false}, metadata={op_name="XLA_Args"}
  %fusion.33 = (f32[30522]{0}, f32[30522]{0}, f32[30522]{0}) fusion(f32[30522]{0} %arg60.61, f32[] %fusion.225, f32[30522]{0} %arg78.79, f32[] %arg17.18, f32[30522]{0} %fusion.37, f32[30522]{0} %arg79.80, f32[] %arg18.19), kind=kLoop, calls=%fused_computation.33, metadata={op_type="ResourceApplyAdam" op_name="Adam/Adam/update_41/update_0/ResourceApplyAdam"}
  %get-tuple-element.18 = f32[30522]{0} get-tuple-element((f32[30522]{0}, f32[30522]{0}, f32[30522]{0}) %fusion.33), index=0
  %arg161.162 = f32[30522,768]{1,0} parameter(161), parameter_replication={false}, metadata={op_name="XLA_Args"}
  %custom-call.62 = f16[30528,768]{1,0} custom-call(f16[1216,30528]{1,0} %fusion.399, f16[1216,768]{1,0} %fusion.302), custom_call_target="__cublas$gemm", metadata={op_type="MatMul" op_name="gradient_tape/model/bert_pretrainer/cls/predictions/MatMul/MatMul_1"}, backend_config="{\"alpha_real\":1,\"alpha_imag\":0,\"beta\":0,\"dot_dimension_numbers\":{\"lhs_contracting_dimensions\":[\"0\"],\"rhs_contracting_dimensions\":[\"0\"],\"lhs_batch_dimensions\":[],\"rhs_batch_dimensions\":[]},\"batch_size\":\"1\",\"selected_algorithm\":\"110\"}"
  %fusion.32 = f32[30522,768]{1,0} fusion(f16[30528,768]{1,0} %custom-call.62, f16[16,512,768]{2,1,0} %fusion.206, s32[16,512]{1,0} %arg14.15), kind=kInput, calls=%fused_computation.32, metadata={op_type="UnsortedSegmentSum" op_name="AddN_20/inputs_1"}
  %arg162.163 = f32[30522,768]{1,0} parameter(162), parameter_replication={false}, metadata={op_name="XLA_Args"}
  %fusion.28 = (f32[30522,768]{1,0}, f32[30522,768]{1,0}, f32[30522,768]{1,0}) fusion(f32[30522,768]{1,0} %arg61.62, f32[] %fusion.225, f32[30522,768]{1,0} %arg161.162, f32[] %arg17.18, f32[30522,768]{1,0} %fusion.32, f32[30522,768]{1,0} %arg162.163, f32[] %arg18.19), kind=kLoop, calls=%fused_computation.28, metadata={op_type="ResourceApplyAdam" op_name="Adam/Adam/update/update_0/ResourceApplyAdam"}
  %get-tuple-element.15 = f32[30522,768]{1,0} get-tuple-element((f32[30522,768]{1,0}, f32[30522,768]{1,0}, f32[30522,768]{1,0}) %fusion.28), index=0
  %get-tuple-element.186 = f32[768]{0} get-tuple-element((f32[768]{0}, f32[768]{0}, f32[768]{0}, f32[768]{0}, f32[768]{0}, f32[768]{0}, f32[768]{0}, f32[768]{0}, f32[768]{0}, f32[768]{0}, f32[768]{0}, f32[768]{0}, f32[768]{0}, f32[768]{0}, f32[768]{0}, f32[768]{0}, f32[768]{0}, f32[768]{0}, f32[768]{0}, f32[768]{0}, f32[768]{0}, f32[768]{0}, f32[768]{0}, f32[768]{0}, f32[768]{0}) %fusion.15), index=6
  %get-tuple-element.183 = f32[768]{0} get-tuple-element((f32[768]{0}, f32[768]{0}, f32[768]{0}, f32[768]{0}, f32[768]{0}, f32[768]{0}, f32[768]{0}, f32[768]{0}, f32[768]{0}, f32[768]{0}, f32[768]{0}, f32[768]{0}, f32[768]{0}, f32[768]{0}, f32[768]{0}, f32[768]{0}, f32[768]{0}, f32[768]{0}, f32[768]{0}, f32[768]{0}, f32[768]{0}, f32[768]{0}, f32[768]{0}, f32[768]{0}, f32[768]{0}) %fusion.15), index=3
  %get-tuple-element.6 = f32[768]{0} get-tuple-element((f32[768]{0}, f32[768]{0}, f32[768]{0}, f32[768]{0}, f32[768]{0}, f32[768]{0}, f32[768]{0}, f32[768]{0}, f32[768]{0}, f32[768]{0}, f32[768]{0}, f32[768]{0}, f32[768]{0}, f32[768]{0}, f32[768]{0}, f32[768]{0}, f32[768]{0}, f32[768]{0}, f32[768]{0}, f32[768]{0}, f32[768]{0}, f32[768]{0}, f32[768]{0}, f32[768]{0}, f32[768]{0}) %fusion.15), index=0
  %get-tuple-element.138 = f32[768,768]{1,0} get-tuple-element((f32[768,768]{1,0}, f32[768,768]{1,0}, f32[768,768]{1,0}, f32[768,768]{1,0}, f32[768,768]{1,0}, f32[768,768]{1,0}) %fusion.209), index=3
  %arg80.81 = f32[] parameter(80), parameter_replication={false}, metadata={op_name="XLA_Args"}
  %get-tuple-element.267 = f32[16]{0} get-tuple-element((f32[16]{0}, f32[16]{0}) %fusion.409), index=0
  %fusion.10 = f32[] fusion(f32[16]{0} %get-tuple-element.267, s32[16,1]{1,0} %arg13.14, f32[16]{0} %fusion.286, f32[2]{0} %arg58.59, f16[16,8]{1,0} %custom-call.24), kind=kInput, calls=%fused_computation.10, metadata={op_type="Mean" op_name="model/bert_pretrain_loss_and_metric_layer/Mean"}
  %get-tuple-element.261 = f32[] get-tuple-element((f32[], f32[], f32[]) %fusion.2), index=2
  %arg76.77 = f32[] parameter(76), parameter_replication={false}, metadata={op_name="XLA_Args"}
  %arg66.67 = f32[] parameter(66), parameter_replication={false}, metadata={op_name="XLA_Args"}
  %arg77.78 = f32[] parameter(77), parameter_replication={false}, metadata={op_name="XLA_Args"}
  %get-tuple-element.259 = f32[] get-tuple-element((f32[], f32[], f32[]) %fusion.2), index=0
  %fusion = (f32[], f32[], f32[], f32[]) fusion(f32[] %arg80.81, f32[] %fusion.10, f32[] %get-tuple-element.261, f32[] %get-tuple-element.260, f32[] %arg76.77, f32[] %arg66.67, f32[] %arg77.78, f32[] %get-tuple-element.259), kind=kLoop, calls=%fused_computation, metadata={op_type="AssignAddVariableOp" op_name="AssignAddVariableOp"}
  %get-tuple-element.2 = f32[] get-tuple-element((f32[], f32[], f32[], f32[]) %fusion), index=2
  %arg67.68 = f32[] parameter(67), parameter_replication={false}, metadata={op_name="XLA_Args"}
  %fusion.9 = s64[16]{0} fusion(f32[16]{0} %fusion.286, f32[2]{0} %arg58.59, f16[16,8]{1,0} %custom-call.24), kind=kLoop, calls=%fused_computation.9, metadata={op_type="ArgMax" op_name="model/bert_pretrain_loss_and_metric_layer/ArgMax_1"}
  %fusion.8 = f32[] fusion(f32[] %arg67.68, s32[16,1]{1,0} %arg13.14, s64[16]{0} %fusion.9), kind=kLoop, calls=%fused_computation.8, metadata={op_type="AssignAddVariableOp" op_name="model/bert_pretrain_loss_and_metric_layer/AssignAddVariableOp_4"}
  %get-tuple-element.25 = f32[2]{0} get-tuple-element((f32[2]{0}, f32[2]{0}, f32[2]{0}) %fusion.42), index=1
  %get-tuple-element.26 = f32[2]{0} get-tuple-element((f32[2]{0}, f32[2]{0}, f32[2]{0}) %fusion.42), index=2
  %get-tuple-element.22 = f32[768,2]{1,0} get-tuple-element((f32[768,2]{1,0}, f32[768,2]{1,0}, f32[768,2]{1,0}) %fusion.38), index=1
  %get-tuple-element.23 = f32[768,2]{1,0} get-tuple-element((f32[768,2]{1,0}, f32[768,2]{1,0}, f32[768,2]{1,0}) %fusion.38), index=2
  %get-tuple-element.224 = f32[768]{0} get-tuple-element((f32[768]{0}, f32[768]{0}, f32[768]{0}, f32[768]{0}, f32[768]{0}, f32[768]{0}, f32[768]{0}, f32[768]{0}, f32[768]{0}, f32[768]{0}, f32[768]{0}, f32[768]{0}, f32[768]{0}, f32[768]{0}, f32[768]{0}, f32[768]{0}, f32[768]{0}, f32[768]{0}, f32[768]{0}, f32[768]{0}, f32[768]{0}, f32[768]{0}, f32[768]{0}, f32[768]{0}) %fusion.111), index=22
  %get-tuple-element.225 = f32[768]{0} get-tuple-element((f32[768]{0}, f32[768]{0}, f32[768]{0}, f32[768]{0}, f32[768]{0}, f32[768]{0}, f32[768]{0}, f32[768]{0}, f32[768]{0}, f32[768]{0}, f32[768]{0}, f32[768]{0}, f32[768]{0}, f32[768]{0}, f32[768]{0}, f32[768]{0}, f32[768]{0}, f32[768]{0}, f32[768]{0}, f32[768]{0}, f32[768]{0}, f32[768]{0}, f32[768]{0}, f32[768]{0}) %fusion.111), index=23
  %get-tuple-element.130 = f32[768,768]{1,0} get-tuple-element((f32[768,768]{1,0}, f32[768,768]{1,0}, f32[768,768]{1,0}, f32[768,768]{1,0}, f32[768,768]{1,0}, f32[768,768]{1,0}) %fusion.209), index=1
  %get-tuple-element.131 = f32[768,768]{1,0} get-tuple-element((f32[768,768]{1,0}, f32[768,768]{1,0}, f32[768,768]{1,0}, f32[768,768]{1,0}, f32[768,768]{1,0}, f32[768,768]{1,0}) %fusion.209), index=2
  %get-tuple-element.1 = f32[] get-tuple-element((f32[], f32[], f32[], f32[]) %fusion), index=1
  %get-tuple-element.258 = f32[] get-tuple-element((f32[], f32[], f32[], f32[]) %fusion), index=3
  %get-tuple-element.19 = f32[30522]{0} get-tuple-element((f32[30522]{0}, f32[30522]{0}, f32[30522]{0}) %fusion.33), index=1
  %get-tuple-element.20 = f32[30522]{0} get-tuple-element((f32[30522]{0}, f32[30522]{0}, f32[30522]{0}) %fusion.33), index=2
  %get-tuple-element = f32[] get-tuple-element((f32[], f32[], f32[], f32[]) %fusion), index=0
  %get-tuple-element.187 = f32[768]{0} get-tuple-element((f32[768]{0}, f32[768]{0}, f32[768]{0}, f32[768]{0}, f32[768]{0}, f32[768]{0}, f32[768]{0}, f32[768]{0}, f32[768]{0}, f32[768]{0}, f32[768]{0}, f32[768]{0}, f32[768]{0}, f32[768]{0}, f32[768]{0}, f32[768]{0}, f32[768]{0}, f32[768]{0}, f32[768]{0}, f32[768]{0}, f32[768]{0}, f32[768]{0}, f32[768]{0}, f32[768]{0}, f32[768]{0}) %fusion.15), index=7
  %get-tuple-element.188 = f32[768]{0} get-tuple-element((f32[768]{0}, f32[768]{0}, f32[768]{0}, f32[768]{0}, f32[768]{0}, f32[768]{0}, f32[768]{0}, f32[768]{0}, f32[768]{0}, f32[768]{0}, f32[768]{0}, f32[768]{0}, f32[768]{0}, f32[768]{0}, f32[768]{0}, f32[768]{0}, f32[768]{0}, f32[768]{0}, f32[768]{0}, f32[768]{0}, f32[768]{0}, f32[768]{0}, f32[768]{0}, f32[768]{0}, f32[768]{0}) %fusion.15), index=8
  %get-tuple-element.184 = f32[768]{0} get-tuple-element((f32[768]{0}, f32[768]{0}, f32[768]{0}, f32[768]{0}, f32[768]{0}, f32[768]{0}, f32[768]{0}, f32[768]{0}, f32[768]{0}, f32[768]{0}, f32[768]{0}, f32[768]{0}, f32[768]{0}, f32[768]{0}, f32[768]{0}, f32[768]{0}, f32[768]{0}, f32[768]{0}, f32[768]{0}, f32[768]{0}, f32[768]{0}, f32[768]{0}, f32[768]{0}, f32[768]{0}, f32[768]{0}) %fusion.15), index=4
  %get-tuple-element.185 = f32[768]{0} get-tuple-element((f32[768]{0}, f32[768]{0}, f32[768]{0}, f32[768]{0}, f32[768]{0}, f32[768]{0}, f32[768]{0}, f32[768]{0}, f32[768]{0}, f32[768]{0}, f32[768]{0}, f32[768]{0}, f32[768]{0}, f32[768]{0}, f32[768]{0}, f32[768]{0}, f32[768]{0}, f32[768]{0}, f32[768]{0}, f32[768]{0}, f32[768]{0}, f32[768]{0}, f32[768]{0}, f32[768]{0}, f32[768]{0}) %fusion.15), index=5
  %get-tuple-element.139 = f32[768,768]{1,0} get-tuple-element((f32[768,768]{1,0}, f32[768,768]{1,0}, f32[768,768]{1,0}, f32[768,768]{1,0}, f32[768,768]{1,0}, f32[768,768]{1,0}) %fusion.209), index=4
  %get-tuple-element.140 = f32[768,768]{1,0} get-tuple-element((f32[768,768]{1,0}, f32[768,768]{1,0}, f32[768,768]{1,0}, f32[768,768]{1,0}, f32[768,768]{1,0}, f32[768,768]{1,0}) %fusion.209), index=5
  %get-tuple-element.7 = f32[768]{0} get-tuple-element((f32[768]{0}, f32[768]{0}, f32[768]{0}, f32[768]{0}, f32[768]{0}, f32[768]{0}, f32[768]{0}, f32[768]{0}, f32[768]{0}, f32[768]{0}, f32[768]{0}, f32[768]{0}, f32[768]{0}, f32[768]{0}, f32[768]{0}, f32[768]{0}, f32[768]{0}, f32[768]{0}, f32[768]{0}, f32[768]{0}, f32[768]{0}, f32[768]{0}, f32[768]{0}, f32[768]{0}, f32[768]{0}) %fusion.15), index=1
  %get-tuple-element.8 = f32[768]{0} get-tuple-element((f32[768]{0}, f32[768]{0}, f32[768]{0}, f32[768]{0}, f32[768]{0}, f32[768]{0}, f32[768]{0}, f32[768]{0}, f32[768]{0}, f32[768]{0}, f32[768]{0}, f32[768]{0}, f32[768]{0}, f32[768]{0}, f32[768]{0}, f32[768]{0}, f32[768]{0}, f32[768]{0}, f32[768]{0}, f32[768]{0}, f32[768]{0}, f32[768]{0}, f32[768]{0}, f32[768]{0}, f32[768]{0}) %fusion.15), index=2
  %get-tuple-element.202 = f32[768]{0} get-tuple-element((f32[768]{0}, f32[768]{0}, f32[768]{0}, f32[768]{0}, f32[768]{0}, f32[768]{0}, f32[768]{0}, f32[768]{0}, f32[768]{0}, f32[768]{0}, f32[768]{0}, f32[768]{0}, f32[768]{0}, f32[768]{0}, f32[768]{0}, f32[768]{0}, f32[768]{0}, f32[768]{0}, f32[768]{0}, f32[768]{0}, f32[768]{0}, f32[768]{0}, f32[768]{0}, f32[768]{0}, f32[768]{0}) %fusion.15), index=22
  %get-tuple-element.203 = f32[768]{0} get-tuple-element((f32[768]{0}, f32[768]{0}, f32[768]{0}, f32[768]{0}, f32[768]{0}, f32[768]{0}, f32[768]{0}, f32[768]{0}, f32[768]{0}, f32[768]{0}, f32[768]{0}, f32[768]{0}, f32[768]{0}, f32[768]{0}, f32[768]{0}, f32[768]{0}, f32[768]{0}, f32[768]{0}, f32[768]{0}, f32[768]{0}, f32[768]{0}, f32[768]{0}, f32[768]{0}, f32[768]{0}, f32[768]{0}) %fusion.15), index=23
  %get-tuple-element.199 = f32[768]{0} get-tuple-element((f32[768]{0}, f32[768]{0}, f32[768]{0}, f32[768]{0}, f32[768]{0}, f32[768]{0}, f32[768]{0}, f32[768]{0}, f32[768]{0}, f32[768]{0}, f32[768]{0}, f32[768]{0}, f32[768]{0}, f32[768]{0}, f32[768]{0}, f32[768]{0}, f32[768]{0}, f32[768]{0}, f32[768]{0}, f32[768]{0}, f32[768]{0}, f32[768]{0}, f32[768]{0}, f32[768]{0}, f32[768]{0}) %fusion.15), index=19
  %get-tuple-element.200 = f32[768]{0} get-tuple-element((f32[768]{0}, f32[768]{0}, f32[768]{0}, f32[768]{0}, f32[768]{0}, f32[768]{0}, f32[768]{0}, f32[768]{0}, f32[768]{0}, f32[768]{0}, f32[768]{0}, f32[768]{0}, f32[768]{0}, f32[768]{0}, f32[768]{0}, f32[768]{0}, f32[768]{0}, f32[768]{0}, f32[768]{0}, f32[768]{0}, f32[768]{0}, f32[768]{0}, f32[768]{0}, f32[768]{0}, f32[768]{0}) %fusion.15), index=20
  %get-tuple-element.148 = f32[3072,768]{1,0} get-tuple-element((f32[3072,768]{1,0}, f32[3072,768]{1,0}, f32[3072,768]{1,0}, f32[3072,768]{1,0}, f32[3072,768]{1,0}, f32[3072,768]{1,0}) %fusion.182), index=4
  %get-tuple-element.149 = f32[3072,768]{1,0} get-tuple-element((f32[3072,768]{1,0}, f32[3072,768]{1,0}, f32[3072,768]{1,0}, f32[3072,768]{1,0}, f32[3072,768]{1,0}, f32[3072,768]{1,0}) %fusion.182), index=5
  %get-tuple-element.70 = f32[768]{0} get-tuple-element((f32[768]{0}, f32[768]{0}, f32[768]{0}, f32[768]{0}, f32[768]{0}, f32[768]{0}, f32[768]{0}, f32[768]{0}, f32[768]{0}, f32[768]{0}, f32[768]{0}, f32[768]{0}, f32[768]{0}, f32[768]{0}, f32[768]{0}, f32[768]{0}, f32[768]{0}, f32[768]{0}, f32[768]{0}, f32[768]{0}, f32[768]{0}, f32[768]{0}, f32[768]{0}, f32[768]{0}) %fusion.111), index=1
  %get-tuple-element.71 = f32[768]{0} get-tuple-element((f32[768]{0}, f32[768]{0}, f32[768]{0}, f32[768]{0}, f32[768]{0}, f32[768]{0}, f32[768]{0}, f32[768]{0}, f32[768]{0}, f32[768]{0}, f32[768]{0}, f32[768]{0}, f32[768]{0}, f32[768]{0}, f32[768]{0}, f32[768]{0}, f32[768]{0}, f32[768]{0}, f32[768]{0}, f32[768]{0}, f32[768]{0}, f32[768]{0}, f32[768]{0}, f32[768]{0}) %fusion.111), index=2
  %get-tuple-element.145 = f32[768,3072]{1,0} get-tuple-element((f32[768,3072]{1,0}, f32[768,3072]{1,0}, f32[768,3072]{1,0}, f32[768,3072]{1,0}, f32[768,3072]{1,0}, f32[768,3072]{1,0}) %fusion.192), index=4
  %get-tuple-element.146 = f32[768,3072]{1,0} get-tuple-element((f32[768,3072]{1,0}, f32[768,3072]{1,0}, f32[768,3072]{1,0}, f32[768,3072]{1,0}, f32[768,3072]{1,0}, f32[768,3072]{1,0}) %fusion.192), index=5
  %get-tuple-element.142 = f32[3072]{0} get-tuple-element((f32[3072]{0}, f32[3072]{0}, f32[3072]{0}, f32[3072]{0}, f32[3072]{0}, f32[3072]{0}) %fusion.197), index=4
  %get-tuple-element.143 = f32[3072]{0} get-tuple-element((f32[3072]{0}, f32[3072]{0}, f32[3072]{0}, f32[3072]{0}, f32[3072]{0}, f32[3072]{0}) %fusion.197), index=5
  %get-tuple-element.193 = f32[768]{0} get-tuple-element((f32[768]{0}, f32[768]{0}, f32[768]{0}, f32[768]{0}, f32[768]{0}, f32[768]{0}, f32[768]{0}, f32[768]{0}, f32[768]{0}, f32[768]{0}, f32[768]{0}, f32[768]{0}, f32[768]{0}, f32[768]{0}, f32[768]{0}, f32[768]{0}, f32[768]{0}, f32[768]{0}, f32[768]{0}, f32[768]{0}, f32[768]{0}, f32[768]{0}, f32[768]{0}, f32[768]{0}, f32[768]{0}) %fusion.15), index=13
  %get-tuple-element.194 = f32[768]{0} get-tuple-element((f32[768]{0}, f32[768]{0}, f32[768]{0}, f32[768]{0}, f32[768]{0}, f32[768]{0}, f32[768]{0}, f32[768]{0}, f32[768]{0}, f32[768]{0}, f32[768]{0}, f32[768]{0}, f32[768]{0}, f32[768]{0}, f32[768]{0}, f32[768]{0}, f32[768]{0}, f32[768]{0}, f32[768]{0}, f32[768]{0}, f32[768]{0}, f32[768]{0}, f32[768]{0}, f32[768]{0}, f32[768]{0}) %fusion.15), index=14
  %get-tuple-element.190 = f32[768]{0} get-tuple-element((f32[768]{0}, f32[768]{0}, f32[768]{0}, f32[768]{0}, f32[768]{0}, f32[768]{0}, f32[768]{0}, f32[768]{0}, f32[768]{0}, f32[768]{0}, f32[768]{0}, f32[768]{0}, f32[768]{0}, f32[768]{0}, f32[768]{0}, f32[768]{0}, f32[768]{0}, f32[768]{0}, f32[768]{0}, f32[768]{0}, f32[768]{0}, f32[768]{0}, f32[768]{0}, f32[768]{0}, f32[768]{0}) %fusion.15), index=10
  %get-tuple-element.191 = f32[768]{0} get-tuple-element((f32[768]{0}, f32[768]{0}, f32[768]{0}, f32[768]{0}, f32[768]{0}, f32[768]{0}, f32[768]{0}, f32[768]{0}, f32[768]{0}, f32[768]{0}, f32[768]{0}, f32[768]{0}, f32[768]{0}, f32[768]{0}, f32[768]{0}, f32[768]{0}, f32[768]{0}, f32[768]{0}, f32[768]{0}, f32[768]{0}, f32[768]{0}, f32[768]{0}, f32[768]{0}, f32[768]{0}, f32[768]{0}) %fusion.15), index=11
  %get-tuple-element.151 = f32[12,64,768]{2,1,0} get-tuple-element((f32[12,64,768]{2,1,0}, f32[12,64,768]{2,1,0}, f32[12,64,768]{2,1,0}, f32[12,64,768]{2,1,0}, f32[12,64,768]{2,1,0}, f32[12,64,768]{2,1,0}) %fusion.164), index=4
  %get-tuple-element.152 = f32[12,64,768]{2,1,0} get-tuple-element((f32[12,64,768]{2,1,0}, f32[12,64,768]{2,1,0}, f32[12,64,768]{2,1,0}, f32[12,64,768]{2,1,0}, f32[12,64,768]{2,1,0}, f32[12,64,768]{2,1,0}) %fusion.164), index=5
  %get-tuple-element.196 = f32[768]{0} get-tuple-element((f32[768]{0}, f32[768]{0}, f32[768]{0}, f32[768]{0}, f32[768]{0}, f32[768]{0}, f32[768]{0}, f32[768]{0}, f32[768]{0}, f32[768]{0}, f32[768]{0}, f32[768]{0}, f32[768]{0}, f32[768]{0}, f32[768]{0}, f32[768]{0}, f32[768]{0}, f32[768]{0}, f32[768]{0}, f32[768]{0}, f32[768]{0}, f32[768]{0}, f32[768]{0}, f32[768]{0}, f32[768]{0}) %fusion.15), index=16
  %get-tuple-element.197 = f32[768]{0} get-tuple-element((f32[768]{0}, f32[768]{0}, f32[768]{0}, f32[768]{0}, f32[768]{0}, f32[768]{0}, f32[768]{0}, f32[768]{0}, f32[768]{0}, f32[768]{0}, f32[768]{0}, f32[768]{0}, f32[768]{0}, f32[768]{0}, f32[768]{0}, f32[768]{0}, f32[768]{0}, f32[768]{0}, f32[768]{0}, f32[768]{0}, f32[768]{0}, f32[768]{0}, f32[768]{0}, f32[768]{0}, f32[768]{0}) %fusion.15), index=17
  %get-tuple-element.169 = f32[768,12,64]{2,1,0} get-tuple-element((f32[768,12,64]{2,1,0}, f32[768,12,64]{2,1,0}, f32[768,12,64]{2,1,0}, f32[768,12,64]{2,1,0}, f32[768,12,64]{2,1,0}, f32[768,12,64]{2,1,0}, f32[768,12,64]{2,1,0}, f32[768,12,64]{2,1,0}, f32[768,12,64]{2,1,0}, f32[768,12,64]{2,1,0}, f32[768,12,64]{2,1,0}, f32[768,12,64]{2,1,0}, f32[768,12,64]{2,1,0}, f32[768,12,64]{2,1,0}, f32[768,12,64]{2,1,0}, f32[768,12,64]{2,1,0}, f32[768,12,64]{2,1,0}, f32[768,12,64]{2,1,0}) %fusion.154), index=4
  %get-tuple-element.170 = f32[768,12,64]{2,1,0} get-tuple-element((f32[768,12,64]{2,1,0}, f32[768,12,64]{2,1,0}, f32[768,12,64]{2,1,0}, f32[768,12,64]{2,1,0}, f32[768,12,64]{2,1,0}, f32[768,12,64]{2,1,0}, f32[768,12,64]{2,1,0}, f32[768,12,64]{2,1,0}, f32[768,12,64]{2,1,0}, f32[768,12,64]{2,1,0}, f32[768,12,64]{2,1,0}, f32[768,12,64]{2,1,0}, f32[768,12,64]{2,1,0}, f32[768,12,64]{2,1,0}, f32[768,12,64]{2,1,0}, f32[768,12,64]{2,1,0}, f32[768,12,64]{2,1,0}, f32[768,12,64]{2,1,0}) %fusion.154), index=5
  %get-tuple-element.154 = f32[12,64]{1,0} get-tuple-element((f32[12,64]{1,0}, f32[12,64]{1,0}, f32[12,64]{1,0}, f32[12,64]{1,0}, f32[12,64]{1,0}, f32[12,64]{1,0}, f32[12,64]{1,0}, f32[12,64]{1,0}, f32[12,64]{1,0}, f32[12,64]{1,0}, f32[12,64]{1,0}, f32[12,64]{1,0}, f32[12,64]{1,0}, f32[12,64]{1,0}, f32[12,64]{1,0}, f32[12,64]{1,0}, f32[12,64]{1,0}, f32[12,64]{1,0}) %fusion.159), index=4
  %get-tuple-element.155 = f32[12,64]{1,0} get-tuple-element((f32[12,64]{1,0}, f32[12,64]{1,0}, f32[12,64]{1,0}, f32[12,64]{1,0}, f32[12,64]{1,0}, f32[12,64]{1,0}, f32[12,64]{1,0}, f32[12,64]{1,0}, f32[12,64]{1,0}, f32[12,64]{1,0}, f32[12,64]{1,0}, f32[12,64]{1,0}, f32[12,64]{1,0}, f32[12,64]{1,0}, f32[12,64]{1,0}, f32[12,64]{1,0}, f32[12,64]{1,0}, f32[12,64]{1,0}) %fusion.159), index=5
  %get-tuple-element.175 = f32[768,12,64]{2,1,0} get-tuple-element((f32[768,12,64]{2,1,0}, f32[768,12,64]{2,1,0}, f32[768,12,64]{2,1,0}, f32[768,12,64]{2,1,0}, f32[768,12,64]{2,1,0}, f32[768,12,64]{2,1,0}, f32[768,12,64]{2,1,0}, f32[768,12,64]{2,1,0}, f32[768,12,64]{2,1,0}, f32[768,12,64]{2,1,0}, f32[768,12,64]{2,1,0}, f32[768,12,64]{2,1,0}, f32[768,12,64]{2,1,0}, f32[768,12,64]{2,1,0}, f32[768,12,64]{2,1,0}, f32[768,12,64]{2,1,0}, f32[768,12,64]{2,1,0}, f32[768,12,64]{2,1,0}) %fusion.154), index=10
  %get-tuple-element.176 = f32[768,12,64]{2,1,0} get-tuple-element((f32[768,12,64]{2,1,0}, f32[768,12,64]{2,1,0}, f32[768,12,64]{2,1,0}, f32[768,12,64]{2,1,0}, f32[768,12,64]{2,1,0}, f32[768,12,64]{2,1,0}, f32[768,12,64]{2,1,0}, f32[768,12,64]{2,1,0}, f32[768,12,64]{2,1,0}, f32[768,12,64]{2,1,0}, f32[768,12,64]{2,1,0}, f32[768,12,64]{2,1,0}, f32[768,12,64]{2,1,0}, f32[768,12,64]{2,1,0}, f32[768,12,64]{2,1,0}, f32[768,12,64]{2,1,0}, f32[768,12,64]{2,1,0}, f32[768,12,64]{2,1,0}) %fusion.154), index=11
  %get-tuple-element.160 = f32[12,64]{1,0} get-tuple-element((f32[12,64]{1,0}, f32[12,64]{1,0}, f32[12,64]{1,0}, f32[12,64]{1,0}, f32[12,64]{1,0}, f32[12,64]{1,0}, f32[12,64]{1,0}, f32[12,64]{1,0}, f32[12,64]{1,0}, f32[12,64]{1,0}, f32[12,64]{1,0}, f32[12,64]{1,0}, f32[12,64]{1,0}, f32[12,64]{1,0}, f32[12,64]{1,0}, f32[12,64]{1,0}, f32[12,64]{1,0}, f32[12,64]{1,0}) %fusion.159), index=10
  %get-tuple-element.161 = f32[12,64]{1,0} get-tuple-element((f32[12,64]{1,0}, f32[12,64]{1,0}, f32[12,64]{1,0}, f32[12,64]{1,0}, f32[12,64]{1,0}, f32[12,64]{1,0}, f32[12,64]{1,0}, f32[12,64]{1,0}, f32[12,64]{1,0}, f32[12,64]{1,0}, f32[12,64]{1,0}, f32[12,64]{1,0}, f32[12,64]{1,0}, f32[12,64]{1,0}, f32[12,64]{1,0}, f32[12,64]{1,0}, f32[12,64]{1,0}, f32[12,64]{1,0}) %fusion.159), index=11
  %get-tuple-element.172 = f32[768,12,64]{2,1,0} get-tuple-element((f32[768,12,64]{2,1,0}, f32[768,12,64]{2,1,0}, f32[768,12,64]{2,1,0}, f32[768,12,64]{2,1,0}, f32[768,12,64]{2,1,0}, f32[768,12,64]{2,1,0}, f32[768,12,64]{2,1,0}, f32[768,12,64]{2,1,0}, f32[768,12,64]{2,1,0}, f32[768,12,64]{2,1,0}, f32[768,12,64]{2,1,0}, f32[768,12,64]{2,1,0}, f32[768,12,64]{2,1,0}, f32[768,12,64]{2,1,0}, f32[768,12,64]{2,1,0}, f32[768,12,64]{2,1,0}, f32[768,12,64]{2,1,0}, f32[768,12,64]{2,1,0}) %fusion.154), index=7
  %get-tuple-element.173 = f32[768,12,64]{2,1,0} get-tuple-element((f32[768,12,64]{2,1,0}, f32[768,12,64]{2,1,0}, f32[768,12,64]{2,1,0}, f32[768,12,64]{2,1,0}, f32[768,12,64]{2,1,0}, f32[768,12,64]{2,1,0}, f32[768,12,64]{2,1,0}, f32[768,12,64]{2,1,0}, f32[768,12,64]{2,1,0}, f32[768,12,64]{2,1,0}, f32[768,12,64]{2,1,0}, f32[768,12,64]{2,1,0}, f32[768,12,64]{2,1,0}, f32[768,12,64]{2,1,0}, f32[768,12,64]{2,1,0}, f32[768,12,64]{2,1,0}, f32[768,12,64]{2,1,0}, f32[768,12,64]{2,1,0}) %fusion.154), index=8
  %get-tuple-element.157 = f32[12,64]{1,0} get-tuple-element((f32[12,64]{1,0}, f32[12,64]{1,0}, f32[12,64]{1,0}, f32[12,64]{1,0}, f32[12,64]{1,0}, f32[12,64]{1,0}, f32[12,64]{1,0}, f32[12,64]{1,0}, f32[12,64]{1,0}, f32[12,64]{1,0}, f32[12,64]{1,0}, f32[12,64]{1,0}, f32[12,64]{1,0}, f32[12,64]{1,0}, f32[12,64]{1,0}, f32[12,64]{1,0}, f32[12,64]{1,0}, f32[12,64]{1,0}) %fusion.159), index=7
  %get-tuple-element.158 = f32[12,64]{1,0} get-tuple-element((f32[12,64]{1,0}, f32[12,64]{1,0}, f32[12,64]{1,0}, f32[12,64]{1,0}, f32[12,64]{1,0}, f32[12,64]{1,0}, f32[12,64]{1,0}, f32[12,64]{1,0}, f32[12,64]{1,0}, f32[12,64]{1,0}, f32[12,64]{1,0}, f32[12,64]{1,0}, f32[12,64]{1,0}, f32[12,64]{1,0}, f32[12,64]{1,0}, f32[12,64]{1,0}, f32[12,64]{1,0}, f32[12,64]{1,0}) %fusion.159), index=8
  %get-tuple-element.218 = f32[768]{0} get-tuple-element((f32[768]{0}, f32[768]{0}, f32[768]{0}, f32[768]{0}, f32[768]{0}, f32[768]{0}, f32[768]{0}, f32[768]{0}, f32[768]{0}, f32[768]{0}, f32[768]{0}, f32[768]{0}, f32[768]{0}, f32[768]{0}, f32[768]{0}, f32[768]{0}, f32[768]{0}, f32[768]{0}, f32[768]{0}, f32[768]{0}, f32[768]{0}, f32[768]{0}, f32[768]{0}, f32[768]{0}) %fusion.111), index=16
  %get-tuple-element.219 = f32[768]{0} get-tuple-element((f32[768]{0}, f32[768]{0}, f32[768]{0}, f32[768]{0}, f32[768]{0}, f32[768]{0}, f32[768]{0}, f32[768]{0}, f32[768]{0}, f32[768]{0}, f32[768]{0}, f32[768]{0}, f32[768]{0}, f32[768]{0}, f32[768]{0}, f32[768]{0}, f32[768]{0}, f32[768]{0}, f32[768]{0}, f32[768]{0}, f32[768]{0}, f32[768]{0}, f32[768]{0}, f32[768]{0}) %fusion.111), index=17
  %get-tuple-element.215 = f32[768]{0} get-tuple-element((f32[768]{0}, f32[768]{0}, f32[768]{0}, f32[768]{0}, f32[768]{0}, f32[768]{0}, f32[768]{0}, f32[768]{0}, f32[768]{0}, f32[768]{0}, f32[768]{0}, f32[768]{0}, f32[768]{0}, f32[768]{0}, f32[768]{0}, f32[768]{0}, f32[768]{0}, f32[768]{0}, f32[768]{0}, f32[768]{0}, f32[768]{0}, f32[768]{0}, f32[768]{0}, f32[768]{0}) %fusion.111), index=13
  %get-tuple-element.216 = f32[768]{0} get-tuple-element((f32[768]{0}, f32[768]{0}, f32[768]{0}, f32[768]{0}, f32[768]{0}, f32[768]{0}, f32[768]{0}, f32[768]{0}, f32[768]{0}, f32[768]{0}, f32[768]{0}, f32[768]{0}, f32[768]{0}, f32[768]{0}, f32[768]{0}, f32[768]{0}, f32[768]{0}, f32[768]{0}, f32[768]{0}, f32[768]{0}, f32[768]{0}, f32[768]{0}, f32[768]{0}, f32[768]{0}) %fusion.111), index=14
  %get-tuple-element.115 = f32[3072,768]{1,0} get-tuple-element((f32[3072,768]{1,0}, f32[3072,768]{1,0}, f32[3072,768]{1,0}, f32[3072,768]{1,0}, f32[3072,768]{1,0}, f32[3072,768]{1,0}) %fusion.182), index=1
  %get-tuple-element.116 = f32[3072,768]{1,0} get-tuple-element((f32[3072,768]{1,0}, f32[3072,768]{1,0}, f32[3072,768]{1,0}, f32[3072,768]{1,0}, f32[3072,768]{1,0}, f32[3072,768]{1,0}) %fusion.182), index=2
  %get-tuple-element.221 = f32[768]{0} get-tuple-element((f32[768]{0}, f32[768]{0}, f32[768]{0}, f32[768]{0}, f32[768]{0}, f32[768]{0}, f32[768]{0}, f32[768]{0}, f32[768]{0}, f32[768]{0}, f32[768]{0}, f32[768]{0}, f32[768]{0}, f32[768]{0}, f32[768]{0}, f32[768]{0}, f32[768]{0}, f32[768]{0}, f32[768]{0}, f32[768]{0}, f32[768]{0}, f32[768]{0}, f32[768]{0}, f32[768]{0}) %fusion.111), index=19
  %get-tuple-element.222 = f32[768]{0} get-tuple-element((f32[768]{0}, f32[768]{0}, f32[768]{0}, f32[768]{0}, f32[768]{0}, f32[768]{0}, f32[768]{0}, f32[768]{0}, f32[768]{0}, f32[768]{0}, f32[768]{0}, f32[768]{0}, f32[768]{0}, f32[768]{0}, f32[768]{0}, f32[768]{0}, f32[768]{0}, f32[768]{0}, f32[768]{0}, f32[768]{0}, f32[768]{0}, f32[768]{0}, f32[768]{0}, f32[768]{0}) %fusion.111), index=20
  %get-tuple-element.121 = f32[768,3072]{1,0} get-tuple-element((f32[768,3072]{1,0}, f32[768,3072]{1,0}, f32[768,3072]{1,0}, f32[768,3072]{1,0}, f32[768,3072]{1,0}, f32[768,3072]{1,0}) %fusion.192), index=1
  %get-tuple-element.122 = f32[768,3072]{1,0} get-tuple-element((f32[768,3072]{1,0}, f32[768,3072]{1,0}, f32[768,3072]{1,0}, f32[768,3072]{1,0}, f32[768,3072]{1,0}, f32[768,3072]{1,0}) %fusion.192), index=2
  %get-tuple-element.124 = f32[3072]{0} get-tuple-element((f32[3072]{0}, f32[3072]{0}, f32[3072]{0}, f32[3072]{0}, f32[3072]{0}, f32[3072]{0}) %fusion.197), index=1
  %get-tuple-element.125 = f32[3072]{0} get-tuple-element((f32[3072]{0}, f32[3072]{0}, f32[3072]{0}, f32[3072]{0}, f32[3072]{0}, f32[3072]{0}) %fusion.197), index=2
  %get-tuple-element.209 = f32[768]{0} get-tuple-element((f32[768]{0}, f32[768]{0}, f32[768]{0}, f32[768]{0}, f32[768]{0}, f32[768]{0}, f32[768]{0}, f32[768]{0}, f32[768]{0}, f32[768]{0}, f32[768]{0}, f32[768]{0}, f32[768]{0}, f32[768]{0}, f32[768]{0}, f32[768]{0}, f32[768]{0}, f32[768]{0}, f32[768]{0}, f32[768]{0}, f32[768]{0}, f32[768]{0}, f32[768]{0}, f32[768]{0}) %fusion.111), index=7
  %get-tuple-element.210 = f32[768]{0} get-tuple-element((f32[768]{0}, f32[768]{0}, f32[768]{0}, f32[768]{0}, f32[768]{0}, f32[768]{0}, f32[768]{0}, f32[768]{0}, f32[768]{0}, f32[768]{0}, f32[768]{0}, f32[768]{0}, f32[768]{0}, f32[768]{0}, f32[768]{0}, f32[768]{0}, f32[768]{0}, f32[768]{0}, f32[768]{0}, f32[768]{0}, f32[768]{0}, f32[768]{0}, f32[768]{0}, f32[768]{0}) %fusion.111), index=8
  %get-tuple-element.206 = f32[768]{0} get-tuple-element((f32[768]{0}, f32[768]{0}, f32[768]{0}, f32[768]{0}, f32[768]{0}, f32[768]{0}, f32[768]{0}, f32[768]{0}, f32[768]{0}, f32[768]{0}, f32[768]{0}, f32[768]{0}, f32[768]{0}, f32[768]{0}, f32[768]{0}, f32[768]{0}, f32[768]{0}, f32[768]{0}, f32[768]{0}, f32[768]{0}, f32[768]{0}, f32[768]{0}, f32[768]{0}, f32[768]{0}) %fusion.111), index=4
  %get-tuple-element.207 = f32[768]{0} get-tuple-element((f32[768]{0}, f32[768]{0}, f32[768]{0}, f32[768]{0}, f32[768]{0}, f32[768]{0}, f32[768]{0}, f32[768]{0}, f32[768]{0}, f32[768]{0}, f32[768]{0}, f32[768]{0}, f32[768]{0}, f32[768]{0}, f32[768]{0}, f32[768]{0}, f32[768]{0}, f32[768]{0}, f32[768]{0}, f32[768]{0}, f32[768]{0}, f32[768]{0}, f32[768]{0}, f32[768]{0}) %fusion.111), index=5
  %get-tuple-element.103 = f32[12,64,768]{2,1,0} get-tuple-element((f32[12,64,768]{2,1,0}, f32[12,64,768]{2,1,0}, f32[12,64,768]{2,1,0}, f32[12,64,768]{2,1,0}, f32[12,64,768]{2,1,0}, f32[12,64,768]{2,1,0}) %fusion.164), index=1
  %get-tuple-element.104 = f32[12,64,768]{2,1,0} get-tuple-element((f32[12,64,768]{2,1,0}, f32[12,64,768]{2,1,0}, f32[12,64,768]{2,1,0}, f32[12,64,768]{2,1,0}, f32[12,64,768]{2,1,0}, f32[12,64,768]{2,1,0}) %fusion.164), index=2
  %get-tuple-element.212 = f32[768]{0} get-tuple-element((f32[768]{0}, f32[768]{0}, f32[768]{0}, f32[768]{0}, f32[768]{0}, f32[768]{0}, f32[768]{0}, f32[768]{0}, f32[768]{0}, f32[768]{0}, f32[768]{0}, f32[768]{0}, f32[768]{0}, f32[768]{0}, f32[768]{0}, f32[768]{0}, f32[768]{0}, f32[768]{0}, f32[768]{0}, f32[768]{0}, f32[768]{0}, f32[768]{0}, f32[768]{0}, f32[768]{0}) %fusion.111), index=10
  %get-tuple-element.213 = f32[768]{0} get-tuple-element((f32[768]{0}, f32[768]{0}, f32[768]{0}, f32[768]{0}, f32[768]{0}, f32[768]{0}, f32[768]{0}, f32[768]{0}, f32[768]{0}, f32[768]{0}, f32[768]{0}, f32[768]{0}, f32[768]{0}, f32[768]{0}, f32[768]{0}, f32[768]{0}, f32[768]{0}, f32[768]{0}, f32[768]{0}, f32[768]{0}, f32[768]{0}, f32[768]{0}, f32[768]{0}, f32[768]{0}) %fusion.111), index=11
  %get-tuple-element.163 = f32[12,64]{1,0} get-tuple-element((f32[12,64]{1,0}, f32[12,64]{1,0}, f32[12,64]{1,0}, f32[12,64]{1,0}, f32[12,64]{1,0}, f32[12,64]{1,0}, f32[12,64]{1,0}, f32[12,64]{1,0}, f32[12,64]{1,0}, f32[12,64]{1,0}, f32[12,64]{1,0}, f32[12,64]{1,0}, f32[12,64]{1,0}, f32[12,64]{1,0}, f32[12,64]{1,0}, f32[12,64]{1,0}, f32[12,64]{1,0}, f32[12,64]{1,0}) %fusion.159), index=13
  %get-tuple-element.164 = f32[12,64]{1,0} get-tuple-element((f32[12,64]{1,0}, f32[12,64]{1,0}, f32[12,64]{1,0}, f32[12,64]{1,0}, f32[12,64]{1,0}, f32[12,64]{1,0}, f32[12,64]{1,0}, f32[12,64]{1,0}, f32[12,64]{1,0}, f32[12,64]{1,0}, f32[12,64]{1,0}, f32[12,64]{1,0}, f32[12,64]{1,0}, f32[12,64]{1,0}, f32[12,64]{1,0}, f32[12,64]{1,0}, f32[12,64]{1,0}, f32[12,64]{1,0}) %fusion.159), index=14
  %get-tuple-element.178 = f32[768,12,64]{2,1,0} get-tuple-element((f32[768,12,64]{2,1,0}, f32[768,12,64]{2,1,0}, f32[768,12,64]{2,1,0}, f32[768,12,64]{2,1,0}, f32[768,12,64]{2,1,0}, f32[768,12,64]{2,1,0}, f32[768,12,64]{2,1,0}, f32[768,12,64]{2,1,0}, f32[768,12,64]{2,1,0}, f32[768,12,64]{2,1,0}, f32[768,12,64]{2,1,0}, f32[768,12,64]{2,1,0}, f32[768,12,64]{2,1,0}, f32[768,12,64]{2,1,0}, f32[768,12,64]{2,1,0}, f32[768,12,64]{2,1,0}, f32[768,12,64]{2,1,0}, f32[768,12,64]{2,1,0}) %fusion.154), index=13
  %get-tuple-element.179 = f32[768,12,64]{2,1,0} get-tuple-element((f32[768,12,64]{2,1,0}, f32[768,12,64]{2,1,0}, f32[768,12,64]{2,1,0}, f32[768,12,64]{2,1,0}, f32[768,12,64]{2,1,0}, f32[768,12,64]{2,1,0}, f32[768,12,64]{2,1,0}, f32[768,12,64]{2,1,0}, f32[768,12,64]{2,1,0}, f32[768,12,64]{2,1,0}, f32[768,12,64]{2,1,0}, f32[768,12,64]{2,1,0}, f32[768,12,64]{2,1,0}, f32[768,12,64]{2,1,0}, f32[768,12,64]{2,1,0}, f32[768,12,64]{2,1,0}, f32[768,12,64]{2,1,0}, f32[768,12,64]{2,1,0}) %fusion.154), index=14
  %get-tuple-element.97 = f32[768,12,64]{2,1,0} get-tuple-element((f32[768,12,64]{2,1,0}, f32[768,12,64]{2,1,0}, f32[768,12,64]{2,1,0}, f32[768,12,64]{2,1,0}, f32[768,12,64]{2,1,0}, f32[768,12,64]{2,1,0}, f32[768,12,64]{2,1,0}, f32[768,12,64]{2,1,0}, f32[768,12,64]{2,1,0}, f32[768,12,64]{2,1,0}, f32[768,12,64]{2,1,0}, f32[768,12,64]{2,1,0}, f32[768,12,64]{2,1,0}, f32[768,12,64]{2,1,0}, f32[768,12,64]{2,1,0}, f32[768,12,64]{2,1,0}, f32[768,12,64]{2,1,0}, f32[768,12,64]{2,1,0}) %fusion.154), index=1
  %get-tuple-element.98 = f32[768,12,64]{2,1,0} get-tuple-element((f32[768,12,64]{2,1,0}, f32[768,12,64]{2,1,0}, f32[768,12,64]{2,1,0}, f32[768,12,64]{2,1,0}, f32[768,12,64]{2,1,0}, f32[768,12,64]{2,1,0}, f32[768,12,64]{2,1,0}, f32[768,12,64]{2,1,0}, f32[768,12,64]{2,1,0}, f32[768,12,64]{2,1,0}, f32[768,12,64]{2,1,0}, f32[768,12,64]{2,1,0}, f32[768,12,64]{2,1,0}, f32[768,12,64]{2,1,0}, f32[768,12,64]{2,1,0}, f32[768,12,64]{2,1,0}, f32[768,12,64]{2,1,0}, f32[768,12,64]{2,1,0}) %fusion.154), index=2
  %get-tuple-element.100 = f32[12,64]{1,0} get-tuple-element((f32[12,64]{1,0}, f32[12,64]{1,0}, f32[12,64]{1,0}, f32[12,64]{1,0}, f32[12,64]{1,0}, f32[12,64]{1,0}, f32[12,64]{1,0}, f32[12,64]{1,0}, f32[12,64]{1,0}, f32[12,64]{1,0}, f32[12,64]{1,0}, f32[12,64]{1,0}, f32[12,64]{1,0}, f32[12,64]{1,0}, f32[12,64]{1,0}, f32[12,64]{1,0}, f32[12,64]{1,0}, f32[12,64]{1,0}) %fusion.159), index=1
  %get-tuple-element.101 = f32[12,64]{1,0} get-tuple-element((f32[12,64]{1,0}, f32[12,64]{1,0}, f32[12,64]{1,0}, f32[12,64]{1,0}, f32[12,64]{1,0}, f32[12,64]{1,0}, f32[12,64]{1,0}, f32[12,64]{1,0}, f32[12,64]{1,0}, f32[12,64]{1,0}, f32[12,64]{1,0}, f32[12,64]{1,0}, f32[12,64]{1,0}, f32[12,64]{1,0}, f32[12,64]{1,0}, f32[12,64]{1,0}, f32[12,64]{1,0}, f32[12,64]{1,0}) %fusion.159), index=2
  %get-tuple-element.181 = f32[768,12,64]{2,1,0} get-tuple-element((f32[768,12,64]{2,1,0}, f32[768,12,64]{2,1,0}, f32[768,12,64]{2,1,0}, f32[768,12,64]{2,1,0}, f32[768,12,64]{2,1,0}, f32[768,12,64]{2,1,0}, f32[768,12,64]{2,1,0}, f32[768,12,64]{2,1,0}, f32[768,12,64]{2,1,0}, f32[768,12,64]{2,1,0}, f32[768,12,64]{2,1,0}, f32[768,12,64]{2,1,0}, f32[768,12,64]{2,1,0}, f32[768,12,64]{2,1,0}, f32[768,12,64]{2,1,0}, f32[768,12,64]{2,1,0}, f32[768,12,64]{2,1,0}, f32[768,12,64]{2,1,0}) %fusion.154), index=16
  %get-tuple-element.182 = f32[768,12,64]{2,1,0} get-tuple-element((f32[768,12,64]{2,1,0}, f32[768,12,64]{2,1,0}, f32[768,12,64]{2,1,0}, f32[768,12,64]{2,1,0}, f32[768,12,64]{2,1,0}, f32[768,12,64]{2,1,0}, f32[768,12,64]{2,1,0}, f32[768,12,64]{2,1,0}, f32[768,12,64]{2,1,0}, f32[768,12,64]{2,1,0}, f32[768,12,64]{2,1,0}, f32[768,12,64]{2,1,0}, f32[768,12,64]{2,1,0}, f32[768,12,64]{2,1,0}, f32[768,12,64]{2,1,0}, f32[768,12,64]{2,1,0}, f32[768,12,64]{2,1,0}, f32[768,12,64]{2,1,0}) %fusion.154), index=17
  %get-tuple-element.166 = f32[12,64]{1,0} get-tuple-element((f32[12,64]{1,0}, f32[12,64]{1,0}, f32[12,64]{1,0}, f32[12,64]{1,0}, f32[12,64]{1,0}, f32[12,64]{1,0}, f32[12,64]{1,0}, f32[12,64]{1,0}, f32[12,64]{1,0}, f32[12,64]{1,0}, f32[12,64]{1,0}, f32[12,64]{1,0}, f32[12,64]{1,0}, f32[12,64]{1,0}, f32[12,64]{1,0}, f32[12,64]{1,0}, f32[12,64]{1,0}, f32[12,64]{1,0}) %fusion.159), index=16
  %get-tuple-element.167 = f32[12,64]{1,0} get-tuple-element((f32[12,64]{1,0}, f32[12,64]{1,0}, f32[12,64]{1,0}, f32[12,64]{1,0}, f32[12,64]{1,0}, f32[12,64]{1,0}, f32[12,64]{1,0}, f32[12,64]{1,0}, f32[12,64]{1,0}, f32[12,64]{1,0}, f32[12,64]{1,0}, f32[12,64]{1,0}, f32[12,64]{1,0}, f32[12,64]{1,0}, f32[12,64]{1,0}, f32[12,64]{1,0}, f32[12,64]{1,0}, f32[12,64]{1,0}) %fusion.159), index=17
  %get-tuple-element.136 = f32[768]{0} get-tuple-element((f32[768]{0}, f32[768]{0}, f32[768]{0}, f32[768]{0}, f32[768]{0}) %fusion.217), index=1
  %get-tuple-element.137 = f32[768]{0} get-tuple-element((f32[768]{0}, f32[768]{0}, f32[768]{0}, f32[768]{0}, f32[768]{0}) %fusion.217), index=2
  %get-tuple-element.28 = f32[2,768]{1,0} get-tuple-element((f32[2,768]{1,0}, f32[2,768]{1,0}, f32[2,768]{1,0}) %fusion.46), index=1
  %get-tuple-element.29 = f32[2,768]{1,0} get-tuple-element((f32[2,768]{1,0}, f32[2,768]{1,0}, f32[2,768]{1,0}) %fusion.46), index=2
  %get-tuple-element.127 = f32[512,768]{1,0} get-tuple-element((f32[512,768]{1,0}, f32[512,768]{1,0}, f32[512,768]{1,0}) %fusion.202), index=1
  %get-tuple-element.128 = f32[512,768]{1,0} get-tuple-element((f32[512,768]{1,0}, f32[512,768]{1,0}, f32[512,768]{1,0}) %fusion.202), index=2
  %get-tuple-element.16 = f32[30522,768]{1,0} get-tuple-element((f32[30522,768]{1,0}, f32[30522,768]{1,0}, f32[30522,768]{1,0}) %fusion.28), index=1
  %get-tuple-element.17 = f32[30522,768]{1,0} get-tuple-element((f32[30522,768]{1,0}, f32[30522,768]{1,0}, f32[30522,768]{1,0}) %fusion.28), index=2
  ROOT %tuple.3711 = (f32[768]{0}, f32[768]{0}, f32[768]{0}, f32[768,768]{1,0}, f32[512,768]{1,0}, f32[3072]{0}, f32[768,3072]{1,0}, f32[768]{0}, f32[3072,768]{1,0}, f32[768]{0}, f32[768]{0}, f32[768]{0}, f32[12,64,768]{2,1,0}, f32[12,64]{1,0}, f32[768,12,64]{2,1,0}, f32[12,64]{1,0}, f32[768,12,64]{2,1,0}, f32[12,64]{1,0}, f32[768,12,64]{2,1,0}, f32[768]{0}, f32[768]{0}, f32[3072]{0}, f32[768,3072]{1,0}, f32[768]{0}, f32[3072,768]{1,0}, f32[768]{0}, f32[768]{0}, f32[768]{0}, f32[12,64,768]{2,1,0}, f32[12,64]{1,0}, f32[768,12,64]{2,1,0}, f32[12,64]{1,0}, f32[768,12,64]{2,1,0}, f32[12,64]{1,0}, f32[768,12,64]{2,1,0}, f32[768]{0}, f32[768]{0}, f32[2,768]{1,0}, f32[2]{0}, f32[768,2]{1,0}, f32[30522]{0}, f32[30522,768]{1,0}, f32[768]{0}, f32[768]{0}, f32[768]{0}, f32[768,768]{1,0}, f32[], f32[], f32[2]{0}, f32[2]{0}, f32[768,2]{1,0}, f32[768,2]{1,0}, f32[768]{0}, f32[768]{0}, f32[768,768]{1,0}, f32[768,768]{1,0}, f32[], f32[], f32[30522]{0}, f32[30522]{0}, f32[], f32[768]{0}, f32[768]{0}, f32[768]{0}, f32[768]{0}, f32[768,768]{1,0}, f32[768,768]{1,0}, f32[768]{0}, f32[768]{0}, f32[768]{0}, f32[768]{0}, f32[768]{0}, f32[768]{0}, f32[3072,768]{1,0}, f32[3072,768]{1,0}, f32[768]{0}, f32[768]{0}, f32[768,3072]{1,0}, f32[768,3072]{1,0}, f32[3072]{0}, f32[3072]{0}, f32[768]{0}, f32[768]{0}, f32[768]{0}, f32[768]{0}, f32[12,64,768]{2,1,0}, f32[12,64,768]{2,1,0}, f32[768]{0}, f32[768]{0}, f32[768,12,64]{2,1,0}, f32[768,12,64]{2,1,0}, f32[12,64]{1,0}, f32[12,64]{1,0}, f32[768,12,64]{2,1,0}, f32[768,12,64]{2,1,0}, f32[12,64]{1,0}, f32[12,64]{1,0}, f32[768,12,64]{2,1,0}, f32[768,12,64]{2,1,0}, f32[12,64]{1,0}, f32[12,64]{1,0}, f32[768]{0}, f32[768]{0}, f32[768]{0}, f32[768]{0}, f32[3072,768]{1,0}, f32[3072,768]{1,0}, f32[768]{0}, f32[768]{0}, f32[768,3072]{1,0}, f32[768,3072]{1,0}, f32[3072]{0}, f32[3072]{0}, f32[768]{0}, f32[768]{0}, f32[768]{0}, f32[768]{0}, f32[12,64,768]{2,1,0}, f32[12,64,768]{2,1,0}, f32[768]{0}, f32[768]{0}, f32[12,64]{1,0}, f32[12,64]{1,0}, f32[768,12,64]{2,1,0}, f32[768,12,64]{2,1,0}, f32[768,12,64]{2,1,0}, f32[768,12,64]{2,1,0}, f32[12,64]{1,0}, f32[12,64]{1,0}, f32[768,12,64]{2,1,0}, f32[768,12,64]{2,1,0}, f32[12,64]{1,0}, f32[12,64]{1,0}, f32[768]{0}, f32[768]{0}, f32[768]{0}, f32[768]{0}, f32[2,768]{1,0}, f32[2,768]{1,0}, f32[512,768]{1,0}, f32[512,768]{1,0}, f32[30522,768]{1,0}, f32[30522,768]{1,0}) tuple(f32[768]{0} %get-tuple-element.204, f32[768]{0} %get-tuple-element.135, f32[768]{0} %get-tuple-element.223, f32[768,768]{1,0} %get-tuple-element.129, f32[512,768]{1,0} %get-tuple-element.126, f32[3072]{0} %get-tuple-element.123, f32[768,3072]{1,0} %get-tuple-element.120, f32[768]{0} %get-tuple-element.220, f32[3072,768]{1,0} %get-tuple-element.114, f32[768]{0} %get-tuple-element.217, f32[768]{0} %get-tuple-element.214, f32[768]{0} %get-tuple-element.211, f32[12,64,768]{2,1,0} %get-tuple-element.102, f32[12,64]{1,0} %get-tuple-element.99, f32[768,12,64]{2,1,0} %get-tuple-element.96, f32[12,64]{1,0} %get-tuple-element.165, f32[768,12,64]{2,1,0} %get-tuple-element.180, f32[12,64]{1,0} %get-tuple-element.162, f32[768,12,64]{2,1,0} %get-tuple-element.177, f32[768]{0} %get-tuple-element.208, f32[768]{0} %get-tuple-element.205, f32[3072]{0} %get-tuple-element.141, f32[768,3072]{1,0} %get-tuple-element.144, f32[768]{0} %get-tuple-element.69, f32[3072,768]{1,0} %get-tuple-element.147, f32[768]{0} %get-tuple-element.201, f32[768]{0} %get-tuple-element.198, f32[768]{0} %get-tuple-element.195, f32[12,64,768]{2,1,0} %get-tuple-element.150, f32[12,64]{1,0} %get-tuple-element.159, f32[768,12,64]{2,1,0} %get-tuple-element.174, f32[12,64]{1,0} %get-tuple-element.156, f32[768,12,64]{2,1,0} %get-tuple-element.171, f32[12,64]{1,0} %get-tuple-element.153, f32[768,12,64]{2,1,0} %get-tuple-element.168, f32[768]{0} %get-tuple-element.192, f32[768]{0} %get-tuple-element.189, f32[2,768]{1,0} %get-tuple-element.27, f32[2]{0} %get-tuple-element.24, f32[768,2]{1,0} %get-tuple-element.21, f32[30522]{0} %get-tuple-element.18, f32[30522,768]{1,0} %get-tuple-element.15, f32[768]{0} %get-tuple-element.186, f32[768]{0} %get-tuple-element.183, f32[768]{0} %get-tuple-element.6, f32[768,768]{1,0} %get-tuple-element.138, f32[] %get-tuple-element.2, f32[] %fusion.8, f32[2]{0} %get-tuple-element.25, f32[2]{0} %get-tuple-element.26, f32[768,2]{1,0} %get-tuple-element.22, f32[768,2]{1,0} %get-tuple-element.23, f32[768]{0} %get-tuple-element.224, f32[768]{0} %get-tuple-element.225, f32[768,768]{1,0} %get-tuple-element.130, f32[768,768]{1,0} %get-tuple-element.131, f32[] %get-tuple-element.1, f32[] %get-tuple-element.258, f32[30522]{0} %get-tuple-element.19, f32[30522]{0} %get-tuple-element.20, f32[] %get-tuple-element, f32[768]{0} %get-tuple-element.187, f32[768]{0} %get-tuple-element.188, f32[768]{0} %get-tuple-element.184, f32[768]{0} %get-tuple-element.185, f32[768,768]{1,0} %get-tuple-element.139, f32[768,768]{1,0} %get-tuple-element.140, f32[768]{0} %get-tuple-element.7, f32[768]{0} %get-tuple-element.8, f32[768]{0} %get-tuple-element.202, f32[768]{0} %get-tuple-element.203, f32[768]{0} %get-tuple-element.199, f32[768]{0} %get-tuple-element.200, f32[3072,768]{1,0} %get-tuple-element.148, f32[3072,768]{1,0} %get-tuple-element.149, f32[768]{0} %get-tuple-element.70, f32[768]{0} %get-tuple-element.71, f32[768,3072]{1,0} %get-tuple-element.145, f32[768,3072]{1,0} %get-tuple-element.146, f32[3072]{0} %get-tuple-element.142, f32[3072]{0} %get-tuple-element.143, f32[768]{0} %get-tuple-element.193, f32[768]{0} %get-tuple-element.194, f32[768]{0} %get-tuple-element.190, f32[768]{0} %get-tuple-element.191, f32[12,64,768]{2,1,0} %get-tuple-element.151, f32[12,64,768]{2,1,0} %get-tuple-element.152, f32[768]{0} %get-tuple-element.196, f32[768]{0} %get-tuple-element.197, f32[768,12,64]{2,1,0} %get-tuple-element.169, f32[768,12,64]{2,1,0} %get-tuple-element.170, f32[12,64]{1,0} %get-tuple-element.154, f32[12,64]{1,0} %get-tuple-element.155, f32[768,12,64]{2,1,0} %get-tuple-element.175, f32[768,12,64]{2,1,0} %get-tuple-element.176, f32[12,64]{1,0} %get-tuple-element.160, f32[12,64]{1,0} %get-tuple-element.161, f32[768,12,64]{2,1,0} %get-tuple-element.172, f32[768,12,64]{2,1,0} %get-tuple-element.173, f32[12,64]{1,0} %get-tuple-element.157, f32[12,64]{1,0} %get-tuple-element.158, f32[768]{0} %get-tuple-element.218, f32[768]{0} %get-tuple-element.219, f32[768]{0} %get-tuple-element.215, f32[768]{0} %get-tuple-element.216, f32[3072,768]{1,0} %get-tuple-element.115, f32[3072,768]{1,0} %get-tuple-element.116, f32[768]{0} %get-tuple-element.221, f32[768]{0} %get-tuple-element.222, f32[768,3072]{1,0} %get-tuple-element.121, f32[768,3072]{1,0} %get-tuple-element.122, f32[3072]{0} %get-tuple-element.124, f32[3072]{0} %get-tuple-element.125, f32[768]{0} %get-tuple-element.209, f32[768]{0} %get-tuple-element.210, f32[768]{0} %get-tuple-element.206, f32[768]{0} %get-tuple-element.207, f32[12,64,768]{2,1,0} %get-tuple-element.103, f32[12,64,768]{2,1,0} %get-tuple-element.104, f32[768]{0} %get-tuple-element.212, f32[768]{0} %get-tuple-element.213, f32[12,64]{1,0} %get-tuple-element.163, f32[12,64]{1,0} %get-tuple-element.164, f32[768,12,64]{2,1,0} %get-tuple-element.178, f32[768,12,64]{2,1,0} %get-tuple-element.179, f32[768,12,64]{2,1,0} %get-tuple-element.97, f32[768,12,64]{2,1,0} %get-tuple-element.98, f32[12,64]{1,0} %get-tuple-element.100, f32[12,64]{1,0} %get-tuple-element.101, f32[768,12,64]{2,1,0} %get-tuple-element.181, f32[768,12,64]{2,1,0} %get-tuple-element.182, f32[12,64]{1,0} %get-tuple-element.166, f32[12,64]{1,0} %get-tuple-element.167, f32[768]{0} %get-tuple-element.226, f32[768]{0} %get-tuple-element.227, f32[768]{0} %get-tuple-element.136, f32[768]{0} %get-tuple-element.137, f32[2,768]{1,0} %get-tuple-element.28, f32[2,768]{1,0} %get-tuple-element.29, f32[512,768]{1,0} %get-tuple-element.127, f32[512,768]{1,0} %get-tuple-element.128, f32[30522,768]{1,0} %get-tuple-element.16, f32[30522,768]{1,0} %get-tuple-element.17), metadata={op_name="XLA_Retvals"}
}

