HloModule cluster_0__XlaCompiledKernel_true__XlaHasReferenceVars_false__XlaNumConstantArgs_44__XlaNumResourceArgs_584_.10505

%max_half_.3528 (x.3529: f16[], y.3530: f16[]) -> f16[] {
  %x.3529 = f16[] parameter(0)
  %y.3530 = f16[] parameter(1)
  ROOT %maximum.3531 = f16[] maximum(f16[] %x.3529, f16[] %y.3530)
}

%sparse_categorical_crossentropy_weighted_loss_Sum-reduction.3649 (x.3650: f32[], y.3651: f32[]) -> f32[] {
  %x.3650 = f32[] parameter(0)
  %y.3651 = f32[] parameter(1)
  ROOT %add.3652 = f32[] add(f32[] %x.3650, f32[] %y.3651)
}

%fused_computation (param_0: f32[], param_1.3568: f32[16]) -> f32[] {
  %param_0 = f32[] parameter(0)
  %param_1.3568 = f32[16]{0} parameter(1)
  %convert.128 = f16[16]{0} convert(f32[16]{0} %param_1.3568), metadata={op_type="Cast" op_name="sparse_categorical_crossentropy/SparseSoftmaxCrossEntropyWithLogits/Cast_1"}
  %convert.127 = f32[16]{0} convert(f16[16]{0} %convert.128), metadata={op_type="Cast" op_name="sparse_categorical_crossentropy/weighted_loss/ArithmeticOptimizer/ReorderCastLikeAndValuePreserving_float_Cast"}
  %constant_1929 = f32[] constant(0), metadata={op_type="Mean" op_name="mobilenetv2_1.00_224/global_average_pooling2d/Mean"}
  %reduce.417 = f32[] reduce(f32[16]{0} %convert.127, f32[] %constant_1929), dimensions={0}, to_apply=%sparse_categorical_crossentropy_weighted_loss_Sum-reduction.3649, metadata={op_type="Sum" op_name="sparse_categorical_crossentropy/weighted_loss/Sum"}
  %constant_1927 = f32[] constant(0.0625)
  %multiply.1370 = f32[] multiply(f32[] %reduce.417, f32[] %constant_1927), metadata={op_type="DivNoNan" op_name="sparse_categorical_crossentropy/weighted_loss/value"}
  %convert.126 = f16[] convert(f32[] %multiply.1370), metadata={op_type="Cast" op_name="sparse_categorical_crossentropy/weighted_loss/Cast_1"}
  %convert.125 = f32[] convert(f16[] %convert.126), metadata={op_type="Cast" op_name="Cast"}
  %constant_1928 = f32[] constant(16), metadata={op_type="Cast" op_name="Cast_1"}
  %multiply.1369 = f32[] multiply(f32[] %convert.125, f32[] %constant_1928), metadata={op_type="Mul" op_name="Mul"}
  ROOT %add.899 = f32[] add(f32[] %param_0, f32[] %multiply.1369), metadata={op_type="AssignAddVariableOp" op_name="AssignAddVariableOp"}
}

%add_float_.3631 (x.3632: f32[], y.3633: f32[]) -> f32[] {
  %x.3632 = f32[] parameter(0)
  %y.3633 = f32[] parameter(1)
  ROOT %add.3634 = f32[] add(f32[] %x.3632, f32[] %y.3633)
}

%fused_computation.1 (param_0.3605: f32[16], param_1.5920: s32[16], param_2.5329: f32[16], param_3.3030: f16[16,1000]) -> f32[16] {
  %param_1.5920 = s32[16]{0} parameter(1)
  %convert.1242 = f16[16]{0} convert(s32[16]{0} %param_1.5920), metadata={op_type="Cast" op_name="sparse_categorical_crossentropy/ArithmeticOptimizer/ReorderCastLikeAndValuePreserving_int32_Cast"}
  %convert.1241 = s64[16]{0} convert(f16[16]{0} %convert.1242), metadata={op_type="Cast" op_name="sparse_categorical_crossentropy/ArithmeticOptimizer/ReorderCastLikeAndValuePreserving_int64_Cast_1"}
  %broadcast.6192 = s64[16,1000]{1,0} broadcast(s64[16]{0} %convert.1241), dimensions={0}, metadata={op_type="SparseSoftmaxCrossEntropyWithLogits" op_name="sparse_categorical_crossentropy/SparseSoftmaxCrossEntropyWithLogits/SparseSoftmaxCrossEntropyWithLogits"}
  %iota.3 = s64[16,1000]{1,0} iota(), iota_dimension=1, metadata={op_type="SparseSoftmaxCrossEntropyWithLogits" op_name="sparse_categorical_crossentropy/SparseSoftmaxCrossEntropyWithLogits/SparseSoftmaxCrossEntropyWithLogits"}
  %compare.80 = pred[16,1000]{1,0} compare(s64[16,1000]{1,0} %broadcast.6192, s64[16,1000]{1,0} %iota.3), direction=EQ, metadata={op_type="SparseSoftmaxCrossEntropyWithLogits" op_name="sparse_categorical_crossentropy/SparseSoftmaxCrossEntropyWithLogits/SparseSoftmaxCrossEntropyWithLogits"}
  %constant_5240 = f32[] constant(1), metadata={op_type="SparseSoftmaxCrossEntropyWithLogits" op_name="sparse_categorical_crossentropy/SparseSoftmaxCrossEntropyWithLogits/SparseSoftmaxCrossEntropyWithLogits"}
  %broadcast.6191 = f32[16,1000]{1,0} broadcast(f32[] %constant_5240), dimensions={}, metadata={op_type="SparseSoftmaxCrossEntropyWithLogits" op_name="sparse_categorical_crossentropy/SparseSoftmaxCrossEntropyWithLogits/SparseSoftmaxCrossEntropyWithLogits"}
  %constant_1930 = f32[] constant(0), metadata={op_type="Mean" op_name="mobilenetv2_1.00_224/global_average_pooling2d/Mean"}
  %broadcast.6190 = f32[16,1000]{1,0} broadcast(f32[] %constant_1930), dimensions={}, metadata={op_type="SparseSoftmaxCrossEntropyWithLogits" op_name="sparse_categorical_crossentropy/SparseSoftmaxCrossEntropyWithLogits/SparseSoftmaxCrossEntropyWithLogits"}
  %select.41 = f32[16,1000]{1,0} select(pred[16,1000]{1,0} %compare.80, f32[16,1000]{1,0} %broadcast.6191, f32[16,1000]{1,0} %broadcast.6190), metadata={op_type="SparseSoftmaxCrossEntropyWithLogits" op_name="sparse_categorical_crossentropy/SparseSoftmaxCrossEntropyWithLogits/SparseSoftmaxCrossEntropyWithLogits"}
  %constant_5236 = s64[] constant(0), metadata={op_type="SparseSoftmaxCrossEntropyWithLogits" op_name="sparse_categorical_crossentropy/SparseSoftmaxCrossEntropyWithLogits/SparseSoftmaxCrossEntropyWithLogits"}
  %broadcast.6188 = s64[16]{0} broadcast(s64[] %constant_5236), dimensions={}, metadata={op_type="SparseSoftmaxCrossEntropyWithLogits" op_name="sparse_categorical_crossentropy/SparseSoftmaxCrossEntropyWithLogits/SparseSoftmaxCrossEntropyWithLogits"}
  %compare.79 = pred[16]{0} compare(s64[16]{0} %broadcast.6188, s64[16]{0} %convert.1241), direction=LE, metadata={op_type="SparseSoftmaxCrossEntropyWithLogits" op_name="sparse_categorical_crossentropy/SparseSoftmaxCrossEntropyWithLogits/SparseSoftmaxCrossEntropyWithLogits"}
  %constant_5235 = s64[] constant(1000), metadata={op_type="SparseSoftmaxCrossEntropyWithLogits" op_name="sparse_categorical_crossentropy/SparseSoftmaxCrossEntropyWithLogits/SparseSoftmaxCrossEntropyWithLogits"}
  %broadcast.6187 = s64[16]{0} broadcast(s64[] %constant_5235), dimensions={}, metadata={op_type="SparseSoftmaxCrossEntropyWithLogits" op_name="sparse_categorical_crossentropy/SparseSoftmaxCrossEntropyWithLogits/SparseSoftmaxCrossEntropyWithLogits"}
  %compare.78 = pred[16]{0} compare(s64[16]{0} %convert.1241, s64[16]{0} %broadcast.6187), direction=LT, metadata={op_type="SparseSoftmaxCrossEntropyWithLogits" op_name="sparse_categorical_crossentropy/SparseSoftmaxCrossEntropyWithLogits/SparseSoftmaxCrossEntropyWithLogits"}
  %and.37 = pred[16]{0} and(pred[16]{0} %compare.79, pred[16]{0} %compare.78), metadata={op_type="SparseSoftmaxCrossEntropyWithLogits" op_name="sparse_categorical_crossentropy/SparseSoftmaxCrossEntropyWithLogits/SparseSoftmaxCrossEntropyWithLogits"}
  %broadcast.6186 = f32[16]{0} broadcast(f32[] %constant_1930), dimensions={}, metadata={op_type="SparseSoftmaxCrossEntropyWithLogits" op_name="sparse_categorical_crossentropy/SparseSoftmaxCrossEntropyWithLogits/SparseSoftmaxCrossEntropyWithLogits"}
  %constant_5234 = f32[] constant(nan), metadata={op_type="SparseSoftmaxCrossEntropyWithLogits" op_name="sparse_categorical_crossentropy/SparseSoftmaxCrossEntropyWithLogits/SparseSoftmaxCrossEntropyWithLogits"}
  %broadcast.6185 = f32[16]{0} broadcast(f32[] %constant_5234), dimensions={}, metadata={op_type="SparseSoftmaxCrossEntropyWithLogits" op_name="sparse_categorical_crossentropy/SparseSoftmaxCrossEntropyWithLogits/SparseSoftmaxCrossEntropyWithLogits"}
  %select.40 = f32[16]{0} select(pred[16]{0} %and.37, f32[16]{0} %broadcast.6186, f32[16]{0} %broadcast.6185), metadata={op_type="SparseSoftmaxCrossEntropyWithLogits" op_name="sparse_categorical_crossentropy/SparseSoftmaxCrossEntropyWithLogits/SparseSoftmaxCrossEntropyWithLogits"}
  %broadcast.6184 = f32[16,1000]{1,0} broadcast(f32[16]{0} %select.40), dimensions={0}, metadata={op_type="SparseSoftmaxCrossEntropyWithLogits" op_name="sparse_categorical_crossentropy/SparseSoftmaxCrossEntropyWithLogits/SparseSoftmaxCrossEntropyWithLogits"}
  %add.1901 = f32[16,1000]{1,0} add(f32[16,1000]{1,0} %select.41, f32[16,1000]{1,0} %broadcast.6184), metadata={op_type="SparseSoftmaxCrossEntropyWithLogits" op_name="sparse_categorical_crossentropy/SparseSoftmaxCrossEntropyWithLogits/SparseSoftmaxCrossEntropyWithLogits"}
  %negate.53 = f32[16,1000]{1,0} negate(f32[16,1000]{1,0} %add.1901), metadata={op_type="SparseSoftmaxCrossEntropyWithLogits" op_name="sparse_categorical_crossentropy/SparseSoftmaxCrossEntropyWithLogits/SparseSoftmaxCrossEntropyWithLogits"}
  %param_3.3030 = f16[16,1000]{1,0} parameter(3)
  %convert.1265 = f32[16,1000]{1,0} convert(f16[16,1000]{1,0} %param_3.3030), metadata={op_type="Cast" op_name="sparse_categorical_crossentropy/SparseSoftmaxCrossEntropyWithLogits/Cast"}
  %param_2.5329 = f32[16]{0} parameter(2)
  %broadcast.6257 = f32[16,1000]{1,0} broadcast(f32[16]{0} %param_2.5329), dimensions={0}, metadata={op_type="SparseSoftmaxCrossEntropyWithLogits" op_name="sparse_categorical_crossentropy/SparseSoftmaxCrossEntropyWithLogits/SparseSoftmaxCrossEntropyWithLogits"}
  %subtract.2041 = f32[16,1000]{1,0} subtract(f32[16,1000]{1,0} %convert.1265, f32[16,1000]{1,0} %broadcast.6257), metadata={op_type="SparseSoftmaxCrossEntropyWithLogits" op_name="sparse_categorical_crossentropy/SparseSoftmaxCrossEntropyWithLogits/SparseSoftmaxCrossEntropyWithLogits"}
  %param_0.3605 = f32[16]{0} parameter(0)
  %broadcast.2332 = f32[16,1000]{1,0} broadcast(f32[16]{0} %param_0.3605), dimensions={0}, metadata={op_type="SparseSoftmaxCrossEntropyWithLogits" op_name="sparse_categorical_crossentropy/SparseSoftmaxCrossEntropyWithLogits/SparseSoftmaxCrossEntropyWithLogits"}
  %subtract.260 = f32[16,1000]{1,0} subtract(f32[16,1000]{1,0} %subtract.2041, f32[16,1000]{1,0} %broadcast.2332), metadata={op_type="SparseSoftmaxCrossEntropyWithLogits" op_name="sparse_categorical_crossentropy/SparseSoftmaxCrossEntropyWithLogits/SparseSoftmaxCrossEntropyWithLogits"}
  %multiply.1371 = f32[16,1000]{1,0} multiply(f32[16,1000]{1,0} %negate.53, f32[16,1000]{1,0} %subtract.260), metadata={op_type="SparseSoftmaxCrossEntropyWithLogits" op_name="sparse_categorical_crossentropy/SparseSoftmaxCrossEntropyWithLogits/SparseSoftmaxCrossEntropyWithLogits"}
  ROOT %reduce.418 = f32[16]{0} reduce(f32[16,1000]{1,0} %multiply.1371, f32[] %constant_1930), dimensions={1}, to_apply=%add_float_.3631, metadata={op_type="SparseSoftmaxCrossEntropyWithLogits" op_name="sparse_categorical_crossentropy/SparseSoftmaxCrossEntropyWithLogits/SparseSoftmaxCrossEntropyWithLogits"}
}

%Sum_2-reduction.3575 (x.3576: f32[], y.3577: f32[]) -> f32[] {
  %x.3576 = f32[] parameter(0)
  %y.3577 = f32[] parameter(1)
  ROOT %add.3578 = f32[] add(f32[] %x.3576, f32[] %y.3577)
}

%fused_computation.2 (param_0.3: f32[], param_1.3570: s32[16], param_2.2629: s64[16]) -> f32[] {
  %param_0.3 = f32[] parameter(0)
  %param_2.2629 = s64[16]{0} parameter(2)
  %convert.131 = f32[16]{0} convert(s64[16]{0} %param_2.2629), metadata={op_type="Cast" op_name="Cast_5"}
  %param_1.3570 = s32[16]{0} parameter(1)
  %convert.130 = f32[16]{0} convert(s32[16]{0} %param_1.3570), metadata={op_type="Cast" op_name="Cast_3"}
  %compare.0 = pred[16]{0} compare(f32[16]{0} %convert.131, f32[16]{0} %convert.130), direction=EQ, metadata={op_type="Equal" op_name="Equal"}
  %convert.129 = f32[16]{0} convert(pred[16]{0} %compare.0), metadata={op_type="Cast" op_name="Cast_6"}
  %constant_1931 = f32[] constant(0), metadata={op_type="Mean" op_name="mobilenetv2_1.00_224/global_average_pooling2d/Mean"}
  %reduce.419 = f32[] reduce(f32[16]{0} %convert.129, f32[] %constant_1931), dimensions={0}, to_apply=%Sum_2-reduction.3575, metadata={op_type="Sum" op_name="Sum_2"}
  ROOT %add.900 = f32[] add(f32[] %param_0.3, f32[] %reduce.419), metadata={op_type="AssignAddVariableOp" op_name="AssignAddVariableOp_2"}
}

%min_S64.3559 (lhs.3560: s64[], rhs.3561: s64[]) -> s64[] {
  %lhs.3560 = s64[] parameter(0)
  %rhs.3561 = s64[] parameter(1)
  ROOT %minimum.3562 = s64[] minimum(s64[] %lhs.3560, s64[] %rhs.3561)
}

%fused_computation.3 (param_0.8: f32[16], param_1.7187: f16[16,1000], param_2.7011: f32[16]) -> s64[16] {
  %param_1.7187 = f16[16,1000]{1,0} parameter(1)
  %param_2.7011 = f32[16]{0} parameter(2)
  %convert.1924 = f16[16]{0} convert(f32[16]{0} %param_2.7011), metadata={op_type="Softmax" op_name="mobilenetv2_1.00_224/predictions/Softmax"}
  %broadcast.8658 = f16[16,1000]{1,0} broadcast(f16[16]{0} %convert.1924), dimensions={0}, metadata={op_type="Softmax" op_name="mobilenetv2_1.00_224/predictions/Softmax"}
  %divide.790 = f16[16,1000]{1,0} divide(f16[16,1000]{1,0} %param_1.7187, f16[16,1000]{1,0} %broadcast.8658), metadata={op_type="Softmax" op_name="mobilenetv2_1.00_224/predictions/Softmax"}
  %convert.132 = f32[16,1000]{1,0} convert(f16[16,1000]{1,0} %divide.790), metadata={op_type="Cast" op_name="Cast_4"}
  %param_0.8 = f32[16]{0} parameter(0)
  %broadcast.2334 = f32[16,1000]{1,0} broadcast(f32[16]{0} %param_0.8), dimensions={0}, metadata={op_type="ArgMax" op_name="ArgMax"}
  %compare.1 = pred[16,1000]{1,0} compare(f32[16,1000]{1,0} %convert.132, f32[16,1000]{1,0} %broadcast.2334), direction=EQ, metadata={op_type="ArgMax" op_name="ArgMax"}
  %iota.0 = s64[16,1000]{1,0} iota(), iota_dimension=1, metadata={op_type="ArgMax" op_name="ArgMax"}
  %constant_1918 = s64[] constant(9223372036854775807), metadata={op_type="ArgMax" op_name="ArgMax"}
  %broadcast.2333 = s64[16,1000]{1,0} broadcast(s64[] %constant_1918), dimensions={}, metadata={op_type="ArgMax" op_name="ArgMax"}
  %select.0 = s64[16,1000]{1,0} select(pred[16,1000]{1,0} %compare.1, s64[16,1000]{1,0} %iota.0, s64[16,1000]{1,0} %broadcast.2333), metadata={op_type="ArgMax" op_name="ArgMax"}
  ROOT %reduce.420 = s64[16]{0} reduce(s64[16,1000]{1,0} %select.0, s64[] %constant_1918), dimensions={1}, to_apply=%min_S64.3559, metadata={op_type="ArgMax" op_name="ArgMax"}
}

%max_F32.3549 (lhs.3550: f32[], rhs.3551: f32[]) -> f32[] {
  %lhs.3550 = f32[] parameter(0)
  %rhs.3551 = f32[] parameter(1)
  ROOT %maximum.3552 = f32[] maximum(f32[] %lhs.3550, f32[] %rhs.3551)
}

%fused_computation.4 (param_0.4718: f16[16,1000], param_1.7185: f32[16]) -> f32[16] {
  %param_0.4718 = f16[16,1000]{1,0} parameter(0)
  %param_1.7185 = f32[16]{0} parameter(1)
  %convert.1922 = f16[16]{0} convert(f32[16]{0} %param_1.7185), metadata={op_type="Softmax" op_name="mobilenetv2_1.00_224/predictions/Softmax"}
  %broadcast.8656 = f16[16,1000]{1,0} broadcast(f16[16]{0} %convert.1922), dimensions={0}, metadata={op_type="Softmax" op_name="mobilenetv2_1.00_224/predictions/Softmax"}
  %divide.788 = f16[16,1000]{1,0} divide(f16[16,1000]{1,0} %param_0.4718, f16[16,1000]{1,0} %broadcast.8656), metadata={op_type="Softmax" op_name="mobilenetv2_1.00_224/predictions/Softmax"}
  %convert.133 = f32[16,1000]{1,0} convert(f16[16,1000]{1,0} %divide.788), metadata={op_type="Cast" op_name="Cast_4"}
  %constant_1932 = f32[] constant(-inf), metadata={op_type="ArgMax" op_name="ArgMax"}
  ROOT %reduce.421 = f32[16]{0} reduce(f32[16,1000]{1,0} %convert.133, f32[] %constant_1932), dimensions={1}, to_apply=%max_F32.3549, metadata={op_type="ArgMax" op_name="ArgMax"}
}

%add_float_.3538 (x.3539: f32[], y.3540: f32[]) -> f32[] {
  %x.3539 = f32[] parameter(0)
  %y.3540 = f32[] parameter(1)
  ROOT %add.3541 = f32[] add(f32[] %x.3539, f32[] %y.3540)
}

%add_float_.3618 (x.3619: f32[], y.3620: f32[]) -> f32[] {
  %x.3619 = f32[] parameter(0)
  %y.3620 = f32[] parameter(1)
  ROOT %add.3621 = f32[] add(f32[] %x.3619, f32[] %y.3620)
}

%fused_computation.6 (param_0.4721: f16[16,1000], param_1.7189: f16[16], param_2.7419: f32[16]) -> (f32[16], f16[16,1000], f32[16], f32[16,1000]) {
  %param_0.4721 = f16[16,1000]{1,0} parameter(0)
  %param_1.7189 = f16[16]{0} parameter(1)
  %broadcast.2336.clone.1 = f16[16,1000]{1,0} broadcast(f16[16]{0} %param_1.7189), dimensions={0}, metadata={op_type="Softmax" op_name="mobilenetv2_1.00_224/predictions/Softmax"}
  %subtract.261.clone.1 = f16[16,1000]{1,0} subtract(f16[16,1000]{1,0} %param_0.4721, f16[16,1000]{1,0} %broadcast.2336.clone.1), metadata={op_type="Softmax" op_name="mobilenetv2_1.00_224/predictions/Softmax"}
  %exponential.0.clone.1 = f16[16,1000]{1,0} exponential(f16[16,1000]{1,0} %subtract.261.clone.1), metadata={op_type="Softmax" op_name="mobilenetv2_1.00_224/predictions/Softmax"}
  %convert.135 = f32[16,1000]{1,0} convert(f16[16,1000]{1,0} %exponential.0.clone.1), metadata={op_type="Softmax" op_name="mobilenetv2_1.00_224/predictions/Softmax"}
  %constant_1933 = f32[] constant(0), metadata={op_type="Mean" op_name="mobilenetv2_1.00_224/global_average_pooling2d/Mean"}
  %reduce.422 = f32[16]{0} reduce(f32[16,1000]{1,0} %convert.135, f32[] %constant_1933), dimensions={1}, to_apply=%add_float_.3538, metadata={op_type="Softmax" op_name="mobilenetv2_1.00_224/predictions/Softmax"}
  %convert.1262.clone.1.clone.1 = f32[16,1000]{1,0} convert(f16[16,1000]{1,0} %param_0.4721), metadata={op_type="Cast" op_name="sparse_categorical_crossentropy/SparseSoftmaxCrossEntropyWithLogits/Cast"}
  %param_2.7419 = f32[16]{0} parameter(2)
  %broadcast.6255.clone.1.clone.1 = f32[16,1000]{1,0} broadcast(f32[16]{0} %param_2.7419), dimensions={0}, metadata={op_type="SparseSoftmaxCrossEntropyWithLogits" op_name="sparse_categorical_crossentropy/SparseSoftmaxCrossEntropyWithLogits/SparseSoftmaxCrossEntropyWithLogits"}
  %subtract.2039.clone.1.clone.1 = f32[16,1000]{1,0} subtract(f32[16,1000]{1,0} %convert.1262.clone.1.clone.1, f32[16,1000]{1,0} %broadcast.6255.clone.1.clone.1), metadata={op_type="SparseSoftmaxCrossEntropyWithLogits" op_name="sparse_categorical_crossentropy/SparseSoftmaxCrossEntropyWithLogits/SparseSoftmaxCrossEntropyWithLogits"}
  %exponential.1.clone.1.clone.1 = f32[16,1000]{1,0} exponential(f32[16,1000]{1,0} %subtract.2039.clone.1.clone.1), metadata={op_type="SparseSoftmaxCrossEntropyWithLogits" op_name="sparse_categorical_crossentropy/SparseSoftmaxCrossEntropyWithLogits/SparseSoftmaxCrossEntropyWithLogits"}
  %reduce.634.clone.1 = f32[16]{0} reduce(f32[16,1000]{1,0} %exponential.1.clone.1.clone.1, f32[] %constant_1933), dimensions={1}, to_apply=%add_float_.3618, metadata={op_type="SparseSoftmaxCrossEntropyWithLogits" op_name="sparse_categorical_crossentropy/SparseSoftmaxCrossEntropyWithLogits/SparseSoftmaxCrossEntropyWithLogits"}
  ROOT %tuple.632 = (f32[16]{0}, f16[16,1000]{1,0}, f32[16]{0}, f32[16,1000]{1,0}) tuple(f32[16]{0} %reduce.422, f16[16,1000]{1,0} %exponential.0.clone.1, f32[16]{0} %reduce.634.clone.1, f32[16,1000]{1,0} %exponential.1.clone.1.clone.1)
}

%fused_computation.8 (param_0.16: f32[1280,1000], param_1.7190: f32[], param_2.7013: f32[1280,1000], param_3.3892: f32[], param_4.2996: f16[1280,1000], param_5.2827: f32[1280,1000], param_6.1605: f32[]) -> (f32[1280,1000], f32[1280,1000], f32[1280,1000]) {
  %param_0.16 = f32[1280,1000]{1,0} parameter(0)
  %param_2.7013 = f32[1280,1000]{1,0} parameter(2)
  %param_4.2996 = f16[1280,1000]{1,0} parameter(4)
  %convert.137.clone.1 = f32[1280,1000]{1,0} convert(f16[1280,1000]{1,0} %param_4.2996), metadata={op_type="Cast" op_name="gradient_tape/mobilenetv2_1.00_224/predictions/MatMul/Cast/ArithmeticOptimizer/ReorderCastLikeAndValuePreserving_float_Cast"}
  %subtract.264.clone.1 = f32[1280,1000]{1,0} subtract(f32[1280,1000]{1,0} %convert.137.clone.1, f32[1280,1000]{1,0} %param_2.7013), metadata={op_type="ResourceApplyAdam" op_name="Adam/Adam/update_156/ResourceApplyAdam"}
  %constant_1935_clone_1 = f32[] constant(1), metadata={op_type="SparseSoftmaxCrossEntropyWithLogits" op_name="sparse_categorical_crossentropy/SparseSoftmaxCrossEntropyWithLogits/SparseSoftmaxCrossEntropyWithLogits"}
  %param_3.3892 = f32[] parameter(3)
  %subtract.948.clone.1 = f32[] subtract(f32[] %constant_1935_clone_1, f32[] %param_3.3892), metadata={op_type="ResourceApplyAdam" op_name="Adam/Adam/update_153/ResourceApplyAdam"}
  %broadcast.2341.clone.1 = f32[1280,1000]{1,0} broadcast(f32[] %subtract.948.clone.1), dimensions={}, metadata={op_type="ResourceApplyAdam" op_name="Adam/Adam/update_156/ResourceApplyAdam"}
  %multiply.1375.clone.1 = f32[1280,1000]{1,0} multiply(f32[1280,1000]{1,0} %subtract.264.clone.1, f32[1280,1000]{1,0} %broadcast.2341.clone.1), metadata={op_type="ResourceApplyAdam" op_name="Adam/Adam/update_156/ResourceApplyAdam"}
  %add.904.clone.1 = f32[1280,1000]{1,0} add(f32[1280,1000]{1,0} %param_2.7013, f32[1280,1000]{1,0} %multiply.1375.clone.1), metadata={op_type="ResourceApplyAdam" op_name="Adam/Adam/update_156/ResourceApplyAdam"}
  %param_1.7190 = f32[] parameter(1)
  %broadcast.2339 = f32[1280,1000]{1,0} broadcast(f32[] %param_1.7190), dimensions={}, metadata={op_type="ResourceApplyAdam" op_name="Adam/Adam/update_156/ResourceApplyAdam"}
  %multiply.1372 = f32[1280,1000]{1,0} multiply(f32[1280,1000]{1,0} %add.904.clone.1, f32[1280,1000]{1,0} %broadcast.2339), metadata={op_type="ResourceApplyAdam" op_name="Adam/Adam/update_156/ResourceApplyAdam"}
  %param_5.2827 = f32[1280,1000]{1,0} parameter(5)
  %multiply.1374.clone.1 = f32[1280,1000]{1,0} multiply(f32[1280,1000]{1,0} %convert.137.clone.1, f32[1280,1000]{1,0} %convert.137.clone.1), metadata={op_type="ResourceApplyAdam" op_name="Adam/Adam/update_156/ResourceApplyAdam"}
  %subtract.263.clone.1 = f32[1280,1000]{1,0} subtract(f32[1280,1000]{1,0} %multiply.1374.clone.1, f32[1280,1000]{1,0} %param_5.2827), metadata={op_type="ResourceApplyAdam" op_name="Adam/Adam/update_156/ResourceApplyAdam"}
  %param_6.1605 = f32[] parameter(6)
  %subtract.949.clone.1 = f32[] subtract(f32[] %constant_1935_clone_1, f32[] %param_6.1605), metadata={op_type="ResourceApplyAdam" op_name="Adam/Adam/update_153/ResourceApplyAdam"}
  %broadcast.2340.clone.1 = f32[1280,1000]{1,0} broadcast(f32[] %subtract.949.clone.1), dimensions={}, metadata={op_type="ResourceApplyAdam" op_name="Adam/Adam/update_156/ResourceApplyAdam"}
  %multiply.1373.clone.1 = f32[1280,1000]{1,0} multiply(f32[1280,1000]{1,0} %subtract.263.clone.1, f32[1280,1000]{1,0} %broadcast.2340.clone.1), metadata={op_type="ResourceApplyAdam" op_name="Adam/Adam/update_156/ResourceApplyAdam"}
  %add.902.clone.1 = f32[1280,1000]{1,0} add(f32[1280,1000]{1,0} %param_5.2827, f32[1280,1000]{1,0} %multiply.1373.clone.1), metadata={op_type="ResourceApplyAdam" op_name="Adam/Adam/update_156/ResourceApplyAdam"}
  %sqrt.0 = f32[1280,1000]{1,0} sqrt(f32[1280,1000]{1,0} %add.902.clone.1), metadata={op_type="ResourceApplyAdam" op_name="Adam/Adam/update_156/ResourceApplyAdam"}
  %constant_1934 = f32[] constant(1e-07), metadata={op_type="ResourceApplyAdam" op_name="Adam/Adam/update_157/ResourceApplyAdam"}
  %broadcast.2337 = f32[1280,1000]{1,0} broadcast(f32[] %constant_1934), dimensions={}, metadata={op_type="ResourceApplyAdam" op_name="Adam/Adam/update_156/ResourceApplyAdam"}
  %add.901 = f32[1280,1000]{1,0} add(f32[1280,1000]{1,0} %sqrt.0, f32[1280,1000]{1,0} %broadcast.2337), metadata={op_type="ResourceApplyAdam" op_name="Adam/Adam/update_156/ResourceApplyAdam"}
  %divide.211 = f32[1280,1000]{1,0} divide(f32[1280,1000]{1,0} %multiply.1372, f32[1280,1000]{1,0} %add.901), metadata={op_type="ResourceApplyAdam" op_name="Adam/Adam/update_156/ResourceApplyAdam"}
  %subtract.262 = f32[1280,1000]{1,0} subtract(f32[1280,1000]{1,0} %param_0.16, f32[1280,1000]{1,0} %divide.211), metadata={op_type="ResourceApplyAdam" op_name="Adam/Adam/update_156/ResourceApplyAdam"}
  ROOT %tuple.264 = (f32[1280,1000]{1,0}, f32[1280,1000]{1,0}, f32[1280,1000]{1,0}) tuple(f32[1280,1000]{1,0} %subtract.262, f32[1280,1000]{1,0} %add.904.clone.1, f32[1280,1000]{1,0} %add.902.clone.1)
}

%add_float_.3685 (x.3686: f32[], y.3687: f32[]) -> f32[] {
  %x.3686 = f32[] parameter(0)
  %y.3687 = f32[] parameter(1)
  ROOT %add.3688 = f32[] add(f32[] %x.3686, f32[] %y.3687)
}

%fused_computation.11 (param_0.19: f32[1000], param_1.7191: f32[], param_2.7015: f32[1000], param_3.3894: f32[], param_4.3001: f32[1000], param_5.2835: f32[], param_6.1612: f16[16,1000]) -> (f32[1000], f32[1000], f32[1000]) {
  %param_0.19 = f32[1000]{0} parameter(0)
  %param_2.7015 = f32[1000]{0} parameter(2)
  %param_6.1612 = f16[16,1000]{1,0} parameter(6)
  %convert.141.clone.1 = f32[16,1000]{1,0} convert(f16[16,1000]{1,0} %param_6.1612), metadata={op_type="BiasAddGrad" op_name="gradient_tape/mobilenetv2_1.00_224/predictions/BiasAdd/BiasAddGrad"}
  %constant_1941_clone_1 = f32[] constant(0), metadata={op_type="Mean" op_name="mobilenetv2_1.00_224/global_average_pooling2d/Mean"}
  %reduce.423.clone.1 = f32[1000]{0} reduce(f32[16,1000]{1,0} %convert.141.clone.1, f32[] %constant_1941_clone_1), dimensions={0}, to_apply=%add_float_.3685, metadata={op_type="BiasAddGrad" op_name="gradient_tape/mobilenetv2_1.00_224/predictions/BiasAdd/BiasAddGrad"}
  %convert.140.clone.1 = f16[1000]{0} convert(f32[1000]{0} %reduce.423.clone.1), metadata={op_type="BiasAddGrad" op_name="gradient_tape/mobilenetv2_1.00_224/predictions/BiasAdd/BiasAddGrad"}
  %convert.139.clone.1 = f32[1000]{0} convert(f16[1000]{0} %convert.140.clone.1), metadata={op_type="Cast" op_name="gradient_tape/mobilenetv2_1.00_224/predictions/BiasAdd/Cast/ArithmeticOptimizer/ReorderCastLikeAndValuePreserving_float_Cast"}
  %subtract.267.clone.1 = f32[1000]{0} subtract(f32[1000]{0} %convert.139.clone.1, f32[1000]{0} %param_2.7015), metadata={op_type="ResourceApplyAdam" op_name="Adam/Adam/update_157/ResourceApplyAdam"}
  %constant_1939_clone_1 = f32[] constant(1), metadata={op_type="SparseSoftmaxCrossEntropyWithLogits" op_name="sparse_categorical_crossentropy/SparseSoftmaxCrossEntropyWithLogits/SparseSoftmaxCrossEntropyWithLogits"}
  %param_3.3894 = f32[] parameter(3)
  %subtract.950.clone.1 = f32[] subtract(f32[] %constant_1939_clone_1, f32[] %param_3.3894), metadata={op_type="ResourceApplyAdam" op_name="Adam/Adam/update_153/ResourceApplyAdam"}
  %broadcast.2347.clone.1 = f32[1000]{0} broadcast(f32[] %subtract.950.clone.1), dimensions={}, metadata={op_type="ResourceApplyAdam" op_name="Adam/Adam/update_157/ResourceApplyAdam"}
  %multiply.1380.clone.1 = f32[1000]{0} multiply(f32[1000]{0} %subtract.267.clone.1, f32[1000]{0} %broadcast.2347.clone.1), metadata={op_type="ResourceApplyAdam" op_name="Adam/Adam/update_157/ResourceApplyAdam"}
  %add.908.clone.1 = f32[1000]{0} add(f32[1000]{0} %param_2.7015, f32[1000]{0} %multiply.1380.clone.1), metadata={op_type="ResourceApplyAdam" op_name="Adam/Adam/update_157/ResourceApplyAdam"}
  %param_1.7191 = f32[] parameter(1)
  %broadcast.2344 = f32[1000]{0} broadcast(f32[] %param_1.7191), dimensions={}, metadata={op_type="ResourceApplyAdam" op_name="Adam/Adam/update_157/ResourceApplyAdam"}
  %multiply.1376 = f32[1000]{0} multiply(f32[1000]{0} %add.908.clone.1, f32[1000]{0} %broadcast.2344), metadata={op_type="ResourceApplyAdam" op_name="Adam/Adam/update_157/ResourceApplyAdam"}
  %param_4.3001 = f32[1000]{0} parameter(4)
  %multiply.1379.clone.1 = f32[1000]{0} multiply(f32[1000]{0} %convert.139.clone.1, f32[1000]{0} %convert.139.clone.1), metadata={op_type="ResourceApplyAdam" op_name="Adam/Adam/update_157/ResourceApplyAdam"}
  %subtract.266.clone.1 = f32[1000]{0} subtract(f32[1000]{0} %multiply.1379.clone.1, f32[1000]{0} %param_4.3001), metadata={op_type="ResourceApplyAdam" op_name="Adam/Adam/update_157/ResourceApplyAdam"}
  %param_5.2835 = f32[] parameter(5)
  %subtract.951.clone.1 = f32[] subtract(f32[] %constant_1939_clone_1, f32[] %param_5.2835), metadata={op_type="ResourceApplyAdam" op_name="Adam/Adam/update_153/ResourceApplyAdam"}
  %broadcast.2346.clone.1 = f32[1000]{0} broadcast(f32[] %subtract.951.clone.1), dimensions={}, metadata={op_type="ResourceApplyAdam" op_name="Adam/Adam/update_157/ResourceApplyAdam"}
  %multiply.1378.clone.1 = f32[1000]{0} multiply(f32[1000]{0} %subtract.266.clone.1, f32[1000]{0} %broadcast.2346.clone.1), metadata={op_type="ResourceApplyAdam" op_name="Adam/Adam/update_157/ResourceApplyAdam"}
  %add.906.clone.1 = f32[1000]{0} add(f32[1000]{0} %param_4.3001, f32[1000]{0} %multiply.1378.clone.1), metadata={op_type="ResourceApplyAdam" op_name="Adam/Adam/update_157/ResourceApplyAdam"}
  %sqrt.1 = f32[1000]{0} sqrt(f32[1000]{0} %add.906.clone.1), metadata={op_type="ResourceApplyAdam" op_name="Adam/Adam/update_157/ResourceApplyAdam"}
  %constant_1937 = f32[] constant(1e-07), metadata={op_type="ResourceApplyAdam" op_name="Adam/Adam/update_157/ResourceApplyAdam"}
  %broadcast.2342 = f32[1000]{0} broadcast(f32[] %constant_1937), dimensions={}, metadata={op_type="ResourceApplyAdam" op_name="Adam/Adam/update_157/ResourceApplyAdam"}
  %add.905 = f32[1000]{0} add(f32[1000]{0} %sqrt.1, f32[1000]{0} %broadcast.2342), metadata={op_type="ResourceApplyAdam" op_name="Adam/Adam/update_157/ResourceApplyAdam"}
  %divide.212 = f32[1000]{0} divide(f32[1000]{0} %multiply.1376, f32[1000]{0} %add.905), metadata={op_type="ResourceApplyAdam" op_name="Adam/Adam/update_157/ResourceApplyAdam"}
  %subtract.265 = f32[1000]{0} subtract(f32[1000]{0} %param_0.19, f32[1000]{0} %divide.212), metadata={op_type="ResourceApplyAdam" op_name="Adam/Adam/update_157/ResourceApplyAdam"}
  ROOT %tuple.266 = (f32[1000]{0}, f32[1000]{0}, f32[1000]{0}) tuple(f32[1000]{0} %subtract.265, f32[1000]{0} %add.908.clone.1, f32[1000]{0} %add.906.clone.1)
}

%fused_computation.18 (param_0.28: f32[16], param_1.7193: f32[], param_2.7019: f32[16], param_3.3898: f32[], param_4.3009: f32[16], param_5.2848: f32[16], param_6.1622: f32[16], param_7.1266: f32[16], param_8.737: f32[], param_9.1275: f32[16], param_10.672: f32[16], param_11.521: f32[16], param_12.255: f32[16], param_13.498: f32[16], param_14.455: f32[16]) -> (f32[16], f32[16], f32[16], f32[16], f32[16], f32[16], f32[16], f32[16]) {
  %param_0.28 = f32[16]{0} parameter(0)
  %param_2.7019 = f32[16]{0} parameter(2)
  %param_4.3009 = f32[16]{0} parameter(4)
  %constant_1948_clone_1 = f32[] constant(1), metadata={op_type="SparseSoftmaxCrossEntropyWithLogits" op_name="sparse_categorical_crossentropy/SparseSoftmaxCrossEntropyWithLogits/SparseSoftmaxCrossEntropyWithLogits"}
  %broadcast.8598.clone.1 = f32[16]{0} broadcast(f32[] %constant_1948_clone_1), dimensions={}, metadata={op_type="FusedBatchNormGradV3" op_name="gradient_tape/mobilenetv2_1.00_224/expanded_conv_project_BN/FusedBatchNormGradV3"}
  %param_6.1622 = f32[16]{0} parameter(6)
  %constant_7854_clone_1 = f32[] constant(4.98246163e-06)
  %broadcast.8597.clone.1 = f32[16]{0} broadcast(f32[] %constant_7854_clone_1), dimensions={}
  %multiply.7566.clone.1 = f32[16]{0} multiply(f32[16]{0} %param_6.1622, f32[16]{0} %broadcast.8597.clone.1), metadata={op_type="FusedBatchNormV3" op_name="mobilenetv2_1.00_224/expanded_conv_project_BN/FusedBatchNormV3"}
  %param_5.2848 = f32[16]{0} parameter(5)
  %multiply.7565.clone.1 = f32[16]{0} multiply(f32[16]{0} %param_5.2848, f32[16]{0} %broadcast.8597.clone.1), metadata={op_type="FusedBatchNormV3" op_name="mobilenetv2_1.00_224/expanded_conv_project_BN/FusedBatchNormV3"}
  %multiply.7563.clone.1 = f32[16]{0} multiply(f32[16]{0} %multiply.7565.clone.1, f32[16]{0} %multiply.7565.clone.1), metadata={op_type="FusedBatchNormV3" op_name="mobilenetv2_1.00_224/expanded_conv_project_BN/FusedBatchNormV3"}
  %subtract.3191.clone.1 = f32[16]{0} subtract(f32[16]{0} %multiply.7566.clone.1, f32[16]{0} %multiply.7563.clone.1), metadata={op_type="FusedBatchNormV3" op_name="mobilenetv2_1.00_224/expanded_conv_project_BN/FusedBatchNormV3"}
  %constant_7853_clone_1 = f32[] constant(0.001), metadata={op_type="FusedBatchNormV3" op_name="mobilenetv2_1.00_224/bn_Conv1/FusedBatchNormV3"}
  %broadcast.8595.clone.1 = f32[16]{0} broadcast(f32[] %constant_7853_clone_1), dimensions={}
  %add.2718.clone.1 = f32[16]{0} add(f32[16]{0} %subtract.3191.clone.1, f32[16]{0} %broadcast.8595.clone.1), metadata={op_type="FusedBatchNormV3" op_name="mobilenetv2_1.00_224/expanded_conv_project_BN/FusedBatchNormV3"}
  %rsqrt.1044.clone.1 = f32[16]{0} rsqrt(f32[16]{0} %add.2718.clone.1), metadata={op_type="FusedBatchNormV3" op_name="mobilenetv2_1.00_224/expanded_conv_project_BN/FusedBatchNormV3"}
  %multiply.7562.clone.1 = f32[16]{0} multiply(f32[16]{0} %rsqrt.1044.clone.1, f32[16]{0} %rsqrt.1044.clone.1), metadata={op_type="FusedBatchNormGradV3" op_name="gradient_tape/mobilenetv2_1.00_224/expanded_conv_project_BN/FusedBatchNormGradV3"}
  %divide.786.clone.1 = f32[16]{0} divide(f32[16]{0} %broadcast.8598.clone.1, f32[16]{0} %multiply.7562.clone.1), metadata={op_type="FusedBatchNormGradV3" op_name="gradient_tape/mobilenetv2_1.00_224/expanded_conv_project_BN/FusedBatchNormGradV3"}
  %rsqrt.312.clone.1 = f32[16]{0} rsqrt(f32[16]{0} %divide.786.clone.1), metadata={op_type="FusedBatchNormGradV3" op_name="gradient_tape/mobilenetv2_1.00_224/expanded_conv_project_BN/FusedBatchNormGradV3"}
  %multiply.2992.clone.1 = f32[16]{0} multiply(f32[16]{0} %param_4.3009, f32[16]{0} %rsqrt.312.clone.1), metadata={op_type="FusedBatchNormGradV3" op_name="gradient_tape/mobilenetv2_1.00_224/expanded_conv_project_BN/FusedBatchNormGradV3"}
  %subtract.273.clone.1 = f32[16]{0} subtract(f32[16]{0} %multiply.2992.clone.1, f32[16]{0} %param_2.7019), metadata={op_type="ResourceApplyAdam" op_name="Adam/Adam/update_7/ResourceApplyAdam"}
  %param_3.3898 = f32[] parameter(3)
  %subtract.954.clone.1 = f32[] subtract(f32[] %constant_1948_clone_1, f32[] %param_3.3898), metadata={op_type="ResourceApplyAdam" op_name="Adam/Adam/update_153/ResourceApplyAdam"}
  %broadcast.3056.clone.1 = f32[16]{0} broadcast(f32[] %subtract.954.clone.1), dimensions={}, metadata={op_type="ResourceApplyAdam" op_name="Adam/Adam/update_7/ResourceApplyAdam"}
  %multiply.1392.clone.1 = f32[16]{0} multiply(f32[16]{0} %subtract.273.clone.1, f32[16]{0} %broadcast.3056.clone.1), metadata={op_type="ResourceApplyAdam" op_name="Adam/Adam/update_7/ResourceApplyAdam"}
  %add.914.clone.1 = f32[16]{0} add(f32[16]{0} %param_2.7019, f32[16]{0} %multiply.1392.clone.1), metadata={op_type="ResourceApplyAdam" op_name="Adam/Adam/update_7/ResourceApplyAdam"}
  %param_1.7193 = f32[] parameter(1)
  %broadcast.3054 = f32[16]{0} broadcast(f32[] %param_1.7193), dimensions={}, metadata={op_type="ResourceApplyAdam" op_name="Adam/Adam/update_7/ResourceApplyAdam"}
  %multiply.1388 = f32[16]{0} multiply(f32[16]{0} %add.914.clone.1, f32[16]{0} %broadcast.3054), metadata={op_type="ResourceApplyAdam" op_name="Adam/Adam/update_7/ResourceApplyAdam"}
  %param_7.1266 = f32[16]{0} parameter(7)
  %multiply.1391.clone.1 = f32[16]{0} multiply(f32[16]{0} %multiply.2992.clone.1, f32[16]{0} %multiply.2992.clone.1), metadata={op_type="ResourceApplyAdam" op_name="Adam/Adam/update_7/ResourceApplyAdam"}
  %subtract.272.clone.1 = f32[16]{0} subtract(f32[16]{0} %multiply.1391.clone.1, f32[16]{0} %param_7.1266), metadata={op_type="ResourceApplyAdam" op_name="Adam/Adam/update_7/ResourceApplyAdam"}
  %param_8.737 = f32[] parameter(8)
  %subtract.955.clone.1 = f32[] subtract(f32[] %constant_1948_clone_1, f32[] %param_8.737), metadata={op_type="ResourceApplyAdam" op_name="Adam/Adam/update_153/ResourceApplyAdam"}
  %broadcast.3057.clone.1 = f32[16]{0} broadcast(f32[] %subtract.955.clone.1), dimensions={}, metadata={op_type="ResourceApplyAdam" op_name="Adam/Adam/update_7/ResourceApplyAdam"}
  %multiply.1390.clone.1 = f32[16]{0} multiply(f32[16]{0} %subtract.272.clone.1, f32[16]{0} %broadcast.3057.clone.1), metadata={op_type="ResourceApplyAdam" op_name="Adam/Adam/update_7/ResourceApplyAdam"}
  %add.913.clone.1 = f32[16]{0} add(f32[16]{0} %param_7.1266, f32[16]{0} %multiply.1390.clone.1), metadata={op_type="ResourceApplyAdam" op_name="Adam/Adam/update_7/ResourceApplyAdam"}
  %sqrt.3 = f32[16]{0} sqrt(f32[16]{0} %add.913.clone.1), metadata={op_type="ResourceApplyAdam" op_name="Adam/Adam/update_7/ResourceApplyAdam"}
  %constant_1947 = f32[] constant(1e-07), metadata={op_type="ResourceApplyAdam" op_name="Adam/Adam/update_157/ResourceApplyAdam"}
  %broadcast.3055 = f32[16]{0} broadcast(f32[] %constant_1947), dimensions={}, metadata={op_type="ResourceApplyAdam" op_name="Adam/Adam/update_7/ResourceApplyAdam"}
  %add.912 = f32[16]{0} add(f32[16]{0} %sqrt.3, f32[16]{0} %broadcast.3055), metadata={op_type="ResourceApplyAdam" op_name="Adam/Adam/update_7/ResourceApplyAdam"}
  %divide.214 = f32[16]{0} divide(f32[16]{0} %multiply.1388, f32[16]{0} %add.912), metadata={op_type="ResourceApplyAdam" op_name="Adam/Adam/update_7/ResourceApplyAdam"}
  %subtract.271 = f32[16]{0} subtract(f32[16]{0} %param_0.28, f32[16]{0} %divide.214), metadata={op_type="ResourceApplyAdam" op_name="Adam/Adam/update_7/ResourceApplyAdam"}
  %param_9.1275 = f32[16]{0} parameter(9)
  %param_12.255 = f32[16]{0} parameter(12)
  %param_11.521 = f32[16]{0} parameter(11)
  %subtract.270.clone.1.clone.1 = f32[16]{0} subtract(f32[16]{0} %param_11.521, f32[16]{0} %param_12.255), metadata={op_type="ResourceApplyAdam" op_name="Adam/Adam/update_8/ResourceApplyAdam"}
  %multiply.1386.clone.1.clone.1 = f32[16]{0} multiply(f32[16]{0} %subtract.270.clone.1.clone.1, f32[16]{0} %broadcast.3056.clone.1), metadata={op_type="ResourceApplyAdam" op_name="Adam/Adam/update_8/ResourceApplyAdam"}
  %add.911.clone.1.clone.1 = f32[16]{0} add(f32[16]{0} %param_12.255, f32[16]{0} %multiply.1386.clone.1.clone.1), metadata={op_type="ResourceApplyAdam" op_name="Adam/Adam/update_8/ResourceApplyAdam"}
  %multiply.1381.clone.1 = f32[16]{0} multiply(f32[16]{0} %add.911.clone.1.clone.1, f32[16]{0} %broadcast.3054), metadata={op_type="ResourceApplyAdam" op_name="Adam/Adam/update_8/ResourceApplyAdam"}
  %param_10.672 = f32[16]{0} parameter(10)
  %multiply.1385.clone.1.clone.1 = f32[16]{0} multiply(f32[16]{0} %param_11.521, f32[16]{0} %param_11.521), metadata={op_type="ResourceApplyAdam" op_name="Adam/Adam/update_8/ResourceApplyAdam"}
  %subtract.269.clone.1.clone.1 = f32[16]{0} subtract(f32[16]{0} %multiply.1385.clone.1.clone.1, f32[16]{0} %param_10.672), metadata={op_type="ResourceApplyAdam" op_name="Adam/Adam/update_8/ResourceApplyAdam"}
  %multiply.1383.clone.1.clone.1 = f32[16]{0} multiply(f32[16]{0} %subtract.269.clone.1.clone.1, f32[16]{0} %broadcast.3057.clone.1), metadata={op_type="ResourceApplyAdam" op_name="Adam/Adam/update_8/ResourceApplyAdam"}
  %add.910.clone.1.clone.1 = f32[16]{0} add(f32[16]{0} %param_10.672, f32[16]{0} %multiply.1383.clone.1.clone.1), metadata={op_type="ResourceApplyAdam" op_name="Adam/Adam/update_8/ResourceApplyAdam"}
  %sqrt.2.clone.1 = f32[16]{0} sqrt(f32[16]{0} %add.910.clone.1.clone.1), metadata={op_type="ResourceApplyAdam" op_name="Adam/Adam/update_8/ResourceApplyAdam"}
  %add.909.clone.1 = f32[16]{0} add(f32[16]{0} %sqrt.2.clone.1, f32[16]{0} %broadcast.3055), metadata={op_type="ResourceApplyAdam" op_name="Adam/Adam/update_8/ResourceApplyAdam"}
  %divide.213.clone.1 = f32[16]{0} divide(f32[16]{0} %multiply.1381.clone.1, f32[16]{0} %add.909.clone.1), metadata={op_type="ResourceApplyAdam" op_name="Adam/Adam/update_8/ResourceApplyAdam"}
  %subtract.268.clone.1 = f32[16]{0} subtract(f32[16]{0} %param_9.1275, f32[16]{0} %divide.213.clone.1), metadata={op_type="ResourceApplyAdam" op_name="Adam/Adam/update_8/ResourceApplyAdam"}
  %param_13.498 = f32[16]{0} parameter(13)
  %constant_3637_clone_1 = f32[] constant(0.999), metadata={op_type="FusedBatchNormV3" op_name="mobilenetv2_1.00_224/bn_Conv1/FusedBatchNormV3"}
  %broadcast.4484.clone.1 = f32[16]{0} broadcast(f32[] %constant_3637_clone_1), dimensions={}, metadata={op_type="FusedBatchNormV3" op_name="mobilenetv2_1.00_224/expanded_conv_project_BN/FusedBatchNormV3"}
  %multiply.2965.clone.1 = f32[16]{0} multiply(f32[16]{0} %param_13.498, f32[16]{0} %broadcast.4484.clone.1), metadata={op_type="FusedBatchNormV3" op_name="mobilenetv2_1.00_224/expanded_conv_project_BN/FusedBatchNormV3"}
  %constant_3636_clone_1 = f32[] constant(0.00100000505)
  %broadcast.3035.clone.1 = f32[16]{0} broadcast(f32[] %constant_3636_clone_1), dimensions={}
  %multiply.2964.clone.1 = f32[16]{0} multiply(f32[16]{0} %subtract.3191.clone.1, f32[16]{0} %broadcast.3035.clone.1), metadata={op_type="FusedBatchNormV3" op_name="mobilenetv2_1.00_224/expanded_conv_project_BN/FusedBatchNormV3"}
  %add.1629.clone.1 = f32[16]{0} add(f32[16]{0} %multiply.2965.clone.1, f32[16]{0} %multiply.2964.clone.1), metadata={op_type="FusedBatchNormV3" op_name="mobilenetv2_1.00_224/expanded_conv_project_BN/FusedBatchNormV3"}
  %param_14.455 = f32[16]{0} parameter(14)
  %multiply.2970.clone.1 = f32[16]{0} multiply(f32[16]{0} %param_14.455, f32[16]{0} %broadcast.4484.clone.1), metadata={op_type="FusedBatchNormV3" op_name="mobilenetv2_1.00_224/expanded_conv_project_BN/FusedBatchNormV3"}
  %constant_3641_clone_1 = f32[] constant(4.982462e-09)
  %broadcast.3036.clone.1 = f32[16]{0} broadcast(f32[] %constant_3641_clone_1), dimensions={}
  %multiply.2969.clone.1 = f32[16]{0} multiply(f32[16]{0} %param_5.2848, f32[16]{0} %broadcast.3036.clone.1), metadata={op_type="FusedBatchNormV3" op_name="mobilenetv2_1.00_224/expanded_conv_project_BN/FusedBatchNormV3"}
  %add.1630.clone.1 = f32[16]{0} add(f32[16]{0} %multiply.2970.clone.1, f32[16]{0} %multiply.2969.clone.1), metadata={op_type="FusedBatchNormV3" op_name="mobilenetv2_1.00_224/expanded_conv_project_BN/FusedBatchNormV3"}
  ROOT %tuple.856 = (f32[16]{0}, f32[16]{0}, f32[16]{0}, f32[16]{0}, f32[16]{0}, f32[16]{0}, f32[16]{0}, f32[16]{0}) tuple(f32[16]{0} %subtract.271, f32[16]{0} %add.914.clone.1, f32[16]{0} %add.913.clone.1, f32[16]{0} %subtract.268.clone.1, f32[16]{0} %add.911.clone.1.clone.1, f32[16]{0} %add.910.clone.1.clone.1, f32[16]{0} %add.1629.clone.1, f32[16]{0} %add.1630.clone.1)
}

%fused_computation.43 (param_0.4654: f32[32], param_1.7111: f32[32], param_2.6935: f32[32], param_3.3871: f32[32], param_4.2972: f16[16,112,112,32], param_5.2785: f32[32], param_6.1586: f16[16,112,112,32], param_7.1223: f16[16,112,112,32]) -> f16[16,112,112,32] {
  %param_2.6935 = f32[32]{0} parameter(2)
  %constant_7791 = f32[] constant(1), metadata={op_type="SparseSoftmaxCrossEntropyWithLogits" op_name="sparse_categorical_crossentropy/SparseSoftmaxCrossEntropyWithLogits/SparseSoftmaxCrossEntropyWithLogits"}
  %broadcast.8542 = f32[32]{0} broadcast(f32[] %constant_7791), dimensions={}, metadata={op_type="FusedBatchNormGradV3" op_name="gradient_tape/mobilenetv2_1.00_224/block_3_project_BN/FusedBatchNormGradV3"}
  %param_5.2785 = f32[32]{0} parameter(5)
  %constant_1981 = f32[] constant(4.98246163e-06)
  %broadcast.8541 = f32[32]{0} broadcast(f32[] %constant_1981), dimensions={}
  %multiply.7491 = f32[32]{0} multiply(f32[32]{0} %param_5.2785, f32[32]{0} %broadcast.8541), metadata={op_type="FusedBatchNormV3" op_name="mobilenetv2_1.00_224/bn_Conv1/FusedBatchNormV3"}
  %param_3.3871 = f32[32]{0} parameter(3)
  %multiply.7490 = f32[32]{0} multiply(f32[32]{0} %param_3.3871, f32[32]{0} %broadcast.8541), metadata={op_type="FusedBatchNormV3" op_name="mobilenetv2_1.00_224/bn_Conv1/FusedBatchNormV3"}
  %multiply.7489 = f32[32]{0} multiply(f32[32]{0} %multiply.7490, f32[32]{0} %multiply.7490), metadata={op_type="FusedBatchNormV3" op_name="mobilenetv2_1.00_224/bn_Conv1/FusedBatchNormV3"}
  %subtract.3175 = f32[32]{0} subtract(f32[32]{0} %multiply.7491, f32[32]{0} %multiply.7489), metadata={op_type="FusedBatchNormV3" op_name="mobilenetv2_1.00_224/bn_Conv1/FusedBatchNormV3"}
  %constant_7789 = f32[] constant(0.001), metadata={op_type="FusedBatchNormV3" op_name="mobilenetv2_1.00_224/bn_Conv1/FusedBatchNormV3"}
  %broadcast.8540 = f32[32]{0} broadcast(f32[] %constant_7789), dimensions={}
  %add.2702 = f32[32]{0} add(f32[32]{0} %subtract.3175, f32[32]{0} %broadcast.8540), metadata={op_type="FusedBatchNormV3" op_name="mobilenetv2_1.00_224/bn_Conv1/FusedBatchNormV3"}
  %rsqrt.1028 = f32[32]{0} rsqrt(f32[32]{0} %add.2702), metadata={op_type="FusedBatchNormV3" op_name="mobilenetv2_1.00_224/bn_Conv1/FusedBatchNormV3"}
  %multiply.7488 = f32[32]{0} multiply(f32[32]{0} %rsqrt.1028, f32[32]{0} %rsqrt.1028), metadata={op_type="FusedBatchNormGradV3" op_name="gradient_tape/mobilenetv2_1.00_224/bn_Conv1/FusedBatchNormGradV3"}
  %divide.770 = f32[32]{0} divide(f32[32]{0} %broadcast.8542, f32[32]{0} %multiply.7488), metadata={op_type="FusedBatchNormGradV3" op_name="gradient_tape/mobilenetv2_1.00_224/bn_Conv1/FusedBatchNormGradV3"}
  %rsqrt.318 = f32[32]{0} rsqrt(f32[32]{0} %divide.770), metadata={op_type="FusedBatchNormGradV3" op_name="gradient_tape/mobilenetv2_1.00_224/bn_Conv1/FusedBatchNormGradV3"}
  %multiply.1425 = f32[32]{0} multiply(f32[32]{0} %param_2.6935, f32[32]{0} %rsqrt.318), metadata={op_type="FusedBatchNormGradV3" op_name="gradient_tape/mobilenetv2_1.00_224/bn_Conv1/FusedBatchNormGradV3"}
  %multiply.1424 = f32[32]{0} multiply(f32[32]{0} %multiply.1425, f32[32]{0} %broadcast.8541), metadata={op_type="FusedBatchNormGradV3" op_name="gradient_tape/mobilenetv2_1.00_224/bn_Conv1/FusedBatchNormGradV3"}
  %broadcast.2370 = f32[16,112,112,32]{3,2,1,0} broadcast(f32[32]{0} %multiply.1424), dimensions={3}
  %param_7.1223 = f16[16,112,112,32]{3,2,1,0} parameter(7)
  %constant_7882 = f16[] constant(6), metadata={op_type="Relu6" op_name="mobilenetv2_1.00_224/Conv1_relu/Relu6"}
  %broadcast.8621 = f16[16,112,112,32]{3,2,1,0} broadcast(f16[] %constant_7882), dimensions={}, metadata={op_type="Relu6" op_name="mobilenetv2_1.00_224/Conv1_relu/Relu6"}
  %compare.502 = pred[16,112,112,32]{3,2,1,0} compare(f16[16,112,112,32]{3,2,1,0} %param_7.1223, f16[16,112,112,32]{3,2,1,0} %broadcast.8621), direction=LT, metadata={op_type="Relu6Grad" op_name="gradient_tape/mobilenetv2_1.00_224/Conv1_relu/Relu6/Relu6Grad"}
  %constant_7881 = f16[] constant(0), metadata={op_type="Relu6" op_name="mobilenetv2_1.00_224/Conv1_relu/Relu6"}
  %broadcast.8620 = f16[16,112,112,32]{3,2,1,0} broadcast(f16[] %constant_7881), dimensions={}, metadata={op_type="Relu6" op_name="mobilenetv2_1.00_224/Conv1_relu/Relu6"}
  %compare.501 = pred[16,112,112,32]{3,2,1,0} compare(f16[16,112,112,32]{3,2,1,0} %param_7.1223, f16[16,112,112,32]{3,2,1,0} %broadcast.8620), direction=GT, metadata={op_type="Relu6Grad" op_name="gradient_tape/mobilenetv2_1.00_224/Conv1_relu/Relu6/Relu6Grad"}
  %and.247 = pred[16,112,112,32]{3,2,1,0} and(pred[16,112,112,32]{3,2,1,0} %compare.502, pred[16,112,112,32]{3,2,1,0} %compare.501), metadata={op_type="Relu6Grad" op_name="gradient_tape/mobilenetv2_1.00_224/Conv1_relu/Relu6/Relu6Grad"}
  %param_6.1586 = f16[16,112,112,32]{3,2,1,0} parameter(6)
  %select.253 = f16[16,112,112,32]{3,2,1,0} select(pred[16,112,112,32]{3,2,1,0} %and.247, f16[16,112,112,32]{3,2,1,0} %param_6.1586, f16[16,112,112,32]{3,2,1,0} %broadcast.8620), metadata={op_type="Relu6Grad" op_name="gradient_tape/mobilenetv2_1.00_224/Conv1_relu/Relu6/Relu6Grad"}
  %convert.148 = f32[16,112,112,32]{3,2,1,0} convert(f16[16,112,112,32]{3,2,1,0} %select.253), metadata={op_type="FusedBatchNormGradV3" op_name="gradient_tape/mobilenetv2_1.00_224/bn_Conv1/FusedBatchNormGradV3"}
  %constant_1980 = f32[] constant(200704), metadata={op_type="FusedBatchNormGradV3" op_name="gradient_tape/mobilenetv2_1.00_224/block_1_expand_BN/FusedBatchNormGradV3"}
  %broadcast.3081 = f32[16,112,112,32]{3,2,1,0} broadcast(f32[] %constant_1980), dimensions={}, metadata={op_type="FusedBatchNormGradV3" op_name="gradient_tape/mobilenetv2_1.00_224/expanded_conv_depthwise_BN/FusedBatchNormGradV3"}
  %multiply.1423 = f32[16,112,112,32]{3,2,1,0} multiply(f32[16,112,112,32]{3,2,1,0} %convert.148, f32[16,112,112,32]{3,2,1,0} %broadcast.3081), metadata={op_type="FusedBatchNormGradV3" op_name="gradient_tape/mobilenetv2_1.00_224/bn_Conv1/FusedBatchNormGradV3"}
  %param_1.7111 = f32[32]{0} parameter(1)
  %broadcast.2369 = f32[16,112,112,32]{3,2,1,0} broadcast(f32[32]{0} %param_1.7111), dimensions={3}, metadata={op_type="FusedBatchNormGradV3" op_name="gradient_tape/mobilenetv2_1.00_224/bn_Conv1/FusedBatchNormGradV3"}
  %subtract.296 = f32[16,112,112,32]{3,2,1,0} subtract(f32[16,112,112,32]{3,2,1,0} %multiply.1423, f32[16,112,112,32]{3,2,1,0} %broadcast.2369), metadata={op_type="FusedBatchNormGradV3" op_name="gradient_tape/mobilenetv2_1.00_224/bn_Conv1/FusedBatchNormGradV3"}
  %param_0.4654 = f32[32]{0} parameter(0)
  %broadcast.2367 = f32[16,112,112,32]{3,2,1,0} broadcast(f32[32]{0} %param_0.4654), dimensions={3}, metadata={op_type="FusedBatchNormGradV3" op_name="gradient_tape/mobilenetv2_1.00_224/bn_Conv1/FusedBatchNormGradV3"}
  %param_4.2972 = f16[16,112,112,32]{3,2,1,0} parameter(4)
  %convert.834 = f32[16,112,112,32]{3,2,1,0} convert(f16[16,112,112,32]{3,2,1,0} %param_4.2972), metadata={op_type="FusedBatchNormV3" op_name="mobilenetv2_1.00_224/bn_Conv1/FusedBatchNormV3"}
  %broadcast.4527 = f32[16,112,112,32]{3,2,1,0} broadcast(f32[32]{0} %multiply.7490), dimensions={3}, metadata={op_type="FusedBatchNormV3" op_name="mobilenetv2_1.00_224/bn_Conv1/FusedBatchNormV3"}
  %subtract.1273 = f32[16,112,112,32]{3,2,1,0} subtract(f32[16,112,112,32]{3,2,1,0} %convert.834, f32[16,112,112,32]{3,2,1,0} %broadcast.4527), metadata={op_type="FusedBatchNormV3" op_name="mobilenetv2_1.00_224/bn_Conv1/FusedBatchNormV3"}
  %multiply.1422 = f32[16,112,112,32]{3,2,1,0} multiply(f32[16,112,112,32]{3,2,1,0} %broadcast.2367, f32[16,112,112,32]{3,2,1,0} %subtract.1273), metadata={op_type="FusedBatchNormGradV3" op_name="gradient_tape/mobilenetv2_1.00_224/bn_Conv1/FusedBatchNormGradV3"}
  %broadcast.2366 = f32[16,112,112,32]{3,2,1,0} broadcast(f32[32]{0} %divide.770), dimensions={3}
  %divide.222 = f32[16,112,112,32]{3,2,1,0} divide(f32[16,112,112,32]{3,2,1,0} %multiply.1422, f32[16,112,112,32]{3,2,1,0} %broadcast.2366), metadata={op_type="FusedBatchNormGradV3" op_name="gradient_tape/mobilenetv2_1.00_224/bn_Conv1/FusedBatchNormGradV3"}
  %subtract.295 = f32[16,112,112,32]{3,2,1,0} subtract(f32[16,112,112,32]{3,2,1,0} %subtract.296, f32[16,112,112,32]{3,2,1,0} %divide.222), metadata={op_type="FusedBatchNormGradV3" op_name="gradient_tape/mobilenetv2_1.00_224/bn_Conv1/FusedBatchNormGradV3"}
  %multiply.1421 = f32[16,112,112,32]{3,2,1,0} multiply(f32[16,112,112,32]{3,2,1,0} %broadcast.2370, f32[16,112,112,32]{3,2,1,0} %subtract.295), metadata={op_type="FusedBatchNormGradV3" op_name="gradient_tape/mobilenetv2_1.00_224/bn_Conv1/FusedBatchNormGradV3"}
  ROOT %convert.147 = f16[16,112,112,32]{3,2,1,0} convert(f32[16,112,112,32]{3,2,1,0} %multiply.1421), metadata={op_type="FusedBatchNormGradV3" op_name="gradient_tape/mobilenetv2_1.00_224/bn_Conv1/FusedBatchNormGradV3"}
}

%scalar_add_computation.103 (scalar_lhs.103: f32[], scalar_rhs.103: f32[]) -> f32[] {
  %scalar_lhs.103 = f32[] parameter(0)
  %scalar_rhs.103 = f32[] parameter(1)
  ROOT %add.362 = f32[] add(f32[] %scalar_lhs.103, f32[] %scalar_rhs.103)
}

%fused_computation.44 (param_0.4676: f32[32], param_1.7137: f16[16,112,112,32], param_2.6937: f16[16,112,112,32], param_3.3875: f16[16,112,112,32]) -> (f32[32], f32[32]) {
  %param_3.3875 = f16[16,112,112,32]{3,2,1,0} parameter(3)
  %constant_7887 = f16[] constant(6), metadata={op_type="Relu6" op_name="mobilenetv2_1.00_224/Conv1_relu/Relu6"}
  %broadcast.8626 = f16[16,112,112,32]{3,2,1,0} broadcast(f16[] %constant_7887), dimensions={}, metadata={op_type="Relu6" op_name="mobilenetv2_1.00_224/Conv1_relu/Relu6"}
  %compare.506 = pred[16,112,112,32]{3,2,1,0} compare(f16[16,112,112,32]{3,2,1,0} %param_3.3875, f16[16,112,112,32]{3,2,1,0} %broadcast.8626), direction=LT, metadata={op_type="Relu6Grad" op_name="gradient_tape/mobilenetv2_1.00_224/Conv1_relu/Relu6/Relu6Grad"}
  %constant_7886 = f16[] constant(0), metadata={op_type="Relu6" op_name="mobilenetv2_1.00_224/Conv1_relu/Relu6"}
  %broadcast.8625 = f16[16,112,112,32]{3,2,1,0} broadcast(f16[] %constant_7886), dimensions={}, metadata={op_type="Relu6" op_name="mobilenetv2_1.00_224/Conv1_relu/Relu6"}
  %compare.505 = pred[16,112,112,32]{3,2,1,0} compare(f16[16,112,112,32]{3,2,1,0} %param_3.3875, f16[16,112,112,32]{3,2,1,0} %broadcast.8625), direction=GT, metadata={op_type="Relu6Grad" op_name="gradient_tape/mobilenetv2_1.00_224/Conv1_relu/Relu6/Relu6Grad"}
  %and.249 = pred[16,112,112,32]{3,2,1,0} and(pred[16,112,112,32]{3,2,1,0} %compare.506, pred[16,112,112,32]{3,2,1,0} %compare.505), metadata={op_type="Relu6Grad" op_name="gradient_tape/mobilenetv2_1.00_224/Conv1_relu/Relu6/Relu6Grad"}
  %param_2.6937 = f16[16,112,112,32]{3,2,1,0} parameter(2)
  %select.255 = f16[16,112,112,32]{3,2,1,0} select(pred[16,112,112,32]{3,2,1,0} %and.249, f16[16,112,112,32]{3,2,1,0} %param_2.6937, f16[16,112,112,32]{3,2,1,0} %broadcast.8625), metadata={op_type="Relu6Grad" op_name="gradient_tape/mobilenetv2_1.00_224/Conv1_relu/Relu6/Relu6Grad"}
  %convert.149 = f32[16,112,112,32]{3,2,1,0} convert(f16[16,112,112,32]{3,2,1,0} %select.255), metadata={op_type="FusedBatchNormGradV3" op_name="gradient_tape/mobilenetv2_1.00_224/bn_Conv1/FusedBatchNormGradV3"}
  %param_1.7137 = f16[16,112,112,32]{3,2,1,0} parameter(1)
  %convert.832 = f32[16,112,112,32]{3,2,1,0} convert(f16[16,112,112,32]{3,2,1,0} %param_1.7137), metadata={op_type="FusedBatchNormV3" op_name="mobilenetv2_1.00_224/bn_Conv1/FusedBatchNormV3"}
  %param_0.4676 = f32[32]{0} parameter(0)
  %constant_3686 = f32[] constant(4.98246163e-06)
  %broadcast.4522 = f32[32]{0} broadcast(f32[] %constant_3686), dimensions={}
  %multiply.3237 = f32[32]{0} multiply(f32[32]{0} %param_0.4676, f32[32]{0} %broadcast.4522), metadata={op_type="FusedBatchNormV3" op_name="mobilenetv2_1.00_224/bn_Conv1/FusedBatchNormV3"}
  %broadcast.4521 = f32[16,112,112,32]{3,2,1,0} broadcast(f32[32]{0} %multiply.3237), dimensions={3}, metadata={op_type="FusedBatchNormV3" op_name="mobilenetv2_1.00_224/bn_Conv1/FusedBatchNormV3"}
  %subtract.1271 = f32[16,112,112,32]{3,2,1,0} subtract(f32[16,112,112,32]{3,2,1,0} %convert.832, f32[16,112,112,32]{3,2,1,0} %broadcast.4521), metadata={op_type="FusedBatchNormV3" op_name="mobilenetv2_1.00_224/bn_Conv1/FusedBatchNormV3"}
  %multiply.1426 = f32[16,112,112,32]{3,2,1,0} multiply(f32[16,112,112,32]{3,2,1,0} %convert.149, f32[16,112,112,32]{3,2,1,0} %subtract.1271), metadata={op_type="FusedBatchNormGradV3" op_name="gradient_tape/mobilenetv2_1.00_224/bn_Conv1/FusedBatchNormGradV3"}
  %bitcast.295 = f32[200704,32]{1,0} bitcast(f32[16,112,112,32]{3,2,1,0} %multiply.1426)
  %constant_1983 = f32[] constant(0), metadata={op_type="Mean" op_name="mobilenetv2_1.00_224/global_average_pooling2d/Mean"}
  %reduce.424 = f32[32]{0} reduce(f32[200704,32]{1,0} %bitcast.295, f32[] %constant_1983), dimensions={0}, to_apply=%scalar_add_computation.103, metadata={op_type="FusedBatchNormGradV3" op_name="gradient_tape/mobilenetv2_1.00_224/bn_Conv1/FusedBatchNormGradV3"}
  %bitcast.296.clone.1 = f32[200704,32]{1,0} bitcast(f32[16,112,112,32]{3,2,1,0} %convert.149)
  %reduce.425.clone.1 = f32[32]{0} reduce(f32[200704,32]{1,0} %bitcast.296.clone.1, f32[] %constant_1983), dimensions={0}, to_apply=%scalar_add_computation.103, metadata={op_type="FusedBatchNormGradV3" op_name="gradient_tape/mobilenetv2_1.00_224/bn_Conv1/FusedBatchNormGradV3"}
  ROOT %tuple.285 = (f32[32]{0}, f32[32]{0}) tuple(f32[32]{0} %reduce.424, f32[32]{0} %reduce.425.clone.1)
}

%fused_computation.47 (param_0.4658: f32[32], param_1.7115: f32[32], param_2.6927: f32[32], param_3.3863: f32[32], param_4.2966: f16[16,112,112,32], param_5.2781: f32[32], param_6.1584: f16[16,112,112,32], param_7.1219: f16[16,112,112,32]) -> f16[16,112,112,32] {
  %param_2.6927 = f32[32]{0} parameter(2)
  %constant_7814 = f32[] constant(1), metadata={op_type="SparseSoftmaxCrossEntropyWithLogits" op_name="sparse_categorical_crossentropy/SparseSoftmaxCrossEntropyWithLogits/SparseSoftmaxCrossEntropyWithLogits"}
  %broadcast.8562 = f32[32]{0} broadcast(f32[] %constant_7814), dimensions={}, metadata={op_type="FusedBatchNormGradV3" op_name="gradient_tape/mobilenetv2_1.00_224/block_3_project_BN/FusedBatchNormGradV3"}
  %param_5.2781 = f32[32]{0} parameter(5)
  %constant_1987 = f32[] constant(4.98246163e-06)
  %broadcast.8561 = f32[32]{0} broadcast(f32[] %constant_1987), dimensions={}
  %multiply.7521 = f32[32]{0} multiply(f32[32]{0} %param_5.2781, f32[32]{0} %broadcast.8561), metadata={op_type="FusedBatchNormV3" op_name="mobilenetv2_1.00_224/expanded_conv_depthwise_BN/FusedBatchNormV3"}
  %param_3.3863 = f32[32]{0} parameter(3)
  %multiply.7519 = f32[32]{0} multiply(f32[32]{0} %param_3.3863, f32[32]{0} %broadcast.8561), metadata={op_type="FusedBatchNormV3" op_name="mobilenetv2_1.00_224/expanded_conv_depthwise_BN/FusedBatchNormV3"}
  %multiply.7518 = f32[32]{0} multiply(f32[32]{0} %multiply.7519, f32[32]{0} %multiply.7519), metadata={op_type="FusedBatchNormV3" op_name="mobilenetv2_1.00_224/expanded_conv_depthwise_BN/FusedBatchNormV3"}
  %subtract.3181 = f32[32]{0} subtract(f32[32]{0} %multiply.7521, f32[32]{0} %multiply.7518), metadata={op_type="FusedBatchNormV3" op_name="mobilenetv2_1.00_224/expanded_conv_depthwise_BN/FusedBatchNormV3"}
  %constant_7812 = f32[] constant(0.001), metadata={op_type="FusedBatchNormV3" op_name="mobilenetv2_1.00_224/bn_Conv1/FusedBatchNormV3"}
  %broadcast.8560 = f32[32]{0} broadcast(f32[] %constant_7812), dimensions={}
  %add.2708 = f32[32]{0} add(f32[32]{0} %subtract.3181, f32[32]{0} %broadcast.8560), metadata={op_type="FusedBatchNormV3" op_name="mobilenetv2_1.00_224/expanded_conv_depthwise_BN/FusedBatchNormV3"}
  %rsqrt.1034 = f32[32]{0} rsqrt(f32[32]{0} %add.2708), metadata={op_type="FusedBatchNormV3" op_name="mobilenetv2_1.00_224/expanded_conv_depthwise_BN/FusedBatchNormV3"}
  %multiply.7517 = f32[32]{0} multiply(f32[32]{0} %rsqrt.1034, f32[32]{0} %rsqrt.1034), metadata={op_type="FusedBatchNormGradV3" op_name="gradient_tape/mobilenetv2_1.00_224/expanded_conv_depthwise_BN/FusedBatchNormGradV3"}
  %divide.776 = f32[32]{0} divide(f32[32]{0} %broadcast.8562, f32[32]{0} %multiply.7517), metadata={op_type="FusedBatchNormGradV3" op_name="gradient_tape/mobilenetv2_1.00_224/expanded_conv_depthwise_BN/FusedBatchNormGradV3"}
  %rsqrt.319 = f32[32]{0} rsqrt(f32[32]{0} %divide.776), metadata={op_type="FusedBatchNormGradV3" op_name="gradient_tape/mobilenetv2_1.00_224/expanded_conv_depthwise_BN/FusedBatchNormGradV3"}
  %multiply.1431 = f32[32]{0} multiply(f32[32]{0} %param_2.6927, f32[32]{0} %rsqrt.319), metadata={op_type="FusedBatchNormGradV3" op_name="gradient_tape/mobilenetv2_1.00_224/expanded_conv_depthwise_BN/FusedBatchNormGradV3"}
  %multiply.1430 = f32[32]{0} multiply(f32[32]{0} %multiply.1431, f32[32]{0} %broadcast.8561), metadata={op_type="FusedBatchNormGradV3" op_name="gradient_tape/mobilenetv2_1.00_224/expanded_conv_depthwise_BN/FusedBatchNormGradV3"}
  %broadcast.2376 = f32[16,112,112,32]{3,2,1,0} broadcast(f32[32]{0} %multiply.1430), dimensions={3}
  %param_7.1219 = f16[16,112,112,32]{3,2,1,0} parameter(7)
  %constant_7865 = f16[] constant(6), metadata={op_type="Relu6" op_name="mobilenetv2_1.00_224/Conv1_relu/Relu6"}
  %broadcast.8608 = f16[16,112,112,32]{3,2,1,0} broadcast(f16[] %constant_7865), dimensions={}, metadata={op_type="Relu6" op_name="mobilenetv2_1.00_224/Conv1_relu/Relu6"}
  %compare.490 = pred[16,112,112,32]{3,2,1,0} compare(f16[16,112,112,32]{3,2,1,0} %param_7.1219, f16[16,112,112,32]{3,2,1,0} %broadcast.8608), direction=LT, metadata={op_type="Relu6Grad" op_name="gradient_tape/mobilenetv2_1.00_224/expanded_conv_depthwise_relu/Relu6/Relu6Grad"}
  %constant_7864 = f16[] constant(0), metadata={op_type="Relu6" op_name="mobilenetv2_1.00_224/Conv1_relu/Relu6"}
  %broadcast.8607 = f16[16,112,112,32]{3,2,1,0} broadcast(f16[] %constant_7864), dimensions={}, metadata={op_type="Relu6" op_name="mobilenetv2_1.00_224/Conv1_relu/Relu6"}
  %compare.489 = pred[16,112,112,32]{3,2,1,0} compare(f16[16,112,112,32]{3,2,1,0} %param_7.1219, f16[16,112,112,32]{3,2,1,0} %broadcast.8607), direction=GT, metadata={op_type="Relu6Grad" op_name="gradient_tape/mobilenetv2_1.00_224/expanded_conv_depthwise_relu/Relu6/Relu6Grad"}
  %and.241 = pred[16,112,112,32]{3,2,1,0} and(pred[16,112,112,32]{3,2,1,0} %compare.490, pred[16,112,112,32]{3,2,1,0} %compare.489), metadata={op_type="Relu6Grad" op_name="gradient_tape/mobilenetv2_1.00_224/expanded_conv_depthwise_relu/Relu6/Relu6Grad"}
  %param_6.1584 = f16[16,112,112,32]{3,2,1,0} parameter(6)
  %select.247 = f16[16,112,112,32]{3,2,1,0} select(pred[16,112,112,32]{3,2,1,0} %and.241, f16[16,112,112,32]{3,2,1,0} %param_6.1584, f16[16,112,112,32]{3,2,1,0} %broadcast.8607), metadata={op_type="Relu6Grad" op_name="gradient_tape/mobilenetv2_1.00_224/expanded_conv_depthwise_relu/Relu6/Relu6Grad"}
  %convert.152 = f32[16,112,112,32]{3,2,1,0} convert(f16[16,112,112,32]{3,2,1,0} %select.247), metadata={op_type="FusedBatchNormGradV3" op_name="gradient_tape/mobilenetv2_1.00_224/expanded_conv_depthwise_BN/FusedBatchNormGradV3"}
  %constant_1986 = f32[] constant(200704), metadata={op_type="FusedBatchNormGradV3" op_name="gradient_tape/mobilenetv2_1.00_224/block_1_expand_BN/FusedBatchNormGradV3"}
  %broadcast.3087 = f32[16,112,112,32]{3,2,1,0} broadcast(f32[] %constant_1986), dimensions={}, metadata={op_type="FusedBatchNormGradV3" op_name="gradient_tape/mobilenetv2_1.00_224/expanded_conv_depthwise_BN/FusedBatchNormGradV3"}
  %multiply.1429 = f32[16,112,112,32]{3,2,1,0} multiply(f32[16,112,112,32]{3,2,1,0} %convert.152, f32[16,112,112,32]{3,2,1,0} %broadcast.3087), metadata={op_type="FusedBatchNormGradV3" op_name="gradient_tape/mobilenetv2_1.00_224/expanded_conv_depthwise_BN/FusedBatchNormGradV3"}
  %param_1.7115 = f32[32]{0} parameter(1)
  %broadcast.2375 = f32[16,112,112,32]{3,2,1,0} broadcast(f32[32]{0} %param_1.7115), dimensions={3}, metadata={op_type="FusedBatchNormGradV3" op_name="gradient_tape/mobilenetv2_1.00_224/expanded_conv_depthwise_BN/FusedBatchNormGradV3"}
  %subtract.298 = f32[16,112,112,32]{3,2,1,0} subtract(f32[16,112,112,32]{3,2,1,0} %multiply.1429, f32[16,112,112,32]{3,2,1,0} %broadcast.2375), metadata={op_type="FusedBatchNormGradV3" op_name="gradient_tape/mobilenetv2_1.00_224/expanded_conv_depthwise_BN/FusedBatchNormGradV3"}
  %param_0.4658 = f32[32]{0} parameter(0)
  %broadcast.2373 = f32[16,112,112,32]{3,2,1,0} broadcast(f32[32]{0} %param_0.4658), dimensions={3}, metadata={op_type="FusedBatchNormGradV3" op_name="gradient_tape/mobilenetv2_1.00_224/expanded_conv_depthwise_BN/FusedBatchNormGradV3"}
  %param_4.2966 = f16[16,112,112,32]{3,2,1,0} parameter(4)
  %convert.840 = f32[16,112,112,32]{3,2,1,0} convert(f16[16,112,112,32]{3,2,1,0} %param_4.2966), metadata={op_type="FusedBatchNormV3" op_name="mobilenetv2_1.00_224/expanded_conv_depthwise_BN/FusedBatchNormV3"}
  %broadcast.4553 = f32[16,112,112,32]{3,2,1,0} broadcast(f32[32]{0} %multiply.7519), dimensions={3}, metadata={op_type="FusedBatchNormV3" op_name="mobilenetv2_1.00_224/expanded_conv_depthwise_BN/FusedBatchNormV3"}
  %subtract.1287 = f32[16,112,112,32]{3,2,1,0} subtract(f32[16,112,112,32]{3,2,1,0} %convert.840, f32[16,112,112,32]{3,2,1,0} %broadcast.4553), metadata={op_type="FusedBatchNormV3" op_name="mobilenetv2_1.00_224/expanded_conv_depthwise_BN/FusedBatchNormV3"}
  %multiply.1428 = f32[16,112,112,32]{3,2,1,0} multiply(f32[16,112,112,32]{3,2,1,0} %broadcast.2373, f32[16,112,112,32]{3,2,1,0} %subtract.1287), metadata={op_type="FusedBatchNormGradV3" op_name="gradient_tape/mobilenetv2_1.00_224/expanded_conv_depthwise_BN/FusedBatchNormGradV3"}
  %broadcast.2372 = f32[16,112,112,32]{3,2,1,0} broadcast(f32[32]{0} %divide.776), dimensions={3}
  %divide.223 = f32[16,112,112,32]{3,2,1,0} divide(f32[16,112,112,32]{3,2,1,0} %multiply.1428, f32[16,112,112,32]{3,2,1,0} %broadcast.2372), metadata={op_type="FusedBatchNormGradV3" op_name="gradient_tape/mobilenetv2_1.00_224/expanded_conv_depthwise_BN/FusedBatchNormGradV3"}
  %subtract.297 = f32[16,112,112,32]{3,2,1,0} subtract(f32[16,112,112,32]{3,2,1,0} %subtract.298, f32[16,112,112,32]{3,2,1,0} %divide.223), metadata={op_type="FusedBatchNormGradV3" op_name="gradient_tape/mobilenetv2_1.00_224/expanded_conv_depthwise_BN/FusedBatchNormGradV3"}
  %multiply.1427 = f32[16,112,112,32]{3,2,1,0} multiply(f32[16,112,112,32]{3,2,1,0} %broadcast.2376, f32[16,112,112,32]{3,2,1,0} %subtract.297), metadata={op_type="FusedBatchNormGradV3" op_name="gradient_tape/mobilenetv2_1.00_224/expanded_conv_depthwise_BN/FusedBatchNormGradV3"}
  ROOT %convert.151 = f16[16,112,112,32]{3,2,1,0} convert(f32[16,112,112,32]{3,2,1,0} %multiply.1427), metadata={op_type="FusedBatchNormGradV3" op_name="gradient_tape/mobilenetv2_1.00_224/expanded_conv_depthwise_BN/FusedBatchNormGradV3"}
}

%scalar_add_computation.102 (scalar_lhs.102: f32[], scalar_rhs.102: f32[]) -> f32[] {
  %scalar_lhs.102 = f32[] parameter(0)
  %scalar_rhs.102 = f32[] parameter(1)
  ROOT %add.358 = f32[] add(f32[] %scalar_lhs.102, f32[] %scalar_rhs.102)
}

%fused_computation.48 (param_0.4670: f32[32], param_1.7129: f16[16,112,112,32], param_2.6929: f16[16,112,112,32], param_3.3867: f16[16,112,112,32]) -> (f32[32], f32[32]) {
  %param_3.3867 = f16[16,112,112,32]{3,2,1,0} parameter(3)
  %constant_7870 = f16[] constant(6), metadata={op_type="Relu6" op_name="mobilenetv2_1.00_224/Conv1_relu/Relu6"}
  %broadcast.8612 = f16[16,112,112,32]{3,2,1,0} broadcast(f16[] %constant_7870), dimensions={}, metadata={op_type="Relu6" op_name="mobilenetv2_1.00_224/Conv1_relu/Relu6"}
  %compare.494 = pred[16,112,112,32]{3,2,1,0} compare(f16[16,112,112,32]{3,2,1,0} %param_3.3867, f16[16,112,112,32]{3,2,1,0} %broadcast.8612), direction=LT, metadata={op_type="Relu6Grad" op_name="gradient_tape/mobilenetv2_1.00_224/expanded_conv_depthwise_relu/Relu6/Relu6Grad"}
  %constant_7869 = f16[] constant(0), metadata={op_type="Relu6" op_name="mobilenetv2_1.00_224/Conv1_relu/Relu6"}
  %broadcast.8611 = f16[16,112,112,32]{3,2,1,0} broadcast(f16[] %constant_7869), dimensions={}, metadata={op_type="Relu6" op_name="mobilenetv2_1.00_224/Conv1_relu/Relu6"}
  %compare.493 = pred[16,112,112,32]{3,2,1,0} compare(f16[16,112,112,32]{3,2,1,0} %param_3.3867, f16[16,112,112,32]{3,2,1,0} %broadcast.8611), direction=GT, metadata={op_type="Relu6Grad" op_name="gradient_tape/mobilenetv2_1.00_224/expanded_conv_depthwise_relu/Relu6/Relu6Grad"}
  %and.243 = pred[16,112,112,32]{3,2,1,0} and(pred[16,112,112,32]{3,2,1,0} %compare.494, pred[16,112,112,32]{3,2,1,0} %compare.493), metadata={op_type="Relu6Grad" op_name="gradient_tape/mobilenetv2_1.00_224/expanded_conv_depthwise_relu/Relu6/Relu6Grad"}
  %param_2.6929 = f16[16,112,112,32]{3,2,1,0} parameter(2)
  %select.249 = f16[16,112,112,32]{3,2,1,0} select(pred[16,112,112,32]{3,2,1,0} %and.243, f16[16,112,112,32]{3,2,1,0} %param_2.6929, f16[16,112,112,32]{3,2,1,0} %broadcast.8611), metadata={op_type="Relu6Grad" op_name="gradient_tape/mobilenetv2_1.00_224/expanded_conv_depthwise_relu/Relu6/Relu6Grad"}
  %convert.153 = f32[16,112,112,32]{3,2,1,0} convert(f16[16,112,112,32]{3,2,1,0} %select.249), metadata={op_type="FusedBatchNormGradV3" op_name="gradient_tape/mobilenetv2_1.00_224/expanded_conv_depthwise_BN/FusedBatchNormGradV3"}
  %param_1.7129 = f16[16,112,112,32]{3,2,1,0} parameter(1)
  %convert.838 = f32[16,112,112,32]{3,2,1,0} convert(f16[16,112,112,32]{3,2,1,0} %param_1.7129), metadata={op_type="FusedBatchNormV3" op_name="mobilenetv2_1.00_224/expanded_conv_depthwise_BN/FusedBatchNormV3"}
  %param_0.4670 = f32[32]{0} parameter(0)
  %constant_3713 = f32[] constant(4.98246163e-06)
  %broadcast.4550 = f32[32]{0} broadcast(f32[] %constant_3713), dimensions={}
  %multiply.3272 = f32[32]{0} multiply(f32[32]{0} %param_0.4670, f32[32]{0} %broadcast.4550), metadata={op_type="FusedBatchNormV3" op_name="mobilenetv2_1.00_224/expanded_conv_depthwise_BN/FusedBatchNormV3"}
  %broadcast.4549 = f32[16,112,112,32]{3,2,1,0} broadcast(f32[32]{0} %multiply.3272), dimensions={3}, metadata={op_type="FusedBatchNormV3" op_name="mobilenetv2_1.00_224/expanded_conv_depthwise_BN/FusedBatchNormV3"}
  %subtract.1285 = f32[16,112,112,32]{3,2,1,0} subtract(f32[16,112,112,32]{3,2,1,0} %convert.838, f32[16,112,112,32]{3,2,1,0} %broadcast.4549), metadata={op_type="FusedBatchNormV3" op_name="mobilenetv2_1.00_224/expanded_conv_depthwise_BN/FusedBatchNormV3"}
  %multiply.1432 = f32[16,112,112,32]{3,2,1,0} multiply(f32[16,112,112,32]{3,2,1,0} %convert.153, f32[16,112,112,32]{3,2,1,0} %subtract.1285), metadata={op_type="FusedBatchNormGradV3" op_name="gradient_tape/mobilenetv2_1.00_224/expanded_conv_depthwise_BN/FusedBatchNormGradV3"}
  %bitcast.297 = f32[200704,32]{1,0} bitcast(f32[16,112,112,32]{3,2,1,0} %multiply.1432)
  %constant_1989 = f32[] constant(0), metadata={op_type="Mean" op_name="mobilenetv2_1.00_224/global_average_pooling2d/Mean"}
  %reduce.426 = f32[32]{0} reduce(f32[200704,32]{1,0} %bitcast.297, f32[] %constant_1989), dimensions={0}, to_apply=%scalar_add_computation.102, metadata={op_type="FusedBatchNormGradV3" op_name="gradient_tape/mobilenetv2_1.00_224/expanded_conv_depthwise_BN/FusedBatchNormGradV3"}
  %bitcast.298.clone.1 = f32[200704,32]{1,0} bitcast(f32[16,112,112,32]{3,2,1,0} %convert.153)
  %reduce.427.clone.1 = f32[32]{0} reduce(f32[200704,32]{1,0} %bitcast.298.clone.1, f32[] %constant_1989), dimensions={0}, to_apply=%scalar_add_computation.102, metadata={op_type="FusedBatchNormGradV3" op_name="gradient_tape/mobilenetv2_1.00_224/expanded_conv_depthwise_BN/FusedBatchNormGradV3"}
  ROOT %tuple.286 = (f32[32]{0}, f32[32]{0}) tuple(f32[32]{0} %reduce.426, f32[32]{0} %reduce.427.clone.1)
}

%fused_computation.51 (param_0.4662: f32[16], param_1.7119: f32[16], param_2.6919: f16[16,112,112,16], param_3.3855: f32[16], param_4.2951: f32[16], param_5.2764: f16[16,112,112,16], param_6.1576: f32[16]) -> f16[16,112,112,16] {
  %param_3.3855 = f32[16]{0} parameter(3)
  %constant_7839 = f32[] constant(1), metadata={op_type="SparseSoftmaxCrossEntropyWithLogits" op_name="sparse_categorical_crossentropy/SparseSoftmaxCrossEntropyWithLogits/SparseSoftmaxCrossEntropyWithLogits"}
  %broadcast.8584 = f32[16]{0} broadcast(f32[] %constant_7839), dimensions={}, metadata={op_type="FusedBatchNormGradV3" op_name="gradient_tape/mobilenetv2_1.00_224/expanded_conv_project_BN/FusedBatchNormGradV3"}
  %param_6.1576 = f32[16]{0} parameter(6)
  %constant_1994 = f32[] constant(4.98246163e-06)
  %broadcast.8583 = f32[16]{0} broadcast(f32[] %constant_1994), dimensions={}
  %multiply.7546 = f32[16]{0} multiply(f32[16]{0} %param_6.1576, f32[16]{0} %broadcast.8583), metadata={op_type="FusedBatchNormV3" op_name="mobilenetv2_1.00_224/expanded_conv_project_BN/FusedBatchNormV3"}
  %param_4.2951 = f32[16]{0} parameter(4)
  %multiply.7545 = f32[16]{0} multiply(f32[16]{0} %param_4.2951, f32[16]{0} %broadcast.8583), metadata={op_type="FusedBatchNormV3" op_name="mobilenetv2_1.00_224/expanded_conv_project_BN/FusedBatchNormV3"}
  %multiply.7544 = f32[16]{0} multiply(f32[16]{0} %multiply.7545, f32[16]{0} %multiply.7545), metadata={op_type="FusedBatchNormV3" op_name="mobilenetv2_1.00_224/expanded_conv_project_BN/FusedBatchNormV3"}
  %subtract.3187 = f32[16]{0} subtract(f32[16]{0} %multiply.7546, f32[16]{0} %multiply.7544), metadata={op_type="FusedBatchNormV3" op_name="mobilenetv2_1.00_224/expanded_conv_project_BN/FusedBatchNormV3"}
  %constant_7835 = f32[] constant(0.001), metadata={op_type="FusedBatchNormV3" op_name="mobilenetv2_1.00_224/bn_Conv1/FusedBatchNormV3"}
  %broadcast.8582 = f32[16]{0} broadcast(f32[] %constant_7835), dimensions={}
  %add.2714 = f32[16]{0} add(f32[16]{0} %subtract.3187, f32[16]{0} %broadcast.8582), metadata={op_type="FusedBatchNormV3" op_name="mobilenetv2_1.00_224/expanded_conv_project_BN/FusedBatchNormV3"}
  %rsqrt.1040 = f32[16]{0} rsqrt(f32[16]{0} %add.2714), metadata={op_type="FusedBatchNormV3" op_name="mobilenetv2_1.00_224/expanded_conv_project_BN/FusedBatchNormV3"}
  %multiply.7543 = f32[16]{0} multiply(f32[16]{0} %rsqrt.1040, f32[16]{0} %rsqrt.1040), metadata={op_type="FusedBatchNormGradV3" op_name="gradient_tape/mobilenetv2_1.00_224/expanded_conv_project_BN/FusedBatchNormGradV3"}
  %divide.782 = f32[16]{0} divide(f32[16]{0} %broadcast.8584, f32[16]{0} %multiply.7543), metadata={op_type="FusedBatchNormGradV3" op_name="gradient_tape/mobilenetv2_1.00_224/expanded_conv_project_BN/FusedBatchNormGradV3"}
  %rsqrt.320 = f32[16]{0} rsqrt(f32[16]{0} %divide.782), metadata={op_type="FusedBatchNormGradV3" op_name="gradient_tape/mobilenetv2_1.00_224/expanded_conv_project_BN/FusedBatchNormGradV3"}
  %multiply.1438 = f32[16]{0} multiply(f32[16]{0} %param_3.3855, f32[16]{0} %rsqrt.320), metadata={op_type="FusedBatchNormGradV3" op_name="gradient_tape/mobilenetv2_1.00_224/expanded_conv_project_BN/FusedBatchNormGradV3"}
  %multiply.1437 = f32[16]{0} multiply(f32[16]{0} %multiply.1438, f32[16]{0} %broadcast.8583), metadata={op_type="FusedBatchNormGradV3" op_name="gradient_tape/mobilenetv2_1.00_224/expanded_conv_project_BN/FusedBatchNormGradV3"}
  %broadcast.2383 = f32[16,112,112,16]{3,2,1,0} broadcast(f32[16]{0} %multiply.1437), dimensions={3}
  %param_2.6919 = f16[16,112,112,16]{3,2,1,0} parameter(2)
  %convert.156 = f32[16,112,112,16]{3,2,1,0} convert(f16[16,112,112,16]{3,2,1,0} %param_2.6919), metadata={op_type="FusedBatchNormGradV3" op_name="gradient_tape/mobilenetv2_1.00_224/expanded_conv_project_BN/FusedBatchNormGradV3"}
  %constant_1993 = f32[] constant(200704), metadata={op_type="FusedBatchNormGradV3" op_name="gradient_tape/mobilenetv2_1.00_224/block_1_expand_BN/FusedBatchNormGradV3"}
  %broadcast.2382 = f32[16,112,112,16]{3,2,1,0} broadcast(f32[] %constant_1993), dimensions={}, metadata={op_type="FusedBatchNormGradV3" op_name="gradient_tape/mobilenetv2_1.00_224/expanded_conv_project_BN/FusedBatchNormGradV3"}
  %multiply.1436 = f32[16,112,112,16]{3,2,1,0} multiply(f32[16,112,112,16]{3,2,1,0} %convert.156, f32[16,112,112,16]{3,2,1,0} %broadcast.2382), metadata={op_type="FusedBatchNormGradV3" op_name="gradient_tape/mobilenetv2_1.00_224/expanded_conv_project_BN/FusedBatchNormGradV3"}
  %param_1.7119 = f32[16]{0} parameter(1)
  %broadcast.2380 = f32[16,112,112,16]{3,2,1,0} broadcast(f32[16]{0} %param_1.7119), dimensions={3}, metadata={op_type="FusedBatchNormGradV3" op_name="gradient_tape/mobilenetv2_1.00_224/expanded_conv_project_BN/FusedBatchNormGradV3"}
  %subtract.300 = f32[16,112,112,16]{3,2,1,0} subtract(f32[16,112,112,16]{3,2,1,0} %multiply.1436, f32[16,112,112,16]{3,2,1,0} %broadcast.2380), metadata={op_type="FusedBatchNormGradV3" op_name="gradient_tape/mobilenetv2_1.00_224/expanded_conv_project_BN/FusedBatchNormGradV3"}
  %param_0.4662 = f32[16]{0} parameter(0)
  %broadcast.2379 = f32[16,112,112,16]{3,2,1,0} broadcast(f32[16]{0} %param_0.4662), dimensions={3}, metadata={op_type="FusedBatchNormGradV3" op_name="gradient_tape/mobilenetv2_1.00_224/expanded_conv_project_BN/FusedBatchNormGradV3"}
  %param_5.2764 = f16[16,112,112,16]{3,2,1,0} parameter(5)
  %convert.846 = f32[16,112,112,16]{3,2,1,0} convert(f16[16,112,112,16]{3,2,1,0} %param_5.2764), metadata={op_type="FusedBatchNormV3" op_name="mobilenetv2_1.00_224/expanded_conv_project_BN/FusedBatchNormV3"}
  %broadcast.4582 = f32[16,112,112,16]{3,2,1,0} broadcast(f32[16]{0} %multiply.7545), dimensions={3}, metadata={op_type="FusedBatchNormV3" op_name="mobilenetv2_1.00_224/expanded_conv_project_BN/FusedBatchNormV3"}
  %subtract.1301 = f32[16,112,112,16]{3,2,1,0} subtract(f32[16,112,112,16]{3,2,1,0} %convert.846, f32[16,112,112,16]{3,2,1,0} %broadcast.4582), metadata={op_type="FusedBatchNormV3" op_name="mobilenetv2_1.00_224/expanded_conv_project_BN/FusedBatchNormV3"}
  %multiply.1434 = f32[16,112,112,16]{3,2,1,0} multiply(f32[16,112,112,16]{3,2,1,0} %broadcast.2379, f32[16,112,112,16]{3,2,1,0} %subtract.1301), metadata={op_type="FusedBatchNormGradV3" op_name="gradient_tape/mobilenetv2_1.00_224/expanded_conv_project_BN/FusedBatchNormGradV3"}
  %broadcast.2377 = f32[16,112,112,16]{3,2,1,0} broadcast(f32[16]{0} %divide.782), dimensions={3}
  %divide.224 = f32[16,112,112,16]{3,2,1,0} divide(f32[16,112,112,16]{3,2,1,0} %multiply.1434, f32[16,112,112,16]{3,2,1,0} %broadcast.2377), metadata={op_type="FusedBatchNormGradV3" op_name="gradient_tape/mobilenetv2_1.00_224/expanded_conv_project_BN/FusedBatchNormGradV3"}
  %subtract.299 = f32[16,112,112,16]{3,2,1,0} subtract(f32[16,112,112,16]{3,2,1,0} %subtract.300, f32[16,112,112,16]{3,2,1,0} %divide.224), metadata={op_type="FusedBatchNormGradV3" op_name="gradient_tape/mobilenetv2_1.00_224/expanded_conv_project_BN/FusedBatchNormGradV3"}
  %multiply.1433 = f32[16,112,112,16]{3,2,1,0} multiply(f32[16,112,112,16]{3,2,1,0} %broadcast.2383, f32[16,112,112,16]{3,2,1,0} %subtract.299), metadata={op_type="FusedBatchNormGradV3" op_name="gradient_tape/mobilenetv2_1.00_224/expanded_conv_project_BN/FusedBatchNormGradV3"}
  ROOT %convert.155 = f16[16,112,112,16]{3,2,1,0} convert(f32[16,112,112,16]{3,2,1,0} %multiply.1433), metadata={op_type="FusedBatchNormGradV3" op_name="gradient_tape/mobilenetv2_1.00_224/expanded_conv_project_BN/FusedBatchNormGradV3"}
}

%scalar_add_computation.101 (scalar_lhs.101: f32[], scalar_rhs.101: f32[]) -> f32[] {
  %scalar_lhs.101 = f32[] parameter(0)
  %scalar_rhs.101 = f32[] parameter(1)
  ROOT %add.354 = f32[] add(f32[] %scalar_lhs.101, f32[] %scalar_rhs.101)
}

%fused_computation.53 (param_0.2075: f16[16,112,112,16], param_1.7201: f32[16], param_2.7032: f16[16,112,112,16]) -> (f32[16], f32[16]) {
  %param_0.2075 = f16[16,112,112,16]{3,2,1,0} parameter(0)
  %convert.158 = f32[16,112,112,16]{3,2,1,0} convert(f16[16,112,112,16]{3,2,1,0} %param_0.2075), metadata={op_type="FusedBatchNormGradV3" op_name="gradient_tape/mobilenetv2_1.00_224/expanded_conv_project_BN/FusedBatchNormGradV3"}
  %bitcast.300 = f32[200704,16]{1,0} bitcast(f32[16,112,112,16]{3,2,1,0} %convert.158)
  %constant_1995 = f32[] constant(0), metadata={op_type="Mean" op_name="mobilenetv2_1.00_224/global_average_pooling2d/Mean"}
  %reduce.429 = f32[16]{0} reduce(f32[200704,16]{1,0} %bitcast.300, f32[] %constant_1995), dimensions={0}, to_apply=%scalar_add_computation.101, metadata={op_type="FusedBatchNormGradV3" op_name="gradient_tape/mobilenetv2_1.00_224/expanded_conv_project_BN/FusedBatchNormGradV3"}
  %param_2.7032 = f16[16,112,112,16]{3,2,1,0} parameter(2)
  %convert.844.clone.1 = f32[16,112,112,16]{3,2,1,0} convert(f16[16,112,112,16]{3,2,1,0} %param_2.7032), metadata={op_type="FusedBatchNormV3" op_name="mobilenetv2_1.00_224/expanded_conv_project_BN/FusedBatchNormV3"}
  %param_1.7201 = f32[16]{0} parameter(1)
  %constant_3742_clone_1 = f32[] constant(4.98246163e-06)
  %broadcast.4578.clone.1 = f32[16]{0} broadcast(f32[] %constant_3742_clone_1), dimensions={}
  %multiply.3303.clone.1 = f32[16]{0} multiply(f32[16]{0} %param_1.7201, f32[16]{0} %broadcast.4578.clone.1), metadata={op_type="FusedBatchNormV3" op_name="mobilenetv2_1.00_224/expanded_conv_project_BN/FusedBatchNormV3"}
  %broadcast.4577.clone.1 = f32[16,112,112,16]{3,2,1,0} broadcast(f32[16]{0} %multiply.3303.clone.1), dimensions={3}, metadata={op_type="FusedBatchNormV3" op_name="mobilenetv2_1.00_224/expanded_conv_project_BN/FusedBatchNormV3"}
  %subtract.1299.clone.1 = f32[16,112,112,16]{3,2,1,0} subtract(f32[16,112,112,16]{3,2,1,0} %convert.844.clone.1, f32[16,112,112,16]{3,2,1,0} %broadcast.4577.clone.1), metadata={op_type="FusedBatchNormV3" op_name="mobilenetv2_1.00_224/expanded_conv_project_BN/FusedBatchNormV3"}
  %multiply.1439.clone.1 = f32[16,112,112,16]{3,2,1,0} multiply(f32[16,112,112,16]{3,2,1,0} %convert.158, f32[16,112,112,16]{3,2,1,0} %subtract.1299.clone.1), metadata={op_type="FusedBatchNormGradV3" op_name="gradient_tape/mobilenetv2_1.00_224/expanded_conv_project_BN/FusedBatchNormGradV3"}
  %bitcast.299.clone.1 = f32[200704,16]{1,0} bitcast(f32[16,112,112,16]{3,2,1,0} %multiply.1439.clone.1)
  %reduce.428.clone.1 = f32[16]{0} reduce(f32[200704,16]{1,0} %bitcast.299.clone.1, f32[] %constant_1995), dimensions={0}, to_apply=%scalar_add_computation.101, metadata={op_type="FusedBatchNormGradV3" op_name="gradient_tape/mobilenetv2_1.00_224/expanded_conv_project_BN/FusedBatchNormGradV3"}
  ROOT %tuple.287 = (f32[16]{0}, f32[16]{0}) tuple(f32[16]{0} %reduce.429, f32[16]{0} %reduce.428.clone.1)
}

%fused_computation.104 (param_0.159: f32[384], param_1.7212: f32[], param_2.7054: f32[384], param_3.3956: f32[], param_4.3119: f32[384], param_5.3009: f32[384], param_6.1770: f32[], param_7.2615: f32[384], param_8.1942: f32[384], param_9.1280: f32[384], param_10.677: f32[384], param_11.530: f32[384], param_12.266: f32[384], param_13.391: f32[384], param_14.301: f32[384], param_15.165: f32[384], param_16.167: f32[384], param_17.225: f32[384], param_18.169: f32[384], param_19.206: f32[384], param_20.248: f32[384], param_21.163: f32[384], param_22.66: f32[384], param_23.134: f32[384], param_24.137: f32[384], param_25.57: f32[384], param_26.49: f32[384], param_27.92: f32[384], param_28.110: f32[384], param_29.166: f32[384], param_30.202: f32[384], param_31.125: f32[384], param_32.55: f32[384], param_33.122: f32[384], param_34.125: f32[384], param_35.52: f32[384], param_36.44: f32[384], param_37.94: f32[384], param_38.113: f32[384]) -> (f32[384], f32[384], f32[384], f32[384], f32[384], f32[384], f32[384], f32[384], f32[384], f32[384], f32[384], f32[384], f32[384], f32[384], f32[384], f32[384], f32[384], f32[384], f32[384], f32[384], f32[384], f32[384], f32[384]) {
  %param_0.159 = f32[384]{0} parameter(0)
  %param_2.7054 = f32[384]{0} parameter(2)
  %param_4.3119 = f32[384]{0} parameter(4)
  %subtract.348.clone.1 = f32[384]{0} subtract(f32[384]{0} %param_4.3119, f32[384]{0} %param_2.7054), metadata={op_type="ResourceApplyAdam" op_name="Adam/Adam/update_74/ResourceApplyAdam"}
  %constant_2064_clone_1 = f32[] constant(1), metadata={op_type="SparseSoftmaxCrossEntropyWithLogits" op_name="sparse_categorical_crossentropy/SparseSoftmaxCrossEntropyWithLogits/SparseSoftmaxCrossEntropyWithLogits"}
  %param_3.3956 = f32[] parameter(3)
  %subtract.1000.clone.1 = f32[] subtract(f32[] %constant_2064_clone_1, f32[] %param_3.3956), metadata={op_type="ResourceApplyAdam" op_name="Adam/Adam/update_153/ResourceApplyAdam"}
  %broadcast.3180.clone.1 = f32[384]{0} broadcast(f32[] %subtract.1000.clone.1), dimensions={}, metadata={op_type="ResourceApplyAdam" op_name="Adam/Adam/update_91/ResourceApplyAdam"}
  %multiply.1515.clone.1 = f32[384]{0} multiply(f32[384]{0} %subtract.348.clone.1, f32[384]{0} %broadcast.3180.clone.1), metadata={op_type="ResourceApplyAdam" op_name="Adam/Adam/update_74/ResourceApplyAdam"}
  %add.986.clone.1 = f32[384]{0} add(f32[384]{0} %param_2.7054, f32[384]{0} %multiply.1515.clone.1), metadata={op_type="ResourceApplyAdam" op_name="Adam/Adam/update_74/ResourceApplyAdam"}
  %param_1.7212 = f32[] parameter(1)
  %broadcast.3178 = f32[384]{0} broadcast(f32[] %param_1.7212), dimensions={}, metadata={op_type="ResourceApplyAdam" op_name="Adam/Adam/update_91/ResourceApplyAdam"}
  %multiply.1512 = f32[384]{0} multiply(f32[384]{0} %add.986.clone.1, f32[384]{0} %broadcast.3178), metadata={op_type="ResourceApplyAdam" op_name="Adam/Adam/update_74/ResourceApplyAdam"}
  %param_5.3009 = f32[384]{0} parameter(5)
  %multiply.1514.clone.1 = f32[384]{0} multiply(f32[384]{0} %param_4.3119, f32[384]{0} %param_4.3119), metadata={op_type="ResourceApplyAdam" op_name="Adam/Adam/update_74/ResourceApplyAdam"}
  %subtract.347.clone.1 = f32[384]{0} subtract(f32[384]{0} %multiply.1514.clone.1, f32[384]{0} %param_5.3009), metadata={op_type="ResourceApplyAdam" op_name="Adam/Adam/update_74/ResourceApplyAdam"}
  %param_6.1770 = f32[] parameter(6)
  %subtract.1001.clone.1 = f32[] subtract(f32[] %constant_2064_clone_1, f32[] %param_6.1770), metadata={op_type="ResourceApplyAdam" op_name="Adam/Adam/update_153/ResourceApplyAdam"}
  %broadcast.3182.clone.1 = f32[384]{0} broadcast(f32[] %subtract.1001.clone.1), dimensions={}, metadata={op_type="ResourceApplyAdam" op_name="Adam/Adam/update_91/ResourceApplyAdam"}
  %multiply.1513.clone.1 = f32[384]{0} multiply(f32[384]{0} %subtract.347.clone.1, f32[384]{0} %broadcast.3182.clone.1), metadata={op_type="ResourceApplyAdam" op_name="Adam/Adam/update_74/ResourceApplyAdam"}
  %add.985.clone.1 = f32[384]{0} add(f32[384]{0} %param_5.3009, f32[384]{0} %multiply.1513.clone.1), metadata={op_type="ResourceApplyAdam" op_name="Adam/Adam/update_74/ResourceApplyAdam"}
  %sqrt.26 = f32[384]{0} sqrt(f32[384]{0} %add.985.clone.1), metadata={op_type="ResourceApplyAdam" op_name="Adam/Adam/update_74/ResourceApplyAdam"}
  %constant_2062 = f32[] constant(1e-07), metadata={op_type="ResourceApplyAdam" op_name="Adam/Adam/update_157/ResourceApplyAdam"}
  %broadcast.3179 = f32[384]{0} broadcast(f32[] %constant_2062), dimensions={}, metadata={op_type="ResourceApplyAdam" op_name="Adam/Adam/update_91/ResourceApplyAdam"}
  %add.984 = f32[384]{0} add(f32[384]{0} %sqrt.26, f32[384]{0} %broadcast.3179), metadata={op_type="ResourceApplyAdam" op_name="Adam/Adam/update_74/ResourceApplyAdam"}
  %divide.243 = f32[384]{0} divide(f32[384]{0} %multiply.1512, f32[384]{0} %add.984), metadata={op_type="ResourceApplyAdam" op_name="Adam/Adam/update_74/ResourceApplyAdam"}
  %subtract.346 = f32[384]{0} subtract(f32[384]{0} %param_0.159, f32[384]{0} %divide.243), metadata={op_type="ResourceApplyAdam" op_name="Adam/Adam/update_74/ResourceApplyAdam"}
  %param_7.2615 = f32[384]{0} parameter(7)
  %param_12.266 = f32[384]{0} parameter(12)
  %param_9.1280 = f32[384]{0} parameter(9)
  %broadcast.7692.clone.1.clone.1 = f32[384]{0} broadcast(f32[] %constant_2064_clone_1), dimensions={}, metadata={op_type="FusedBatchNormGradV3" op_name="gradient_tape/mobilenetv2_1.00_224/block_10_expand_BN/FusedBatchNormGradV3"}
  %param_11.530 = f32[384]{0} parameter(11)
  %constant_6850_clone_1_clone_1 = f32[] constant(0.000318877544)
  %broadcast.7690.clone.1.clone.1 = f32[384]{0} broadcast(f32[] %constant_6850_clone_1_clone_1), dimensions={}
  %multiply.6737.clone.1.clone.1 = f32[384]{0} multiply(f32[384]{0} %param_11.530, f32[384]{0} %broadcast.7690.clone.1.clone.1), metadata={op_type="FusedBatchNormV3" op_name="mobilenetv2_1.00_224/block_8_expand_BN/FusedBatchNormV3"}
  %param_10.677 = f32[384]{0} parameter(10)
  %multiply.6736.clone.1.clone.1 = f32[384]{0} multiply(f32[384]{0} %param_10.677, f32[384]{0} %broadcast.7690.clone.1.clone.1), metadata={op_type="FusedBatchNormV3" op_name="mobilenetv2_1.00_224/block_8_expand_BN/FusedBatchNormV3"}
  %multiply.6735.clone.1.clone.1 = f32[384]{0} multiply(f32[384]{0} %multiply.6736.clone.1.clone.1, f32[384]{0} %multiply.6736.clone.1.clone.1), metadata={op_type="FusedBatchNormV3" op_name="mobilenetv2_1.00_224/block_8_expand_BN/FusedBatchNormV3"}
  %subtract.2657.clone.1.clone.1 = f32[384]{0} subtract(f32[384]{0} %multiply.6737.clone.1.clone.1, f32[384]{0} %multiply.6735.clone.1.clone.1), metadata={op_type="FusedBatchNormV3" op_name="mobilenetv2_1.00_224/block_8_expand_BN/FusedBatchNormV3"}
  %constant_6849_clone_1_clone_1 = f32[] constant(0.001), metadata={op_type="FusedBatchNormV3" op_name="mobilenetv2_1.00_224/bn_Conv1/FusedBatchNormV3"}
  %broadcast.7689.clone.1.clone.1 = f32[384]{0} broadcast(f32[] %constant_6849_clone_1_clone_1), dimensions={}
  %add.2381.clone.1.clone.1 = f32[384]{0} add(f32[384]{0} %subtract.2657.clone.1.clone.1, f32[384]{0} %broadcast.7689.clone.1.clone.1), metadata={op_type="FusedBatchNormV3" op_name="mobilenetv2_1.00_224/block_8_expand_BN/FusedBatchNormV3"}
  %rsqrt.958.clone.1.clone.1 = f32[384]{0} rsqrt(f32[384]{0} %add.2381.clone.1.clone.1), metadata={op_type="FusedBatchNormV3" op_name="mobilenetv2_1.00_224/block_8_expand_BN/FusedBatchNormV3"}
  %multiply.6734.clone.1.clone.1 = f32[384]{0} multiply(f32[384]{0} %rsqrt.958.clone.1.clone.1, f32[384]{0} %rsqrt.958.clone.1.clone.1), metadata={op_type="FusedBatchNormGradV3" op_name="gradient_tape/mobilenetv2_1.00_224/block_8_expand_BN/FusedBatchNormGradV3"}
  %divide.720.clone.1.clone.1 = f32[384]{0} divide(f32[384]{0} %broadcast.7692.clone.1.clone.1, f32[384]{0} %multiply.6734.clone.1.clone.1), metadata={op_type="FusedBatchNormGradV3" op_name="gradient_tape/mobilenetv2_1.00_224/block_8_expand_BN/FusedBatchNormGradV3"}
  %rsqrt.331.clone.1.clone.1 = f32[384]{0} rsqrt(f32[384]{0} %divide.720.clone.1.clone.1), metadata={op_type="FusedBatchNormGradV3" op_name="gradient_tape/mobilenetv2_1.00_224/block_8_expand_BN/FusedBatchNormGradV3"}
  %multiply.3010.clone.1.clone.1 = f32[384]{0} multiply(f32[384]{0} %param_9.1280, f32[384]{0} %rsqrt.331.clone.1.clone.1), metadata={op_type="FusedBatchNormGradV3" op_name="gradient_tape/mobilenetv2_1.00_224/block_8_expand_BN/FusedBatchNormGradV3"}
  %subtract.351.clone.1.clone.1 = f32[384]{0} subtract(f32[384]{0} %multiply.3010.clone.1.clone.1, f32[384]{0} %param_12.266), metadata={op_type="ResourceApplyAdam" op_name="Adam/Adam/update_73/ResourceApplyAdam"}
  %multiply.1519.clone.1.clone.1 = f32[384]{0} multiply(f32[384]{0} %subtract.351.clone.1.clone.1, f32[384]{0} %broadcast.3180.clone.1), metadata={op_type="ResourceApplyAdam" op_name="Adam/Adam/update_73/ResourceApplyAdam"}
  %add.989.clone.1.clone.1 = f32[384]{0} add(f32[384]{0} %param_12.266, f32[384]{0} %multiply.1519.clone.1.clone.1), metadata={op_type="ResourceApplyAdam" op_name="Adam/Adam/update_73/ResourceApplyAdam"}
  %multiply.1516.clone.1 = f32[384]{0} multiply(f32[384]{0} %add.989.clone.1.clone.1, f32[384]{0} %broadcast.3178), metadata={op_type="ResourceApplyAdam" op_name="Adam/Adam/update_73/ResourceApplyAdam"}
  %param_8.1942 = f32[384]{0} parameter(8)
  %multiply.1518.clone.1.clone.1 = f32[384]{0} multiply(f32[384]{0} %multiply.3010.clone.1.clone.1, f32[384]{0} %multiply.3010.clone.1.clone.1), metadata={op_type="ResourceApplyAdam" op_name="Adam/Adam/update_73/ResourceApplyAdam"}
  %subtract.350.clone.1.clone.1 = f32[384]{0} subtract(f32[384]{0} %multiply.1518.clone.1.clone.1, f32[384]{0} %param_8.1942), metadata={op_type="ResourceApplyAdam" op_name="Adam/Adam/update_73/ResourceApplyAdam"}
  %multiply.1517.clone.1.clone.1 = f32[384]{0} multiply(f32[384]{0} %subtract.350.clone.1.clone.1, f32[384]{0} %broadcast.3182.clone.1), metadata={op_type="ResourceApplyAdam" op_name="Adam/Adam/update_73/ResourceApplyAdam"}
  %add.988.clone.1.clone.1 = f32[384]{0} add(f32[384]{0} %param_8.1942, f32[384]{0} %multiply.1517.clone.1.clone.1), metadata={op_type="ResourceApplyAdam" op_name="Adam/Adam/update_73/ResourceApplyAdam"}
  %sqrt.27.clone.1 = f32[384]{0} sqrt(f32[384]{0} %add.988.clone.1.clone.1), metadata={op_type="ResourceApplyAdam" op_name="Adam/Adam/update_73/ResourceApplyAdam"}
  %add.987.clone.1 = f32[384]{0} add(f32[384]{0} %sqrt.27.clone.1, f32[384]{0} %broadcast.3179), metadata={op_type="ResourceApplyAdam" op_name="Adam/Adam/update_73/ResourceApplyAdam"}
  %divide.244.clone.1 = f32[384]{0} divide(f32[384]{0} %multiply.1516.clone.1, f32[384]{0} %add.987.clone.1), metadata={op_type="ResourceApplyAdam" op_name="Adam/Adam/update_73/ResourceApplyAdam"}
  %subtract.349.clone.1 = f32[384]{0} subtract(f32[384]{0} %param_7.2615, f32[384]{0} %divide.244.clone.1), metadata={op_type="ResourceApplyAdam" op_name="Adam/Adam/update_73/ResourceApplyAdam"}
  %param_13.391 = f32[384]{0} parameter(13)
  %param_16.167 = f32[384]{0} parameter(16)
  %param_15.165 = f32[384]{0} parameter(15)
  %subtract.366.clone.1.clone.1 = f32[384]{0} subtract(f32[384]{0} %param_15.165, f32[384]{0} %param_16.167), metadata={op_type="ResourceApplyAdam" op_name="Adam/Adam/update_68/ResourceApplyAdam"}
  %multiply.1541.clone.1.clone.1 = f32[384]{0} multiply(f32[384]{0} %subtract.366.clone.1.clone.1, f32[384]{0} %broadcast.3180.clone.1), metadata={op_type="ResourceApplyAdam" op_name="Adam/Adam/update_68/ResourceApplyAdam"}
  %add.1004.clone.1.clone.1 = f32[384]{0} add(f32[384]{0} %param_16.167, f32[384]{0} %multiply.1541.clone.1.clone.1), metadata={op_type="ResourceApplyAdam" op_name="Adam/Adam/update_68/ResourceApplyAdam"}
  %multiply.1537.clone.1 = f32[384]{0} multiply(f32[384]{0} %add.1004.clone.1.clone.1, f32[384]{0} %broadcast.3178), metadata={op_type="ResourceApplyAdam" op_name="Adam/Adam/update_68/ResourceApplyAdam"}
  %param_14.301 = f32[384]{0} parameter(14)
  %multiply.1539.clone.1.clone.1 = f32[384]{0} multiply(f32[384]{0} %param_15.165, f32[384]{0} %param_15.165), metadata={op_type="ResourceApplyAdam" op_name="Adam/Adam/update_68/ResourceApplyAdam"}
  %subtract.365.clone.1.clone.1 = f32[384]{0} subtract(f32[384]{0} %multiply.1539.clone.1.clone.1, f32[384]{0} %param_14.301), metadata={op_type="ResourceApplyAdam" op_name="Adam/Adam/update_68/ResourceApplyAdam"}
  %multiply.1538.clone.1.clone.1 = f32[384]{0} multiply(f32[384]{0} %subtract.365.clone.1.clone.1, f32[384]{0} %broadcast.3182.clone.1), metadata={op_type="ResourceApplyAdam" op_name="Adam/Adam/update_68/ResourceApplyAdam"}
  %add.1003.clone.1.clone.1 = f32[384]{0} add(f32[384]{0} %param_14.301, f32[384]{0} %multiply.1538.clone.1.clone.1), metadata={op_type="ResourceApplyAdam" op_name="Adam/Adam/update_68/ResourceApplyAdam"}
  %sqrt.32.clone.1 = f32[384]{0} sqrt(f32[384]{0} %add.1003.clone.1.clone.1), metadata={op_type="ResourceApplyAdam" op_name="Adam/Adam/update_68/ResourceApplyAdam"}
  %add.1002.clone.1 = f32[384]{0} add(f32[384]{0} %sqrt.32.clone.1, f32[384]{0} %broadcast.3179), metadata={op_type="ResourceApplyAdam" op_name="Adam/Adam/update_68/ResourceApplyAdam"}
  %divide.249.clone.1 = f32[384]{0} divide(f32[384]{0} %multiply.1537.clone.1, f32[384]{0} %add.1002.clone.1), metadata={op_type="ResourceApplyAdam" op_name="Adam/Adam/update_68/ResourceApplyAdam"}
  %subtract.364.clone.1 = f32[384]{0} subtract(f32[384]{0} %param_13.391, f32[384]{0} %divide.249.clone.1), metadata={op_type="ResourceApplyAdam" op_name="Adam/Adam/update_68/ResourceApplyAdam"}
  %param_17.225 = f32[384]{0} parameter(17)
  %param_22.66 = f32[384]{0} parameter(22)
  %param_19.206 = f32[384]{0} parameter(19)
  %param_21.163 = f32[384]{0} parameter(21)
  %multiply.6851.clone.1.clone.1 = f32[384]{0} multiply(f32[384]{0} %param_21.163, f32[384]{0} %broadcast.7690.clone.1.clone.1), metadata={op_type="FusedBatchNormV3" op_name="mobilenetv2_1.00_224/block_7_depthwise_BN/FusedBatchNormV3"}
  %param_20.248 = f32[384]{0} parameter(20)
  %multiply.6850.clone.1.clone.1 = f32[384]{0} multiply(f32[384]{0} %param_20.248, f32[384]{0} %broadcast.7690.clone.1.clone.1), metadata={op_type="FusedBatchNormV3" op_name="mobilenetv2_1.00_224/block_7_depthwise_BN/FusedBatchNormV3"}
  %multiply.6848.clone.1.clone.1 = f32[384]{0} multiply(f32[384]{0} %multiply.6850.clone.1.clone.1, f32[384]{0} %multiply.6850.clone.1.clone.1), metadata={op_type="FusedBatchNormV3" op_name="mobilenetv2_1.00_224/block_7_depthwise_BN/FusedBatchNormV3"}
  %subtract.2681.clone.1.clone.1 = f32[384]{0} subtract(f32[384]{0} %multiply.6851.clone.1.clone.1, f32[384]{0} %multiply.6848.clone.1.clone.1), metadata={op_type="FusedBatchNormV3" op_name="mobilenetv2_1.00_224/block_7_depthwise_BN/FusedBatchNormV3"}
  %add.2406.clone.1.clone.1 = f32[384]{0} add(f32[384]{0} %subtract.2681.clone.1.clone.1, f32[384]{0} %broadcast.7689.clone.1.clone.1), metadata={op_type="FusedBatchNormV3" op_name="mobilenetv2_1.00_224/block_7_depthwise_BN/FusedBatchNormV3"}
  %rsqrt.983.clone.1.clone.1 = f32[384]{0} rsqrt(f32[384]{0} %add.2406.clone.1.clone.1), metadata={op_type="FusedBatchNormV3" op_name="mobilenetv2_1.00_224/block_7_depthwise_BN/FusedBatchNormV3"}
  %multiply.6847.clone.1.clone.1 = f32[384]{0} multiply(f32[384]{0} %rsqrt.983.clone.1.clone.1, f32[384]{0} %rsqrt.983.clone.1.clone.1), metadata={op_type="FusedBatchNormGradV3" op_name="gradient_tape/mobilenetv2_1.00_224/block_7_depthwise_BN/FusedBatchNormGradV3"}
  %divide.744.clone.1.clone.1 = f32[384]{0} divide(f32[384]{0} %broadcast.7692.clone.1.clone.1, f32[384]{0} %multiply.6847.clone.1.clone.1), metadata={op_type="FusedBatchNormGradV3" op_name="gradient_tape/mobilenetv2_1.00_224/block_7_depthwise_BN/FusedBatchNormGradV3"}
  %rsqrt.335.clone.1.clone.1 = f32[384]{0} rsqrt(f32[384]{0} %divide.744.clone.1.clone.1), metadata={op_type="FusedBatchNormGradV3" op_name="gradient_tape/mobilenetv2_1.00_224/block_7_depthwise_BN/FusedBatchNormGradV3"}
  %multiply.3014.clone.1.clone.1 = f32[384]{0} multiply(f32[384]{0} %param_19.206, f32[384]{0} %rsqrt.335.clone.1.clone.1), metadata={op_type="FusedBatchNormGradV3" op_name="gradient_tape/mobilenetv2_1.00_224/block_7_depthwise_BN/FusedBatchNormGradV3"}
  %subtract.369.clone.1.clone.1 = f32[384]{0} subtract(f32[384]{0} %multiply.3014.clone.1.clone.1, f32[384]{0} %param_22.66), metadata={op_type="ResourceApplyAdam" op_name="Adam/Adam/update_67/ResourceApplyAdam"}
  %multiply.1548.clone.1.clone.1 = f32[384]{0} multiply(f32[384]{0} %subtract.369.clone.1.clone.1, f32[384]{0} %broadcast.3180.clone.1), metadata={op_type="ResourceApplyAdam" op_name="Adam/Adam/update_67/ResourceApplyAdam"}
  %add.1007.clone.1.clone.1 = f32[384]{0} add(f32[384]{0} %param_22.66, f32[384]{0} %multiply.1548.clone.1.clone.1), metadata={op_type="ResourceApplyAdam" op_name="Adam/Adam/update_67/ResourceApplyAdam"}
  %multiply.1543.clone.1 = f32[384]{0} multiply(f32[384]{0} %add.1007.clone.1.clone.1, f32[384]{0} %broadcast.3178), metadata={op_type="ResourceApplyAdam" op_name="Adam/Adam/update_67/ResourceApplyAdam"}
  %param_18.169 = f32[384]{0} parameter(18)
  %multiply.1546.clone.1.clone.1 = f32[384]{0} multiply(f32[384]{0} %multiply.3014.clone.1.clone.1, f32[384]{0} %multiply.3014.clone.1.clone.1), metadata={op_type="ResourceApplyAdam" op_name="Adam/Adam/update_67/ResourceApplyAdam"}
  %subtract.368.clone.1.clone.1 = f32[384]{0} subtract(f32[384]{0} %multiply.1546.clone.1.clone.1, f32[384]{0} %param_18.169), metadata={op_type="ResourceApplyAdam" op_name="Adam/Adam/update_67/ResourceApplyAdam"}
  %multiply.1544.clone.1.clone.1 = f32[384]{0} multiply(f32[384]{0} %subtract.368.clone.1.clone.1, f32[384]{0} %broadcast.3182.clone.1), metadata={op_type="ResourceApplyAdam" op_name="Adam/Adam/update_67/ResourceApplyAdam"}
  %add.1006.clone.1.clone.1 = f32[384]{0} add(f32[384]{0} %param_18.169, f32[384]{0} %multiply.1544.clone.1.clone.1), metadata={op_type="ResourceApplyAdam" op_name="Adam/Adam/update_67/ResourceApplyAdam"}
  %sqrt.33.clone.1 = f32[384]{0} sqrt(f32[384]{0} %add.1006.clone.1.clone.1), metadata={op_type="ResourceApplyAdam" op_name="Adam/Adam/update_67/ResourceApplyAdam"}
  %add.1005.clone.1 = f32[384]{0} add(f32[384]{0} %sqrt.33.clone.1, f32[384]{0} %broadcast.3179), metadata={op_type="ResourceApplyAdam" op_name="Adam/Adam/update_67/ResourceApplyAdam"}
  %divide.250.clone.1 = f32[384]{0} divide(f32[384]{0} %multiply.1543.clone.1, f32[384]{0} %add.1005.clone.1), metadata={op_type="ResourceApplyAdam" op_name="Adam/Adam/update_67/ResourceApplyAdam"}
  %subtract.367.clone.1 = f32[384]{0} subtract(f32[384]{0} %param_17.225, f32[384]{0} %divide.250.clone.1), metadata={op_type="ResourceApplyAdam" op_name="Adam/Adam/update_67/ResourceApplyAdam"}
  %param_23.134 = f32[384]{0} parameter(23)
  %param_26.49 = f32[384]{0} parameter(26)
  %param_25.57 = f32[384]{0} parameter(25)
  %subtract.375.clone.1.clone.1 = f32[384]{0} subtract(f32[384]{0} %param_25.57, f32[384]{0} %param_26.49), metadata={op_type="ResourceApplyAdam" op_name="Adam/Adam/update_65/ResourceApplyAdam"}
  %multiply.1556.clone.1.clone.1 = f32[384]{0} multiply(f32[384]{0} %subtract.375.clone.1.clone.1, f32[384]{0} %broadcast.3180.clone.1), metadata={op_type="ResourceApplyAdam" op_name="Adam/Adam/update_65/ResourceApplyAdam"}
  %add.1015.clone.1.clone.1 = f32[384]{0} add(f32[384]{0} %param_26.49, f32[384]{0} %multiply.1556.clone.1.clone.1), metadata={op_type="ResourceApplyAdam" op_name="Adam/Adam/update_65/ResourceApplyAdam"}
  %multiply.1553.clone.1 = f32[384]{0} multiply(f32[384]{0} %add.1015.clone.1.clone.1, f32[384]{0} %broadcast.3178), metadata={op_type="ResourceApplyAdam" op_name="Adam/Adam/update_65/ResourceApplyAdam"}
  %param_24.137 = f32[384]{0} parameter(24)
  %multiply.1555.clone.1.clone.1 = f32[384]{0} multiply(f32[384]{0} %param_25.57, f32[384]{0} %param_25.57), metadata={op_type="ResourceApplyAdam" op_name="Adam/Adam/update_65/ResourceApplyAdam"}
  %subtract.374.clone.1.clone.1 = f32[384]{0} subtract(f32[384]{0} %multiply.1555.clone.1.clone.1, f32[384]{0} %param_24.137), metadata={op_type="ResourceApplyAdam" op_name="Adam/Adam/update_65/ResourceApplyAdam"}
  %multiply.1554.clone.1.clone.1 = f32[384]{0} multiply(f32[384]{0} %subtract.374.clone.1.clone.1, f32[384]{0} %broadcast.3182.clone.1), metadata={op_type="ResourceApplyAdam" op_name="Adam/Adam/update_65/ResourceApplyAdam"}
  %add.1013.clone.1.clone.1 = f32[384]{0} add(f32[384]{0} %param_24.137, f32[384]{0} %multiply.1554.clone.1.clone.1), metadata={op_type="ResourceApplyAdam" op_name="Adam/Adam/update_65/ResourceApplyAdam"}
  %sqrt.35.clone.1 = f32[384]{0} sqrt(f32[384]{0} %add.1013.clone.1.clone.1), metadata={op_type="ResourceApplyAdam" op_name="Adam/Adam/update_65/ResourceApplyAdam"}
  %add.1012.clone.1 = f32[384]{0} add(f32[384]{0} %sqrt.35.clone.1, f32[384]{0} %broadcast.3179), metadata={op_type="ResourceApplyAdam" op_name="Adam/Adam/update_65/ResourceApplyAdam"}
  %divide.252.clone.1 = f32[384]{0} divide(f32[384]{0} %multiply.1553.clone.1, f32[384]{0} %add.1012.clone.1), metadata={op_type="ResourceApplyAdam" op_name="Adam/Adam/update_65/ResourceApplyAdam"}
  %subtract.373.clone.1 = f32[384]{0} subtract(f32[384]{0} %param_23.134, f32[384]{0} %divide.252.clone.1), metadata={op_type="ResourceApplyAdam" op_name="Adam/Adam/update_65/ResourceApplyAdam"}
  %param_27.92 = f32[384]{0} parameter(27)
  %param_32.55 = f32[384]{0} parameter(32)
  %param_29.166 = f32[384]{0} parameter(29)
  %param_31.125 = f32[384]{0} parameter(31)
  %multiply.6825.clone.1.clone.1 = f32[384]{0} multiply(f32[384]{0} %param_31.125, f32[384]{0} %broadcast.7690.clone.1.clone.1), metadata={op_type="FusedBatchNormV3" op_name="mobilenetv2_1.00_224/block_7_expand_BN/FusedBatchNormV3"}
  %param_30.202 = f32[384]{0} parameter(30)
  %multiply.6824.clone.1.clone.1 = f32[384]{0} multiply(f32[384]{0} %param_30.202, f32[384]{0} %broadcast.7690.clone.1.clone.1), metadata={op_type="FusedBatchNormV3" op_name="mobilenetv2_1.00_224/block_7_expand_BN/FusedBatchNormV3"}
  %multiply.6822.clone.1.clone.1 = f32[384]{0} multiply(f32[384]{0} %multiply.6824.clone.1.clone.1, f32[384]{0} %multiply.6824.clone.1.clone.1), metadata={op_type="FusedBatchNormV3" op_name="mobilenetv2_1.00_224/block_7_expand_BN/FusedBatchNormV3"}
  %subtract.2675.clone.1.clone.1 = f32[384]{0} subtract(f32[384]{0} %multiply.6825.clone.1.clone.1, f32[384]{0} %multiply.6822.clone.1.clone.1), metadata={op_type="FusedBatchNormV3" op_name="mobilenetv2_1.00_224/block_7_expand_BN/FusedBatchNormV3"}
  %add.2399.clone.1.clone.1 = f32[384]{0} add(f32[384]{0} %subtract.2675.clone.1.clone.1, f32[384]{0} %broadcast.7689.clone.1.clone.1), metadata={op_type="FusedBatchNormV3" op_name="mobilenetv2_1.00_224/block_7_expand_BN/FusedBatchNormV3"}
  %rsqrt.977.clone.1.clone.1 = f32[384]{0} rsqrt(f32[384]{0} %add.2399.clone.1.clone.1), metadata={op_type="FusedBatchNormV3" op_name="mobilenetv2_1.00_224/block_7_expand_BN/FusedBatchNormV3"}
  %multiply.6821.clone.1.clone.1 = f32[384]{0} multiply(f32[384]{0} %rsqrt.977.clone.1.clone.1, f32[384]{0} %rsqrt.977.clone.1.clone.1), metadata={op_type="FusedBatchNormGradV3" op_name="gradient_tape/mobilenetv2_1.00_224/block_7_expand_BN/FusedBatchNormGradV3"}
  %divide.738.clone.1.clone.1 = f32[384]{0} divide(f32[384]{0} %broadcast.7692.clone.1.clone.1, f32[384]{0} %multiply.6821.clone.1.clone.1), metadata={op_type="FusedBatchNormGradV3" op_name="gradient_tape/mobilenetv2_1.00_224/block_7_expand_BN/FusedBatchNormGradV3"}
  %rsqrt.337.clone.1.clone.1 = f32[384]{0} rsqrt(f32[384]{0} %divide.738.clone.1.clone.1), metadata={op_type="FusedBatchNormGradV3" op_name="gradient_tape/mobilenetv2_1.00_224/block_7_expand_BN/FusedBatchNormGradV3"}
  %multiply.3016.clone.1.clone.1 = f32[384]{0} multiply(f32[384]{0} %param_29.166, f32[384]{0} %rsqrt.337.clone.1.clone.1), metadata={op_type="FusedBatchNormGradV3" op_name="gradient_tape/mobilenetv2_1.00_224/block_7_expand_BN/FusedBatchNormGradV3"}
  %subtract.378.clone.1.clone.1 = f32[384]{0} subtract(f32[384]{0} %multiply.3016.clone.1.clone.1, f32[384]{0} %param_32.55), metadata={op_type="ResourceApplyAdam" op_name="Adam/Adam/update_64/ResourceApplyAdam"}
  %multiply.1560.clone.1.clone.1 = f32[384]{0} multiply(f32[384]{0} %subtract.378.clone.1.clone.1, f32[384]{0} %broadcast.3180.clone.1), metadata={op_type="ResourceApplyAdam" op_name="Adam/Adam/update_64/ResourceApplyAdam"}
  %add.1019.clone.1.clone.1 = f32[384]{0} add(f32[384]{0} %param_32.55, f32[384]{0} %multiply.1560.clone.1.clone.1), metadata={op_type="ResourceApplyAdam" op_name="Adam/Adam/update_64/ResourceApplyAdam"}
  %multiply.1557.clone.1 = f32[384]{0} multiply(f32[384]{0} %add.1019.clone.1.clone.1, f32[384]{0} %broadcast.3178), metadata={op_type="ResourceApplyAdam" op_name="Adam/Adam/update_64/ResourceApplyAdam"}
  %param_28.110 = f32[384]{0} parameter(28)
  %multiply.1559.clone.1.clone.1 = f32[384]{0} multiply(f32[384]{0} %multiply.3016.clone.1.clone.1, f32[384]{0} %multiply.3016.clone.1.clone.1), metadata={op_type="ResourceApplyAdam" op_name="Adam/Adam/update_64/ResourceApplyAdam"}
  %subtract.377.clone.1.clone.1 = f32[384]{0} subtract(f32[384]{0} %multiply.1559.clone.1.clone.1, f32[384]{0} %param_28.110), metadata={op_type="ResourceApplyAdam" op_name="Adam/Adam/update_64/ResourceApplyAdam"}
  %multiply.1558.clone.1.clone.1 = f32[384]{0} multiply(f32[384]{0} %subtract.377.clone.1.clone.1, f32[384]{0} %broadcast.3182.clone.1), metadata={op_type="ResourceApplyAdam" op_name="Adam/Adam/update_64/ResourceApplyAdam"}
  %add.1017.clone.1.clone.1 = f32[384]{0} add(f32[384]{0} %param_28.110, f32[384]{0} %multiply.1558.clone.1.clone.1), metadata={op_type="ResourceApplyAdam" op_name="Adam/Adam/update_64/ResourceApplyAdam"}
  %sqrt.36.clone.1 = f32[384]{0} sqrt(f32[384]{0} %add.1017.clone.1.clone.1), metadata={op_type="ResourceApplyAdam" op_name="Adam/Adam/update_64/ResourceApplyAdam"}
  %add.1016.clone.1 = f32[384]{0} add(f32[384]{0} %sqrt.36.clone.1, f32[384]{0} %broadcast.3179), metadata={op_type="ResourceApplyAdam" op_name="Adam/Adam/update_64/ResourceApplyAdam"}
  %divide.253.clone.1 = f32[384]{0} divide(f32[384]{0} %multiply.1557.clone.1, f32[384]{0} %add.1016.clone.1), metadata={op_type="ResourceApplyAdam" op_name="Adam/Adam/update_64/ResourceApplyAdam"}
  %subtract.376.clone.1 = f32[384]{0} subtract(f32[384]{0} %param_27.92, f32[384]{0} %divide.253.clone.1), metadata={op_type="ResourceApplyAdam" op_name="Adam/Adam/update_64/ResourceApplyAdam"}
  %param_33.122 = f32[384]{0} parameter(33)
  %param_36.44 = f32[384]{0} parameter(36)
  %param_35.52 = f32[384]{0} parameter(35)
  %subtract.771.clone.1.clone.1 = f32[384]{0} subtract(f32[384]{0} %param_35.52, f32[384]{0} %param_36.44), metadata={op_type="ResourceApplyAdam" op_name="Adam/Adam/update_95/ResourceApplyAdam"}
  %multiply.2266.clone.1.clone.1 = f32[384]{0} multiply(f32[384]{0} %subtract.771.clone.1.clone.1, f32[384]{0} %broadcast.3180.clone.1), metadata={op_type="ResourceApplyAdam" op_name="Adam/Adam/update_95/ResourceApplyAdam"}
  %add.1377.clone.1.clone.1 = f32[384]{0} add(f32[384]{0} %param_36.44, f32[384]{0} %multiply.2266.clone.1.clone.1), metadata={op_type="ResourceApplyAdam" op_name="Adam/Adam/update_95/ResourceApplyAdam"}
  %multiply.2263.clone.1 = f32[384]{0} multiply(f32[384]{0} %add.1377.clone.1.clone.1, f32[384]{0} %broadcast.3178), metadata={op_type="ResourceApplyAdam" op_name="Adam/Adam/update_95/ResourceApplyAdam"}
  %param_34.125 = f32[384]{0} parameter(34)
  %multiply.2265.clone.1.clone.1 = f32[384]{0} multiply(f32[384]{0} %param_35.52, f32[384]{0} %param_35.52), metadata={op_type="ResourceApplyAdam" op_name="Adam/Adam/update_95/ResourceApplyAdam"}
  %subtract.770.clone.1.clone.1 = f32[384]{0} subtract(f32[384]{0} %multiply.2265.clone.1.clone.1, f32[384]{0} %param_34.125), metadata={op_type="ResourceApplyAdam" op_name="Adam/Adam/update_95/ResourceApplyAdam"}
  %multiply.2264.clone.1.clone.1 = f32[384]{0} multiply(f32[384]{0} %subtract.770.clone.1.clone.1, f32[384]{0} %broadcast.3182.clone.1), metadata={op_type="ResourceApplyAdam" op_name="Adam/Adam/update_95/ResourceApplyAdam"}
  %add.1376.clone.1.clone.1 = f32[384]{0} add(f32[384]{0} %param_34.125, f32[384]{0} %multiply.2264.clone.1.clone.1), metadata={op_type="ResourceApplyAdam" op_name="Adam/Adam/update_95/ResourceApplyAdam"}
  %sqrt.149.clone.1 = f32[384]{0} sqrt(f32[384]{0} %add.1376.clone.1.clone.1), metadata={op_type="ResourceApplyAdam" op_name="Adam/Adam/update_95/ResourceApplyAdam"}
  %add.1375.clone.1 = f32[384]{0} add(f32[384]{0} %sqrt.149.clone.1, f32[384]{0} %broadcast.3179), metadata={op_type="ResourceApplyAdam" op_name="Adam/Adam/update_95/ResourceApplyAdam"}
  %divide.420.clone.1 = f32[384]{0} divide(f32[384]{0} %multiply.2263.clone.1, f32[384]{0} %add.1375.clone.1), metadata={op_type="ResourceApplyAdam" op_name="Adam/Adam/update_95/ResourceApplyAdam"}
  %subtract.769.clone.1 = f32[384]{0} subtract(f32[384]{0} %param_33.122, f32[384]{0} %divide.420.clone.1), metadata={op_type="ResourceApplyAdam" op_name="Adam/Adam/update_95/ResourceApplyAdam"}
  %param_37.94 = f32[384]{0} parameter(37)
  %constant_3355_clone_1 = f32[] constant(0.999), metadata={op_type="FusedBatchNormV3" op_name="mobilenetv2_1.00_224/bn_Conv1/FusedBatchNormV3"}
  %broadcast.4281.clone.1 = f32[384]{0} broadcast(f32[] %constant_3355_clone_1), dimensions={}, metadata={op_type="FusedBatchNormV3" op_name="mobilenetv2_1.00_224/block_7_expand_BN/FusedBatchNormV3"}
  %multiply.2747.clone.1 = f32[384]{0} multiply(f32[384]{0} %param_37.94, f32[384]{0} %broadcast.4281.clone.1), metadata={op_type="FusedBatchNormV3" op_name="mobilenetv2_1.00_224/block_8_expand_BN/FusedBatchNormV3"}
  %constant_3354_clone_1 = f32[] constant(0.00100031903)
  %broadcast.4280.clone.1 = f32[384]{0} broadcast(f32[] %constant_3354_clone_1), dimensions={}
  %multiply.2746.clone.1 = f32[384]{0} multiply(f32[384]{0} %subtract.2657.clone.1.clone.1, f32[384]{0} %broadcast.4280.clone.1), metadata={op_type="FusedBatchNormV3" op_name="mobilenetv2_1.00_224/block_8_expand_BN/FusedBatchNormV3"}
  %add.1530.clone.1 = f32[384]{0} add(f32[384]{0} %multiply.2747.clone.1, f32[384]{0} %multiply.2746.clone.1), metadata={op_type="FusedBatchNormV3" op_name="mobilenetv2_1.00_224/block_8_expand_BN/FusedBatchNormV3"}
  %param_38.113 = f32[384]{0} parameter(38)
  %multiply.2752.clone.1 = f32[384]{0} multiply(f32[384]{0} %param_38.113, f32[384]{0} %broadcast.4281.clone.1), metadata={op_type="FusedBatchNormV3" op_name="mobilenetv2_1.00_224/block_8_expand_BN/FusedBatchNormV3"}
  %constant_3361_clone_1 = f32[] constant(3.18877568e-07)
  %broadcast.4284.clone.1 = f32[384]{0} broadcast(f32[] %constant_3361_clone_1), dimensions={}
  %multiply.2751.clone.1 = f32[384]{0} multiply(f32[384]{0} %param_10.677, f32[384]{0} %broadcast.4284.clone.1), metadata={op_type="FusedBatchNormV3" op_name="mobilenetv2_1.00_224/block_8_expand_BN/FusedBatchNormV3"}
  %add.1531.clone.1 = f32[384]{0} add(f32[384]{0} %multiply.2752.clone.1, f32[384]{0} %multiply.2751.clone.1), metadata={op_type="FusedBatchNormV3" op_name="mobilenetv2_1.00_224/block_8_expand_BN/FusedBatchNormV3"}
  ROOT %tuple.806 = (f32[384]{0}, f32[384]{0}, f32[384]{0}, f32[384]{0}, f32[384]{0}, f32[384]{0}, f32[384]{0}, f32[384]{0}, f32[384]{0}, f32[384]{0}, f32[384]{0}, f32[384]{0}, f32[384]{0}, f32[384]{0}, f32[384]{0}, f32[384]{0}, f32[384]{0}, f32[384]{0}, f32[384]{0}, f32[384]{0}, f32[384]{0}, f32[384]{0}, f32[384]{0}) tuple(f32[384]{0} %subtract.346, f32[384]{0} %add.986.clone.1, f32[384]{0} %add.985.clone.1, f32[384]{0} %subtract.349.clone.1, f32[384]{0} %add.989.clone.1.clone.1, f32[384]{0} %add.988.clone.1.clone.1, f32[384]{0} %subtract.364.clone.1, f32[384]{0} %add.1004.clone.1.clone.1, f32[384]{0} %add.1003.clone.1.clone.1, f32[384]{0} %subtract.367.clone.1, f32[384]{0} %add.1007.clone.1.clone.1, f32[384]{0} %add.1006.clone.1.clone.1, f32[384]{0} %subtract.373.clone.1, f32[384]{0} %add.1015.clone.1.clone.1, f32[384]{0} %add.1013.clone.1.clone.1, f32[384]{0} %subtract.376.clone.1, f32[384]{0} %add.1019.clone.1.clone.1, f32[384]{0} %add.1017.clone.1.clone.1, f32[384]{0} %subtract.769.clone.1, f32[384]{0} %add.1377.clone.1.clone.1, f32[384]{0} %add.1376.clone.1.clone.1, f32[384]{0} %add.1530.clone.1, f32[384]{0} %add.1531.clone.1)
}

%fused_computation.144 (param_0.213: f32[64], param_1.7221: f32[], param_2.7072: f32[64], param_3.3986: f32[], param_4.3171: f32[64], param_5.3096: f32[64], param_6.1852: f32[64], param_7.1559: f32[64], param_8.987: f32[], param_9.1266: f32[64], param_10.658: f32[64], param_11.503: f32[64], param_12.236: f32[64], param_13.346: f32[64], param_14.258: f32[64], param_15.141: f32[64], param_16.151: f32[64], param_17.201: f32[64], param_18.154: f32[64], param_19.201: f32[64], param_20.243: f32[64], param_21.154: f32[64], param_22.55: f32[64], param_23.116: f32[64], param_24.115: f32[64], param_25.44: f32[64], param_26.44: f32[64], param_27.80: f32[64], param_28.98: f32[64], param_29.161: f32[64], param_30.197: f32[64], param_31.116: f32[64], param_32.44: f32[64], param_33.104: f32[64], param_34.103: f32[64], param_35.39: f32[64], param_36.39: f32[64], param_37.71: f32[64], param_38.87: f32[64], param_39.139: f32[64]) -> (f32[64], f32[64], f32[64], f32[64], f32[64], f32[64], f32[64], f32[64], f32[64], f32[64], f32[64], f32[64], f32[64], f32[64], f32[64], f32[64], f32[64], f32[64], f32[64], f32[64], f32[64], f32[64]) {
  %param_0.213 = f32[64]{0} parameter(0)
  %param_2.7072 = f32[64]{0} parameter(2)
  %param_4.3171 = f32[64]{0} parameter(4)
  %constant_2113_clone_1 = f32[] constant(1), metadata={op_type="SparseSoftmaxCrossEntropyWithLogits" op_name="sparse_categorical_crossentropy/SparseSoftmaxCrossEntropyWithLogits/SparseSoftmaxCrossEntropyWithLogits"}
  %broadcast.7578.clone.1 = f32[64]{0} broadcast(f32[] %constant_2113_clone_1), dimensions={}, metadata={op_type="FusedBatchNormGradV3" op_name="gradient_tape/mobilenetv2_1.00_224/block_6_project_BN/FusedBatchNormGradV3"}
  %param_6.1852 = f32[64]{0} parameter(6)
  %constant_6731_clone_1 = f32[] constant(0.000318877544)
  %broadcast.7577.clone.1 = f32[64]{0} broadcast(f32[] %constant_6731_clone_1), dimensions={}
  %multiply.6625.clone.1 = f32[64]{0} multiply(f32[64]{0} %param_6.1852, f32[64]{0} %broadcast.7577.clone.1), metadata={op_type="FusedBatchNormV3" op_name="mobilenetv2_1.00_224/block_6_project_BN/FusedBatchNormV3"}
  %param_5.3096 = f32[64]{0} parameter(5)
  %multiply.6624.clone.1 = f32[64]{0} multiply(f32[64]{0} %param_5.3096, f32[64]{0} %broadcast.7577.clone.1), metadata={op_type="FusedBatchNormV3" op_name="mobilenetv2_1.00_224/block_6_project_BN/FusedBatchNormV3"}
  %multiply.6623.clone.1 = f32[64]{0} multiply(f32[64]{0} %multiply.6624.clone.1, f32[64]{0} %multiply.6624.clone.1), metadata={op_type="FusedBatchNormV3" op_name="mobilenetv2_1.00_224/block_6_project_BN/FusedBatchNormV3"}
  %subtract.2633.clone.1 = f32[64]{0} subtract(f32[64]{0} %multiply.6625.clone.1, f32[64]{0} %multiply.6623.clone.1), metadata={op_type="FusedBatchNormV3" op_name="mobilenetv2_1.00_224/block_6_project_BN/FusedBatchNormV3"}
  %constant_6730_clone_1 = f32[] constant(0.001), metadata={op_type="FusedBatchNormV3" op_name="mobilenetv2_1.00_224/bn_Conv1/FusedBatchNormV3"}
  %broadcast.7576.clone.1 = f32[64]{0} broadcast(f32[] %constant_6730_clone_1), dimensions={}
  %add.2357.clone.1 = f32[64]{0} add(f32[64]{0} %subtract.2633.clone.1, f32[64]{0} %broadcast.7576.clone.1), metadata={op_type="FusedBatchNormV3" op_name="mobilenetv2_1.00_224/block_6_project_BN/FusedBatchNormV3"}
  %rsqrt.934.clone.1 = f32[64]{0} rsqrt(f32[64]{0} %add.2357.clone.1), metadata={op_type="FusedBatchNormV3" op_name="mobilenetv2_1.00_224/block_6_project_BN/FusedBatchNormV3"}
  %multiply.6622.clone.1 = f32[64]{0} multiply(f32[64]{0} %rsqrt.934.clone.1, f32[64]{0} %rsqrt.934.clone.1), metadata={op_type="FusedBatchNormGradV3" op_name="gradient_tape/mobilenetv2_1.00_224/block_6_project_BN/FusedBatchNormGradV3"}
  %divide.696.clone.1 = f32[64]{0} divide(f32[64]{0} %broadcast.7578.clone.1, f32[64]{0} %multiply.6622.clone.1), metadata={op_type="FusedBatchNormGradV3" op_name="gradient_tape/mobilenetv2_1.00_224/block_6_project_BN/FusedBatchNormGradV3"}
  %rsqrt.339.clone.1 = f32[64]{0} rsqrt(f32[64]{0} %divide.696.clone.1), metadata={op_type="FusedBatchNormGradV3" op_name="gradient_tape/mobilenetv2_1.00_224/block_6_project_BN/FusedBatchNormGradV3"}
  %multiply.3018.clone.1 = f32[64]{0} multiply(f32[64]{0} %param_4.3171, f32[64]{0} %rsqrt.339.clone.1), metadata={op_type="FusedBatchNormGradV3" op_name="gradient_tape/mobilenetv2_1.00_224/block_6_project_BN/FusedBatchNormGradV3"}
  %subtract.387.clone.1 = f32[64]{0} subtract(f32[64]{0} %multiply.3018.clone.1, f32[64]{0} %param_2.7072), metadata={op_type="ResourceApplyAdam" op_name="Adam/Adam/update_61/ResourceApplyAdam"}
  %param_3.3986 = f32[] parameter(3)
  %subtract.1026.clone.1 = f32[] subtract(f32[] %constant_2113_clone_1, f32[] %param_3.3986), metadata={op_type="ResourceApplyAdam" op_name="Adam/Adam/update_153/ResourceApplyAdam"}
  %broadcast.3250.clone.1 = f32[64]{0} broadcast(f32[] %subtract.1026.clone.1), dimensions={}, metadata={op_type="ResourceApplyAdam" op_name="Adam/Adam/update_61/ResourceApplyAdam"}
  %multiply.1572.clone.1 = f32[64]{0} multiply(f32[64]{0} %subtract.387.clone.1, f32[64]{0} %broadcast.3250.clone.1), metadata={op_type="ResourceApplyAdam" op_name="Adam/Adam/update_61/ResourceApplyAdam"}
  %add.1028.clone.1 = f32[64]{0} add(f32[64]{0} %param_2.7072, f32[64]{0} %multiply.1572.clone.1), metadata={op_type="ResourceApplyAdam" op_name="Adam/Adam/update_61/ResourceApplyAdam"}
  %param_1.7221 = f32[] parameter(1)
  %broadcast.3248 = f32[64]{0} broadcast(f32[] %param_1.7221), dimensions={}, metadata={op_type="ResourceApplyAdam" op_name="Adam/Adam/update_61/ResourceApplyAdam"}
  %multiply.1569 = f32[64]{0} multiply(f32[64]{0} %add.1028.clone.1, f32[64]{0} %broadcast.3248), metadata={op_type="ResourceApplyAdam" op_name="Adam/Adam/update_61/ResourceApplyAdam"}
  %param_7.1559 = f32[64]{0} parameter(7)
  %multiply.1571.clone.1 = f32[64]{0} multiply(f32[64]{0} %multiply.3018.clone.1, f32[64]{0} %multiply.3018.clone.1), metadata={op_type="ResourceApplyAdam" op_name="Adam/Adam/update_61/ResourceApplyAdam"}
  %subtract.386.clone.1 = f32[64]{0} subtract(f32[64]{0} %multiply.1571.clone.1, f32[64]{0} %param_7.1559), metadata={op_type="ResourceApplyAdam" op_name="Adam/Adam/update_61/ResourceApplyAdam"}
  %param_8.987 = f32[] parameter(8)
  %subtract.1027.clone.1 = f32[] subtract(f32[] %constant_2113_clone_1, f32[] %param_8.987), metadata={op_type="ResourceApplyAdam" op_name="Adam/Adam/update_153/ResourceApplyAdam"}
  %broadcast.3251.clone.1 = f32[64]{0} broadcast(f32[] %subtract.1027.clone.1), dimensions={}, metadata={op_type="ResourceApplyAdam" op_name="Adam/Adam/update_61/ResourceApplyAdam"}
  %multiply.1570.clone.1 = f32[64]{0} multiply(f32[64]{0} %subtract.386.clone.1, f32[64]{0} %broadcast.3251.clone.1), metadata={op_type="ResourceApplyAdam" op_name="Adam/Adam/update_61/ResourceApplyAdam"}
  %add.1027.clone.1 = f32[64]{0} add(f32[64]{0} %param_7.1559, f32[64]{0} %multiply.1570.clone.1), metadata={op_type="ResourceApplyAdam" op_name="Adam/Adam/update_61/ResourceApplyAdam"}
  %sqrt.39 = f32[64]{0} sqrt(f32[64]{0} %add.1027.clone.1), metadata={op_type="ResourceApplyAdam" op_name="Adam/Adam/update_61/ResourceApplyAdam"}
  %constant_2112 = f32[] constant(1e-07), metadata={op_type="ResourceApplyAdam" op_name="Adam/Adam/update_157/ResourceApplyAdam"}
  %broadcast.3249 = f32[64]{0} broadcast(f32[] %constant_2112), dimensions={}, metadata={op_type="ResourceApplyAdam" op_name="Adam/Adam/update_61/ResourceApplyAdam"}
  %add.1026 = f32[64]{0} add(f32[64]{0} %sqrt.39, f32[64]{0} %broadcast.3249), metadata={op_type="ResourceApplyAdam" op_name="Adam/Adam/update_61/ResourceApplyAdam"}
  %divide.256 = f32[64]{0} divide(f32[64]{0} %multiply.1569, f32[64]{0} %add.1026), metadata={op_type="ResourceApplyAdam" op_name="Adam/Adam/update_61/ResourceApplyAdam"}
  %subtract.385 = f32[64]{0} subtract(f32[64]{0} %param_0.213, f32[64]{0} %divide.256), metadata={op_type="ResourceApplyAdam" op_name="Adam/Adam/update_61/ResourceApplyAdam"}
  %param_9.1266 = f32[64]{0} parameter(9)
  %param_12.236 = f32[64]{0} parameter(12)
  %param_11.503 = f32[64]{0} parameter(11)
  %subtract.303.clone.1.clone.1 = f32[64]{0} subtract(f32[64]{0} %param_11.503, f32[64]{0} %param_12.236), metadata={op_type="ResourceApplyAdam" op_name="Adam/Adam/update_89/ResourceApplyAdam"}
  %multiply.1450.clone.1.clone.1 = f32[64]{0} multiply(f32[64]{0} %subtract.303.clone.1.clone.1, f32[64]{0} %broadcast.3250.clone.1), metadata={op_type="ResourceApplyAdam" op_name="Adam/Adam/update_89/ResourceApplyAdam"}
  %add.938.clone.1.clone.1 = f32[64]{0} add(f32[64]{0} %param_12.236, f32[64]{0} %multiply.1450.clone.1.clone.1), metadata={op_type="ResourceApplyAdam" op_name="Adam/Adam/update_89/ResourceApplyAdam"}
  %multiply.1446.clone.1 = f32[64]{0} multiply(f32[64]{0} %add.938.clone.1.clone.1, f32[64]{0} %broadcast.3248), metadata={op_type="ResourceApplyAdam" op_name="Adam/Adam/update_89/ResourceApplyAdam"}
  %param_10.658 = f32[64]{0} parameter(10)
  %multiply.1449.clone.1.clone.1 = f32[64]{0} multiply(f32[64]{0} %param_11.503, f32[64]{0} %param_11.503), metadata={op_type="ResourceApplyAdam" op_name="Adam/Adam/update_89/ResourceApplyAdam"}
  %subtract.302.clone.1.clone.1 = f32[64]{0} subtract(f32[64]{0} %multiply.1449.clone.1.clone.1, f32[64]{0} %param_10.658), metadata={op_type="ResourceApplyAdam" op_name="Adam/Adam/update_89/ResourceApplyAdam"}
  %multiply.1448.clone.1.clone.1 = f32[64]{0} multiply(f32[64]{0} %subtract.302.clone.1.clone.1, f32[64]{0} %broadcast.3251.clone.1), metadata={op_type="ResourceApplyAdam" op_name="Adam/Adam/update_89/ResourceApplyAdam"}
  %add.937.clone.1.clone.1 = f32[64]{0} add(f32[64]{0} %param_10.658, f32[64]{0} %multiply.1448.clone.1.clone.1), metadata={op_type="ResourceApplyAdam" op_name="Adam/Adam/update_89/ResourceApplyAdam"}
  %sqrt.11.clone.1 = f32[64]{0} sqrt(f32[64]{0} %add.937.clone.1.clone.1), metadata={op_type="ResourceApplyAdam" op_name="Adam/Adam/update_89/ResourceApplyAdam"}
  %add.936.clone.1 = f32[64]{0} add(f32[64]{0} %sqrt.11.clone.1, f32[64]{0} %broadcast.3249), metadata={op_type="ResourceApplyAdam" op_name="Adam/Adam/update_89/ResourceApplyAdam"}
  %divide.228.clone.1 = f32[64]{0} divide(f32[64]{0} %multiply.1446.clone.1, f32[64]{0} %add.936.clone.1), metadata={op_type="ResourceApplyAdam" op_name="Adam/Adam/update_89/ResourceApplyAdam"}
  %subtract.301.clone.1 = f32[64]{0} subtract(f32[64]{0} %param_9.1266, f32[64]{0} %divide.228.clone.1), metadata={op_type="ResourceApplyAdam" op_name="Adam/Adam/update_89/ResourceApplyAdam"}
  %param_13.346 = f32[64]{0} parameter(13)
  %param_18.154 = f32[64]{0} parameter(18)
  %param_15.141 = f32[64]{0} parameter(15)
  %param_17.201 = f32[64]{0} parameter(17)
  %multiply.6710.clone.1.clone.1 = f32[64]{0} multiply(f32[64]{0} %param_17.201, f32[64]{0} %broadcast.7577.clone.1), metadata={op_type="FusedBatchNormV3" op_name="mobilenetv2_1.00_224/block_9_project_BN/FusedBatchNormV3"}
  %param_16.151 = f32[64]{0} parameter(16)
  %multiply.6708.clone.1.clone.1 = f32[64]{0} multiply(f32[64]{0} %param_16.151, f32[64]{0} %broadcast.7577.clone.1), metadata={op_type="FusedBatchNormV3" op_name="mobilenetv2_1.00_224/block_9_project_BN/FusedBatchNormV3"}
  %multiply.6707.clone.1.clone.1 = f32[64]{0} multiply(f32[64]{0} %multiply.6708.clone.1.clone.1, f32[64]{0} %multiply.6708.clone.1.clone.1), metadata={op_type="FusedBatchNormV3" op_name="mobilenetv2_1.00_224/block_9_project_BN/FusedBatchNormV3"}
  %subtract.2651.clone.1.clone.1 = f32[64]{0} subtract(f32[64]{0} %multiply.6710.clone.1.clone.1, f32[64]{0} %multiply.6707.clone.1.clone.1), metadata={op_type="FusedBatchNormV3" op_name="mobilenetv2_1.00_224/block_9_project_BN/FusedBatchNormV3"}
  %add.2375.clone.1.clone.1 = f32[64]{0} add(f32[64]{0} %subtract.2651.clone.1.clone.1, f32[64]{0} %broadcast.7576.clone.1), metadata={op_type="FusedBatchNormV3" op_name="mobilenetv2_1.00_224/block_9_project_BN/FusedBatchNormV3"}
  %rsqrt.952.clone.1.clone.1 = f32[64]{0} rsqrt(f32[64]{0} %add.2375.clone.1.clone.1), metadata={op_type="FusedBatchNormV3" op_name="mobilenetv2_1.00_224/block_9_project_BN/FusedBatchNormV3"}
  %multiply.6706.clone.1.clone.1 = f32[64]{0} multiply(f32[64]{0} %rsqrt.952.clone.1.clone.1, f32[64]{0} %rsqrt.952.clone.1.clone.1), metadata={op_type="FusedBatchNormGradV3" op_name="gradient_tape/mobilenetv2_1.00_224/block_9_project_BN/FusedBatchNormGradV3"}
  %divide.714.clone.1.clone.1 = f32[64]{0} divide(f32[64]{0} %broadcast.7578.clone.1, f32[64]{0} %multiply.6706.clone.1.clone.1), metadata={op_type="FusedBatchNormGradV3" op_name="gradient_tape/mobilenetv2_1.00_224/block_9_project_BN/FusedBatchNormGradV3"}
  %rsqrt.321.clone.1.clone.1 = f32[64]{0} rsqrt(f32[64]{0} %divide.714.clone.1.clone.1), metadata={op_type="FusedBatchNormGradV3" op_name="gradient_tape/mobilenetv2_1.00_224/block_9_project_BN/FusedBatchNormGradV3"}
  %multiply.3000.clone.1.clone.1 = f32[64]{0} multiply(f32[64]{0} %param_15.141, f32[64]{0} %rsqrt.321.clone.1.clone.1), metadata={op_type="FusedBatchNormGradV3" op_name="gradient_tape/mobilenetv2_1.00_224/block_9_project_BN/FusedBatchNormGradV3"}
  %subtract.306.clone.1.clone.1 = f32[64]{0} subtract(f32[64]{0} %multiply.3000.clone.1.clone.1, f32[64]{0} %param_18.154), metadata={op_type="ResourceApplyAdam" op_name="Adam/Adam/update_88/ResourceApplyAdam"}
  %multiply.1454.clone.1.clone.1 = f32[64]{0} multiply(f32[64]{0} %subtract.306.clone.1.clone.1, f32[64]{0} %broadcast.3250.clone.1), metadata={op_type="ResourceApplyAdam" op_name="Adam/Adam/update_88/ResourceApplyAdam"}
  %add.941.clone.1.clone.1 = f32[64]{0} add(f32[64]{0} %param_18.154, f32[64]{0} %multiply.1454.clone.1.clone.1), metadata={op_type="ResourceApplyAdam" op_name="Adam/Adam/update_88/ResourceApplyAdam"}
  %multiply.1451.clone.1 = f32[64]{0} multiply(f32[64]{0} %add.941.clone.1.clone.1, f32[64]{0} %broadcast.3248), metadata={op_type="ResourceApplyAdam" op_name="Adam/Adam/update_88/ResourceApplyAdam"}
  %param_14.258 = f32[64]{0} parameter(14)
  %multiply.1453.clone.1.clone.1 = f32[64]{0} multiply(f32[64]{0} %multiply.3000.clone.1.clone.1, f32[64]{0} %multiply.3000.clone.1.clone.1), metadata={op_type="ResourceApplyAdam" op_name="Adam/Adam/update_88/ResourceApplyAdam"}
  %subtract.305.clone.1.clone.1 = f32[64]{0} subtract(f32[64]{0} %multiply.1453.clone.1.clone.1, f32[64]{0} %param_14.258), metadata={op_type="ResourceApplyAdam" op_name="Adam/Adam/update_88/ResourceApplyAdam"}
  %multiply.1452.clone.1.clone.1 = f32[64]{0} multiply(f32[64]{0} %subtract.305.clone.1.clone.1, f32[64]{0} %broadcast.3251.clone.1), metadata={op_type="ResourceApplyAdam" op_name="Adam/Adam/update_88/ResourceApplyAdam"}
  %add.940.clone.1.clone.1 = f32[64]{0} add(f32[64]{0} %param_14.258, f32[64]{0} %multiply.1452.clone.1.clone.1), metadata={op_type="ResourceApplyAdam" op_name="Adam/Adam/update_88/ResourceApplyAdam"}
  %sqrt.12.clone.1 = f32[64]{0} sqrt(f32[64]{0} %add.940.clone.1.clone.1), metadata={op_type="ResourceApplyAdam" op_name="Adam/Adam/update_88/ResourceApplyAdam"}
  %add.939.clone.1 = f32[64]{0} add(f32[64]{0} %sqrt.12.clone.1, f32[64]{0} %broadcast.3249), metadata={op_type="ResourceApplyAdam" op_name="Adam/Adam/update_88/ResourceApplyAdam"}
  %divide.229.clone.1 = f32[64]{0} divide(f32[64]{0} %multiply.1451.clone.1, f32[64]{0} %add.939.clone.1), metadata={op_type="ResourceApplyAdam" op_name="Adam/Adam/update_88/ResourceApplyAdam"}
  %subtract.304.clone.1 = f32[64]{0} subtract(f32[64]{0} %param_13.346, f32[64]{0} %divide.229.clone.1), metadata={op_type="ResourceApplyAdam" op_name="Adam/Adam/update_88/ResourceApplyAdam"}
  %param_19.201 = f32[64]{0} parameter(19)
  %param_22.55 = f32[64]{0} parameter(22)
  %param_21.154 = f32[64]{0} parameter(21)
  %subtract.330.clone.1.clone.1 = f32[64]{0} subtract(f32[64]{0} %param_21.154, f32[64]{0} %param_22.55), metadata={op_type="ResourceApplyAdam" op_name="Adam/Adam/update_80/ResourceApplyAdam"}
  %multiply.1486.clone.1.clone.1 = f32[64]{0} multiply(f32[64]{0} %subtract.330.clone.1.clone.1, f32[64]{0} %broadcast.3250.clone.1), metadata={op_type="ResourceApplyAdam" op_name="Adam/Adam/update_80/ResourceApplyAdam"}
  %add.968.clone.1.clone.1 = f32[64]{0} add(f32[64]{0} %param_22.55, f32[64]{0} %multiply.1486.clone.1.clone.1), metadata={op_type="ResourceApplyAdam" op_name="Adam/Adam/update_80/ResourceApplyAdam"}
  %multiply.1483.clone.1 = f32[64]{0} multiply(f32[64]{0} %add.968.clone.1.clone.1, f32[64]{0} %broadcast.3248), metadata={op_type="ResourceApplyAdam" op_name="Adam/Adam/update_80/ResourceApplyAdam"}
  %param_20.243 = f32[64]{0} parameter(20)
  %multiply.1485.clone.1.clone.1 = f32[64]{0} multiply(f32[64]{0} %param_21.154, f32[64]{0} %param_21.154), metadata={op_type="ResourceApplyAdam" op_name="Adam/Adam/update_80/ResourceApplyAdam"}
  %subtract.329.clone.1.clone.1 = f32[64]{0} subtract(f32[64]{0} %multiply.1485.clone.1.clone.1, f32[64]{0} %param_20.243), metadata={op_type="ResourceApplyAdam" op_name="Adam/Adam/update_80/ResourceApplyAdam"}
  %multiply.1484.clone.1.clone.1 = f32[64]{0} multiply(f32[64]{0} %subtract.329.clone.1.clone.1, f32[64]{0} %broadcast.3251.clone.1), metadata={op_type="ResourceApplyAdam" op_name="Adam/Adam/update_80/ResourceApplyAdam"}
  %add.967.clone.1.clone.1 = f32[64]{0} add(f32[64]{0} %param_20.243, f32[64]{0} %multiply.1484.clone.1.clone.1), metadata={op_type="ResourceApplyAdam" op_name="Adam/Adam/update_80/ResourceApplyAdam"}
  %sqrt.20.clone.1 = f32[64]{0} sqrt(f32[64]{0} %add.967.clone.1.clone.1), metadata={op_type="ResourceApplyAdam" op_name="Adam/Adam/update_80/ResourceApplyAdam"}
  %add.966.clone.1 = f32[64]{0} add(f32[64]{0} %sqrt.20.clone.1, f32[64]{0} %broadcast.3249), metadata={op_type="ResourceApplyAdam" op_name="Adam/Adam/update_80/ResourceApplyAdam"}
  %divide.237.clone.1 = f32[64]{0} divide(f32[64]{0} %multiply.1483.clone.1, f32[64]{0} %add.966.clone.1), metadata={op_type="ResourceApplyAdam" op_name="Adam/Adam/update_80/ResourceApplyAdam"}
  %subtract.328.clone.1 = f32[64]{0} subtract(f32[64]{0} %param_19.201, f32[64]{0} %divide.237.clone.1), metadata={op_type="ResourceApplyAdam" op_name="Adam/Adam/update_80/ResourceApplyAdam"}
  %param_23.116 = f32[64]{0} parameter(23)
  %param_28.98 = f32[64]{0} parameter(28)
  %param_25.44 = f32[64]{0} parameter(25)
  %param_27.80 = f32[64]{0} parameter(27)
  %multiply.6795.clone.1.clone.1 = f32[64]{0} multiply(f32[64]{0} %param_27.80, f32[64]{0} %broadcast.7577.clone.1), metadata={op_type="FusedBatchNormV3" op_name="mobilenetv2_1.00_224/block_8_project_BN/FusedBatchNormV3"}
  %param_26.44 = f32[64]{0} parameter(26)
  %multiply.6794.clone.1.clone.1 = f32[64]{0} multiply(f32[64]{0} %param_26.44, f32[64]{0} %broadcast.7577.clone.1), metadata={op_type="FusedBatchNormV3" op_name="mobilenetv2_1.00_224/block_8_project_BN/FusedBatchNormV3"}
  %multiply.6793.clone.1.clone.1 = f32[64]{0} multiply(f32[64]{0} %multiply.6794.clone.1.clone.1, f32[64]{0} %multiply.6794.clone.1.clone.1), metadata={op_type="FusedBatchNormV3" op_name="mobilenetv2_1.00_224/block_8_project_BN/FusedBatchNormV3"}
  %subtract.2669.clone.1.clone.1 = f32[64]{0} subtract(f32[64]{0} %multiply.6795.clone.1.clone.1, f32[64]{0} %multiply.6793.clone.1.clone.1), metadata={op_type="FusedBatchNormV3" op_name="mobilenetv2_1.00_224/block_8_project_BN/FusedBatchNormV3"}
  %add.2393.clone.1.clone.1 = f32[64]{0} add(f32[64]{0} %subtract.2669.clone.1.clone.1, f32[64]{0} %broadcast.7576.clone.1), metadata={op_type="FusedBatchNormV3" op_name="mobilenetv2_1.00_224/block_8_project_BN/FusedBatchNormV3"}
  %rsqrt.971.clone.1.clone.1 = f32[64]{0} rsqrt(f32[64]{0} %add.2393.clone.1.clone.1), metadata={op_type="FusedBatchNormV3" op_name="mobilenetv2_1.00_224/block_8_project_BN/FusedBatchNormV3"}
  %multiply.6792.clone.1.clone.1 = f32[64]{0} multiply(f32[64]{0} %rsqrt.971.clone.1.clone.1, f32[64]{0} %rsqrt.971.clone.1.clone.1), metadata={op_type="FusedBatchNormGradV3" op_name="gradient_tape/mobilenetv2_1.00_224/block_8_project_BN/FusedBatchNormGradV3"}
  %divide.732.clone.1.clone.1 = f32[64]{0} divide(f32[64]{0} %broadcast.7578.clone.1, f32[64]{0} %multiply.6792.clone.1.clone.1), metadata={op_type="FusedBatchNormGradV3" op_name="gradient_tape/mobilenetv2_1.00_224/block_8_project_BN/FusedBatchNormGradV3"}
  %rsqrt.327.clone.1.clone.1 = f32[64]{0} rsqrt(f32[64]{0} %divide.732.clone.1.clone.1), metadata={op_type="FusedBatchNormGradV3" op_name="gradient_tape/mobilenetv2_1.00_224/block_8_project_BN/FusedBatchNormGradV3"}
  %multiply.3006.clone.1.clone.1 = f32[64]{0} multiply(f32[64]{0} %param_25.44, f32[64]{0} %rsqrt.327.clone.1.clone.1), metadata={op_type="FusedBatchNormGradV3" op_name="gradient_tape/mobilenetv2_1.00_224/block_8_project_BN/FusedBatchNormGradV3"}
  %subtract.333.clone.1.clone.1 = f32[64]{0} subtract(f32[64]{0} %multiply.3006.clone.1.clone.1, f32[64]{0} %param_28.98), metadata={op_type="ResourceApplyAdam" op_name="Adam/Adam/update_79/ResourceApplyAdam"}
  %multiply.1491.clone.1.clone.1 = f32[64]{0} multiply(f32[64]{0} %subtract.333.clone.1.clone.1, f32[64]{0} %broadcast.3250.clone.1), metadata={op_type="ResourceApplyAdam" op_name="Adam/Adam/update_79/ResourceApplyAdam"}
  %add.971.clone.1.clone.1 = f32[64]{0} add(f32[64]{0} %param_28.98, f32[64]{0} %multiply.1491.clone.1.clone.1), metadata={op_type="ResourceApplyAdam" op_name="Adam/Adam/update_79/ResourceApplyAdam"}
  %multiply.1487.clone.1 = f32[64]{0} multiply(f32[64]{0} %add.971.clone.1.clone.1, f32[64]{0} %broadcast.3248), metadata={op_type="ResourceApplyAdam" op_name="Adam/Adam/update_79/ResourceApplyAdam"}
  %param_24.115 = f32[64]{0} parameter(24)
  %multiply.1490.clone.1.clone.1 = f32[64]{0} multiply(f32[64]{0} %multiply.3006.clone.1.clone.1, f32[64]{0} %multiply.3006.clone.1.clone.1), metadata={op_type="ResourceApplyAdam" op_name="Adam/Adam/update_79/ResourceApplyAdam"}
  %subtract.332.clone.1.clone.1 = f32[64]{0} subtract(f32[64]{0} %multiply.1490.clone.1.clone.1, f32[64]{0} %param_24.115), metadata={op_type="ResourceApplyAdam" op_name="Adam/Adam/update_79/ResourceApplyAdam"}
  %multiply.1488.clone.1.clone.1 = f32[64]{0} multiply(f32[64]{0} %subtract.332.clone.1.clone.1, f32[64]{0} %broadcast.3251.clone.1), metadata={op_type="ResourceApplyAdam" op_name="Adam/Adam/update_79/ResourceApplyAdam"}
  %add.970.clone.1.clone.1 = f32[64]{0} add(f32[64]{0} %param_24.115, f32[64]{0} %multiply.1488.clone.1.clone.1), metadata={op_type="ResourceApplyAdam" op_name="Adam/Adam/update_79/ResourceApplyAdam"}
  %sqrt.21.clone.1 = f32[64]{0} sqrt(f32[64]{0} %add.970.clone.1.clone.1), metadata={op_type="ResourceApplyAdam" op_name="Adam/Adam/update_79/ResourceApplyAdam"}
  %add.969.clone.1 = f32[64]{0} add(f32[64]{0} %sqrt.21.clone.1, f32[64]{0} %broadcast.3249), metadata={op_type="ResourceApplyAdam" op_name="Adam/Adam/update_79/ResourceApplyAdam"}
  %divide.238.clone.1 = f32[64]{0} divide(f32[64]{0} %multiply.1487.clone.1, f32[64]{0} %add.969.clone.1), metadata={op_type="ResourceApplyAdam" op_name="Adam/Adam/update_79/ResourceApplyAdam"}
  %subtract.331.clone.1 = f32[64]{0} subtract(f32[64]{0} %param_23.116, f32[64]{0} %divide.238.clone.1), metadata={op_type="ResourceApplyAdam" op_name="Adam/Adam/update_79/ResourceApplyAdam"}
  %param_29.161 = f32[64]{0} parameter(29)
  %param_32.44 = f32[64]{0} parameter(32)
  %param_31.116 = f32[64]{0} parameter(31)
  %subtract.357.clone.1.clone.1 = f32[64]{0} subtract(f32[64]{0} %param_31.116, f32[64]{0} %param_32.44), metadata={op_type="ResourceApplyAdam" op_name="Adam/Adam/update_71/ResourceApplyAdam"}
  %multiply.1527.clone.1.clone.1 = f32[64]{0} multiply(f32[64]{0} %subtract.357.clone.1.clone.1, f32[64]{0} %broadcast.3250.clone.1), metadata={op_type="ResourceApplyAdam" op_name="Adam/Adam/update_71/ResourceApplyAdam"}
  %add.995.clone.1.clone.1 = f32[64]{0} add(f32[64]{0} %param_32.44, f32[64]{0} %multiply.1527.clone.1.clone.1), metadata={op_type="ResourceApplyAdam" op_name="Adam/Adam/update_71/ResourceApplyAdam"}
  %multiply.1524.clone.1 = f32[64]{0} multiply(f32[64]{0} %add.995.clone.1.clone.1, f32[64]{0} %broadcast.3248), metadata={op_type="ResourceApplyAdam" op_name="Adam/Adam/update_71/ResourceApplyAdam"}
  %param_30.197 = f32[64]{0} parameter(30)
  %multiply.1526.clone.1.clone.1 = f32[64]{0} multiply(f32[64]{0} %param_31.116, f32[64]{0} %param_31.116), metadata={op_type="ResourceApplyAdam" op_name="Adam/Adam/update_71/ResourceApplyAdam"}
  %subtract.356.clone.1.clone.1 = f32[64]{0} subtract(f32[64]{0} %multiply.1526.clone.1.clone.1, f32[64]{0} %param_30.197), metadata={op_type="ResourceApplyAdam" op_name="Adam/Adam/update_71/ResourceApplyAdam"}
  %multiply.1525.clone.1.clone.1 = f32[64]{0} multiply(f32[64]{0} %subtract.356.clone.1.clone.1, f32[64]{0} %broadcast.3251.clone.1), metadata={op_type="ResourceApplyAdam" op_name="Adam/Adam/update_71/ResourceApplyAdam"}
  %add.994.clone.1.clone.1 = f32[64]{0} add(f32[64]{0} %param_30.197, f32[64]{0} %multiply.1525.clone.1.clone.1), metadata={op_type="ResourceApplyAdam" op_name="Adam/Adam/update_71/ResourceApplyAdam"}
  %sqrt.29.clone.1 = f32[64]{0} sqrt(f32[64]{0} %add.994.clone.1.clone.1), metadata={op_type="ResourceApplyAdam" op_name="Adam/Adam/update_71/ResourceApplyAdam"}
  %add.993.clone.1 = f32[64]{0} add(f32[64]{0} %sqrt.29.clone.1, f32[64]{0} %broadcast.3249), metadata={op_type="ResourceApplyAdam" op_name="Adam/Adam/update_71/ResourceApplyAdam"}
  %divide.246.clone.1 = f32[64]{0} divide(f32[64]{0} %multiply.1524.clone.1, f32[64]{0} %add.993.clone.1), metadata={op_type="ResourceApplyAdam" op_name="Adam/Adam/update_71/ResourceApplyAdam"}
  %subtract.355.clone.1 = f32[64]{0} subtract(f32[64]{0} %param_29.161, f32[64]{0} %divide.246.clone.1), metadata={op_type="ResourceApplyAdam" op_name="Adam/Adam/update_71/ResourceApplyAdam"}
  %param_33.104 = f32[64]{0} parameter(33)
  %param_38.87 = f32[64]{0} parameter(38)
  %param_35.39 = f32[64]{0} parameter(35)
  %param_37.71 = f32[64]{0} parameter(37)
  %multiply.6881.clone.1.clone.1 = f32[64]{0} multiply(f32[64]{0} %param_37.71, f32[64]{0} %broadcast.7577.clone.1), metadata={op_type="FusedBatchNormV3" op_name="mobilenetv2_1.00_224/block_7_project_BN/FusedBatchNormV3"}
  %param_36.39 = f32[64]{0} parameter(36)
  %multiply.6880.clone.1.clone.1 = f32[64]{0} multiply(f32[64]{0} %param_36.39, f32[64]{0} %broadcast.7577.clone.1), metadata={op_type="FusedBatchNormV3" op_name="mobilenetv2_1.00_224/block_7_project_BN/FusedBatchNormV3"}
  %multiply.6878.clone.1.clone.1 = f32[64]{0} multiply(f32[64]{0} %multiply.6880.clone.1.clone.1, f32[64]{0} %multiply.6880.clone.1.clone.1), metadata={op_type="FusedBatchNormV3" op_name="mobilenetv2_1.00_224/block_7_project_BN/FusedBatchNormV3"}
  %subtract.2687.clone.1.clone.1 = f32[64]{0} subtract(f32[64]{0} %multiply.6881.clone.1.clone.1, f32[64]{0} %multiply.6878.clone.1.clone.1), metadata={op_type="FusedBatchNormV3" op_name="mobilenetv2_1.00_224/block_7_project_BN/FusedBatchNormV3"}
  %add.2413.clone.1.clone.1 = f32[64]{0} add(f32[64]{0} %subtract.2687.clone.1.clone.1, f32[64]{0} %broadcast.7576.clone.1), metadata={op_type="FusedBatchNormV3" op_name="mobilenetv2_1.00_224/block_7_project_BN/FusedBatchNormV3"}
  %rsqrt.989.clone.1.clone.1 = f32[64]{0} rsqrt(f32[64]{0} %add.2413.clone.1.clone.1), metadata={op_type="FusedBatchNormV3" op_name="mobilenetv2_1.00_224/block_7_project_BN/FusedBatchNormV3"}
  %multiply.6877.clone.1.clone.1 = f32[64]{0} multiply(f32[64]{0} %rsqrt.989.clone.1.clone.1, f32[64]{0} %rsqrt.989.clone.1.clone.1), metadata={op_type="FusedBatchNormGradV3" op_name="gradient_tape/mobilenetv2_1.00_224/block_7_project_BN/FusedBatchNormGradV3"}
  %divide.750.clone.1.clone.1 = f32[64]{0} divide(f32[64]{0} %broadcast.7578.clone.1, f32[64]{0} %multiply.6877.clone.1.clone.1), metadata={op_type="FusedBatchNormGradV3" op_name="gradient_tape/mobilenetv2_1.00_224/block_7_project_BN/FusedBatchNormGradV3"}
  %rsqrt.333.clone.1.clone.1 = f32[64]{0} rsqrt(f32[64]{0} %divide.750.clone.1.clone.1), metadata={op_type="FusedBatchNormGradV3" op_name="gradient_tape/mobilenetv2_1.00_224/block_7_project_BN/FusedBatchNormGradV3"}
  %multiply.3012.clone.1.clone.1 = f32[64]{0} multiply(f32[64]{0} %param_35.39, f32[64]{0} %rsqrt.333.clone.1.clone.1), metadata={op_type="FusedBatchNormGradV3" op_name="gradient_tape/mobilenetv2_1.00_224/block_7_project_BN/FusedBatchNormGradV3"}
  %subtract.360.clone.1.clone.1 = f32[64]{0} subtract(f32[64]{0} %multiply.3012.clone.1.clone.1, f32[64]{0} %param_38.87), metadata={op_type="ResourceApplyAdam" op_name="Adam/Adam/update_70/ResourceApplyAdam"}
  %multiply.1531.clone.1.clone.1 = f32[64]{0} multiply(f32[64]{0} %subtract.360.clone.1.clone.1, f32[64]{0} %broadcast.3250.clone.1), metadata={op_type="ResourceApplyAdam" op_name="Adam/Adam/update_70/ResourceApplyAdam"}
  %add.998.clone.1.clone.1 = f32[64]{0} add(f32[64]{0} %param_38.87, f32[64]{0} %multiply.1531.clone.1.clone.1), metadata={op_type="ResourceApplyAdam" op_name="Adam/Adam/update_70/ResourceApplyAdam"}
  %multiply.1528.clone.1 = f32[64]{0} multiply(f32[64]{0} %add.998.clone.1.clone.1, f32[64]{0} %broadcast.3248), metadata={op_type="ResourceApplyAdam" op_name="Adam/Adam/update_70/ResourceApplyAdam"}
  %param_34.103 = f32[64]{0} parameter(34)
  %multiply.1530.clone.1.clone.1 = f32[64]{0} multiply(f32[64]{0} %multiply.3012.clone.1.clone.1, f32[64]{0} %multiply.3012.clone.1.clone.1), metadata={op_type="ResourceApplyAdam" op_name="Adam/Adam/update_70/ResourceApplyAdam"}
  %subtract.359.clone.1.clone.1 = f32[64]{0} subtract(f32[64]{0} %multiply.1530.clone.1.clone.1, f32[64]{0} %param_34.103), metadata={op_type="ResourceApplyAdam" op_name="Adam/Adam/update_70/ResourceApplyAdam"}
  %multiply.1529.clone.1.clone.1 = f32[64]{0} multiply(f32[64]{0} %subtract.359.clone.1.clone.1, f32[64]{0} %broadcast.3251.clone.1), metadata={op_type="ResourceApplyAdam" op_name="Adam/Adam/update_70/ResourceApplyAdam"}
  %add.997.clone.1.clone.1 = f32[64]{0} add(f32[64]{0} %param_34.103, f32[64]{0} %multiply.1529.clone.1.clone.1), metadata={op_type="ResourceApplyAdam" op_name="Adam/Adam/update_70/ResourceApplyAdam"}
  %sqrt.30.clone.1 = f32[64]{0} sqrt(f32[64]{0} %add.997.clone.1.clone.1), metadata={op_type="ResourceApplyAdam" op_name="Adam/Adam/update_70/ResourceApplyAdam"}
  %add.996.clone.1 = f32[64]{0} add(f32[64]{0} %sqrt.30.clone.1, f32[64]{0} %broadcast.3249), metadata={op_type="ResourceApplyAdam" op_name="Adam/Adam/update_70/ResourceApplyAdam"}
  %divide.247.clone.1 = f32[64]{0} divide(f32[64]{0} %multiply.1528.clone.1, f32[64]{0} %add.996.clone.1), metadata={op_type="ResourceApplyAdam" op_name="Adam/Adam/update_70/ResourceApplyAdam"}
  %subtract.358.clone.1 = f32[64]{0} subtract(f32[64]{0} %param_33.104, f32[64]{0} %divide.247.clone.1), metadata={op_type="ResourceApplyAdam" op_name="Adam/Adam/update_70/ResourceApplyAdam"}
  %param_39.139 = f32[64]{0} parameter(39)
  %constant_3288_clone_1 = f32[] constant(0.999), metadata={op_type="FusedBatchNormV3" op_name="mobilenetv2_1.00_224/bn_Conv1/FusedBatchNormV3"}
  %broadcast.4231.clone.1 = f32[64]{0} broadcast(f32[] %constant_3288_clone_1), dimensions={}, metadata={op_type="FusedBatchNormV3" op_name="mobilenetv2_1.00_224/block_6_project_BN/FusedBatchNormV3"}
  %multiply.2697.clone.1 = f32[64]{0} multiply(f32[64]{0} %param_39.139, f32[64]{0} %broadcast.4231.clone.1), metadata={op_type="FusedBatchNormV3" op_name="mobilenetv2_1.00_224/block_9_project_BN/FusedBatchNormV3"}
  %constant_3286_clone_1 = f32[] constant(0.00100031903)
  %broadcast.4230.clone.1 = f32[64]{0} broadcast(f32[] %constant_3286_clone_1), dimensions={}
  %multiply.2696.clone.1 = f32[64]{0} multiply(f32[64]{0} %subtract.2651.clone.1.clone.1, f32[64]{0} %broadcast.4230.clone.1), metadata={op_type="FusedBatchNormV3" op_name="mobilenetv2_1.00_224/block_9_project_BN/FusedBatchNormV3"}
  %add.1509.clone.1 = f32[64]{0} add(f32[64]{0} %multiply.2697.clone.1, f32[64]{0} %multiply.2696.clone.1), metadata={op_type="FusedBatchNormV3" op_name="mobilenetv2_1.00_224/block_9_project_BN/FusedBatchNormV3"}
  ROOT %tuple.795 = (f32[64]{0}, f32[64]{0}, f32[64]{0}, f32[64]{0}, f32[64]{0}, f32[64]{0}, f32[64]{0}, f32[64]{0}, f32[64]{0}, f32[64]{0}, f32[64]{0}, f32[64]{0}, f32[64]{0}, f32[64]{0}, f32[64]{0}, f32[64]{0}, f32[64]{0}, f32[64]{0}, f32[64]{0}, f32[64]{0}, f32[64]{0}, f32[64]{0}) tuple(f32[64]{0} %subtract.385, f32[64]{0} %add.1028.clone.1, f32[64]{0} %add.1027.clone.1, f32[64]{0} %subtract.301.clone.1, f32[64]{0} %add.938.clone.1.clone.1, f32[64]{0} %add.937.clone.1.clone.1, f32[64]{0} %subtract.304.clone.1, f32[64]{0} %add.941.clone.1.clone.1, f32[64]{0} %add.940.clone.1.clone.1, f32[64]{0} %subtract.328.clone.1, f32[64]{0} %add.968.clone.1.clone.1, f32[64]{0} %add.967.clone.1.clone.1, f32[64]{0} %subtract.331.clone.1, f32[64]{0} %add.971.clone.1.clone.1, f32[64]{0} %add.970.clone.1.clone.1, f32[64]{0} %subtract.355.clone.1, f32[64]{0} %add.995.clone.1.clone.1, f32[64]{0} %add.994.clone.1.clone.1, f32[64]{0} %subtract.358.clone.1, f32[64]{0} %add.998.clone.1.clone.1, f32[64]{0} %add.997.clone.1.clone.1, f32[64]{0} %add.1509.clone.1)
}

%fused_computation.188 (param_0.276: f32[192], param_1.7230: f32[], param_2.7090: f32[192], param_3.4019: f32[], param_4.3227: f32[192], param_5.3189: f32[192], param_6.1941: f32[], param_7.2618: f32[192], param_8.1946: f32[192], param_9.1285: f32[192], param_10.682: f32[192], param_11.539: f32[192], param_12.277: f32[192], param_13.409: f32[192], param_14.323: f32[192], param_15.178: f32[192], param_16.172: f32[192], param_17.237: f32[192], param_18.181: f32[192], param_19.211: f32[192], param_20.253: f32[192], param_21.172: f32[192], param_22.77: f32[192], param_23.152: f32[192], param_24.159: f32[192], param_25.70: f32[192], param_26.54: f32[192], param_27.125: f32[192], param_28.161: f32[192], param_29.202: f32[192], param_30.229: f32[192]) -> (f32[192], f32[192], f32[192], f32[192], f32[192], f32[192], f32[192], f32[192], f32[192], f32[192], f32[192], f32[192], f32[192], f32[192], f32[192], f32[192], f32[192], f32[192], f32[192]) {
  %param_0.276 = f32[192]{0} parameter(0)
  %param_2.7090 = f32[192]{0} parameter(2)
  %param_4.3227 = f32[192]{0} parameter(4)
  %subtract.429.clone.1 = f32[192]{0} subtract(f32[192]{0} %param_4.3227, f32[192]{0} %param_2.7090), metadata={op_type="ResourceApplyAdam" op_name="Adam/Adam/update_47/ResourceApplyAdam"}
  %constant_2169_clone_1 = f32[] constant(1), metadata={op_type="SparseSoftmaxCrossEntropyWithLogits" op_name="sparse_categorical_crossentropy/SparseSoftmaxCrossEntropyWithLogits/SparseSoftmaxCrossEntropyWithLogits"}
  %param_3.4019 = f32[] parameter(3)
  %subtract.1054.clone.1 = f32[] subtract(f32[] %constant_2169_clone_1, f32[] %param_3.4019), metadata={op_type="ResourceApplyAdam" op_name="Adam/Adam/update_153/ResourceApplyAdam"}
  %broadcast.3320.clone.1 = f32[192]{0} broadcast(f32[] %subtract.1054.clone.1), dimensions={}, metadata={op_type="ResourceApplyAdam" op_name="Adam/Adam/update_37/ResourceApplyAdam"}
  %multiply.1633.clone.1 = f32[192]{0} multiply(f32[192]{0} %subtract.429.clone.1, f32[192]{0} %broadcast.3320.clone.1), metadata={op_type="ResourceApplyAdam" op_name="Adam/Adam/update_47/ResourceApplyAdam"}
  %add.1073.clone.1 = f32[192]{0} add(f32[192]{0} %param_2.7090, f32[192]{0} %multiply.1633.clone.1), metadata={op_type="ResourceApplyAdam" op_name="Adam/Adam/update_47/ResourceApplyAdam"}
  %param_1.7230 = f32[] parameter(1)
  %broadcast.3318 = f32[192]{0} broadcast(f32[] %param_1.7230), dimensions={}, metadata={op_type="ResourceApplyAdam" op_name="Adam/Adam/update_37/ResourceApplyAdam"}
  %multiply.1630 = f32[192]{0} multiply(f32[192]{0} %add.1073.clone.1, f32[192]{0} %broadcast.3318), metadata={op_type="ResourceApplyAdam" op_name="Adam/Adam/update_47/ResourceApplyAdam"}
  %param_5.3189 = f32[192]{0} parameter(5)
  %multiply.1632.clone.1 = f32[192]{0} multiply(f32[192]{0} %param_4.3227, f32[192]{0} %param_4.3227), metadata={op_type="ResourceApplyAdam" op_name="Adam/Adam/update_47/ResourceApplyAdam"}
  %subtract.428.clone.1 = f32[192]{0} subtract(f32[192]{0} %multiply.1632.clone.1, f32[192]{0} %param_5.3189), metadata={op_type="ResourceApplyAdam" op_name="Adam/Adam/update_47/ResourceApplyAdam"}
  %param_6.1941 = f32[] parameter(6)
  %subtract.1055.clone.1 = f32[] subtract(f32[] %constant_2169_clone_1, f32[] %param_6.1941), metadata={op_type="ResourceApplyAdam" op_name="Adam/Adam/update_153/ResourceApplyAdam"}
  %broadcast.3323.clone.1 = f32[192]{0} broadcast(f32[] %subtract.1055.clone.1), dimensions={}, metadata={op_type="ResourceApplyAdam" op_name="Adam/Adam/update_37/ResourceApplyAdam"}
  %multiply.1631.clone.1 = f32[192]{0} multiply(f32[192]{0} %subtract.428.clone.1, f32[192]{0} %broadcast.3323.clone.1), metadata={op_type="ResourceApplyAdam" op_name="Adam/Adam/update_47/ResourceApplyAdam"}
  %add.1072.clone.1 = f32[192]{0} add(f32[192]{0} %param_5.3189, f32[192]{0} %multiply.1631.clone.1), metadata={op_type="ResourceApplyAdam" op_name="Adam/Adam/update_47/ResourceApplyAdam"}
  %sqrt.53 = f32[192]{0} sqrt(f32[192]{0} %add.1072.clone.1), metadata={op_type="ResourceApplyAdam" op_name="Adam/Adam/update_47/ResourceApplyAdam"}
  %constant_2167 = f32[] constant(1e-07), metadata={op_type="ResourceApplyAdam" op_name="Adam/Adam/update_157/ResourceApplyAdam"}
  %broadcast.3319 = f32[192]{0} broadcast(f32[] %constant_2167), dimensions={}, metadata={op_type="ResourceApplyAdam" op_name="Adam/Adam/update_37/ResourceApplyAdam"}
  %add.1071 = f32[192]{0} add(f32[192]{0} %sqrt.53, f32[192]{0} %broadcast.3319), metadata={op_type="ResourceApplyAdam" op_name="Adam/Adam/update_47/ResourceApplyAdam"}
  %divide.270 = f32[192]{0} divide(f32[192]{0} %multiply.1630, f32[192]{0} %add.1071), metadata={op_type="ResourceApplyAdam" op_name="Adam/Adam/update_47/ResourceApplyAdam"}
  %subtract.427 = f32[192]{0} subtract(f32[192]{0} %param_0.276, f32[192]{0} %divide.270), metadata={op_type="ResourceApplyAdam" op_name="Adam/Adam/update_47/ResourceApplyAdam"}
  %param_7.2618 = f32[192]{0} parameter(7)
  %param_12.277 = f32[192]{0} parameter(12)
  %param_9.1285 = f32[192]{0} parameter(9)
  %broadcast.7472.clone.1.clone.1 = f32[192]{0} broadcast(f32[] %constant_2169_clone_1), dimensions={}, metadata={op_type="FusedBatchNormGradV3" op_name="gradient_tape/mobilenetv2_1.00_224/block_5_expand_BN/FusedBatchNormGradV3"}
  %param_11.539 = f32[192]{0} parameter(11)
  %constant_6607_clone_1_clone_1 = f32[] constant(7.97193861e-05)
  %broadcast.7471.clone.1.clone.1 = f32[192]{0} broadcast(f32[] %constant_6607_clone_1_clone_1), dimensions={}
  %multiply.6480.clone.1.clone.1 = f32[192]{0} multiply(f32[192]{0} %param_11.539, f32[192]{0} %broadcast.7471.clone.1.clone.1), metadata={op_type="FusedBatchNormV3" op_name="mobilenetv2_1.00_224/block_5_expand_BN/FusedBatchNormV3"}
…
  %get-tuple-element.2339 = f32[144]{0} get-tuple-element((f32[144]{0}, f32[144]{0}, f32[144]{0}, f32[144]{0}, f32[144]{0}, f32[144]{0}, f32[144]{0}, f32[144]{0}, f32[144]{0}, f32[144]{0}, f32[144]{0}, f32[144]{0}, f32[144]{0}, f32[144]{0}, f32[144]{0}, f32[144]{0}, f32[144]{0}, f32[144]{0}, f32[144]{0}, f32[144]{0}, f32[144]{0}, f32[144]{0}) %fusion.275), index=4
  %get-tuple-element.2340 = f32[144]{0} get-tuple-element((f32[144]{0}, f32[144]{0}, f32[144]{0}, f32[144]{0}, f32[144]{0}, f32[144]{0}, f32[144]{0}, f32[144]{0}, f32[144]{0}, f32[144]{0}, f32[144]{0}, f32[144]{0}, f32[144]{0}, f32[144]{0}, f32[144]{0}, f32[144]{0}, f32[144]{0}, f32[144]{0}, f32[144]{0}, f32[144]{0}, f32[144]{0}, f32[144]{0}) %fusion.275), index=5
  %get-tuple-element.2358 = f32[3,3,144,1]{3,2,1,0} get-tuple-element((f32[3,3,144,1]{3,2,1,0}, f32[3,3,144,1]{3,2,1,0}, f32[3,3,144,1]{3,2,1,0}, f32[3,3,144,1]{3,2,1,0}, f32[3,3,144,1]{3,2,1,0}, f32[3,3,144,1]{3,2,1,0}) %fusion.1312), index=3
  %get-tuple-element.2360 = f32[3,3,144,1]{3,2,1,0} get-tuple-element((f32[3,3,144,1]{3,2,1,0}, f32[3,3,144,1]{3,2,1,0}, f32[3,3,144,1]{3,2,1,0}, f32[3,3,144,1]{3,2,1,0}, f32[3,3,144,1]{3,2,1,0}, f32[3,3,144,1]{3,2,1,0}) %fusion.1312), index=5
  %get-tuple-element.2349 = f32[144]{0} get-tuple-element((f32[144]{0}, f32[144]{0}, f32[144]{0}, f32[144]{0}, f32[144]{0}, f32[144]{0}, f32[144]{0}, f32[144]{0}, f32[144]{0}, f32[144]{0}, f32[144]{0}, f32[144]{0}, f32[144]{0}, f32[144]{0}, f32[144]{0}, f32[144]{0}, f32[144]{0}, f32[144]{0}, f32[144]{0}, f32[144]{0}, f32[144]{0}, f32[144]{0}) %fusion.275), index=13
  %get-tuple-element.2350 = f32[144]{0} get-tuple-element((f32[144]{0}, f32[144]{0}, f32[144]{0}, f32[144]{0}, f32[144]{0}, f32[144]{0}, f32[144]{0}, f32[144]{0}, f32[144]{0}, f32[144]{0}, f32[144]{0}, f32[144]{0}, f32[144]{0}, f32[144]{0}, f32[144]{0}, f32[144]{0}, f32[144]{0}, f32[144]{0}, f32[144]{0}, f32[144]{0}, f32[144]{0}, f32[144]{0}) %fusion.275), index=14
  %get-tuple-element.2346 = f32[144]{0} get-tuple-element((f32[144]{0}, f32[144]{0}, f32[144]{0}, f32[144]{0}, f32[144]{0}, f32[144]{0}, f32[144]{0}, f32[144]{0}, f32[144]{0}, f32[144]{0}, f32[144]{0}, f32[144]{0}, f32[144]{0}, f32[144]{0}, f32[144]{0}, f32[144]{0}, f32[144]{0}, f32[144]{0}, f32[144]{0}, f32[144]{0}, f32[144]{0}, f32[144]{0}) %fusion.275), index=10
  %get-tuple-element.2347 = f32[144]{0} get-tuple-element((f32[144]{0}, f32[144]{0}, f32[144]{0}, f32[144]{0}, f32[144]{0}, f32[144]{0}, f32[144]{0}, f32[144]{0}, f32[144]{0}, f32[144]{0}, f32[144]{0}, f32[144]{0}, f32[144]{0}, f32[144]{0}, f32[144]{0}, f32[144]{0}, f32[144]{0}, f32[144]{0}, f32[144]{0}, f32[144]{0}, f32[144]{0}, f32[144]{0}) %fusion.275), index=11
  %get-tuple-element.2333 = f32[1,1,24,144]{3,2,1,0} get-tuple-element((f32[1,1,24,144]{3,2,1,0}, f32[1,1,24,144]{3,2,1,0}, f32[1,1,24,144]{3,2,1,0}, f32[1,1,24,144]{3,2,1,0}, f32[1,1,24,144]{3,2,1,0}, f32[1,1,24,144]{3,2,1,0}) %fusion.1310), index=3
  %get-tuple-element.2337 = f32[1,1,24,144]{3,2,1,0} get-tuple-element((f32[1,1,24,144]{3,2,1,0}, f32[1,1,24,144]{3,2,1,0}, f32[1,1,24,144]{3,2,1,0}, f32[1,1,24,144]{3,2,1,0}, f32[1,1,24,144]{3,2,1,0}, f32[1,1,24,144]{3,2,1,0}) %fusion.1310), index=5
  %get-tuple-element.2328 = f32[24]{0} get-tuple-element((f32[24]{0}, f32[24]{0}, f32[24]{0}, f32[24]{0}, f32[24]{0}, f32[24]{0}, f32[24]{0}, f32[24]{0}, f32[24]{0}, f32[24]{0}, f32[24]{0}, f32[24]{0}, f32[24]{0}, f32[24]{0}, f32[24]{0}, f32[24]{0}) %fusion.284), index=7
  %get-tuple-element.2329 = f32[24]{0} get-tuple-element((f32[24]{0}, f32[24]{0}, f32[24]{0}, f32[24]{0}, f32[24]{0}, f32[24]{0}, f32[24]{0}, f32[24]{0}, f32[24]{0}, f32[24]{0}, f32[24]{0}, f32[24]{0}, f32[24]{0}, f32[24]{0}, f32[24]{0}, f32[24]{0}) %fusion.284), index=8
  %get-tuple-element.2325 = f32[24]{0} get-tuple-element((f32[24]{0}, f32[24]{0}, f32[24]{0}, f32[24]{0}, f32[24]{0}, f32[24]{0}, f32[24]{0}, f32[24]{0}, f32[24]{0}, f32[24]{0}, f32[24]{0}, f32[24]{0}, f32[24]{0}, f32[24]{0}, f32[24]{0}, f32[24]{0}) %fusion.284), index=4
  %get-tuple-element.2326 = f32[24]{0} get-tuple-element((f32[24]{0}, f32[24]{0}, f32[24]{0}, f32[24]{0}, f32[24]{0}, f32[24]{0}, f32[24]{0}, f32[24]{0}, f32[24]{0}, f32[24]{0}, f32[24]{0}, f32[24]{0}, f32[24]{0}, f32[24]{0}, f32[24]{0}, f32[24]{0}) %fusion.284), index=5
  %get-tuple-element.1795 = f32[1,1,144,24]{3,2,1,0} get-tuple-element((f32[1,1,144,24]{3,2,1,0}, f32[1,1,144,24]{3,2,1,0}, f32[1,1,144,24]{3,2,1,0}) %fusion.1314), index=0
  %get-tuple-element.1797 = f32[1,1,144,24]{3,2,1,0} get-tuple-element((f32[1,1,144,24]{3,2,1,0}, f32[1,1,144,24]{3,2,1,0}, f32[1,1,144,24]{3,2,1,0}) %fusion.1314), index=2
  %get-tuple-element.2356 = f32[144]{0} get-tuple-element((f32[144]{0}, f32[144]{0}, f32[144]{0}, f32[144]{0}, f32[144]{0}, f32[144]{0}, f32[144]{0}, f32[144]{0}, f32[144]{0}, f32[144]{0}, f32[144]{0}, f32[144]{0}, f32[144]{0}, f32[144]{0}, f32[144]{0}, f32[144]{0}, f32[144]{0}, f32[144]{0}, f32[144]{0}, f32[144]{0}, f32[144]{0}, f32[144]{0}) %fusion.275), index=19
  %get-tuple-element.2357 = f32[144]{0} get-tuple-element((f32[144]{0}, f32[144]{0}, f32[144]{0}, f32[144]{0}, f32[144]{0}, f32[144]{0}, f32[144]{0}, f32[144]{0}, f32[144]{0}, f32[144]{0}, f32[144]{0}, f32[144]{0}, f32[144]{0}, f32[144]{0}, f32[144]{0}, f32[144]{0}, f32[144]{0}, f32[144]{0}, f32[144]{0}, f32[144]{0}, f32[144]{0}, f32[144]{0}) %fusion.275), index=20
  %get-tuple-element.2352 = f32[144]{0} get-tuple-element((f32[144]{0}, f32[144]{0}, f32[144]{0}, f32[144]{0}, f32[144]{0}, f32[144]{0}, f32[144]{0}, f32[144]{0}, f32[144]{0}, f32[144]{0}, f32[144]{0}, f32[144]{0}, f32[144]{0}, f32[144]{0}, f32[144]{0}, f32[144]{0}, f32[144]{0}, f32[144]{0}, f32[144]{0}, f32[144]{0}, f32[144]{0}, f32[144]{0}) %fusion.275), index=16
  %get-tuple-element.2354 = f32[144]{0} get-tuple-element((f32[144]{0}, f32[144]{0}, f32[144]{0}, f32[144]{0}, f32[144]{0}, f32[144]{0}, f32[144]{0}, f32[144]{0}, f32[144]{0}, f32[144]{0}, f32[144]{0}, f32[144]{0}, f32[144]{0}, f32[144]{0}, f32[144]{0}, f32[144]{0}, f32[144]{0}, f32[144]{0}, f32[144]{0}, f32[144]{0}, f32[144]{0}, f32[144]{0}) %fusion.275), index=17
  %get-tuple-element.1804 = f32[3,3,144,1]{3,2,1,0} get-tuple-element((f32[3,3,144,1]{3,2,1,0}, f32[3,3,144,1]{3,2,1,0}, f32[3,3,144,1]{3,2,1,0}, f32[3,3,144,1]{3,2,1,0}, f32[3,3,144,1]{3,2,1,0}, f32[3,3,144,1]{3,2,1,0}) %fusion.1312), index=0
  %get-tuple-element.1806 = f32[3,3,144,1]{3,2,1,0} get-tuple-element((f32[3,3,144,1]{3,2,1,0}, f32[3,3,144,1]{3,2,1,0}, f32[3,3,144,1]{3,2,1,0}, f32[3,3,144,1]{3,2,1,0}, f32[3,3,144,1]{3,2,1,0}, f32[3,3,144,1]{3,2,1,0}) %fusion.1312), index=2
  %get-tuple-element.1811 = f32[144]{0} get-tuple-element((f32[144]{0}, f32[144]{0}, f32[144]{0}, f32[144]{0}, f32[144]{0}, f32[144]{0}, f32[144]{0}, f32[144]{0}, f32[144]{0}, f32[144]{0}, f32[144]{0}, f32[144]{0}, f32[144]{0}, f32[144]{0}, f32[144]{0}, f32[144]{0}, f32[144]{0}, f32[144]{0}, f32[144]{0}, f32[144]{0}, f32[144]{0}, f32[144]{0}) %fusion.275), index=1
  %get-tuple-element.1812 = f32[144]{0} get-tuple-element((f32[144]{0}, f32[144]{0}, f32[144]{0}, f32[144]{0}, f32[144]{0}, f32[144]{0}, f32[144]{0}, f32[144]{0}, f32[144]{0}, f32[144]{0}, f32[144]{0}, f32[144]{0}, f32[144]{0}, f32[144]{0}, f32[144]{0}, f32[144]{0}, f32[144]{0}, f32[144]{0}, f32[144]{0}, f32[144]{0}, f32[144]{0}, f32[144]{0}) %fusion.275), index=2
  %get-tuple-element.2804 = f32[144]{0} get-tuple-element((f32[64]{0}, f32[64]{0}, f32[64]{0}, f32[144]{0}, f32[144]{0}, f32[144]{0}) %fusion.1366), index=4
  %get-tuple-element.2805 = f32[144]{0} get-tuple-element((f32[64]{0}, f32[64]{0}, f32[64]{0}, f32[144]{0}, f32[144]{0}, f32[144]{0}) %fusion.1366), index=5
  %get-tuple-element.1813 = f32[1,1,24,144]{3,2,1,0} get-tuple-element((f32[1,1,24,144]{3,2,1,0}, f32[1,1,24,144]{3,2,1,0}, f32[1,1,24,144]{3,2,1,0}, f32[1,1,24,144]{3,2,1,0}, f32[1,1,24,144]{3,2,1,0}, f32[1,1,24,144]{3,2,1,0}) %fusion.1310), index=0
  %get-tuple-element.1817 = f32[1,1,24,144]{3,2,1,0} get-tuple-element((f32[1,1,24,144]{3,2,1,0}, f32[1,1,24,144]{3,2,1,0}, f32[1,1,24,144]{3,2,1,0}, f32[1,1,24,144]{3,2,1,0}, f32[1,1,24,144]{3,2,1,0}, f32[1,1,24,144]{3,2,1,0}) %fusion.1310), index=2
  %get-tuple-element.1823 = f32[24]{0} get-tuple-element((f32[24]{0}, f32[24]{0}, f32[24]{0}, f32[24]{0}, f32[24]{0}, f32[24]{0}, f32[24]{0}, f32[24]{0}, f32[24]{0}, f32[24]{0}, f32[24]{0}, f32[24]{0}, f32[24]{0}, f32[24]{0}, f32[24]{0}, f32[24]{0}) %fusion.284), index=1
  %get-tuple-element.1824 = f32[24]{0} get-tuple-element((f32[24]{0}, f32[24]{0}, f32[24]{0}, f32[24]{0}, f32[24]{0}, f32[24]{0}, f32[24]{0}, f32[24]{0}, f32[24]{0}, f32[24]{0}, f32[24]{0}, f32[24]{0}, f32[24]{0}, f32[24]{0}, f32[24]{0}, f32[24]{0}) %fusion.284), index=2
  %get-tuple-element.2331 = f32[24]{0} get-tuple-element((f32[24]{0}, f32[24]{0}, f32[24]{0}, f32[24]{0}, f32[24]{0}, f32[24]{0}, f32[24]{0}, f32[24]{0}, f32[24]{0}, f32[24]{0}, f32[24]{0}, f32[24]{0}, f32[24]{0}, f32[24]{0}, f32[24]{0}, f32[24]{0}) %fusion.284), index=10
  %get-tuple-element.2332 = f32[24]{0} get-tuple-element((f32[24]{0}, f32[24]{0}, f32[24]{0}, f32[24]{0}, f32[24]{0}, f32[24]{0}, f32[24]{0}, f32[24]{0}, f32[24]{0}, f32[24]{0}, f32[24]{0}, f32[24]{0}, f32[24]{0}, f32[24]{0}, f32[24]{0}, f32[24]{0}) %fusion.284), index=11
  %get-tuple-element.1825 = f32[1,1,96,24]{3,2,1,0} get-tuple-element((f32[1,1,96,24]{3,2,1,0}, f32[1,1,96,24]{3,2,1,0}, f32[1,1,96,24]{3,2,1,0}) %fusion.1308), index=0
  %get-tuple-element.1827 = f32[1,1,96,24]{3,2,1,0} get-tuple-element((f32[1,1,96,24]{3,2,1,0}, f32[1,1,96,24]{3,2,1,0}, f32[1,1,96,24]{3,2,1,0}) %fusion.1308), index=2
  %get-tuple-element.2218 = f32[96]{0} get-tuple-element((f32[96]{0}, f32[96]{0}, f32[96]{0}, f32[96]{0}, f32[96]{0}, f32[96]{0}, f32[96]{0}, f32[96]{0}, f32[96]{0}, f32[96]{0}, f32[96]{0}, f32[96]{0}, f32[96]{0}, f32[96]{0}, f32[96]{0}, f32[96]{0}, f32[96]{0}, f32[96]{0}, f32[96]{0}, f32[96]{0}, f32[96]{0}, f32[96]{0}) %fusion.606), index=7
  %get-tuple-element.2219 = f32[96]{0} get-tuple-element((f32[96]{0}, f32[96]{0}, f32[96]{0}, f32[96]{0}, f32[96]{0}, f32[96]{0}, f32[96]{0}, f32[96]{0}, f32[96]{0}, f32[96]{0}, f32[96]{0}, f32[96]{0}, f32[96]{0}, f32[96]{0}, f32[96]{0}, f32[96]{0}, f32[96]{0}, f32[96]{0}, f32[96]{0}, f32[96]{0}, f32[96]{0}, f32[96]{0}) %fusion.606), index=8
  %get-tuple-element.2215 = f32[96]{0} get-tuple-element((f32[96]{0}, f32[96]{0}, f32[96]{0}, f32[96]{0}, f32[96]{0}, f32[96]{0}, f32[96]{0}, f32[96]{0}, f32[96]{0}, f32[96]{0}, f32[96]{0}, f32[96]{0}, f32[96]{0}, f32[96]{0}, f32[96]{0}, f32[96]{0}, f32[96]{0}, f32[96]{0}, f32[96]{0}, f32[96]{0}, f32[96]{0}, f32[96]{0}) %fusion.606), index=4
  %get-tuple-element.2216 = f32[96]{0} get-tuple-element((f32[96]{0}, f32[96]{0}, f32[96]{0}, f32[96]{0}, f32[96]{0}, f32[96]{0}, f32[96]{0}, f32[96]{0}, f32[96]{0}, f32[96]{0}, f32[96]{0}, f32[96]{0}, f32[96]{0}, f32[96]{0}, f32[96]{0}, f32[96]{0}, f32[96]{0}, f32[96]{0}, f32[96]{0}, f32[96]{0}, f32[96]{0}, f32[96]{0}) %fusion.606), index=5
  %get-tuple-element.1835 = f32[3,3,96,1]{3,2,1,0} get-tuple-element((f32[3,3,96,1]{3,2,1,0}, f32[3,3,96,1]{3,2,1,0}, f32[3,3,96,1]{3,2,1,0}) %fusion.1306), index=0
  %get-tuple-element.1837 = f32[3,3,96,1]{3,2,1,0} get-tuple-element((f32[3,3,96,1]{3,2,1,0}, f32[3,3,96,1]{3,2,1,0}, f32[3,3,96,1]{3,2,1,0}) %fusion.1306), index=2
  %get-tuple-element.2224 = f32[96]{0} get-tuple-element((f32[96]{0}, f32[96]{0}, f32[96]{0}, f32[96]{0}, f32[96]{0}, f32[96]{0}, f32[96]{0}, f32[96]{0}, f32[96]{0}, f32[96]{0}, f32[96]{0}, f32[96]{0}, f32[96]{0}, f32[96]{0}, f32[96]{0}, f32[96]{0}, f32[96]{0}, f32[96]{0}, f32[96]{0}, f32[96]{0}, f32[96]{0}, f32[96]{0}) %fusion.606), index=13
  %get-tuple-element.2225 = f32[96]{0} get-tuple-element((f32[96]{0}, f32[96]{0}, f32[96]{0}, f32[96]{0}, f32[96]{0}, f32[96]{0}, f32[96]{0}, f32[96]{0}, f32[96]{0}, f32[96]{0}, f32[96]{0}, f32[96]{0}, f32[96]{0}, f32[96]{0}, f32[96]{0}, f32[96]{0}, f32[96]{0}, f32[96]{0}, f32[96]{0}, f32[96]{0}, f32[96]{0}, f32[96]{0}) %fusion.606), index=14
  %get-tuple-element.2221 = f32[96]{0} get-tuple-element((f32[96]{0}, f32[96]{0}, f32[96]{0}, f32[96]{0}, f32[96]{0}, f32[96]{0}, f32[96]{0}, f32[96]{0}, f32[96]{0}, f32[96]{0}, f32[96]{0}, f32[96]{0}, f32[96]{0}, f32[96]{0}, f32[96]{0}, f32[96]{0}, f32[96]{0}, f32[96]{0}, f32[96]{0}, f32[96]{0}, f32[96]{0}, f32[96]{0}) %fusion.606), index=10
  %get-tuple-element.2222 = f32[96]{0} get-tuple-element((f32[96]{0}, f32[96]{0}, f32[96]{0}, f32[96]{0}, f32[96]{0}, f32[96]{0}, f32[96]{0}, f32[96]{0}, f32[96]{0}, f32[96]{0}, f32[96]{0}, f32[96]{0}, f32[96]{0}, f32[96]{0}, f32[96]{0}, f32[96]{0}, f32[96]{0}, f32[96]{0}, f32[96]{0}, f32[96]{0}, f32[96]{0}, f32[96]{0}) %fusion.606), index=11
  %get-tuple-element.1555 = f32[16]{0} get-tuple-element((f32[16]{0}, f32[16]{0}, f32[16]{0}, f32[16]{0}, f32[16]{0}, f32[16]{0}, f32[16]{0}, f32[16]{0}) %fusion.18), index=1
  %get-tuple-element.1556 = f32[16]{0} get-tuple-element((f32[16]{0}, f32[16]{0}, f32[16]{0}, f32[16]{0}, f32[16]{0}, f32[16]{0}, f32[16]{0}, f32[16]{0}) %fusion.18), index=2
  %get-tuple-element.2441 = f32[16]{0} get-tuple-element((f32[16]{0}, f32[16]{0}, f32[16]{0}, f32[16]{0}, f32[16]{0}, f32[16]{0}, f32[16]{0}, f32[16]{0}) %fusion.18), index=4
  %get-tuple-element.2442 = f32[16]{0} get-tuple-element((f32[16]{0}, f32[16]{0}, f32[16]{0}, f32[16]{0}, f32[16]{0}, f32[16]{0}, f32[16]{0}, f32[16]{0}) %fusion.18), index=5
  %get-tuple-element.1844 = f32[1,1,16,96]{3,2,1,0} get-tuple-element((f32[1,1,16,96]{3,2,1,0}, f32[1,1,16,96]{3,2,1,0}, f32[1,1,16,96]{3,2,1,0}) %fusion.1304), index=0
  %get-tuple-element.1846 = f32[1,1,16,96]{3,2,1,0} get-tuple-element((f32[1,1,16,96]{3,2,1,0}, f32[1,1,16,96]{3,2,1,0}, f32[1,1,16,96]{3,2,1,0}) %fusion.1304), index=2
  %get-tuple-element.1557 = f32[1,1,32,16]{3,2,1,0} get-tuple-element((f32[1,1,32,16]{3,2,1,0}, f32[1,1,32,16]{3,2,1,0}, f32[1,1,32,16]{3,2,1,0}) %fusion.1362), index=0
  %get-tuple-element.1559 = f32[1,1,32,16]{3,2,1,0} get-tuple-element((f32[1,1,32,16]{3,2,1,0}, f32[1,1,32,16]{3,2,1,0}, f32[1,1,32,16]{3,2,1,0}) %fusion.1362), index=2
  %get-tuple-element.2365 = f32[32]{0} get-tuple-element((f32[32]{0}, f32[32]{0}, f32[32]{0}, f32[32]{0}, f32[32]{0}, f32[32]{0}, f32[32]{0}, f32[32]{0}, f32[32]{0}, f32[32]{0}, f32[32]{0}, f32[32]{0}, f32[32]{0}, f32[32]{0}, f32[32]{0}, f32[32]{0}, f32[32]{0}, f32[32]{0}, f32[32]{0}, f32[32]{0}, f32[32]{0}, f32[32]{0}) %fusion.228), index=7
  %get-tuple-element.2366 = f32[32]{0} get-tuple-element((f32[32]{0}, f32[32]{0}, f32[32]{0}, f32[32]{0}, f32[32]{0}, f32[32]{0}, f32[32]{0}, f32[32]{0}, f32[32]{0}, f32[32]{0}, f32[32]{0}, f32[32]{0}, f32[32]{0}, f32[32]{0}, f32[32]{0}, f32[32]{0}, f32[32]{0}, f32[32]{0}, f32[32]{0}, f32[32]{0}, f32[32]{0}, f32[32]{0}) %fusion.228), index=8
  %get-tuple-element.2362 = f32[32]{0} get-tuple-element((f32[32]{0}, f32[32]{0}, f32[32]{0}, f32[32]{0}, f32[32]{0}, f32[32]{0}, f32[32]{0}, f32[32]{0}, f32[32]{0}, f32[32]{0}, f32[32]{0}, f32[32]{0}, f32[32]{0}, f32[32]{0}, f32[32]{0}, f32[32]{0}, f32[32]{0}, f32[32]{0}, f32[32]{0}, f32[32]{0}, f32[32]{0}, f32[32]{0}) %fusion.228), index=4
  %get-tuple-element.2363 = f32[32]{0} get-tuple-element((f32[32]{0}, f32[32]{0}, f32[32]{0}, f32[32]{0}, f32[32]{0}, f32[32]{0}, f32[32]{0}, f32[32]{0}, f32[32]{0}, f32[32]{0}, f32[32]{0}, f32[32]{0}, f32[32]{0}, f32[32]{0}, f32[32]{0}, f32[32]{0}, f32[32]{0}, f32[32]{0}, f32[32]{0}, f32[32]{0}, f32[32]{0}, f32[32]{0}) %fusion.228), index=5
  %get-tuple-element.1566 = f32[3,3,32,1]{3,2,1,0} get-tuple-element((f32[3,3,32,1]{3,2,1,0}, f32[3,3,32,1]{3,2,1,0}, f32[3,3,32,1]{3,2,1,0}) %fusion.1360), index=0
  %get-tuple-element.1568 = f32[3,3,32,1]{3,2,1,0} get-tuple-element((f32[3,3,32,1]{3,2,1,0}, f32[3,3,32,1]{3,2,1,0}, f32[3,3,32,1]{3,2,1,0}) %fusion.1360), index=2
  %get-tuple-element.2371 = f32[32]{0} get-tuple-element((f32[32]{0}, f32[32]{0}, f32[32]{0}, f32[32]{0}, f32[32]{0}, f32[32]{0}, f32[32]{0}, f32[32]{0}, f32[32]{0}, f32[32]{0}, f32[32]{0}, f32[32]{0}, f32[32]{0}, f32[32]{0}, f32[32]{0}, f32[32]{0}, f32[32]{0}, f32[32]{0}, f32[32]{0}, f32[32]{0}, f32[32]{0}, f32[32]{0}) %fusion.228), index=13
  %get-tuple-element.2372 = f32[32]{0} get-tuple-element((f32[32]{0}, f32[32]{0}, f32[32]{0}, f32[32]{0}, f32[32]{0}, f32[32]{0}, f32[32]{0}, f32[32]{0}, f32[32]{0}, f32[32]{0}, f32[32]{0}, f32[32]{0}, f32[32]{0}, f32[32]{0}, f32[32]{0}, f32[32]{0}, f32[32]{0}, f32[32]{0}, f32[32]{0}, f32[32]{0}, f32[32]{0}, f32[32]{0}) %fusion.228), index=14
  %get-tuple-element.2368 = f32[32]{0} get-tuple-element((f32[32]{0}, f32[32]{0}, f32[32]{0}, f32[32]{0}, f32[32]{0}, f32[32]{0}, f32[32]{0}, f32[32]{0}, f32[32]{0}, f32[32]{0}, f32[32]{0}, f32[32]{0}, f32[32]{0}, f32[32]{0}, f32[32]{0}, f32[32]{0}, f32[32]{0}, f32[32]{0}, f32[32]{0}, f32[32]{0}, f32[32]{0}, f32[32]{0}) %fusion.228), index=10
  %get-tuple-element.2369 = f32[32]{0} get-tuple-element((f32[32]{0}, f32[32]{0}, f32[32]{0}, f32[32]{0}, f32[32]{0}, f32[32]{0}, f32[32]{0}, f32[32]{0}, f32[32]{0}, f32[32]{0}, f32[32]{0}, f32[32]{0}, f32[32]{0}, f32[32]{0}, f32[32]{0}, f32[32]{0}, f32[32]{0}, f32[32]{0}, f32[32]{0}, f32[32]{0}, f32[32]{0}, f32[32]{0}) %fusion.228), index=11
  %get-tuple-element.1575 = f32[3,3,3,32]{3,2,1,0} get-tuple-element((f32[3,3,3,32]{3,2,1,0}, f32[3,3,3,32]{3,2,1,0}, f32[3,3,3,32]{3,2,1,0}) %fusion.1358), index=0
  %get-tuple-element.1577 = f32[3,3,3,32]{3,2,1,0} get-tuple-element((f32[3,3,3,32]{3,2,1,0}, f32[3,3,3,32]{3,2,1,0}, f32[3,3,3,32]{3,2,1,0}) %fusion.1358), index=2
  ROOT %tuple.921 = (f32[32]{0}, f32[32]{0}, f32[32]{0}, f32[32]{0}, f32[16]{0}, f32[16]{0}, f32[96]{0}, f32[96]{0}, f32[96]{0}, f32[96]{0}, f32[24]{0}, f32[24]{0}, f32[144]{0}, f32[144]{0}, f32[144]{0}, f32[144]{0}, f32[24]{0}, f32[24]{0}, f32[144]{0}, f32[144]{0}, f32[144]{0}, f32[144]{0}, f32[32]{0}, f32[32]{0}, f32[192]{0}, f32[192]{0}, f32[192]{0}, f32[192]{0}, f32[32]{0}, f32[32]{0}, f32[192]{0}, f32[192]{0}, f32[192]{0}, f32[192]{0}, f32[32]{0}, f32[32]{0}, f32[192]{0}, f32[192]{0}, f32[192]{0}, f32[192]{0}, f32[64]{0}, f32[64]{0}, f32[384]{0}, f32[384]{0}, f32[384]{0}, f32[384]{0}, f32[64]{0}, f32[64]{0}, f32[384]{0}, f32[384]{0}, f32[384]{0}, f32[384]{0}, f32[64]{0}, f32[64]{0}, f32[384]{0}, f32[384]{0}, f32[384]{0}, f32[384]{0}, f32[64]{0}, f32[64]{0}, f32[384]{0}, f32[384]{0}, f32[384]{0}, f32[384]{0}, f32[96]{0}, f32[96]{0}, f32[576]{0}, f32[576]{0}, f32[576]{0}, f32[576]{0}, f32[96]{0}, f32[96]{0}, f32[576]{0}, f32[576]{0}, f32[576]{0}, f32[576]{0}, f32[96]{0}, f32[96]{0}, f32[576]{0}, f32[576]{0}, f32[576]{0}, f32[576]{0}, f32[160]{0}, f32[160]{0}, f32[960]{0}, f32[960]{0}, f32[960]{0}, f32[960]{0}, f32[160]{0}, f32[160]{0}, f32[960]{0}, f32[960]{0}, f32[960]{0}, f32[960]{0}, f32[160]{0}, f32[160]{0}, f32[960]{0}, f32[960]{0}, f32[960]{0}, f32[960]{0}, f32[320]{0}, f32[320]{0}, f32[1280]{0}, f32[1280]{0}, s32[], f32[], f32[1,1,320,1280]{3,2,1,0}, f32[1280]{0}, f32[1280]{0}, f32[1,1,64,384]{3,2,1,0}, f32[384]{0}, f32[384]{0}, f32[3,3,384,1]{3,2,1,0}, f32[384]{0}, f32[384]{0}, f32[1,1,384,96]{3,2,1,0}, f32[96]{0}, f32[96]{0}, f32[1,1,96,576]{3,2,1,0}, f32[576]{0}, f32[576]{0}, f32[3,3,576,1]{3,2,1,0}, f32[576]{0}, f32[576]{0}, f32[1,1,576,96]{3,2,1,0}, f32[96]{0}, f32[96]{0}, f32[1,1,96,576]{3,2,1,0}, f32[576]{0}, f32[576]{0}, f32[3,3,576,1]{3,2,1,0}, f32[576]{0}, f32[576]{0}, f32[1,1,576,96]{3,2,1,0}, f32[96]{0}, f32[96]{0}, f32[1,1,96,576]{3,2,1,0}, f32[576]{0}, f32[576]{0}, f32[3,3,576,1]{3,2,1,0}, f32[576]{0}, f32[576]{0}, f32[1,1,576,160]{3,2,1,0}, f32[160]{0}, f32[160]{0}, f32[1,1,160,960]{3,2,1,0}, f32[960]{0}, f32[960]{0}, f32[3,3,960,1]{3,2,1,0}, f32[960]{0}, f32[960]{0}, f32[1,1,960,160]{3,2,1,0}, f32[160]{0}, f32[160]{0}, f32[1,1,160,960]{3,2,1,0}, f32[960]{0}, f32[960]{0}, f32[3,3,960,1]{3,2,1,0}, f32[960]{0}, f32[960]{0}, f32[1,1,960,160]{3,2,1,0}, f32[160]{0}, f32[160]{0}, f32[1,1,160,960]{3,2,1,0}, f32[960]{0}, f32[960]{0}, f32[3,3,960,1]{3,2,1,0}, f32[960]{0}, f32[960]{0}, f32[1,1,960,320]{3,2,1,0}, f32[320]{0}, f32[320]{0}, f32[1,1,16,96]{3,2,1,0}, f32[96]{0}, f32[96]{0}, f32[3,3,96,1]{3,2,1,0}, f32[96]{0}, f32[96]{0}, f32[1,1,96,24]{3,2,1,0}, f32[24]{0}, f32[24]{0}, f32[1,1,24,144]{3,2,1,0}, f32[144]{0}, f32[144]{0}, f32[3,3,144,1]{3,2,1,0}, f32[144]{0}, f32[144]{0}, f32[1,1,144,24]{3,2,1,0}, f32[24]{0}, f32[24]{0}, f32[1,1,24,144]{3,2,1,0}, f32[144]{0}, f32[144]{0}, f32[3,3,144,1]{3,2,1,0}, f32[144]{0}, f32[144]{0}, f32[1,1,144,32]{3,2,1,0}, f32[32]{0}, f32[32]{0}, f32[1,1,32,192]{3,2,1,0}, f32[192]{0}, f32[192]{0}, f32[3,3,192,1]{3,2,1,0}, f32[192]{0}, f32[192]{0}, f32[1,1,192,32]{3,2,1,0}, f32[32]{0}, f32[32]{0}, f32[1,1,32,192]{3,2,1,0}, f32[192]{0}, f32[192]{0}, f32[3,3,192,1]{3,2,1,0}, f32[192]{0}, f32[192]{0}, f32[1,1,192,32]{3,2,1,0}, f32[32]{0}, f32[32]{0}, f32[1,1,32,192]{3,2,1,0}, f32[192]{0}, f32[192]{0}, f32[3,3,192,1]{3,2,1,0}, f32[192]{0}, f32[192]{0}, f32[1,1,192,64]{3,2,1,0}, f32[64]{0}, f32[64]{0}, f32[1,1,64,384]{3,2,1,0}, f32[384]{0}, f32[384]{0}, f32[3,3,384,1]{3,2,1,0}, f32[384]{0}, f32[384]{0}, f32[1,1,384,64]{3,2,1,0}, f32[64]{0}, f32[64]{0}, f32[1,1,64,384]{3,2,1,0}, f32[384]{0}, f32[384]{0}, f32[3,3,384,1]{3,2,1,0}, f32[384]{0}, f32[384]{0}, f32[1,1,384,64]{3,2,1,0}, f32[64]{0}, f32[64]{0}, f32[1,1,64,384]{3,2,1,0}, f32[384]{0}, f32[384]{0}, f32[3,3,384,1]{3,2,1,0}, f32[384]{0}, f32[384]{0}, f32[1,1,384,64]{3,2,1,0}, f32[64]{0}, f32[64]{0}, f32[3,3,3,32]{3,2,1,0}, f32[32]{0}, f32[32]{0}, f32[3,3,32,1]{3,2,1,0}, f32[32]{0}, f32[32]{0}, f32[1,1,32,16]{3,2,1,0}, f32[16]{0}, f32[16]{0}, f32[1000]{0}, f32[1280,1000]{1,0}, f32[], f32[], f32[1280,1000]{1,0}, f32[1280,1000]{1,0}, f32[1000]{0}, f32[1000]{0}, f32[1280]{0}, f32[1280]{0}, f32[1280]{0}, f32[1280]{0}, f32[1,1,320,1280]{3,2,1,0}, f32[1,1,320,1280]{3,2,1,0}, f32[320]{0}, f32[320]{0}, f32[320]{0}, f32[320]{0}, f32[1,1,960,320]{3,2,1,0}, f32[1,1,960,320]{3,2,1,0}, f32[960]{0}, f32[960]{0}, f32[960]{0}, f32[960]{0}, f32[3,3,960,1]{3,2,1,0}, f32[3,3,960,1]{3,2,1,0}, f32[960]{0}, f32[960]{0}, f32[960]{0}, f32[960]{0}, f32[1,1,160,960]{3,2,1,0}, f32[1,1,160,960]{3,2,1,0}, f32[160]{0}, f32[160]{0}, f32[160]{0}, f32[160]{0}, f32[1,1,960,160]{3,2,1,0}, f32[1,1,960,160]{3,2,1,0}, f32[960]{0}, f32[960]{0}, f32[960]{0}, f32[960]{0}, f32[3,3,960,1]{3,2,1,0}, f32[3,3,960,1]{3,2,1,0}, f32[960]{0}, f32[960]{0}, f32[960]{0}, f32[960]{0}, f32[1,1,160,960]{3,2,1,0}, f32[1,1,160,960]{3,2,1,0}, f32[160]{0}, f32[160]{0}, f32[160]{0}, f32[160]{0}, f32[1,1,960,160]{3,2,1,0}, f32[1,1,960,160]{3,2,1,0}, f32[960]{0}, f32[960]{0}, f32[960]{0}, f32[960]{0}, f32[3,3,960,1]{3,2,1,0}, f32[3,3,960,1]{3,2,1,0}, f32[960]{0}, f32[960]{0}, f32[960]{0}, f32[960]{0}, f32[1,1,160,960]{3,2,1,0}, f32[1,1,160,960]{3,2,1,0}, f32[160]{0}, f32[160]{0}, f32[160]{0}, f32[160]{0}, f32[1,1,576,160]{3,2,1,0}, f32[1,1,576,160]{3,2,1,0}, f32[576]{0}, f32[576]{0}, f32[576]{0}, f32[576]{0}, f32[3,3,576,1]{3,2,1,0}, f32[3,3,576,1]{3,2,1,0}, f32[576]{0}, f32[576]{0}, f32[576]{0}, f32[576]{0}, f32[1,1,96,576]{3,2,1,0}, f32[1,1,96,576]{3,2,1,0}, f32[96]{0}, f32[96]{0}, f32[96]{0}, f32[96]{0}, f32[1,1,576,96]{3,2,1,0}, f32[1,1,576,96]{3,2,1,0}, f32[576]{0}, f32[576]{0}, f32[576]{0}, f32[576]{0}, f32[3,3,576,1]{3,2,1,0}, f32[3,3,576,1]{3,2,1,0}, f32[576]{0}, f32[576]{0}, f32[576]{0}, f32[576]{0}, f32[1,1,96,576]{3,2,1,0}, f32[1,1,96,576]{3,2,1,0}, f32[96]{0}, f32[96]{0}, f32[96]{0}, f32[96]{0}, f32[1,1,576,96]{3,2,1,0}, f32[1,1,576,96]{3,2,1,0}, f32[576]{0}, f32[576]{0}, f32[576]{0}, f32[576]{0}, f32[3,3,576,1]{3,2,1,0}, f32[3,3,576,1]{3,2,1,0}, f32[576]{0}, f32[576]{0}, f32[576]{0}, f32[576]{0}, f32[1,1,96,576]{3,2,1,0}, f32[1,1,96,576]{3,2,1,0}, f32[96]{0}, f32[96]{0}, f32[96]{0}, f32[96]{0}, f32[1,1,384,96]{3,2,1,0}, f32[1,1,384,96]{3,2,1,0}, f32[384]{0}, f32[384]{0}, f32[384]{0}, f32[384]{0}, f32[3,3,384,1]{3,2,1,0}, f32[3,3,384,1]{3,2,1,0}, f32[384]{0}, f32[384]{0}, f32[384]{0}, f32[384]{0}, f32[64]{0}, f32[64]{0}, f32[64]{0}, f32[64]{0}, f32[1,1,64,384]{3,2,1,0}, f32[1,1,64,384]{3,2,1,0}, f32[1,1,384,64]{3,2,1,0}, f32[1,1,384,64]{3,2,1,0}, f32[384]{0}, f32[384]{0}, f32[384]{0}, f32[384]{0}, f32[3,3,384,1]{3,2,1,0}, f32[3,3,384,1]{3,2,1,0}, f32[384]{0}, f32[384]{0}, f32[384]{0}, f32[384]{0}, f32[1,1,64,384]{3,2,1,0}, f32[1,1,64,384]{3,2,1,0}, f32[64]{0}, f32[64]{0}, f32[64]{0}, f32[64]{0}, f32[1,1,384,64]{3,2,1,0}, f32[1,1,384,64]{3,2,1,0}, f32[384]{0}, f32[384]{0}, f32[384]{0}, f32[384]{0}, f32[3,3,384,1]{3,2,1,0}, f32[3,3,384,1]{3,2,1,0}, f32[384]{0}, f32[384]{0}, f32[384]{0}, f32[384]{0}, f32[1,1,64,384]{3,2,1,0}, f32[1,1,64,384]{3,2,1,0}, f32[64]{0}, f32[64]{0}, f32[64]{0}, f32[64]{0}, f32[1,1,384,64]{3,2,1,0}, f32[1,1,384,64]{3,2,1,0}, f32[384]{0}, f32[384]{0}, f32[384]{0}, f32[384]{0}, f32[3,3,384,1]{3,2,1,0}, f32[3,3,384,1]{3,2,1,0}, f32[384]{0}, f32[384]{0}, f32[384]{0}, f32[384]{0}, f32[1,1,64,384]{3,2,1,0}, f32[1,1,64,384]{3,2,1,0}, f32[64]{0}, f32[64]{0}, f32[64]{0}, f32[64]{0}, f32[1,1,192,64]{3,2,1,0}, f32[1,1,192,64]{3,2,1,0}, f32[192]{0}, f32[192]{0}, f32[192]{0}, f32[192]{0}, f32[3,3,192,1]{3,2,1,0}, f32[3,3,192,1]{3,2,1,0}, f32[192]{0}, f32[192]{0}, f32[192]{0}, f32[192]{0}, f32[1,1,32,192]{3,2,1,0}, f32[1,1,32,192]{3,2,1,0}, f32[32]{0}, f32[32]{0}, f32[32]{0}, f32[32]{0}, f32[1,1,192,32]{3,2,1,0}, f32[1,1,192,32]{3,2,1,0}, f32[192]{0}, f32[192]{0}, f32[192]{0}, f32[192]{0}, f32[3,3,192,1]{3,2,1,0}, f32[3,3,192,1]{3,2,1,0}, f32[192]{0}, f32[192]{0}, f32[192]{0}, f32[192]{0}, f32[1,1,32,192]{3,2,1,0}, f32[1,1,32,192]{3,2,1,0}, f32[32]{0}, f32[32]{0}, f32[32]{0}, f32[32]{0}, f32[1,1,192,32]{3,2,1,0}, f32[1,1,192,32]{3,2,1,0}, f32[192]{0}, f32[192]{0}, f32[192]{0}, f32[192]{0}, f32[3,3,192,1]{3,2,1,0}, f32[3,3,192,1]{3,2,1,0}, f32[192]{0}, f32[192]{0}, f32[192]{0}, f32[192]{0}, f32[1,1,32,192]{3,2,1,0}, f32[1,1,32,192]{3,2,1,0}, f32[32]{0}, f32[32]{0}, f32[32]{0}, f32[32]{0}, f32[1,1,144,32]{3,2,1,0}, f32[1,1,144,32]{3,2,1,0}, f32[144]{0}, f32[144]{0}, f32[144]{0}, f32[144]{0}, f32[3,3,144,1]{3,2,1,0}, f32[3,3,144,1]{3,2,1,0}, f32[144]{0}, f32[144]{0}, f32[144]{0}, f32[144]{0}, f32[1,1,24,144]{3,2,1,0}, f32[1,1,24,144]{3,2,1,0}, f32[24]{0}, f32[24]{0}, f32[24]{0}, f32[24]{0}, f32[1,1,144,24]{3,2,1,0}, f32[1,1,144,24]{3,2,1,0}, f32[144]{0}, f32[144]{0}, f32[144]{0}, f32[144]{0}, f32[3,3,144,1]{3,2,1,0}, f32[3,3,144,1]{3,2,1,0}, f32[144]{0}, f32[144]{0}, f32[144]{0}, f32[144]{0}, f32[1,1,24,144]{3,2,1,0}, f32[1,1,24,144]{3,2,1,0}, f32[24]{0}, f32[24]{0}, f32[24]{0}, f32[24]{0}, f32[1,1,96,24]{3,2,1,0}, f32[1,1,96,24]{3,2,1,0}, f32[96]{0}, f32[96]{0}, f32[96]{0}, f32[96]{0}, f32[3,3,96,1]{3,2,1,0}, f32[3,3,96,1]{3,2,1,0}, f32[96]{0}, f32[96]{0}, f32[96]{0}, f32[96]{0}, f32[16]{0}, f32[16]{0}, f32[16]{0}, f32[16]{0}, f32[1,1,16,96]{3,2,1,0}, f32[1,1,16,96]{3,2,1,0}, f32[1,1,32,16]{3,2,1,0}, f32[1,1,32,16]{3,2,1,0}, f32[32]{0}, f32[32]{0}, f32[32]{0}, f32[32]{0}, f32[3,3,32,1]{3,2,1,0}, f32[3,3,32,1]{3,2,1,0}, f32[32]{0}, f32[32]{0}, f32[32]{0}, f32[32]{0}, f32[3,3,3,32]{3,2,1,0}, f32[3,3,3,32]{3,2,1,0}) tuple(f32[32]{0} %get-tuple-element.2773, f32[32]{0} %get-tuple-element.2774, f32[32]{0} %get-tuple-element.2750, f32[32]{0} %get-tuple-element.2751, f32[16]{0} %get-tuple-element.2724, f32[16]{0} %get-tuple-element.2723, f32[96]{0} %get-tuple-element.2764, f32[96]{0} %get-tuple-element.2765, f32[96]{0} %get-tuple-element.2794, f32[96]{0} %get-tuple-element.2795, f32[24]{0} %get-tuple-element.2711, f32[24]{0} %get-tuple-element.2710, f32[144]{0} %get-tuple-element.2748, f32[144]{0} %get-tuple-element.2749, f32[144]{0} %get-tuple-element.2760, f32[144]{0} %get-tuple-element.2762, f32[24]{0} %get-tuple-element.2697, f32[24]{0} %get-tuple-element.2696, f32[144]{0} %get-tuple-element.2786, f32[144]{0} %get-tuple-element.2787, f32[144]{0} %get-tuple-element.2743, f32[144]{0} %get-tuple-element.2689, f32[32]{0} %get-tuple-element.2768, f32[32]{0} %get-tuple-element.2770, f32[192]{0} %get-tuple-element.2779, f32[192]{0} %get-tuple-element.2781, f32[192]{0} %get-tuple-element.2678, f32[192]{0} %get-tuple-element.2677, f32[32]{0} %get-tuple-element.2674, f32[32]{0} %get-tuple-element.2673, f32[192]{0} %get-tuple-element.2670, f32[192]{0} %get-tuple-element.2669, f32[192]{0} %get-tuple-element.2784, f32[192]{0} %get-tuple-element.2785, f32[32]{0} %get-tuple-element.2737, f32[32]{0} %get-tuple-element.2661, f32[192]{0} %get-tuple-element.2777, f32[192]{0} %get-tuple-element.2778, f32[192]{0} %get-tuple-element.2739, f32[192]{0} %get-tuple-element.2653, f32[64]{0} %get-tuple-element.2788, f32[64]{0} %get-tuple-element.2789, f32[384]{0} %get-tuple-element.2766, f32[384]{0} %get-tuple-element.2767, f32[384]{0} %get-tuple-element.2798, f32[384]{0} %get-tuple-element.2799, f32[64]{0} %get-tuple-element.2746, f32[64]{0} %get-tuple-element.2747, f32[384]{0} %get-tuple-element.2632, f32[384]{0} %get-tuple-element.2631, f32[384]{0} %get-tuple-element.2771, f32[384]{0} %get-tuple-element.2772, f32[64]{0} %get-tuple-element.2796, f32[64]{0} %get-tuple-element.2797, f32[384]{0} %get-tuple-element.2758, f32[384]{0} %get-tuple-element.2759, f32[384]{0} %get-tuple-element.2792, f32[384]{0} %get-tuple-element.2793, f32[64]{0} %get-tuple-element.2738, f32[64]{0} %get-tuple-element.2610, f32[384]{0} %get-tuple-element.2741, f32[384]{0} %get-tuple-element.2607, f32[384]{0} %get-tuple-element.2602, f32[384]{0} %get-tuple-element.2601, f32[96]{0} %get-tuple-element.2782, f32[96]{0} %get-tuple-element.2783, f32[576]{0} %get-tuple-element.2754, f32[576]{0} %get-tuple-element.2755, f32[576]{0} %get-tuple-element.2590, f32[576]{0} %get-tuple-element.2589, f32[96]{0} %get-tuple-element.2586, f32[96]{0} %get-tuple-element.2585, f32[576]{0} %get-tuple-element.2582, f32[576]{0} %get-tuple-element.2581, f32[576]{0} %get-tuple-element.2752, f32[576]{0} %get-tuple-element.2753, f32[96]{0} %get-tuple-element.2740, f32[96]{0} %get-tuple-element.2574, f32[576]{0} %get-tuple-element.2775, f32[576]{0} %get-tuple-element.2776, f32[576]{0} %get-tuple-element.2736, f32[576]{0} %get-tuple-element.2566, f32[160]{0} %get-tuple-element.2563, f32[160]{0} %get-tuple-element.2562, f32[960]{0} %get-tuple-element.2744, f32[960]{0} %get-tuple-element.2745, f32[960]{0} %get-tuple-element.2554, f32[960]{0} %get-tuple-element.2553, f32[160]{0} %get-tuple-element.2548, f32[160]{0} %get-tuple-element.2547, f32[960]{0} %get-tuple-element.2544, f32[960]{0} %get-tuple-element.2543, f32[960]{0} %get-tuple-element.2790, f32[960]{0} %get-tuple-element.2791, f32[160]{0} %get-tuple-element.2536, f32[160]{0} %get-tuple-element.2535, f32[960]{0} %get-tuple-element.2756, f32[960]{0} %get-tuple-element.2757, f32[960]{0} %get-tuple-element.2742, f32[960]{0} %get-tuple-element.2528, f32[320]{0} %get-tuple-element.2525, f32[320]{0} %get-tuple-element.2524, f32[1280]{0} %get-tuple-element.2521, f32[1280]{0} %get-tuple-element.2520, s32[] %copy.1920, f32[] %copy.1921, f32[1,1,320,1280]{3,2,1,0} %get-tuple-element.2163, f32[1280]{0} %get-tuple-element.2159, f32[1280]{0} %get-tuple-element.2171, f32[1,1,64,384]{3,2,1,0} %get-tuple-element.2108, f32[384]{0} %get-tuple-element.2104, f32[384]{0} %get-tuple-element.2517, f32[3,3,384,1]{3,2,1,0} %get-tuple-element.2099, f32[384]{0} %get-tuple-element.2094, f32[384]{0} %get-tuple-element.2461, f32[1,1,384,96]{3,2,1,0} %get-tuple-element.2089, f32[96]{0} %get-tuple-element.2085, f32[96]{0} %get-tuple-element.2514, f32[1,1,96,576]{3,2,1,0} %get-tuple-element.2079, f32[576]{0} %get-tuple-element.2073, f32[576]{0} %get-tuple-element.2507, f32[3,3,576,1]{3,2,1,0} %get-tuple-element.2068, f32[576]{0} %get-tuple-element.2504, f32[576]{0} %get-tuple-element.2501, f32[1,1,576,96]{3,2,1,0} %get-tuple-element.2059, f32[96]{0} %get-tuple-element.2511, f32[96]{0} %get-tuple-element.2052, f32[1,1,96,576]{3,2,1,0} %get-tuple-element.2238, f32[576]{0} %get-tuple-element.2497, f32[576]{0} %get-tuple-element.2043, f32[3,3,576,1]{3,2,1,0} %get-tuple-element.2264, f32[576]{0} %get-tuple-element.2257, f32[576]{0} %get-tuple-element.2254, f32[1,1,576,96]{3,2,1,0} %get-tuple-element.2267, f32[96]{0} %get-tuple-element.2229, f32[96]{0} %get-tuple-element.2226, f32[1,1,96,576]{3,2,1,0} %get-tuple-element.2233, f32[576]{0} %get-tuple-element.2250, f32[576]{0} %get-tuple-element.2247, f32[3,3,576,1]{3,2,1,0} %get-tuple-element.2261, f32[576]{0} %get-tuple-element.2244, f32[576]{0} %get-tuple-element.2240, f32[1,1,576,160]{3,2,1,0} %get-tuple-element.2001, f32[160]{0} %get-tuple-element.1997, f32[160]{0} %get-tuple-element.2281, f32[1,1,160,960]{3,2,1,0} %get-tuple-element.1992, f32[960]{0} %get-tuple-element.1987, f32[960]{0} %get-tuple-element.2494, f32[3,3,960,1]{3,2,1,0} %get-tuple-element.1982, f32[960]{0} %get-tuple-element.2489, f32[960]{0} %get-tuple-element.2486, f32[1,1,960,160]{3,2,1,0} %get-tuple-element.1970, f32[160]{0} %get-tuple-element.2278, f32[160]{0} %get-tuple-element.2275, f32[1,1,160,960]{3,2,1,0} %get-tuple-element.2289, f32[960]{0} %get-tuple-element.2483, f32[960]{0} %get-tuple-element.1954, f32[3,3,960,1]{3,2,1,0} %get-tuple-element.2316, f32[960]{0} %get-tuple-element.2309, f32[960]{0} %get-tuple-element.2305, f32[1,1,960,160]{3,2,1,0} %get-tuple-element.2319, f32[160]{0} %get-tuple-element.2272, f32[160]{0} %get-tuple-element.2269, f32[1,1,160,960]{3,2,1,0} %get-tuple-element.2285, f32[960]{0} %get-tuple-element.2302, f32[960]{0} %get-tuple-element.2299, f32[3,3,960,1]{3,2,1,0} %get-tuple-element.2313, f32[960]{0} %get-tuple-element.2295, f32[960]{0} %get-tuple-element.2292, f32[1,1,960,320]{3,2,1,0} %get-tuple-element.1912, f32[320]{0} %get-tuple-element.1908, f32[320]{0} %get-tuple-element.2321, f32[1,1,16,96]{3,2,1,0} %get-tuple-element.1845, f32[96]{0} %get-tuple-element.2223, f32[96]{0} %get-tuple-element.2220, f32[3,3,96,1]{3,2,1,0} %get-tuple-element.1836, f32[96]{0} %get-tuple-element.2217, f32[96]{0} %get-tuple-element.2214, f32[1,1,96,24]{3,2,1,0} %get-tuple-element.1826, f32[24]{0} %get-tuple-element.1821, f32[24]{0} %get-tuple-element.2330, f32[1,1,24,144]{3,2,1,0} %get-tuple-element.1815, f32[144]{0} %get-tuple-element.1810, f32[144]{0} %get-tuple-element.2803, f32[3,3,144,1]{3,2,1,0} %get-tuple-element.1805, f32[144]{0} %get-tuple-element.2355, f32[144]{0} %get-tuple-element.2351, f32[1,1,144,24]{3,2,1,0} %get-tuple-element.1796, f32[24]{0} %get-tuple-element.2327, f32[24]{0} %get-tuple-element.2324, f32[1,1,24,144]{3,2,1,0} %get-tuple-element.2335, f32[144]{0} %get-tuple-element.2348, f32[144]{0} %get-tuple-element.2345, f32[3,3,144,1]{3,2,1,0} %get-tuple-element.2359, f32[144]{0} %get-tuple-element.2341, f32[144]{0} %get-tuple-element.2338, f32[1,1,144,32]{3,2,1,0} %get-tuple-element.1767, f32[32]{0} %get-tuple-element.1762, f32[32]{0} %get-tuple-element.2480, f32[1,1,32,192]{3,2,1,0} %get-tuple-element.1756, f32[192]{0} %get-tuple-element.1752, f32[192]{0} %get-tuple-element.2474, f32[3,3,192,1]{3,2,1,0} %get-tuple-element.1747, f32[192]{0} %get-tuple-element.2471, f32[192]{0} %get-tuple-element.2468, f32[1,1,192,32]{3,2,1,0} %get-tuple-element.1738, f32[32]{0} %get-tuple-element.2477, f32[32]{0} %get-tuple-element.1731, f32[1,1,32,192]{3,2,1,0} %get-tuple-element.2383, f32[192]{0} %get-tuple-element.2465, f32[192]{0} %get-tuple-element.1721, f32[3,3,192,1]{3,2,1,0} %get-tuple-element.2410, f32[192]{0} %get-tuple-element.2403, f32[192]{0} %get-tuple-element.2399, f32[1,1,192,32]{3,2,1,0} %get-tuple-element.2414, f32[32]{0} %get-tuple-element.2376, f32[32]{0} %get-tuple-element.2373, f32[1,1,32,192]{3,2,1,0} %get-tuple-element.2380, f32[192]{0} %get-tuple-element.2396, f32[192]{0} %get-tuple-element.2391, f32[3,3,192,1]{3,2,1,0} %get-tuple-element.2407, f32[192]{0} %get-tuple-element.2388, f32[192]{0} %get-tuple-element.2385, f32[1,1,192,64]{3,2,1,0} %get-tuple-element.1680, f32[64]{0} %get-tuple-element.1676, f32[64]{0} %get-tuple-element.2800, f32[1,1,64,384]{3,2,1,0} %get-tuple-element.2183, f32[384]{0} %get-tuple-element.2458, f32[384]{0} %get-tuple-element.2455, f32[3,3,384,1]{3,2,1,0} %get-tuple-element.2212, f32[384]{0} %get-tuple-element.2451, f32[384]{0} %get-tuple-element.2448, f32[1,1,384,64]{3,2,1,0} %get-tuple-element.1652, f32[64]{0} %get-tuple-element.2431, f32[64]{0} %get-tuple-element.2428, f32[1,1,64,384]{3,2,1,0} %get-tuple-element.2180, f32[384]{0} %get-tuple-element.2443, f32[384]{0} %get-tuple-element.1633, f32[3,3,384,1]{3,2,1,0} %get-tuple-element.2209, f32[384]{0} %get-tuple-element.2202, f32[384]{0} %get-tuple-element.2199, f32[1,1,384,64]{3,2,1,0} %get-tuple-element.2438, f32[64]{0} %get-tuple-element.2425, f32[64]{0} %get-tuple-element.2422, f32[1,1,64,384]{3,2,1,0} %get-tuple-element.2175, f32[384]{0} %get-tuple-element.2196, f32[384]{0} %get-tuple-element.2192, f32[3,3,384,1]{3,2,1,0} %get-tuple-element.2206, f32[384]{0} %get-tuple-element.2189, f32[384]{0} %get-tuple-element.2186, f32[1,1,384,64]{3,2,1,0} %get-tuple-element.2435, f32[64]{0} %get-tuple-element.2419, f32[64]{0} %get-tuple-element.2416, f32[3,3,3,32]{3,2,1,0} %get-tuple-element.1576, f32[32]{0} %get-tuple-element.2370, f32[32]{0} %get-tuple-element.2367, f32[3,3,32,1]{3,2,1,0} %get-tuple-element.1567, f32[32]{0} %get-tuple-element.2364, f32[32]{0} %get-tuple-element.2361, f32[1,1,32,16]{3,2,1,0} %get-tuple-element.1558, f32[16]{0} %get-tuple-element.1554, f32[16]{0} %get-tuple-element.2440, f32[1000]{0} %get-tuple-element.1547, f32[1280,1000]{1,0} %get-tuple-element.1544, f32[] %fusion.2, f32[] %fusion, f32[1280,1000]{1,0} %get-tuple-element.1545, f32[1280,1000]{1,0} %get-tuple-element.1546, f32[1000]{0} %get-tuple-element.1548, f32[1000]{0} %get-tuple-element.1550, f32[1280]{0} %get-tuple-element.2160, f32[1280]{0} %get-tuple-element.2161, f32[1280]{0} %get-tuple-element.2172, f32[1280]{0} %get-tuple-element.2173, f32[1,1,320,1280]{3,2,1,0} %get-tuple-element.2162, f32[1,1,320,1280]{3,2,1,0} %get-tuple-element.2164, f32[320]{0} %get-tuple-element.1909, f32[320]{0} %get-tuple-element.1910, f32[320]{0} %get-tuple-element.2322, f32[320]{0} %get-tuple-element.2323, f32[1,1,960,320]{3,2,1,0} %get-tuple-element.1911, f32[1,1,960,320]{3,2,1,0} %get-tuple-element.1913, f32[960]{0} %get-tuple-element.2297, f32[960]{0} %get-tuple-element.2298, f32[960]{0} %get-tuple-element.2293, f32[960]{0} %get-tuple-element.2294, f32[3,3,960,1]{3,2,1,0} %get-tuple-element.2312, f32[3,3,960,1]{3,2,1,0} %get-tuple-element.2314, f32[960]{0} %get-tuple-element.2303, f32[960]{0} %get-tuple-element.2304, f32[960]{0} %get-tuple-element.2300, f32[960]{0} %get-tuple-element.2301, f32[1,1,160,960]{3,2,1,0} %get-tuple-element.2284, f32[1,1,160,960]{3,2,1,0} %get-tuple-element.2286, f32[160]{0} %get-tuple-element.2273, f32[160]{0} %get-tuple-element.2274, f32[160]{0} %get-tuple-element.2270, f32[160]{0} %get-tuple-element.2271, f32[1,1,960,160]{3,2,1,0} %get-tuple-element.2318, f32[1,1,960,160]{3,2,1,0} %get-tuple-element.2320, f32[960]{0} %get-tuple-element.2310, f32[960]{0} %get-tuple-element.2311, f32[960]{0} %get-tuple-element.2306, f32[960]{0} %get-tuple-element.2308, f32[3,3,960,1]{3,2,1,0} %get-tuple-element.2315, f32[3,3,960,1]{3,2,1,0} %get-tuple-element.2317, f32[960]{0} %get-tuple-element.2484, f32[960]{0} %get-tuple-element.2485, f32[960]{0} %get-tuple-element.1955, f32[960]{0} %get-tuple-element.1956, f32[1,1,160,960]{3,2,1,0} %get-tuple-element.2287, f32[1,1,160,960]{3,2,1,0} %get-tuple-element.2291, f32[160]{0} %get-tuple-element.2279, f32[160]{0} %get-tuple-element.2280, f32[160]{0} %get-tuple-element.2276, f32[160]{0} %get-tuple-element.2277, f32[1,1,960,160]{3,2,1,0} %get-tuple-element.1969, f32[1,1,960,160]{3,2,1,0} %get-tuple-element.1971, f32[960]{0} %get-tuple-element.2490, f32[960]{0} %get-tuple-element.2492, f32[960]{0} %get-tuple-element.2487, f32[960]{0} %get-tuple-element.2488, f32[3,3,960,1]{3,2,1,0} %get-tuple-element.1981, f32[3,3,960,1]{3,2,1,0} %get-tuple-element.1983, f32[960]{0} %get-tuple-element.1988, f32[960]{0} %get-tuple-element.1989, f32[960]{0} %get-tuple-element.2495, f32[960]{0} %get-tuple-element.2496, f32[1,1,160,960]{3,2,1,0} %get-tuple-element.1990, f32[1,1,160,960]{3,2,1,0} %get-tuple-element.1993, f32[160]{0} %get-tuple-element.1998, f32[160]{0} %get-tuple-element.1999, f32[160]{0} %get-tuple-element.2282, f32[160]{0} %get-tuple-element.2283, f32[1,1,576,160]{3,2,1,0} %get-tuple-element.2000, f32[1,1,576,160]{3,2,1,0} %get-tuple-element.2002, f32[576]{0} %get-tuple-element.2245, f32[576]{0} %get-tuple-element.2246, f32[576]{0} %get-tuple-element.2241, f32[576]{0} %get-tuple-element.2243, f32[3,3,576,1]{3,2,1,0} %get-tuple-element.2260, f32[3,3,576,1]{3,2,1,0} %get-tuple-element.2262, f32[576]{0} %get-tuple-element.2251, f32[576]{0} %get-tuple-element.2252, f32[576]{0} %get-tuple-element.2248, f32[576]{0} %get-tuple-element.2249, f32[1,1,96,576]{3,2,1,0} %get-tuple-element.2232, f32[1,1,96,576]{3,2,1,0} %get-tuple-element.2235, f32[96]{0} %get-tuple-element.2230, f32[96]{0} %get-tuple-element.2231, f32[96]{0} %get-tuple-element.2227, f32[96]{0} %get-tuple-element.2228, f32[1,1,576,96]{3,2,1,0} %get-tuple-element.2266, f32[1,1,576,96]{3,2,1,0} %get-tuple-element.2268, f32[576]{0} %get-tuple-element.2258, f32[576]{0} %get-tuple-element.2259, f32[576]{0} %get-tuple-element.2255, f32[576]{0} %get-tuple-element.2256, f32[3,3,576,1]{3,2,1,0} %get-tuple-element.2263, f32[3,3,576,1]{3,2,1,0} %get-tuple-element.2265, f32[576]{0} %get-tuple-element.2498, f32[576]{0} %get-tuple-element.2500, f32[576]{0} %get-tuple-element.2044, f32[576]{0} %get-tuple-element.2045, f32[1,1,96,576]{3,2,1,0} %get-tuple-element.2237, f32[1,1,96,576]{3,2,1,0} %get-tuple-element.2239, f32[96]{0} %get-tuple-element.2512, f32[96]{0} %get-tuple-element.2513, f32[96]{0} %get-tuple-element.2053, f32[96]{0} %get-tuple-element.2054, f32[1,1,576,96]{3,2,1,0} %get-tuple-element.2058, f32[1,1,576,96]{3,2,1,0} %get-tuple-element.2060, f32[576]{0} %get-tuple-element.2505, f32[576]{0} %get-tuple-element.2506, f32[576]{0} %get-tuple-element.2502, f32[576]{0} %get-tuple-element.2503, f32[3,3,576,1]{3,2,1,0} %get-tuple-element.2067, f32[3,3,576,1]{3,2,1,0} %get-tuple-element.2069, f32[576]{0} %get-tuple-element.2074, f32[576]{0} %get-tuple-element.2075, f32[576]{0} %get-tuple-element.2508, f32[576]{0} %get-tuple-element.2509, f32[1,1,96,576]{3,2,1,0} %get-tuple-element.2077, f32[1,1,96,576]{3,2,1,0} %get-tuple-element.2080, f32[96]{0} %get-tuple-element.2086, f32[96]{0} %get-tuple-element.2087, f32[96]{0} %get-tuple-element.2515, f32[96]{0} %get-tuple-element.2516, f32[1,1,384,96]{3,2,1,0} %get-tuple-element.2088, f32[1,1,384,96]{3,2,1,0} %get-tuple-element.2090, f32[384]{0} %get-tuple-element.2096, f32[384]{0} %get-tuple-element.2097, f32[384]{0} %get-tuple-element.2462, f32[384]{0} %get-tuple-element.2463, f32[3,3,384,1]{3,2,1,0} %get-tuple-element.2098, f32[3,3,384,1]{3,2,1,0} %get-tuple-element.2100, f32[384]{0} %get-tuple-element.2105, f32[384]{0} %get-tuple-element.2106, f32[384]{0} %get-tuple-element.2518, f32[384]{0} %get-tuple-element.2519, f32[64]{0} %get-tuple-element.2420, f32[64]{0} %get-tuple-element.2421, f32[64]{0} %get-tuple-element.2417, f32[64]{0} %get-tuple-element.2418, f32[1,1,64,384]{3,2,1,0} %get-tuple-element.2107, f32[1,1,64,384]{3,2,1,0} %get-tuple-element.2109, f32[1,1,384,64]{3,2,1,0} %get-tuple-element.2434, f32[1,1,384,64]{3,2,1,0} %get-tuple-element.2436, f32[384]{0} %get-tuple-element.2190, f32[384]{0} %get-tuple-element.2191, f32[384]{0} %get-tuple-element.2187, f32[384]{0} %get-tuple-element.2188, f32[3,3,384,1]{3,2,1,0} %get-tuple-element.2205, f32[3,3,384,1]{3,2,1,0} %get-tuple-element.2207, f32[384]{0} %get-tuple-element.2197, f32[384]{0} %get-tuple-element.2198, f32[384]{0} %get-tuple-element.2193, f32[384]{0} %get-tuple-element.2194, f32[1,1,64,384]{3,2,1,0} %get-tuple-element.2174, f32[1,1,64,384]{3,2,1,0} %get-tuple-element.2177, f32[64]{0} %get-tuple-element.2426, f32[64]{0} %get-tuple-element.2427, f32[64]{0} %get-tuple-element.2423, f32[64]{0} %get-tuple-element.2424, f32[1,1,384,64]{3,2,1,0} %get-tuple-element.2437, f32[1,1,384,64]{3,2,1,0} %get-tuple-element.2439, f32[384]{0} %get-tuple-element.2203, f32[384]{0} %get-tuple-element.2204, f32[384]{0} %get-tuple-element.2200, f32[384]{0} %get-tuple-element.2201, f32[3,3,384,1]{3,2,1,0} %get-tuple-element.2208, f32[3,3,384,1]{3,2,1,0} %get-tuple-element.2210, f32[384]{0} %get-tuple-element.2444, f32[384]{0} %get-tuple-element.2446, f32[384]{0} %get-tuple-element.1634, f32[384]{0} %get-tuple-element.1635, f32[1,1,64,384]{3,2,1,0} %get-tuple-element.2179, f32[1,1,64,384]{3,2,1,0} %get-tuple-element.2181, f32[64]{0} %get-tuple-element.2432, f32[64]{0} %get-tuple-element.2433, f32[64]{0} %get-tuple-element.2429, f32[64]{0} %get-tuple-element.2430, f32[1,1,384,64]{3,2,1,0} %get-tuple-element.1651, f32[1,1,384,64]{3,2,1,0} %get-tuple-element.1653, f32[384]{0} %get-tuple-element.2452, f32[384]{0} %get-tuple-element.2454, f32[384]{0} %get-tuple-element.2449, f32[384]{0} %get-tuple-element.2450, f32[3,3,384,1]{3,2,1,0} %get-tuple-element.2211, f32[3,3,384,1]{3,2,1,0} %get-tuple-element.2213, f32[384]{0} %get-tuple-element.2459, f32[384]{0} %get-tuple-element.2460, f32[384]{0} %get-tuple-element.2456, f32[384]{0} %get-tuple-element.2457, f32[1,1,64,384]{3,2,1,0} %get-tuple-element.2182, f32[1,1,64,384]{3,2,1,0} %get-tuple-element.2185, f32[64]{0} %get-tuple-element.1677, f32[64]{0} %get-tuple-element.1678, f32[64]{0} %get-tuple-element.2801, f32[64]{0} %get-tuple-element.2802, f32[1,1,192,64]{3,2,1,0} %get-tuple-element.1679, f32[1,1,192,64]{3,2,1,0} %get-tuple-element.1681, f32[192]{0} %get-tuple-element.2389, f32[192]{0} %get-tuple-element.2390, f32[192]{0} %get-tuple-element.2386, f32[192]{0} %get-tuple-element.2387, f32[3,3,192,1]{3,2,1,0} %get-tuple-element.2406, f32[3,3,192,1]{3,2,1,0} %get-tuple-element.2408, f32[192]{0} %get-tuple-element.2397, f32[192]{0} %get-tuple-element.2398, f32[192]{0} %get-tuple-element.2393, f32[192]{0} %get-tuple-element.2395, f32[1,1,32,192]{3,2,1,0} %get-tuple-element.2379, f32[1,1,32,192]{3,2,1,0} %get-tuple-element.2381, f32[32]{0} %get-tuple-element.2377, f32[32]{0} %get-tuple-element.2378, f32[32]{0} %get-tuple-element.2374, f32[32]{0} %get-tuple-element.2375, f32[1,1,192,32]{3,2,1,0} %get-tuple-element.2413, f32[1,1,192,32]{3,2,1,0} %get-tuple-element.2415, f32[192]{0} %get-tuple-element.2404, f32[192]{0} %get-tuple-element.2405, f32[192]{0} %get-tuple-element.2401, f32[192]{0} %get-tuple-element.2402, f32[3,3,192,1]{3,2,1,0} %get-tuple-element.2409, f32[3,3,192,1]{3,2,1,0} %get-tuple-element.2412, f32[192]{0} %get-tuple-element.2466, f32[192]{0} %get-tuple-element.2467, f32[192]{0} %get-tuple-element.1723, f32[192]{0} %get-tuple-element.1724, f32[1,1,32,192]{3,2,1,0} %get-tuple-element.2382, f32[1,1,32,192]{3,2,1,0} %get-tuple-element.2384, f32[32]{0} %get-tuple-element.2478, f32[32]{0} %get-tuple-element.2479, f32[32]{0} %get-tuple-element.1732, f32[32]{0} %get-tuple-element.1733, f32[1,1,192,32]{3,2,1,0} %get-tuple-element.1737, f32[1,1,192,32]{3,2,1,0} %get-tuple-element.1739, f32[192]{0} %get-tuple-element.2472, f32[192]{0} %get-tuple-element.2473, f32[192]{0} %get-tuple-element.2469, f32[192]{0} %get-tuple-element.2470, f32[3,3,192,1]{3,2,1,0} %get-tuple-element.1746, f32[3,3,192,1]{3,2,1,0} %get-tuple-element.1748, f32[192]{0} %get-tuple-element.1753, f32[192]{0} %get-tuple-element.1754, f32[192]{0} %get-tuple-element.2475, f32[192]{0} %get-tuple-element.2476, f32[1,1,32,192]{3,2,1,0} %get-tuple-element.1755, f32[1,1,32,192]{3,2,1,0} %get-tuple-element.1757, f32[32]{0} %get-tuple-element.1764, f32[32]{0} %get-tuple-element.1765, f32[32]{0} %get-tuple-element.2481, f32[32]{0} %get-tuple-element.2482, f32[1,1,144,32]{3,2,1,0} %get-tuple-element.1766, f32[1,1,144,32]{3,2,1,0} %get-tuple-element.1768, f32[144]{0} %get-tuple-element.2343, f32[144]{0} %get-tuple-element.2344, f32[144]{0} %get-tuple-element.2339, f32[144]{0} %get-tuple-element.2340, f32[3,3,144,1]{3,2,1,0} %get-tuple-element.2358, f32[3,3,144,1]{3,2,1,0} %get-tuple-element.2360, f32[144]{0} %get-tuple-element.2349, f32[144]{0} %get-tuple-element.2350, f32[144]{0} %get-tuple-element.2346, f32[144]{0} %get-tuple-element.2347, f32[1,1,24,144]{3,2,1,0} %get-tuple-element.2333, f32[1,1,24,144]{3,2,1,0} %get-tuple-element.2337, f32[24]{0} %get-tuple-element.2328, f32[24]{0} %get-tuple-element.2329, f32[24]{0} %get-tuple-element.2325, f32[24]{0} %get-tuple-element.2326, f32[1,1,144,24]{3,2,1,0} %get-tuple-element.1795, f32[1,1,144,24]{3,2,1,0} %get-tuple-element.1797, f32[144]{0} %get-tuple-element.2356, f32[144]{0} %get-tuple-element.2357, f32[144]{0} %get-tuple-element.2352, f32[144]{0} %get-tuple-element.2354, f32[3,3,144,1]{3,2,1,0} %get-tuple-element.1804, f32[3,3,144,1]{3,2,1,0} %get-tuple-element.1806, f32[144]{0} %get-tuple-element.1811, f32[144]{0} %get-tuple-element.1812, f32[144]{0} %get-tuple-element.2804, f32[144]{0} %get-tuple-element.2805, f32[1,1,24,144]{3,2,1,0} %get-tuple-element.1813, f32[1,1,24,144]{3,2,1,0} %get-tuple-element.1817, f32[24]{0} %get-tuple-element.1823, f32[24]{0} %get-tuple-element.1824, f32[24]{0} %get-tuple-element.2331, f32[24]{0} %get-tuple-element.2332, f32[1,1,96,24]{3,2,1,0} %get-tuple-element.1825, f32[1,1,96,24]{3,2,1,0} %get-tuple-element.1827, f32[96]{0} %get-tuple-element.2218, f32[96]{0} %get-tuple-element.2219, f32[96]{0} %get-tuple-element.2215, f32[96]{0} %get-tuple-element.2216, f32[3,3,96,1]{3,2,1,0} %get-tuple-element.1835, f32[3,3,96,1]{3,2,1,0} %get-tuple-element.1837, f32[96]{0} %get-tuple-element.2224, f32[96]{0} %get-tuple-element.2225, f32[96]{0} %get-tuple-element.2221, f32[96]{0} %get-tuple-element.2222, f32[16]{0} %get-tuple-element.1555, f32[16]{0} %get-tuple-element.1556, f32[16]{0} %get-tuple-element.2441, f32[16]{0} %get-tuple-element.2442, f32[1,1,16,96]{3,2,1,0} %get-tuple-element.1844, f32[1,1,16,96]{3,2,1,0} %get-tuple-element.1846, f32[1,1,32,16]{3,2,1,0} %get-tuple-element.1557, f32[1,1,32,16]{3,2,1,0} %get-tuple-element.1559, f32[32]{0} %get-tuple-element.2365, f32[32]{0} %get-tuple-element.2366, f32[32]{0} %get-tuple-element.2362, f32[32]{0} %get-tuple-element.2363, f32[3,3,32,1]{3,2,1,0} %get-tuple-element.1566, f32[3,3,32,1]{3,2,1,0} %get-tuple-element.1568, f32[32]{0} %get-tuple-element.2371, f32[32]{0} %get-tuple-element.2372, f32[32]{0} %get-tuple-element.2368, f32[32]{0} %get-tuple-element.2369, f32[3,3,3,32]{3,2,1,0} %get-tuple-element.1575, f32[3,3,3,32]{3,2,1,0} %get-tuple-element.1577)
}

