HloModule cluster_0__XlaCompiledKernel_true__XlaHasReferenceVars_false__XlaNumConstantArgs_123__XlaNumResourceArgs_156_.2342

%max_half_.413 (x.414: f16[], y.415: f16[]) -> f16[] {
  %x.414 = f16[] parameter(0)
  %y.415 = f16[] parameter(1)
  ROOT %maximum.416 = f16[] maximum(f16[] %x.414, f16[] %y.415)
}

%add_float_.423 (x.424: f32[], y.425: f32[]) -> f32[] {
  %x.424 = f32[] parameter(0)
  %y.425 = f32[] parameter(1)
  ROOT %add.426 = f32[] add(f32[] %x.424, f32[] %y.425)
}

%max_half_.557 (x.558: f16[], y.559: f16[]) -> f16[] {
  %x.558 = f16[] parameter(0)
  %y.559 = f16[] parameter(1)
  ROOT %maximum.560 = f16[] maximum(f16[] %x.558, f16[] %y.559)
}

%add_float_.567 (x.568: f32[], y.569: f32[]) -> f32[] {
  %x.568 = f32[] parameter(0)
  %y.569 = f32[] parameter(1)
  ROOT %add.570 = f32[] add(f32[] %x.568, f32[] %y.569)
}

%gradient_tape_model_bert_pretrainer_bert_encoder_1_transformer_layer_1_self_attention_softmax_Sum-reduction.1306 (x.1307: f32[], y.1308: f32[]) -> f32[] {
  %x.1307 = f32[] parameter(0)
  %y.1308 = f32[] parameter(1)
  ROOT %add.1309 = f32[] add(f32[] %x.1307, f32[] %y.1308)
}

%gradient_tape_model_bert_pretrainer_bert_encoder_1_transformer_layer_0_self_attention_softmax_Sum-reduction.1566 (x.1567: f32[], y.1568: f32[]) -> f32[] {
  %x.1567 = f32[] parameter(0)
  %y.1568 = f32[] parameter(1)
  ROOT %add.1569 = f32[] add(f32[] %x.1567, f32[] %y.1568)
}

%Mean-reduction.1836 (x.1837: f32[], y.1838: f32[]) -> f32[] {
  %x.1837 = f32[] parameter(0)
  %y.1838 = f32[] parameter(1)
  ROOT %add.1839 = f32[] add(f32[] %x.1837, f32[] %y.1838)
}

%fused_computation (param_0: f32[], param_1.581: f32[], param_2.416: f32[], param_3.315: f32[], param_4.223: f32[], param_5.141: f32[], param_6.96: f32[], param_7.60: f32[]) -> (f32[], f32[], f32[], f32[]) {
  %param_0 = f32[] parameter(0)
  %param_1.581 = f32[] parameter(1)
  %constant_97 = f32[] constant(0.0625), metadata={op_type="Const" op_name="gradient_tape/model/bert_pretrain_loss_and_metric_layer/SparseSoftmaxCrossEntropyWithLogits_1/ExpandDims"}
  %multiply.133 = f32[] multiply(f32[] %param_1.581, f32[] %constant_97), metadata={op_type="Mean" op_name="model/bert_pretrain_loss_and_metric_layer/Mean"}
  %param_3.315 = f32[] parameter(3)
  %constant_98 = f32[] constant(0), metadata={op_type="Sum" op_name="model/bert_pretrain_loss_and_metric_layer/Sum_3"}
  %compare.83 = pred[] compare(f32[] %param_3.315, f32[] %constant_98), direction=EQ, metadata={op_type="DivNoNan" op_name="gradient_tape/model/bert_pretrain_loss_and_metric_layer/div_no_nan/div_no_nan"}
  %param_2.416 = f32[] parameter(2)
  %divide.30 = f32[] divide(f32[] %param_2.416, f32[] %param_3.315), metadata={op_type="DivNoNan" op_name="model/bert_pretrain_loss_and_metric_layer/div_no_nan"}
  %select.78 = f32[] select(pred[] %compare.83, f32[] %constant_98, f32[] %divide.30), metadata={op_type="DivNoNan" op_name="model/bert_pretrain_loss_and_metric_layer/div_no_nan"}
  %add.38 = f32[] add(f32[] %multiply.133, f32[] %select.78), metadata={op_type="AddV2" op_name="model/bert_pretrain_loss_and_metric_layer/add"}
  %broadcast.109 = f32[16]{0} broadcast(f32[] %add.38), dimensions={}
  %reduce.33 = f32[] reduce(f32[16]{0} %broadcast.109, f32[] %constant_98), dimensions={0}, to_apply=%Mean-reduction.1836, metadata={op_type="Mean" op_name="Mean"}
  %multiply.36 = f32[] multiply(f32[] %reduce.33, f32[] %constant_97), metadata={op_type="Mean" op_name="Mean"}
  %add.37 = f32[] add(f32[] %param_0, f32[] %multiply.36), metadata={op_type="AssignAddVariableOp" op_name="AssignAddVariableOp"}
  %param_4.223 = f32[] parameter(4)
  %add.179.clone.1 = f32[] add(f32[] %param_4.223, f32[] %select.78), metadata={op_type="AssignAddVariableOp" op_name="model/bert_pretrain_loss_and_metric_layer/AssignAddVariableOp_2"}
  %param_5.141 = f32[] parameter(5)
  %add.92.clone.1 = f32[] add(f32[] %param_5.141, f32[] %multiply.133), metadata={op_type="AssignAddVariableOp" op_name="model/bert_pretrain_loss_and_metric_layer/AssignAddVariableOp_6"}
  %param_6.96 = f32[] parameter(6)
  %param_7.60 = f32[] parameter(7)
  %constant_89_clone_1 = f32[] constant(1e-05), metadata={op_type="AddV2" op_name="model/bert_pretrain_loss_and_metric_layer/add_1"}
  %add.40.clone.1 = f32[] add(f32[] %param_3.315, f32[] %constant_89_clone_1), metadata={op_type="AddV2" op_name="model/bert_pretrain_loss_and_metric_layer/add_1"}
  %divide.0.clone.1 = f32[] divide(f32[] %param_7.60, f32[] %add.40.clone.1), metadata={op_type="RealDiv" op_name="model/bert_pretrain_loss_and_metric_layer/truediv"}
  %add.39.clone.1 = f32[] add(f32[] %param_6.96, f32[] %divide.0.clone.1), metadata={op_type="AssignAddVariableOp" op_name="model/bert_pretrain_loss_and_metric_layer/AssignAddVariableOp"}
  ROOT %tuple.16 = (f32[], f32[], f32[], f32[]) tuple(f32[] %add.37, f32[] %add.179.clone.1, f32[] %add.92.clone.1, f32[] %add.39.clone.1)
}

%model_bert_pretrain_loss_and_metric_layer_Sum_2-reduction.1872 (x.1873: f32[], y.1874: f32[]) -> f32[] {
  %x.1873 = f32[] parameter(0)
  %y.1874 = f32[] parameter(1)
  ROOT %add.1875 = f32[] add(f32[] %x.1873, f32[] %y.1874)
}

%model_bert_pretrain_loss_and_metric_layer_Sum_3-reduction.210 (x.211: f32[], y.212: f32[]) -> f32[] {
  %x.211 = f32[] parameter(0)
  %y.212 = f32[] parameter(1)
  ROOT %add.213 = f32[] add(f32[] %x.211, f32[] %y.212)
}

%model_bert_pretrain_loss_and_metric_layer_Sum-reduction.1818 (x.1819: f32[], y.1820: f32[]) -> f32[] {
  %x.1819 = f32[] parameter(0)
  %y.1820 = f32[] parameter(1)
  ROOT %add.1821 = f32[] add(f32[] %x.1819, f32[] %y.1820)
}

%fused_computation.2 (param_0.605: s32[16,76], param_1.524: s64[16,76], param_2.376: f32[16,76], param_3.336: f32[1216]) -> (f32[], f32[], f32[]) {
  %param_0.605 = s32[16,76]{1,0} parameter(0)
  %param_1.524 = s64[16,76]{1,0} parameter(1)
  %convert.33 = s32[16,76]{1,0} convert(s64[16,76]{1,0} %param_1.524), metadata={op_type="Cast" op_name="model/bert_pretrain_loss_and_metric_layer/Cast_7"}
  %compare.0 = pred[16,76]{1,0} compare(s32[16,76]{1,0} %param_0.605, s32[16,76]{1,0} %convert.33), direction=EQ, metadata={op_type="Equal" op_name="model/bert_pretrain_loss_and_metric_layer/Equal"}
  %param_2.376 = f32[16,76]{1,0} parameter(2)
  %convert.296 = s32[16,76]{1,0} convert(f32[16,76]{1,0} %param_2.376), metadata={op_type="Cast" op_name="model/Cast"}
  %convert.295 = f32[16,76]{1,0} convert(s32[16,76]{1,0} %convert.296), metadata={op_type="Cast" op_name="model/bert_pretrain_loss_and_metric_layer/Cast"}
  %constant_99 = f32[] constant(0), metadata={op_type="Sum" op_name="model/bert_pretrain_loss_and_metric_layer/Sum_3"}
  %broadcast.110 = f32[16,76]{1,0} broadcast(f32[] %constant_99), dimensions={}
  %select.19 = f32[16,76]{1,0} select(pred[16,76]{1,0} %compare.0, f32[16,76]{1,0} %convert.295, f32[16,76]{1,0} %broadcast.110), metadata={op_type="Mul" op_name="model/bert_pretrain_loss_and_metric_layer/mul_1"}
  %bitcast.137 = f32[1216]{0} bitcast(f32[16,76]{1,0} %select.19)
  %reduce.34 = f32[] reduce(f32[1216]{0} %bitcast.137, f32[] %constant_99), dimensions={0}, to_apply=%model_bert_pretrain_loss_and_metric_layer_Sum_2-reduction.1872, metadata={op_type="Sum" op_name="model/bert_pretrain_loss_and_metric_layer/Sum_2"}
  %bitcast.198.clone.1 = f32[1216]{0} bitcast(f32[16,76]{1,0} %convert.295)
  %reduce.58.clone.1 = f32[] reduce(f32[1216]{0} %bitcast.198.clone.1, f32[] %constant_99), dimensions={0}, to_apply=%model_bert_pretrain_loss_and_metric_layer_Sum_3-reduction.210, metadata={op_type="Sum" op_name="model/bert_pretrain_loss_and_metric_layer/Sum_3"}
  %param_3.336 = f32[1216]{0} parameter(3)
  %bitcast.140.clone.1 = f32[16,76]{1,0} bitcast(f32[1216]{0} %param_3.336), metadata={op_type="Reshape" op_name="model/bert_pretrain_loss_and_metric_layer/SparseSoftmaxCrossEntropyWithLogits/Reshape_2"}
  %multiply.37.clone.1 = f32[16,76]{1,0} multiply(f32[16,76]{1,0} %convert.295, f32[16,76]{1,0} %bitcast.140.clone.1), metadata={op_type="Mul" op_name="model/bert_pretrain_loss_and_metric_layer/mul"}
  %bitcast.139.clone.1 = f32[1216]{0} bitcast(f32[16,76]{1,0} %multiply.37.clone.1)
  %reduce.36.clone.1 = f32[] reduce(f32[1216]{0} %bitcast.139.clone.1, f32[] %constant_99), dimensions={0}, to_apply=%model_bert_pretrain_loss_and_metric_layer_Sum-reduction.1818, metadata={op_type="Sum" op_name="model/bert_pretrain_loss_and_metric_layer/Sum"}
  ROOT %tuple.18 = (f32[], f32[], f32[]) tuple(f32[] %reduce.34, f32[] %reduce.58.clone.1, f32[] %reduce.36.clone.1)
}

%min_S64.1860 (lhs.1861: s64[], rhs.1862: s64[]) -> s64[] {
  %lhs.1861 = s64[] parameter(0)
  %rhs.1862 = s64[] parameter(1)
  ROOT %minimum.1863 = s64[] minimum(s64[] %lhs.1861, s64[] %rhs.1862)
}

%fused_computation.3 (param_0.654: f32[16,76], param_1.592: f32[30522], param_2.424: f16[1216,30528]) -> s64[16,76] {
  %param_2.424 = f16[1216,30528]{1,0} parameter(2)
  %slice.35 = f16[1216,30522]{1,0} slice(f16[1216,30528]{1,0} %param_2.424), slice={[0:1216], [0:30522]}, metadata={op_type="MatMul" op_name="model/bert_pretrainer/cls/predictions/MatMul"}
  %param_1.592 = f32[30522]{0} parameter(1)
  %convert.378 = f16[30522]{0} convert(f32[30522]{0} %param_1.592), metadata={op_type="Cast" op_name="model/bert_pretrainer/cls/predictions/BiasAdd/Cast"}
  %broadcast.623 = f16[1216,30522]{1,0} broadcast(f16[30522]{0} %convert.378), dimensions={1}, metadata={op_type="BiasAdd" op_name="model/bert_pretrainer/cls/predictions/BiasAdd"}
  %add.183 = f16[1216,30522]{1,0} add(f16[1216,30522]{1,0} %slice.35, f16[1216,30522]{1,0} %broadcast.623), metadata={op_type="BiasAdd" op_name="model/bert_pretrainer/cls/predictions/BiasAdd"}
  %convert.377 = f32[1216,30522]{1,0} convert(f16[1216,30522]{1,0} %add.183), metadata={op_type="Cast" op_name="model/bert_pretrain_loss_and_metric_layer/ArithmeticOptimizer/ReorderCastLikeAndValuePreserving_float_Cast_1"}
  %bitcast.277 = f32[16,76,30522]{2,1,0} bitcast(f32[1216,30522]{1,0} %convert.377), metadata={op_type="Cast" op_name="model/bert_pretrain_loss_and_metric_layer/Cast_1"}
  %param_0.654 = f32[16,76]{1,0} parameter(0)
  %broadcast.112 = f32[16,76,30522]{2,1,0} broadcast(f32[16,76]{1,0} %param_0.654), dimensions={0,1}, metadata={op_type="ArgMax" op_name="model/bert_pretrain_loss_and_metric_layer/ArgMax"}
  %compare.1 = pred[16,76,30522]{2,1,0} compare(f32[16,76,30522]{2,1,0} %bitcast.277, f32[16,76,30522]{2,1,0} %broadcast.112), direction=EQ, metadata={op_type="ArgMax" op_name="model/bert_pretrain_loss_and_metric_layer/ArgMax"}
  %iota.0 = s64[16,76,30522]{2,1,0} iota(), iota_dimension=2, metadata={op_type="ArgMax" op_name="model/bert_pretrain_loss_and_metric_layer/ArgMax"}
  %constant_100 = s64[] constant(9223372036854775807), metadata={op_type="ArgMax" op_name="model/bert_pretrain_loss_and_metric_layer/ArgMax_1"}
  %broadcast.111 = s64[16,76,30522]{2,1,0} broadcast(s64[] %constant_100), dimensions={}, metadata={op_type="ArgMax" op_name="model/bert_pretrain_loss_and_metric_layer/ArgMax"}
  %select.20 = s64[16,76,30522]{2,1,0} select(pred[16,76,30522]{2,1,0} %compare.1, s64[16,76,30522]{2,1,0} %iota.0, s64[16,76,30522]{2,1,0} %broadcast.111), metadata={op_type="ArgMax" op_name="model/bert_pretrain_loss_and_metric_layer/ArgMax"}
  ROOT %reduce.35 = s64[16,76]{1,0} reduce(s64[16,76,30522]{2,1,0} %select.20, s64[] %constant_100), dimensions={2}, to_apply=%min_S64.1860, metadata={op_type="ArgMax" op_name="model/bert_pretrain_loss_and_metric_layer/ArgMax"}
}

%add_float_.1004 (x.1005: f32[], y.1006: f32[]) -> f32[] {
  %x.1005 = f32[] parameter(0)
  %y.1006 = f32[] parameter(1)
  ROOT %add.1007 = f32[] add(f32[] %x.1005, f32[] %y.1006)
}

%fused_computation.7 (param_0.597: f32[1216], param_1.521: s32[16,76], param_2.373: f32[1216], param_3.255: f32[30522], param_4.156: f16[1216,30528]) -> f32[1216] {
  %param_1.521 = s32[16,76]{1,0} parameter(1)
  %convert.238 = f32[16,76]{1,0} convert(s32[16,76]{1,0} %param_1.521), metadata={op_type="Cast" op_name="model/bert_pretrain_loss_and_metric_layer/Cast_2"}
  %convert.237 = s64[16,76]{1,0} convert(f32[16,76]{1,0} %convert.238), metadata={op_type="Cast" op_name="model/bert_pretrain_loss_and_metric_layer/ArithmeticOptimizer/ReorderCastLikeAndValuePreserving_int64_Cast_3"}
  %bitcast.251 = s64[1216]{0} bitcast(s64[16,76]{1,0} %convert.237), metadata={op_type="Cast" op_name="model/bert_pretrain_loss_and_metric_layer/ArithmeticOptimizer/ReorderCastLikeAndValuePreserving_int64_Cast_3"}
  %broadcast.443 = s64[1216,30522]{1,0} broadcast(s64[1216]{0} %bitcast.251), dimensions={0}, metadata={op_type="SparseSoftmaxCrossEntropyWithLogits" op_name="model/bert_pretrain_loss_and_metric_layer/SparseSoftmaxCrossEntropyWithLogits/SparseSoftmaxCrossEntropyWithLogits"}
  %iota.10 = s64[1216,30522]{1,0} iota(), iota_dimension=1, metadata={op_type="SparseSoftmaxCrossEntropyWithLogits" op_name="model/bert_pretrain_loss_and_metric_layer/SparseSoftmaxCrossEntropyWithLogits/SparseSoftmaxCrossEntropyWithLogits"}
  %compare.49 = pred[1216,30522]{1,0} compare(s64[1216,30522]{1,0} %broadcast.443, s64[1216,30522]{1,0} %iota.10), direction=EQ, metadata={op_type="SparseSoftmaxCrossEntropyWithLogits" op_name="model/bert_pretrain_loss_and_metric_layer/SparseSoftmaxCrossEntropyWithLogits/SparseSoftmaxCrossEntropyWithLogits"}
  %constant_362 = f32[] constant(1), metadata={op_type="Minimum" op_name="Adam/PolynomialDecay/Minimum"}
  %broadcast.442 = f32[1216,30522]{1,0} broadcast(f32[] %constant_362), dimensions={}, metadata={op_type="SparseSoftmaxCrossEntropyWithLogits" op_name="model/bert_pretrain_loss_and_metric_layer/SparseSoftmaxCrossEntropyWithLogits/SparseSoftmaxCrossEntropyWithLogits"}
  %constant_103 = f32[] constant(0), metadata={op_type="Sum" op_name="model/bert_pretrain_loss_and_metric_layer/Sum_3"}
  %broadcast.441 = f32[1216,30522]{1,0} broadcast(f32[] %constant_103), dimensions={}, metadata={op_type="SparseSoftmaxCrossEntropyWithLogits" op_name="model/bert_pretrain_loss_and_metric_layer/SparseSoftmaxCrossEntropyWithLogits/SparseSoftmaxCrossEntropyWithLogits"}
  %select.50 = f32[1216,30522]{1,0} select(pred[1216,30522]{1,0} %compare.49, f32[1216,30522]{1,0} %broadcast.442, f32[1216,30522]{1,0} %broadcast.441), metadata={op_type="SparseSoftmaxCrossEntropyWithLogits" op_name="model/bert_pretrain_loss_and_metric_layer/SparseSoftmaxCrossEntropyWithLogits/SparseSoftmaxCrossEntropyWithLogits"}
  %constant_360 = s64[] constant(0), metadata={op_type="SparseSoftmaxCrossEntropyWithLogits" op_name="model/bert_pretrain_loss_and_metric_layer/SparseSoftmaxCrossEntropyWithLogits_1/SparseSoftmaxCrossEntropyWithLogits"}
  %broadcast.439 = s64[1216]{0} broadcast(s64[] %constant_360), dimensions={}, metadata={op_type="SparseSoftmaxCrossEntropyWithLogits" op_name="model/bert_pretrain_loss_and_metric_layer/SparseSoftmaxCrossEntropyWithLogits/SparseSoftmaxCrossEntropyWithLogits"}
  %compare.48 = pred[1216]{0} compare(s64[1216]{0} %broadcast.439, s64[1216]{0} %bitcast.251), direction=LE, metadata={op_type="SparseSoftmaxCrossEntropyWithLogits" op_name="model/bert_pretrain_loss_and_metric_layer/SparseSoftmaxCrossEntropyWithLogits/SparseSoftmaxCrossEntropyWithLogits"}
  %constant_359 = s64[] constant(30522), metadata={op_type="SparseSoftmaxCrossEntropyWithLogits" op_name="model/bert_pretrain_loss_and_metric_layer/SparseSoftmaxCrossEntropyWithLogits/SparseSoftmaxCrossEntropyWithLogits"}
  %broadcast.438 = s64[1216]{0} broadcast(s64[] %constant_359), dimensions={}, metadata={op_type="SparseSoftmaxCrossEntropyWithLogits" op_name="model/bert_pretrain_loss_and_metric_layer/SparseSoftmaxCrossEntropyWithLogits/SparseSoftmaxCrossEntropyWithLogits"}
  %compare.47 = pred[1216]{0} compare(s64[1216]{0} %bitcast.251, s64[1216]{0} %broadcast.438), direction=LT, metadata={op_type="SparseSoftmaxCrossEntropyWithLogits" op_name="model/bert_pretrain_loss_and_metric_layer/SparseSoftmaxCrossEntropyWithLogits/SparseSoftmaxCrossEntropyWithLogits"}
  %and.7 = pred[1216]{0} and(pred[1216]{0} %compare.48, pred[1216]{0} %compare.47), metadata={op_type="SparseSoftmaxCrossEntropyWithLogits" op_name="model/bert_pretrain_loss_and_metric_layer/SparseSoftmaxCrossEntropyWithLogits/SparseSoftmaxCrossEntropyWithLogits"}
  %broadcast.437 = f32[1216]{0} broadcast(f32[] %constant_103), dimensions={}, metadata={op_type="SparseSoftmaxCrossEntropyWithLogits" op_name="model/bert_pretrain_loss_and_metric_layer/SparseSoftmaxCrossEntropyWithLogits/SparseSoftmaxCrossEntropyWithLogits"}
  %constant_358 = f32[] constant(nan), metadata={op_type="SparseSoftmaxCrossEntropyWithLogits" op_name="model/bert_pretrain_loss_and_metric_layer/SparseSoftmaxCrossEntropyWithLogits_1/SparseSoftmaxCrossEntropyWithLogits"}
  %broadcast.436 = f32[1216]{0} broadcast(f32[] %constant_358), dimensions={}, metadata={op_type="SparseSoftmaxCrossEntropyWithLogits" op_name="model/bert_pretrain_loss_and_metric_layer/SparseSoftmaxCrossEntropyWithLogits/SparseSoftmaxCrossEntropyWithLogits"}
  %select.49 = f32[1216]{0} select(pred[1216]{0} %and.7, f32[1216]{0} %broadcast.437, f32[1216]{0} %broadcast.436), metadata={op_type="SparseSoftmaxCrossEntropyWithLogits" op_name="model/bert_pretrain_loss_and_metric_layer/SparseSoftmaxCrossEntropyWithLogits/SparseSoftmaxCrossEntropyWithLogits"}
  %broadcast.435 = f32[1216,30522]{1,0} broadcast(f32[1216]{0} %select.49), dimensions={0}, metadata={op_type="SparseSoftmaxCrossEntropyWithLogits" op_name="model/bert_pretrain_loss_and_metric_layer/SparseSoftmaxCrossEntropyWithLogits/SparseSoftmaxCrossEntropyWithLogits"}
  %add.150 = f32[1216,30522]{1,0} add(f32[1216,30522]{1,0} %select.50, f32[1216,30522]{1,0} %broadcast.435), metadata={op_type="SparseSoftmaxCrossEntropyWithLogits" op_name="model/bert_pretrain_loss_and_metric_layer/SparseSoftmaxCrossEntropyWithLogits/SparseSoftmaxCrossEntropyWithLogits"}
  %negate.10 = f32[1216,30522]{1,0} negate(f32[1216,30522]{1,0} %add.150), metadata={op_type="SparseSoftmaxCrossEntropyWithLogits" op_name="model/bert_pretrain_loss_and_metric_layer/SparseSoftmaxCrossEntropyWithLogits/SparseSoftmaxCrossEntropyWithLogits"}
  %param_4.156 = f16[1216,30528]{1,0} parameter(4)
  %slice.31 = f16[1216,30522]{1,0} slice(f16[1216,30528]{1,0} %param_4.156), slice={[0:1216], [0:30522]}, metadata={op_type="MatMul" op_name="model/bert_pretrainer/cls/predictions/MatMul"}
  %param_3.255 = f32[30522]{0} parameter(3)
  %convert.266 = f16[30522]{0} convert(f32[30522]{0} %param_3.255), metadata={op_type="Cast" op_name="model/bert_pretrainer/cls/predictions/BiasAdd/Cast"}
  %broadcast.525 = f16[1216,30522]{1,0} broadcast(f16[30522]{0} %convert.266), dimensions={1}, metadata={op_type="BiasAdd" op_name="model/bert_pretrainer/cls/predictions/BiasAdd"}
  %add.170 = f16[1216,30522]{1,0} add(f16[1216,30522]{1,0} %slice.31, f16[1216,30522]{1,0} %broadcast.525), metadata={op_type="BiasAdd" op_name="model/bert_pretrainer/cls/predictions/BiasAdd"}
  %convert.265 = f32[1216,30522]{1,0} convert(f16[1216,30522]{1,0} %add.170), metadata={op_type="Cast" op_name="model/bert_pretrain_loss_and_metric_layer/ArithmeticOptimizer/ReorderCastLikeAndValuePreserving_float_Cast_1"}
  %param_2.373 = f32[1216]{0} parameter(2)
  %broadcast.523 = f32[1216,30522]{1,0} broadcast(f32[1216]{0} %param_2.373), dimensions={0}, metadata={op_type="SparseSoftmaxCrossEntropyWithLogits" op_name="model/bert_pretrain_loss_and_metric_layer/SparseSoftmaxCrossEntropyWithLogits/SparseSoftmaxCrossEntropyWithLogits"}
  %subtract.39 = f32[1216,30522]{1,0} subtract(f32[1216,30522]{1,0} %convert.265, f32[1216,30522]{1,0} %broadcast.523), metadata={op_type="SparseSoftmaxCrossEntropyWithLogits" op_name="model/bert_pretrain_loss_and_metric_layer/SparseSoftmaxCrossEntropyWithLogits/SparseSoftmaxCrossEntropyWithLogits"}
  %param_0.597 = f32[1216]{0} parameter(0)
  %broadcast.113 = f32[1216,30522]{1,0} broadcast(f32[1216]{0} %param_0.597), dimensions={0}, metadata={op_type="SparseSoftmaxCrossEntropyWithLogits" op_name="model/bert_pretrain_loss_and_metric_layer/SparseSoftmaxCrossEntropyWithLogits/SparseSoftmaxCrossEntropyWithLogits"}
  %subtract.6 = f32[1216,30522]{1,0} subtract(f32[1216,30522]{1,0} %subtract.39, f32[1216,30522]{1,0} %broadcast.113), metadata={op_type="SparseSoftmaxCrossEntropyWithLogits" op_name="model/bert_pretrain_loss_and_metric_layer/SparseSoftmaxCrossEntropyWithLogits/SparseSoftmaxCrossEntropyWithLogits"}
  %multiply.38 = f32[1216,30522]{1,0} multiply(f32[1216,30522]{1,0} %negate.10, f32[1216,30522]{1,0} %subtract.6), metadata={op_type="SparseSoftmaxCrossEntropyWithLogits" op_name="model/bert_pretrain_loss_and_metric_layer/SparseSoftmaxCrossEntropyWithLogits/SparseSoftmaxCrossEntropyWithLogits"}
  ROOT %reduce.37 = f32[1216]{0} reduce(f32[1216,30522]{1,0} %multiply.38, f32[] %constant_103), dimensions={1}, to_apply=%add_float_.1004, metadata={op_type="SparseSoftmaxCrossEntropyWithLogits" op_name="model/bert_pretrain_loss_and_metric_layer/SparseSoftmaxCrossEntropyWithLogits/SparseSoftmaxCrossEntropyWithLogits"}
}

%model_bert_pretrain_loss_and_metric_layer_Sum_6-reduction.725 (x.726: f32[], y.727: f32[]) -> f32[] {
  %x.726 = f32[] parameter(0)
  %y.727 = f32[] parameter(1)
  ROOT %add.728 = f32[] add(f32[] %x.726, f32[] %y.727)
}

%fused_computation.8 (param_0.13: f32[], param_1.284: s32[16,1], param_2.174: s64[16]) -> f32[] {
  %param_0.13 = f32[] parameter(0)
  %param_2.174 = s64[16]{0} parameter(2)
  %convert.36 = s32[16]{0} convert(s64[16]{0} %param_2.174), metadata={op_type="Cast" op_name="model/bert_pretrain_loss_and_metric_layer/Cast_11"}
  %param_1.284 = s32[16,1]{1,0} parameter(1)
  %bitcast.141 = s32[16]{0} bitcast(s32[16,1]{1,0} %param_1.284), metadata={op_type="Squeeze" op_name="model/bert_pretrain_loss_and_metric_layer/Squeeze"}
  %compare.2 = pred[16]{0} compare(s32[16]{0} %convert.36, s32[16]{0} %bitcast.141), direction=EQ, metadata={op_type="Equal" op_name="model/bert_pretrain_loss_and_metric_layer/Equal_1"}
  %convert.35 = f32[16]{0} convert(pred[16]{0} %compare.2), metadata={op_type="Cast" op_name="model/bert_pretrain_loss_and_metric_layer/Cast_12"}
  %constant_104 = f32[] constant(0), metadata={op_type="Sum" op_name="model/bert_pretrain_loss_and_metric_layer/Sum_3"}
  %reduce.38 = f32[] reduce(f32[16]{0} %convert.35, f32[] %constant_104), dimensions={0}, to_apply=%model_bert_pretrain_loss_and_metric_layer_Sum_6-reduction.725, metadata={op_type="Sum" op_name="model/bert_pretrain_loss_and_metric_layer/Sum_6"}
  ROOT %add.41 = f32[] add(f32[] %param_0.13, f32[] %reduce.38), metadata={op_type="AssignAddVariableOp" op_name="model/bert_pretrain_loss_and_metric_layer/AssignAddVariableOp_4"}
}

%min_S64.714 (lhs.715: s64[], rhs.716: s64[]) -> s64[] {
  %lhs.715 = s64[] parameter(0)
  %rhs.716 = s64[] parameter(1)
  ROOT %minimum.717 = s64[] minimum(s64[] %lhs.715, s64[] %rhs.716)
}

%fused_computation.9 (param_0.556: f32[16], param_1.468: f32[2], param_2.325: f16[16,8]) -> s64[16] {
  %param_2.325 = f16[16,8]{1,0} parameter(2)
  %slice.15 = f16[16,2]{1,0} slice(f16[16,8]{1,0} %param_2.325), slice={[0:16], [0:2]}, metadata={op_type="MatMul" op_name="model/bert_pretrainer/classification/predictions/transform/logits/MatMul"}
  %param_1.468 = f32[2]{0} parameter(1)
  %convert.223 = f16[2]{0} convert(f32[2]{0} %param_1.468), metadata={op_type="Cast" op_name="model/bert_pretrainer/classification/predictions/transform/logits/BiasAdd/Cast"}
  %broadcast.408 = f16[16,2]{1,0} broadcast(f16[2]{0} %convert.223), dimensions={1}, metadata={op_type="BiasAdd" op_name="model/bert_pretrainer/classification/predictions/transform/logits/BiasAdd"}
  %add.138 = f16[16,2]{1,0} add(f16[16,2]{1,0} %slice.15, f16[16,2]{1,0} %broadcast.408), metadata={op_type="BiasAdd" op_name="model/bert_pretrainer/classification/predictions/transform/logits/BiasAdd"}
  %convert.37 = f32[16,2]{1,0} convert(f16[16,2]{1,0} %add.138), metadata={op_type="Cast" op_name="model/bert_pretrain_loss_and_metric_layer/Cast_4"}
  %param_0.556 = f32[16]{0} parameter(0)
  %broadcast.177 = f32[16,2]{1,0} broadcast(f32[16]{0} %param_0.556), dimensions={0}, metadata={op_type="SparseSoftmaxCrossEntropyWithLogits" op_name="model/bert_pretrain_loss_and_metric_layer/SparseSoftmaxCrossEntropyWithLogits_1/SparseSoftmaxCrossEntropyWithLogits"}
  %compare.3 = pred[16,2]{1,0} compare(f32[16,2]{1,0} %convert.37, f32[16,2]{1,0} %broadcast.177), direction=EQ, metadata={op_type="ArgMax" op_name="model/bert_pretrain_loss_and_metric_layer/ArgMax_1"}
  %iota.1 = s64[16,2]{1,0} iota(), iota_dimension=1, metadata={op_type="ArgMax" op_name="model/bert_pretrain_loss_and_metric_layer/ArgMax_1"}
  %constant_105 = s64[] constant(9223372036854775807), metadata={op_type="ArgMax" op_name="model/bert_pretrain_loss_and_metric_layer/ArgMax_1"}
  %broadcast.114 = s64[16,2]{1,0} broadcast(s64[] %constant_105), dimensions={}, metadata={op_type="ArgMax" op_name="model/bert_pretrain_loss_and_metric_layer/ArgMax_1"}
  %select.22 = s64[16,2]{1,0} select(pred[16,2]{1,0} %compare.3, s64[16,2]{1,0} %iota.1, s64[16,2]{1,0} %broadcast.114), metadata={op_type="ArgMax" op_name="model/bert_pretrain_loss_and_metric_layer/ArgMax_1"}
  ROOT %reduce.39 = s64[16]{0} reduce(s64[16,2]{1,0} %select.22, s64[] %constant_105), dimensions={1}, to_apply=%min_S64.714, metadata={op_type="ArgMax" op_name="model/bert_pretrain_loss_and_metric_layer/ArgMax_1"}
}

%model_bert_pretrain_loss_and_metric_layer_Mean-reduction.854 (x.855: f32[], y.856: f32[]) -> f32[] {
  %x.855 = f32[] parameter(0)
  %y.856 = f32[] parameter(1)
  ROOT %add.857 = f32[] add(f32[] %x.855, f32[] %y.856)
}

%fused_computation.10 (param_0.564: f32[16], param_1.479: s32[16,1], param_2.337: f32[16], param_3.231: f32[2], param_4.127: f16[16,8]) -> f32[] {
  %param_1.479 = s32[16,1]{1,0} parameter(1)
  %convert.160 = f32[16,1]{1,0} convert(s32[16,1]{1,0} %param_1.479), metadata={op_type="Cast" op_name="model/bert_pretrain_loss_and_metric_layer/Cast_5"}
  %convert.159 = s64[16,1]{1,0} convert(f32[16,1]{1,0} %convert.160), metadata={op_type="Cast" op_name="model/bert_pretrain_loss_and_metric_layer/ArithmeticOptimizer/ReorderCastLikeAndValuePreserving_int64_Cast_6"}
  %bitcast.229 = s64[16]{0} bitcast(s64[16,1]{1,0} %convert.159), metadata={op_type="Cast" op_name="model/bert_pretrain_loss_and_metric_layer/ArithmeticOptimizer/ReorderCastLikeAndValuePreserving_int64_Cast_6"}
  %broadcast.296 = s64[16,2]{1,0} broadcast(s64[16]{0} %bitcast.229), dimensions={0}, metadata={op_type="SparseSoftmaxCrossEntropyWithLogits" op_name="model/bert_pretrain_loss_and_metric_layer/SparseSoftmaxCrossEntropyWithLogits_1/SparseSoftmaxCrossEntropyWithLogits"}
  %iota.6 = s64[16,2]{1,0} iota(), iota_dimension=1, metadata={op_type="SparseSoftmaxCrossEntropyWithLogits" op_name="model/bert_pretrain_loss_and_metric_layer/SparseSoftmaxCrossEntropyWithLogits_1/SparseSoftmaxCrossEntropyWithLogits"}
  %compare.25 = pred[16,2]{1,0} compare(s64[16,2]{1,0} %broadcast.296, s64[16,2]{1,0} %iota.6), direction=EQ, metadata={op_type="SparseSoftmaxCrossEntropyWithLogits" op_name="model/bert_pretrain_loss_and_metric_layer/SparseSoftmaxCrossEntropyWithLogits_1/SparseSoftmaxCrossEntropyWithLogits"}
  %constant_259 = f32[] constant(1), metadata={op_type="Minimum" op_name="Adam/PolynomialDecay/Minimum"}
  %broadcast.294 = f32[16,2]{1,0} broadcast(f32[] %constant_259), dimensions={}, metadata={op_type="SparseSoftmaxCrossEntropyWithLogits" op_name="model/bert_pretrain_loss_and_metric_layer/SparseSoftmaxCrossEntropyWithLogits_1/SparseSoftmaxCrossEntropyWithLogits"}
  %constant_107 = f32[] constant(0), metadata={op_type="Sum" op_name="model/bert_pretrain_loss_and_metric_layer/Sum_3"}
  %broadcast.293 = f32[16,2]{1,0} broadcast(f32[] %constant_107), dimensions={}, metadata={op_type="SparseSoftmaxCrossEntropyWithLogits" op_name="model/bert_pretrain_loss_and_metric_layer/SparseSoftmaxCrossEntropyWithLogits_1/SparseSoftmaxCrossEntropyWithLogits"}
  %select.42 = f32[16,2]{1,0} select(pred[16,2]{1,0} %compare.25, f32[16,2]{1,0} %broadcast.294, f32[16,2]{1,0} %broadcast.293), metadata={op_type="SparseSoftmaxCrossEntropyWithLogits" op_name="model/bert_pretrain_loss_and_metric_layer/SparseSoftmaxCrossEntropyWithLogits_1/SparseSoftmaxCrossEntropyWithLogits"}
  %constant_256 = s64[] constant(0), metadata={op_type="SparseSoftmaxCrossEntropyWithLogits" op_name="model/bert_pretrain_loss_and_metric_layer/SparseSoftmaxCrossEntropyWithLogits_1/SparseSoftmaxCrossEntropyWithLogits"}
  %broadcast.292 = s64[16]{0} broadcast(s64[] %constant_256), dimensions={}, metadata={op_type="SparseSoftmaxCrossEntropyWithLogits" op_name="model/bert_pretrain_loss_and_metric_layer/SparseSoftmaxCrossEntropyWithLogits_1/SparseSoftmaxCrossEntropyWithLogits"}
  %compare.24 = pred[16]{0} compare(s64[16]{0} %broadcast.292, s64[16]{0} %bitcast.229), direction=LE, metadata={op_type="SparseSoftmaxCrossEntropyWithLogits" op_name="model/bert_pretrain_loss_and_metric_layer/SparseSoftmaxCrossEntropyWithLogits_1/SparseSoftmaxCrossEntropyWithLogits"}
  %constant_255 = s64[] constant(2), metadata={op_type="SparseSoftmaxCrossEntropyWithLogits" op_name="model/bert_pretrain_loss_and_metric_layer/SparseSoftmaxCrossEntropyWithLogits_1/SparseSoftmaxCrossEntropyWithLogits"}
  %broadcast.291 = s64[16]{0} broadcast(s64[] %constant_255), dimensions={}, metadata={op_type="SparseSoftmaxCrossEntropyWithLogits" op_name="model/bert_pretrain_loss_and_metric_layer/SparseSoftmaxCrossEntropyWithLogits_1/SparseSoftmaxCrossEntropyWithLogits"}
  %compare.23 = pred[16]{0} compare(s64[16]{0} %bitcast.229, s64[16]{0} %broadcast.291), direction=LT, metadata={op_type="SparseSoftmaxCrossEntropyWithLogits" op_name="model/bert_pretrain_loss_and_metric_layer/SparseSoftmaxCrossEntropyWithLogits_1/SparseSoftmaxCrossEntropyWithLogits"}
  %and.3 = pred[16]{0} and(pred[16]{0} %compare.24, pred[16]{0} %compare.23), metadata={op_type="SparseSoftmaxCrossEntropyWithLogits" op_name="model/bert_pretrain_loss_and_metric_layer/SparseSoftmaxCrossEntropyWithLogits_1/SparseSoftmaxCrossEntropyWithLogits"}
  %broadcast.290 = f32[16]{0} broadcast(f32[] %constant_107), dimensions={}, metadata={op_type="SparseSoftmaxCrossEntropyWithLogits" op_name="model/bert_pretrain_loss_and_metric_layer/SparseSoftmaxCrossEntropyWithLogits_1/SparseSoftmaxCrossEntropyWithLogits"}
  %constant_254 = f32[] constant(nan), metadata={op_type="SparseSoftmaxCrossEntropyWithLogits" op_name="model/bert_pretrain_loss_and_metric_layer/SparseSoftmaxCrossEntropyWithLogits_1/SparseSoftmaxCrossEntropyWithLogits"}
  %broadcast.289 = f32[16]{0} broadcast(f32[] %constant_254), dimensions={}, metadata={op_type="SparseSoftmaxCrossEntropyWithLogits" op_name="model/bert_pretrain_loss_and_metric_layer/SparseSoftmaxCrossEntropyWithLogits_1/SparseSoftmaxCrossEntropyWithLogits"}
  %select.41 = f32[16]{0} select(pred[16]{0} %and.3, f32[16]{0} %broadcast.290, f32[16]{0} %broadcast.289), metadata={op_type="SparseSoftmaxCrossEntropyWithLogits" op_name="model/bert_pretrain_loss_and_metric_layer/SparseSoftmaxCrossEntropyWithLogits_1/SparseSoftmaxCrossEntropyWithLogits"}
  %broadcast.288 = f32[16,2]{1,0} broadcast(f32[16]{0} %select.41), dimensions={0}, metadata={op_type="SparseSoftmaxCrossEntropyWithLogits" op_name="model/bert_pretrain_loss_and_metric_layer/SparseSoftmaxCrossEntropyWithLogits_1/SparseSoftmaxCrossEntropyWithLogits"}
  %add.104 = f32[16,2]{1,0} add(f32[16,2]{1,0} %select.42, f32[16,2]{1,0} %broadcast.288), metadata={op_type="SparseSoftmaxCrossEntropyWithLogits" op_name="model/bert_pretrain_loss_and_metric_layer/SparseSoftmaxCrossEntropyWithLogits_1/SparseSoftmaxCrossEntropyWithLogits"}
  %negate.11 = f32[16,2]{1,0} negate(f32[16,2]{1,0} %add.104), metadata={op_type="SparseSoftmaxCrossEntropyWithLogits" op_name="model/bert_pretrain_loss_and_metric_layer/SparseSoftmaxCrossEntropyWithLogits_1/SparseSoftmaxCrossEntropyWithLogits"}
  %param_4.127 = f16[16,8]{1,0} parameter(4)
  %slice.21 = f16[16,2]{1,0} slice(f16[16,8]{1,0} %param_4.127), slice={[0:16], [0:2]}, metadata={op_type="MatMul" op_name="model/bert_pretrainer/classification/predictions/transform/logits/MatMul"}
  %param_3.231 = f32[2]{0} parameter(3)
  %convert.234 = f16[2]{0} convert(f32[2]{0} %param_3.231), metadata={op_type="Cast" op_name="model/bert_pretrainer/classification/predictions/transform/logits/BiasAdd/Cast"}
  %broadcast.420 = f16[16,2]{1,0} broadcast(f16[2]{0} %convert.234), dimensions={1}, metadata={op_type="BiasAdd" op_name="model/bert_pretrainer/classification/predictions/transform/logits/BiasAdd"}
  %add.144 = f16[16,2]{1,0} add(f16[16,2]{1,0} %slice.21, f16[16,2]{1,0} %broadcast.420), metadata={op_type="BiasAdd" op_name="model/bert_pretrainer/classification/predictions/transform/logits/BiasAdd"}
  %convert.233 = f32[16,2]{1,0} convert(f16[16,2]{1,0} %add.144), metadata={op_type="Cast" op_name="model/bert_pretrain_loss_and_metric_layer/Cast_4"}
  %param_2.337 = f32[16]{0} parameter(2)
  %broadcast.419 = f32[16,2]{1,0} broadcast(f32[16]{0} %param_2.337), dimensions={0}, metadata={op_type="SparseSoftmaxCrossEntropyWithLogits" op_name="model/bert_pretrain_loss_and_metric_layer/SparseSoftmaxCrossEntropyWithLogits_1/SparseSoftmaxCrossEntropyWithLogits"}
  %subtract.31 = f32[16,2]{1,0} subtract(f32[16,2]{1,0} %convert.233, f32[16,2]{1,0} %broadcast.419), metadata={op_type="SparseSoftmaxCrossEntropyWithLogits" op_name="model/bert_pretrain_loss_and_metric_layer/SparseSoftmaxCrossEntropyWithLogits_1/SparseSoftmaxCrossEntropyWithLogits"}
  %param_0.564 = f32[16]{0} parameter(0)
  %broadcast.115 = f32[16,2]{1,0} broadcast(f32[16]{0} %param_0.564), dimensions={0}, metadata={op_type="SparseSoftmaxCrossEntropyWithLogits" op_name="model/bert_pretrain_loss_and_metric_layer/SparseSoftmaxCrossEntropyWithLogits_1/SparseSoftmaxCrossEntropyWithLogits"}
  %subtract.7 = f32[16,2]{1,0} subtract(f32[16,2]{1,0} %subtract.31, f32[16,2]{1,0} %broadcast.115), metadata={op_type="SparseSoftmaxCrossEntropyWithLogits" op_name="model/bert_pretrain_loss_and_metric_layer/SparseSoftmaxCrossEntropyWithLogits_1/SparseSoftmaxCrossEntropyWithLogits"}
  %multiply.39 = f32[16,2]{1,0} multiply(f32[16,2]{1,0} %negate.11, f32[16,2]{1,0} %subtract.7), metadata={op_type="SparseSoftmaxCrossEntropyWithLogits" op_name="model/bert_pretrain_loss_and_metric_layer/SparseSoftmaxCrossEntropyWithLogits_1/SparseSoftmaxCrossEntropyWithLogits"}
  %bitcast.142 = f32[32]{0} bitcast(f32[16,2]{1,0} %multiply.39)
  ROOT %reduce.40 = f32[] reduce(f32[32]{0} %bitcast.142, f32[] %constant_107), dimensions={0}, to_apply=%model_bert_pretrain_loss_and_metric_layer_Mean-reduction.854, metadata={op_type="Mean" op_name="model/bert_pretrain_loss_and_metric_layer/Mean"}
}

%add_float_.1113 (x.1114: f32[], y.1115: f32[]) -> f32[] {
  %x.1114 = f32[] parameter(0)
  %y.1115 = f32[] parameter(1)
  ROOT %add.1116 = f32[] add(f32[] %x.1114, f32[] %y.1115)
}

%gradient_tape_model_bert_pretrainer_cls_predictions_transform_LayerNorm_batchnorm_sub_Sum-reduction.1793 (x.1794: f32[], y.1795: f32[]) -> f32[] {
  %x.1794 = f32[] parameter(0)
  %y.1795 = f32[] parameter(1)
  ROOT %add.1796 = f32[] add(f32[] %x.1794, f32[] %y.1795)
}

%gradient_tape_model_bert_pretrainer_cls_predictions_transform_LayerNorm_batchnorm_mul_Sum_1-reduction.1779 (x.1780: f32[], y.1781: f32[]) -> f32[] {
  %x.1780 = f32[] parameter(0)
  %y.1781 = f32[] parameter(1)
  ROOT %add.1782 = f32[] add(f32[] %x.1780, f32[] %y.1781)
}

%fused_computation.11 (param_0.658: f16[1216,768], param_1.599: f16[1216,768], param_2.434: f32[1216], param_3.325: f32[1216], param_4.234: f16[1216,768], param_5.157: f32[1216], param_6.93: f32[768], param_7.58: f32[1216], param_8.51: f16[1216,768]) -> (f32[768], f16[1216,768], f32[768], f32[768]) {
  %constant_168_clone_1 = f16[] constant(0.13416), metadata={op_type="Mul" op_name="gradient_tape/model/bert_pretrainer/cls/predictions/transform/dense/Gelu/Pow/mul_1"}
  %broadcast.124.clone.1 = f16[1216,768]{1,0} broadcast(f16[] %constant_168_clone_1), dimensions={}, metadata={op_type="Mul" op_name="gradient_tape/model/bert_pretrainer/cls/predictions/transform/dense/Gelu/Pow/mul_1"}
  %param_1.599 = f16[1216,768]{1,0} parameter(1)
  %multiply.141.clone.1 = f16[1216,768]{1,0} multiply(f16[1216,768]{1,0} %param_1.599, f16[1216,768]{1,0} %param_1.599), metadata={op_type="Square" op_name="gradient_tape/model/bert_pretrainer/cls/predictions/transform/dense/Gelu/Pow/Pow"}
  %param_8.51 = f16[1216,768]{1,0} parameter(8)
  %convert.89.clone.1 = f32[1216,768]{1,0} convert(f16[1216,768]{1,0} %param_8.51), metadata={op_type="Cast" op_name="gradient_tape/model/bert_pretrainer/cls/predictions/transform/LayerNorm/Cast_1/Cast"}
  %constant_397_clone_1 = f32[] constant(1e-12), metadata={op_type="AddV2" op_name="model/bert_pretrainer/cls/predictions/transform/LayerNorm/batchnorm/add"}
  %broadcast.494.clone.1 = f32[1216]{0} broadcast(f32[] %constant_397_clone_1), dimensions={}, metadata={op_type="AddV2" op_name="model/bert_pretrainer/cls/predictions/transform/LayerNorm/batchnorm/add"}
  %param_7.58 = f32[1216]{0} parameter(7)
  %constant_392_clone_1 = f32[] constant(0.00130208337), metadata={op_type="Mul" op_name="gradient_tape/model/bert_pretrainer/cls/predictions/transform/LayerNorm/moments/truediv_1"}
  %broadcast.492.clone.1 = f32[1216]{0} broadcast(f32[] %constant_392_clone_1), dimensions={}
  %multiply.174.clone.1 = f32[1216]{0} multiply(f32[1216]{0} %param_7.58, f32[1216]{0} %broadcast.492.clone.1), metadata={op_type="Mean" op_name="model/bert_pretrainer/cls/predictions/transform/LayerNorm/moments/variance"}
  %add.154.clone.1 = f32[1216]{0} add(f32[1216]{0} %broadcast.494.clone.1, f32[1216]{0} %multiply.174.clone.1), metadata={op_type="AddV2" op_name="model/bert_pretrainer/cls/predictions/transform/LayerNorm/batchnorm/add"}
  %rsqrt.8.clone.1 = f32[1216]{0} rsqrt(f32[1216]{0} %add.154.clone.1), metadata={op_type="Rsqrt" op_name="model/bert_pretrainer/cls/predictions/transform/LayerNorm/batchnorm/Rsqrt"}
  %broadcast.230.clone.1 = f32[1216,768]{1,0} broadcast(f32[1216]{0} %rsqrt.8.clone.1), dimensions={0}, metadata={op_type="Mul" op_name="model/bert_pretrainer/cls/predictions/transform/LayerNorm/batchnorm/mul"}
  %param_6.93 = f32[768]{0} parameter(6)
  %broadcast.229.clone.1 = f32[1216,768]{1,0} broadcast(f32[768]{0} %param_6.93), dimensions={1}, metadata={op_type="Mul" op_name="model/bert_pretrainer/cls/predictions/transform/LayerNorm/batchnorm/mul"}
  %multiply.139.clone.1 = f32[1216,768]{1,0} multiply(f32[1216,768]{1,0} %broadcast.230.clone.1, f32[1216,768]{1,0} %broadcast.229.clone.1), metadata={op_type="Mul" op_name="model/bert_pretrainer/cls/predictions/transform/LayerNorm/batchnorm/mul"}
  %multiply.100.clone.1 = f32[1216,768]{1,0} multiply(f32[1216,768]{1,0} %convert.89.clone.1, f32[1216,768]{1,0} %multiply.139.clone.1), metadata={op_type="Mul" op_name="gradient_tape/model/bert_pretrainer/cls/predictions/transform/LayerNorm/batchnorm/mul_1/Mul"}
  %constant_91_clone_1 = f32[] constant(2), metadata={op_type="Mul" op_name="gradient_tape/model/bert_pretrainer/cls/predictions/transform/LayerNorm/moments/Mul"}
  %broadcast.123.clone.1 = f32[1216,1]{1,0} broadcast(f32[] %constant_91_clone_1), dimensions={}
  %broadcast.122.clone.1 = f32[1216,1]{1,0} broadcast(f32[] %constant_392_clone_1), dimensions={}
  %bitcast.195.clone.1 = f32[1216,1]{1,0} bitcast(f32[1216]{0} %rsqrt.8.clone.1), metadata={op_type="Rsqrt" op_name="model/bert_pretrainer/cls/predictions/transform/LayerNorm/batchnorm/Rsqrt"}
  %multiply.99.clone.1 = f32[1216,1]{1,0} multiply(f32[1216,1]{1,0} %bitcast.195.clone.1, f32[1216,1]{1,0} %bitcast.195.clone.1), metadata={op_type="RsqrtGrad" op_name="gradient_tape/model/bert_pretrainer/cls/predictions/transform/LayerNorm/batchnorm/RsqrtGrad"}
  %multiply.98.clone.1 = f32[1216,1]{1,0} multiply(f32[1216,1]{1,0} %multiply.99.clone.1, f32[1216,1]{1,0} %bitcast.195.clone.1), metadata={op_type="RsqrtGrad" op_name="gradient_tape/model/bert_pretrainer/cls/predictions/transform/LayerNorm/batchnorm/RsqrtGrad"}
  %param_5.157 = f32[1216]{0} parameter(5)
  %constant_90_clone_1 = f32[] constant(-0.5)
  %broadcast.121.clone.1 = f32[1216]{0} broadcast(f32[] %constant_90_clone_1), dimensions={}
  %multiply.97.clone.1 = f32[1216]{0} multiply(f32[1216]{0} %param_5.157, f32[1216]{0} %broadcast.121.clone.1), metadata={op_type="RsqrtGrad" op_name="gradient_tape/model/bert_pretrainer/cls/predictions/transform/LayerNorm/batchnorm/RsqrtGrad"}
  %bitcast.194.clone.1 = f32[1216,1]{1,0} bitcast(f32[1216]{0} %multiply.97.clone.1), metadata={op_type="RsqrtGrad" op_name="gradient_tape/model/bert_pretrainer/cls/predictions/transform/LayerNorm/batchnorm/RsqrtGrad"}
  %multiply.96.clone.1 = f32[1216,1]{1,0} multiply(f32[1216,1]{1,0} %multiply.98.clone.1, f32[1216,1]{1,0} %bitcast.194.clone.1), metadata={op_type="RsqrtGrad" op_name="gradient_tape/model/bert_pretrainer/cls/predictions/transform/LayerNorm/batchnorm/RsqrtGrad"}
  %multiply.95.clone.1 = f32[1216,1]{1,0} multiply(f32[1216,1]{1,0} %broadcast.122.clone.1, f32[1216,1]{1,0} %multiply.96.clone.1), metadata={op_type="Mul" op_name="gradient_tape/model/bert_pretrainer/cls/predictions/transform/LayerNorm/moments/truediv"}
  %multiply.94.clone.1 = f32[1216,1]{1,0} multiply(f32[1216,1]{1,0} %broadcast.123.clone.1, f32[1216,1]{1,0} %multiply.95.clone.1), metadata={op_type="Mul" op_name="gradient_tape/model/bert_pretrainer/cls/predictions/transform/LayerNorm/moments/Mul"}
  %bitcast.193.clone.1 = f32[1216]{0} bitcast(f32[1216,1]{1,0} %multiply.94.clone.1), metadata={op_type="Mul" op_name="gradient_tape/model/bert_pretrainer/cls/predictions/transform/LayerNorm/moments/Mul"}
  %broadcast.120.clone.1 = f32[1216,768]{1,0} broadcast(f32[1216]{0} %bitcast.193.clone.1), dimensions={0}
  %param_4.234 = f16[1216,768]{1,0} parameter(4)
  %convert.250.clone.1 = f32[1216,768]{1,0} convert(f16[1216,768]{1,0} %param_4.234), metadata={op_type="Cast" op_name="model/bert_pretrainer/cls/predictions/transform/LayerNorm/Cast"}
  %param_3.325 = f32[1216]{0} parameter(3)
  %multiply.172.clone.1 = f32[1216]{0} multiply(f32[1216]{0} %param_3.325, f32[1216]{0} %broadcast.492.clone.1), metadata={op_type="Mean" op_name="model/bert_pretrainer/cls/predictions/transform/LayerNorm/moments/mean"}
  %broadcast.487.clone.1 = f32[1216,768]{1,0} broadcast(f32[1216]{0} %multiply.172.clone.1), dimensions={0}, metadata={op_type="SquaredDifference" op_name="model/bert_pretrainer/cls/predictions/transform/LayerNorm/moments/SquaredDifference"}
  %subtract.35.clone.1 = f32[1216,768]{1,0} subtract(f32[1216,768]{1,0} %convert.250.clone.1, f32[1216,768]{1,0} %broadcast.487.clone.1), metadata={op_type="SquaredDifference" op_name="model/bert_pretrainer/cls/predictions/transform/LayerNorm/moments/SquaredDifference"}
  %multiply.93.clone.1 = f32[1216,768]{1,0} multiply(f32[1216,768]{1,0} %broadcast.120.clone.1, f32[1216,768]{1,0} %subtract.35.clone.1), metadata={op_type="Mul" op_name="gradient_tape/model/bert_pretrainer/cls/predictions/transform/LayerNorm/moments/mul_1"}
  %add.67.clone.1 = f32[1216,768]{1,0} add(f32[1216,768]{1,0} %multiply.100.clone.1, f32[1216,768]{1,0} %multiply.93.clone.1), metadata={op_type="AddN" op_name="AddN_1"}
  %param_2.434 = f32[1216]{0} parameter(2)
  %multiply.92.clone.1 = f32[1216]{0} multiply(f32[1216]{0} %broadcast.492.clone.1, f32[1216]{0} %param_2.434), metadata={op_type="Mul" op_name="gradient_tape/model/bert_pretrainer/cls/predictions/transform/LayerNorm/moments/truediv_1"}
  %broadcast.119.clone.1 = f32[1216,768]{1,0} broadcast(f32[1216]{0} %multiply.92.clone.1), dimensions={0}
  %add.66.clone.1 = f32[1216,768]{1,0} add(f32[1216,768]{1,0} %add.67.clone.1, f32[1216,768]{1,0} %broadcast.119.clone.1), metadata={op_type="AddN" op_name="AddN_1"}
  %convert.88.clone.1 = f16[1216,768]{1,0} convert(f32[1216,768]{1,0} %add.66.clone.1), metadata={op_type="Cast" op_name="gradient_tape/model/bert_pretrainer/cls/predictions/transform/LayerNorm/Cast/Cast"}
  %constant_170_clone_1 = f16[] constant(0.5), metadata={op_type="Mul" op_name="model/bert_pretrainer/bert_encoder_1/transformer/layer_0/activation/Gelu/mul"}
  %broadcast.232.clone.1 = f16[1216,768]{1,0} broadcast(f16[] %constant_170_clone_1), dimensions={}, metadata={op_type="Mul" op_name="model/bert_pretrainer/cls/predictions/transform/dense/Gelu/mul"}
  %multiply.140.clone.1 = f16[1216,768]{1,0} multiply(f16[1216,768]{1,0} %param_1.599, f16[1216,768]{1,0} %broadcast.232.clone.1), metadata={op_type="Mul" op_name="model/bert_pretrainer/cls/predictions/transform/dense/Gelu/mul"}
  %multiply.91.clone.1 = f16[1216,768]{1,0} multiply(f16[1216,768]{1,0} %convert.88.clone.1, f16[1216,768]{1,0} %multiply.140.clone.1), metadata={op_type="Mul" op_name="gradient_tape/model/bert_pretrainer/cls/predictions/transform/dense/Gelu/mul_3/Mul_1"}
  %constant_172_clone_1 = f16[] constant(1), metadata={op_type="Sub" op_name="model/bert_pretrainer/bert_encoder_1/transformer/layer_1/self_attention/softmax/sub"}
  %broadcast.234.clone.1 = f16[1216,768]{1,0} broadcast(f16[] %constant_172_clone_1), dimensions={}, metadata={op_type="AddV2" op_name="model/bert_pretrainer/cls/predictions/transform/dense/Gelu/add_1"}
  %param_0.658 = f16[1216,768]{1,0} parameter(0)
  %multiply.90.clone.1 = f16[1216,768]{1,0} multiply(f16[1216,768]{1,0} %param_0.658, f16[1216,768]{1,0} %param_0.658), metadata={op_type="TanhGrad" op_name="gradient_tape/model/bert_pretrainer/cls/predictions/transform/dense/Gelu/TanhGrad"}
  %subtract.12.clone.1 = f16[1216,768]{1,0} subtract(f16[1216,768]{1,0} %broadcast.234.clone.1, f16[1216,768]{1,0} %multiply.90.clone.1), metadata={op_type="TanhGrad" op_name="gradient_tape/model/bert_pretrainer/cls/predictions/transform/dense/Gelu/TanhGrad"}
  %multiply.89.clone.1 = f16[1216,768]{1,0} multiply(f16[1216,768]{1,0} %multiply.91.clone.1, f16[1216,768]{1,0} %subtract.12.clone.1), metadata={op_type="TanhGrad" op_name="gradient_tape/model/bert_pretrainer/cls/predictions/transform/dense/Gelu/TanhGrad"}
  %constant_171_clone_1 = f16[] constant(0.79785), metadata={op_type="Mul" op_name="model/bert_pretrainer/bert_encoder_1/transformer/layer_0/activation/Gelu/mul_2"}
  %broadcast.233.clone.1 = f16[1216,768]{1,0} broadcast(f16[] %constant_171_clone_1), dimensions={}, metadata={op_type="Mul" op_name="model/bert_pretrainer/cls/predictions/transform/dense/Gelu/mul_2"}
  %multiply.88.clone.1 = f16[1216,768]{1,0} multiply(f16[1216,768]{1,0} %multiply.89.clone.1, f16[1216,768]{1,0} %broadcast.233.clone.1), metadata={op_type="Mul" op_name="gradient_tape/model/bert_pretrainer/cls/predictions/transform/dense/Gelu/mul_2/Mul"}
  %multiply.87.clone.1 = f16[1216,768]{1,0} multiply(f16[1216,768]{1,0} %multiply.141.clone.1, f16[1216,768]{1,0} %multiply.88.clone.1), metadata={op_type="Mul" op_name="gradient_tape/model/bert_pretrainer/cls/predictions/transform/dense/Gelu/Pow/mul"}
  %multiply.86.clone.1 = f16[1216,768]{1,0} multiply(f16[1216,768]{1,0} %broadcast.124.clone.1, f16[1216,768]{1,0} %multiply.87.clone.1), metadata={op_type="Mul" op_name="gradient_tape/model/bert_pretrainer/cls/predictions/transform/dense/Gelu/Pow/mul_1"}
  %multiply.85.clone.1 = f16[1216,768]{1,0} multiply(f16[1216,768]{1,0} %convert.88.clone.1, f16[1216,768]{1,0} %broadcast.232.clone.1), metadata={op_type="Mul" op_name="gradient_tape/model/bert_pretrainer/cls/predictions/transform/dense/Gelu/mul_3/Mul"}
  %add.95.clone.1 = f16[1216,768]{1,0} add(f16[1216,768]{1,0} %broadcast.234.clone.1, f16[1216,768]{1,0} %param_0.658), metadata={op_type="AddV2" op_name="model/bert_pretrainer/cls/predictions/transform/dense/Gelu/add_1"}
  %multiply.84.clone.1 = f16[1216,768]{1,0} multiply(f16[1216,768]{1,0} %multiply.85.clone.1, f16[1216,768]{1,0} %add.95.clone.1), metadata={op_type="Mul" op_name="gradient_tape/model/bert_pretrainer/cls/predictions/transform/dense/Gelu/mul/Mul"}
  %add.65.clone.1 = f16[1216,768]{1,0} add(f16[1216,768]{1,0} %multiply.86.clone.1, f16[1216,768]{1,0} %multiply.84.clone.1), metadata={op_type="AddN" op_name="AddN_2"}
  %add.64.clone.1 = f16[1216,768]{1,0} add(f16[1216,768]{1,0} %add.65.clone.1, f16[1216,768]{1,0} %multiply.88.clone.1), metadata={op_type="AddN" op_name="AddN_2"}
  %convert.38 = f32[1216,768]{1,0} convert(f16[1216,768]{1,0} %add.64.clone.1), metadata={op_type="BiasAddGrad" op_name="gradient_tape/model/bert_pretrainer/cls/predictions/transform/dense/BiasAdd/BiasAddGrad"}
  %constant_108 = f32[] constant(0), metadata={op_type="Sum" op_name="model/bert_pretrain_loss_and_metric_layer/Sum_3"}
  %reduce.41 = f32[768]{0} reduce(f32[1216,768]{1,0} %convert.38, f32[] %constant_108), dimensions={0}, to_apply=%add_float_.1113, metadata={op_type="BiasAddGrad" op_name="gradient_tape/model/bert_pretrainer/cls/predictions/transform/dense/BiasAdd/BiasAddGrad"}
  %reduce.43.clone.1 = f32[768]{0} reduce(f32[1216,768]{1,0} %convert.89.clone.1, f32[] %constant_108), dimensions={0}, to_apply=%gradient_tape_model_bert_pretrainer_cls_predictions_transform_LayerNorm_batchnorm_sub_Sum-reduction.1793, metadata={op_type="Sum" op_name="gradient_tape/model/bert_pretrainer/cls/predictions/transform/LayerNorm/batchnorm/sub/Sum"}
  %multiply.201.clone.1 = f32[1216,768]{1,0} multiply(f32[1216,768]{1,0} %convert.89.clone.1, f32[1216,768]{1,0} %convert.250.clone.1), metadata={op_type="Mul" op_name="gradient_tape/model/bert_pretrainer/cls/predictions/transform/LayerNorm/batchnorm/mul_1/Mul_1"}
  %negate.20.clone.1 = f32[1216,768]{1,0} negate(f32[1216,768]{1,0} %convert.89.clone.1), metadata={op_type="Neg" op_name="gradient_tape/model/bert_pretrainer/cls/predictions/transform/LayerNorm/batchnorm/sub/Neg"}
  %multiply.199.clone.1 = f32[1216,768]{1,0} multiply(f32[1216,768]{1,0} %negate.20.clone.1, f32[1216,768]{1,0} %broadcast.487.clone.1), metadata={op_type="Mul" op_name="gradient_tape/model/bert_pretrainer/cls/predictions/transform/LayerNorm/batchnorm/mul_2/Mul_1"}
  %add.178.clone.1 = f32[1216,768]{1,0} add(f32[1216,768]{1,0} %multiply.201.clone.1, f32[1216,768]{1,0} %multiply.199.clone.1), metadata={op_type="AddN" op_name="AddN"}
  %multiply.40.clone.1 = f32[1216,768]{1,0} multiply(f32[1216,768]{1,0} %add.178.clone.1, f32[1216,768]{1,0} %broadcast.230.clone.1), metadata={op_type="Mul" op_name="gradient_tape/model/bert_pretrainer/cls/predictions/transform/LayerNorm/batchnorm/mul/Mul_1"}
  %reduce.42.clone.1 = f32[768]{0} reduce(f32[1216,768]{1,0} %multiply.40.clone.1, f32[] %constant_108), dimensions={0}, to_apply=%gradient_tape_model_bert_pretrainer_cls_predictions_transform_LayerNorm_batchnorm_mul_Sum_1-reduction.1779, metadata={op_type="Sum" op_name="gradient_tape/model/bert_pretrainer/cls/predictions/transform/LayerNorm/batchnorm/mul/Sum_1"}
  ROOT %tuple.14 = (f32[768]{0}, f16[1216,768]{1,0}, f32[768]{0}, f32[768]{0}) tuple(f32[768]{0} %reduce.41, f16[1216,768]{1,0} %add.64.clone.1, f32[768]{0} %reduce.43.clone.1, f32[768]{0} %reduce.42.clone.1)
}

%scatter-combiner.1727 (p0.1728: f32[], p1.1729: f32[]) -> f32[] {
  %p0.1728 = f32[] parameter(0)
  %p1.1729 = f32[] parameter(1)
  ROOT %add.1730 = f32[] add(f32[] %p0.1728, f32[] %p1.1729)
}

%fused_computation.14 (param_0.370: f16[30528,768], param_1.292: f16[1,16,512,768], param_2.179: s32[16,512]) -> f32[30522,768] {
  %param_0.370 = f16[30528,768]{1,0} parameter(0)
  %slice.8 = f16[30522,768]{1,0} slice(f16[30528,768]{1,0} %param_0.370), slice={[0:30522], [0:768]}, metadata={op_type="MatMul" op_name="gradient_tape/model/bert_pretrainer/cls/predictions/MatMul/MatMul_1"}
  %convert.41 = f32[30522,768]{1,0} convert(f16[30522,768]{1,0} %slice.8), metadata={op_type="Cast" op_name="gradient_tape/model/bert_pretrainer/cls/predictions/MatMul/Cast/Cast"}
  %param_2.179 = s32[16,512]{1,0} parameter(2)
  %bitcast.218 = s32[8192]{0} bitcast(s32[16,512]{1,0} %param_2.179), metadata={op_type="Reshape" op_name="model/bert_pretrainer/bert_encoder_1/word_embeddings/Reshape"}
  %param_1.292 = f16[1,16,512,768]{3,2,1,0} parameter(1)
  %bitcast.217 = f16[8192,768]{1,0} bitcast(f16[1,16,512,768]{3,2,1,0} %param_1.292), metadata={op_type="Reshape" op_name="gradient_tape/model/bert_pretrainer/bert_encoder_1/word_embeddings/Reshape"}
  %convert.40 = f32[8192,768]{1,0} convert(f16[8192,768]{1,0} %bitcast.217), metadata={op_type="Cast" op_name="gradient_tape/model/bert_pretrainer/bert_encoder_1/word_embeddings/GatherV2/Cast/Cast"}
  ROOT %scatter.0 = f32[30522,768]{1,0} scatter(f32[30522,768]{1,0} %convert.41, s32[8192]{0} %bitcast.218, f32[8192,768]{1,0} %convert.40), update_window_dims={1}, inserted_window_dims={0}, scatter_dims_to_operand_dims={0}, index_vector_dim=1, to_apply=%scatter-combiner.1727, metadata={op_type="UnsortedSegmentSum" op_name="AddN_10/inputs_1"}
}

%add_float_.1019 (x.1020: f32[], y.1021: f32[]) -> f32[] {
  %x.1020 = f32[] parameter(0)
  %y.1021 = f32[] parameter(1)
  ROOT %add.1022 = f32[] add(f32[] %x.1020, f32[] %y.1021)
}

%fused_computation.15 (param_0.609: s32[16,76], param_1.529: f32[1216,30522], param_2.386: f32[1216], param_3.270: f32[16,76], param_4.174: f32[]) -> f32[30522] {
  %param_4.174 = f32[] parameter(4)
  %constant_111 = f32[] constant(0), metadata={op_type="Sum" op_name="model/bert_pretrain_loss_and_metric_layer/Sum_3"}
  %compare.63 = pred[] compare(f32[] %param_4.174, f32[] %constant_111), direction=EQ, metadata={op_type="DivNoNan" op_name="gradient_tape/model/bert_pretrain_loss_and_metric_layer/div_no_nan/div_no_nan"}
  %constant_437 = f32[] constant(1), metadata={op_type="Minimum" op_name="Adam/PolynomialDecay/Minimum"}
  %divide.22 = f32[] divide(f32[] %constant_437, f32[] %param_4.174), metadata={op_type="DivNoNan" op_name="gradient_tape/model/bert_pretrain_loss_and_metric_layer/div_no_nan/div_no_nan"}
  %select.60 = f32[] select(pred[] %compare.63, f32[] %constant_111, f32[] %divide.22), metadata={op_type="DivNoNan" op_name="gradient_tape/model/bert_pretrain_loss_and_metric_layer/div_no_nan/div_no_nan"}
  %broadcast.553 = f32[16,76]{1,0} broadcast(f32[] %select.60), dimensions={}, metadata={op_type="Tile" op_name="gradient_tape/model/bert_pretrain_loss_and_metric_layer/Tile_1"}
  %param_3.270 = f32[16,76]{1,0} parameter(3)
  %convert.309 = s32[16,76]{1,0} convert(f32[16,76]{1,0} %param_3.270), metadata={op_type="Cast" op_name="model/Cast"}
  %convert.307 = f32[16,76]{1,0} convert(s32[16,76]{1,0} %convert.309), metadata={op_type="Cast" op_name="model/bert_pretrain_loss_and_metric_layer/Cast"}
  %multiply.184 = f32[16,76]{1,0} multiply(f32[16,76]{1,0} %broadcast.553, f32[16,76]{1,0} %convert.307), metadata={op_type="Mul" op_name="gradient_tape/model/bert_pretrain_loss_and_metric_layer/mul/Mul"}
  %bitcast.257 = f32[1216]{0} bitcast(f32[16,76]{1,0} %multiply.184), metadata={op_type="Mul" op_name="gradient_tape/model/bert_pretrain_loss_and_metric_layer/SparseSoftmaxCrossEntropyWithLogits/mul"}
  %broadcast.552 = f32[1216,30522]{1,0} broadcast(f32[1216]{0} %bitcast.257), dimensions={0}, metadata={op_type="Mul" op_name="gradient_tape/model/bert_pretrain_loss_and_metric_layer/SparseSoftmaxCrossEntropyWithLogits/mul"}
  %param_1.529 = f32[1216,30522]{1,0} parameter(1)
  %param_2.386 = f32[1216]{0} parameter(2)
  %broadcast.551 = f32[1216,30522]{1,0} broadcast(f32[1216]{0} %param_2.386), dimensions={0}, metadata={op_type="SparseSoftmaxCrossEntropyWithLogits" op_name="model/bert_pretrain_loss_and_metric_layer/SparseSoftmaxCrossEntropyWithLogits/SparseSoftmaxCrossEntropyWithLogits"}
  %divide.21 = f32[1216,30522]{1,0} divide(f32[1216,30522]{1,0} %param_1.529, f32[1216,30522]{1,0} %broadcast.551), metadata={op_type="SparseSoftmaxCrossEntropyWithLogits" op_name="model/bert_pretrain_loss_and_metric_layer/SparseSoftmaxCrossEntropyWithLogits/SparseSoftmaxCrossEntropyWithLogits"}
  %param_0.609 = s32[16,76]{1,0} parameter(0)
  %convert.306 = f32[16,76]{1,0} convert(s32[16,76]{1,0} %param_0.609), metadata={op_type="Cast" op_name="model/bert_pretrain_loss_and_metric_layer/Cast_2"}
  %convert.305 = s64[16,76]{1,0} convert(f32[16,76]{1,0} %convert.306), metadata={op_type="Cast" op_name="model/bert_pretrain_loss_and_metric_layer/ArithmeticOptimizer/ReorderCastLikeAndValuePreserving_int64_Cast_3"}
  %bitcast.256 = s64[1216]{0} bitcast(s64[16,76]{1,0} %convert.305), metadata={op_type="Cast" op_name="model/bert_pretrain_loss_and_metric_layer/ArithmeticOptimizer/ReorderCastLikeAndValuePreserving_int64_Cast_3"}
  %broadcast.550 = s64[1216,30522]{1,0} broadcast(s64[1216]{0} %bitcast.256), dimensions={0}, metadata={op_type="SparseSoftmaxCrossEntropyWithLogits" op_name="model/bert_pretrain_loss_and_metric_layer/SparseSoftmaxCrossEntropyWithLogits/SparseSoftmaxCrossEntropyWithLogits"}
  %iota.14 = s64[1216,30522]{1,0} iota(), iota_dimension=1, metadata={op_type="SparseSoftmaxCrossEntropyWithLogits" op_name="model/bert_pretrain_loss_and_metric_layer/SparseSoftmaxCrossEntropyWithLogits/SparseSoftmaxCrossEntropyWithLogits"}
  %compare.62 = pred[1216,30522]{1,0} compare(s64[1216,30522]{1,0} %broadcast.550, s64[1216,30522]{1,0} %iota.14), direction=EQ, metadata={op_type="SparseSoftmaxCrossEntropyWithLogits" op_name="model/bert_pretrain_loss_and_metric_layer/SparseSoftmaxCrossEntropyWithLogits/SparseSoftmaxCrossEntropyWithLogits"}
  %broadcast.548 = f32[1216,30522]{1,0} broadcast(f32[] %constant_437), dimensions={}, metadata={op_type="SparseSoftmaxCrossEntropyWithLogits" op_name="model/bert_pretrain_loss_and_metric_layer/SparseSoftmaxCrossEntropyWithLogits/SparseSoftmaxCrossEntropyWithLogits"}
  %broadcast.547 = f32[1216,30522]{1,0} broadcast(f32[] %constant_111), dimensions={}, metadata={op_type="SparseSoftmaxCrossEntropyWithLogits" op_name="model/bert_pretrain_loss_and_metric_layer/SparseSoftmaxCrossEntropyWithLogits/SparseSoftmaxCrossEntropyWithLogits"}
  %select.59 = f32[1216,30522]{1,0} select(pred[1216,30522]{1,0} %compare.62, f32[1216,30522]{1,0} %broadcast.548, f32[1216,30522]{1,0} %broadcast.547), metadata={op_type="SparseSoftmaxCrossEntropyWithLogits" op_name="model/bert_pretrain_loss_and_metric_layer/SparseSoftmaxCrossEntropyWithLogits/SparseSoftmaxCrossEntropyWithLogits"}
  %constant_435 = s64[] constant(0), metadata={op_type="SparseSoftmaxCrossEntropyWithLogits" op_name="model/bert_pretrain_loss_and_metric_layer/SparseSoftmaxCrossEntropyWithLogits_1/SparseSoftmaxCrossEntropyWithLogits"}
  %broadcast.545 = s64[1216]{0} broadcast(s64[] %constant_435), dimensions={}, metadata={op_type="SparseSoftmaxCrossEntropyWithLogits" op_name="model/bert_pretrain_loss_and_metric_layer/SparseSoftmaxCrossEntropyWithLogits/SparseSoftmaxCrossEntropyWithLogits"}
  %compare.61 = pred[1216]{0} compare(s64[1216]{0} %broadcast.545, s64[1216]{0} %bitcast.256), direction=LE, metadata={op_type="SparseSoftmaxCrossEntropyWithLogits" op_name="model/bert_pretrain_loss_and_metric_layer/SparseSoftmaxCrossEntropyWithLogits/SparseSoftmaxCrossEntropyWithLogits"}
  %constant_434 = s64[] constant(30522), metadata={op_type="SparseSoftmaxCrossEntropyWithLogits" op_name="model/bert_pretrain_loss_and_metric_layer/SparseSoftmaxCrossEntropyWithLogits/SparseSoftmaxCrossEntropyWithLogits"}
  %broadcast.544 = s64[1216]{0} broadcast(s64[] %constant_434), dimensions={}, metadata={op_type="SparseSoftmaxCrossEntropyWithLogits" op_name="model/bert_pretrain_loss_and_metric_layer/SparseSoftmaxCrossEntropyWithLogits/SparseSoftmaxCrossEntropyWithLogits"}
  %compare.60 = pred[1216]{0} compare(s64[1216]{0} %bitcast.256, s64[1216]{0} %broadcast.544), direction=LT, metadata={op_type="SparseSoftmaxCrossEntropyWithLogits" op_name="model/bert_pretrain_loss_and_metric_layer/SparseSoftmaxCrossEntropyWithLogits/SparseSoftmaxCrossEntropyWithLogits"}
  %and.11 = pred[1216]{0} and(pred[1216]{0} %compare.61, pred[1216]{0} %compare.60), metadata={op_type="SparseSoftmaxCrossEntropyWithLogits" op_name="model/bert_pretrain_loss_and_metric_layer/SparseSoftmaxCrossEntropyWithLogits/SparseSoftmaxCrossEntropyWithLogits"}
  %broadcast.543 = f32[1216]{0} broadcast(f32[] %constant_111), dimensions={}, metadata={op_type="SparseSoftmaxCrossEntropyWithLogits" op_name="model/bert_pretrain_loss_and_metric_layer/SparseSoftmaxCrossEntropyWithLogits/SparseSoftmaxCrossEntropyWithLogits"}
  %constant_433 = f32[] constant(nan), metadata={op_type="SparseSoftmaxCrossEntropyWithLogits" op_name="model/bert_pretrain_loss_and_metric_layer/SparseSoftmaxCrossEntropyWithLogits_1/SparseSoftmaxCrossEntropyWithLogits"}
  %broadcast.541 = f32[1216]{0} broadcast(f32[] %constant_433), dimensions={}, metadata={op_type="SparseSoftmaxCrossEntropyWithLogits" op_name="model/bert_pretrain_loss_and_metric_layer/SparseSoftmaxCrossEntropyWithLogits/SparseSoftmaxCrossEntropyWithLogits"}
  %select.58 = f32[1216]{0} select(pred[1216]{0} %and.11, f32[1216]{0} %broadcast.543, f32[1216]{0} %broadcast.541), metadata={op_type="SparseSoftmaxCrossEntropyWithLogits" op_name="model/bert_pretrain_loss_and_metric_layer/SparseSoftmaxCrossEntropyWithLogits/SparseSoftmaxCrossEntropyWithLogits"}
  %broadcast.540 = f32[1216,30522]{1,0} broadcast(f32[1216]{0} %select.58), dimensions={0}, metadata={op_type="SparseSoftmaxCrossEntropyWithLogits" op_name="model/bert_pretrain_loss_and_metric_layer/SparseSoftmaxCrossEntropyWithLogits/SparseSoftmaxCrossEntropyWithLogits"}
  %add.172 = f32[1216,30522]{1,0} add(f32[1216,30522]{1,0} %select.59, f32[1216,30522]{1,0} %broadcast.540), metadata={op_type="SparseSoftmaxCrossEntropyWithLogits" op_name="model/bert_pretrain_loss_and_metric_layer/SparseSoftmaxCrossEntropyWithLogits/SparseSoftmaxCrossEntropyWithLogits"}
  %subtract.41 = f32[1216,30522]{1,0} subtract(f32[1216,30522]{1,0} %divide.21, f32[1216,30522]{1,0} %add.172), metadata={op_type="SparseSoftmaxCrossEntropyWithLogits" op_name="model/bert_pretrain_loss_and_metric_layer/SparseSoftmaxCrossEntropyWithLogits/SparseSoftmaxCrossEntropyWithLogits"}
  %multiply.183 = f32[1216,30522]{1,0} multiply(f32[1216,30522]{1,0} %broadcast.552, f32[1216,30522]{1,0} %subtract.41), metadata={op_type="Mul" op_name="gradient_tape/model/bert_pretrain_loss_and_metric_layer/SparseSoftmaxCrossEntropyWithLogits/mul"}
  %convert.304 = f16[1216,30522]{1,0} convert(f32[1216,30522]{1,0} %multiply.183), metadata={op_type="Cast" op_name="gradient_tape/model/bert_pretrain_loss_and_metric_layer/Cast_1/ArithmeticOptimizer/ReorderCastLikeAndValuePreserving_float_Cast"}
  %convert.42 = f32[1216,30522]{1,0} convert(f16[1216,30522]{1,0} %convert.304), metadata={op_type="BiasAddGrad" op_name="gradient_tape/model/bert_pretrainer/cls/predictions/BiasAdd/BiasAddGrad"}
  ROOT %reduce.44 = f32[30522]{0} reduce(f32[1216,30522]{1,0} %convert.42, f32[] %constant_111), dimensions={0}, to_apply=%add_float_.1019, metadata={op_type="BiasAddGrad" op_name="gradient_tape/model/bert_pretrainer/cls/predictions/BiasAdd/BiasAddGrad"}
}

%add_float_.793 (x.794: f32[], y.795: f32[]) -> f32[] {
  %x.794 = f32[] parameter(0)
  %y.795 = f32[] parameter(1)
  ROOT %add.796 = f32[] add(f32[] %x.794, f32[] %y.795)
}

%fused_computation.16 (param_0.372: f16[16,2]) -> f32[2] {
  %param_0.372 = f16[16,2]{1,0} parameter(0)
  %convert.43 = f32[16,2]{1,0} convert(f16[16,2]{1,0} %param_0.372), metadata={op_type="BiasAddGrad" op_name="gradient_tape/model/bert_pretrainer/classification/predictions/transform/logits/BiasAdd/BiasAddGrad"}
  %constant_112 = f32[] constant(0), metadata={op_type="Sum" op_name="model/bert_pretrain_loss_and_metric_layer/Sum_3"}
  ROOT %reduce.45 = f32[2]{0} reduce(f32[16,2]{1,0} %convert.43, f32[] %constant_112), dimensions={0}, to_apply=%add_float_.793, metadata={op_type="BiasAddGrad" op_name="gradient_tape/model/bert_pretrainer/classification/predictions/transform/logits/BiasAdd/BiasAddGrad"}
}

%fused_computation.19 (param_0.36: f16[768,768]) -> f32[12,64,768] {
  %param_0.36 = f16[768,768]{1,0} parameter(0)
  %convert.44 = f32[768,768]{1,0} convert(f16[768,768]{1,0} %param_0.36), metadata={op_type="Cast" op_name="gradient_tape/model/bert_pretrainer/bert_encoder_1/transformer/layer_1/self_attention/attention_output/einsum/Einsum/Cast/ArithmeticOptimizer/ReorderCastLikeAndValuePreserving_float_Cast"}
  %bitcast.143 = f32[768,12,64]{2,1,0} bitcast(f32[768,768]{1,0} %convert.44), metadata={op_type="Cast" op_name="gradient_tape/model/bert_pretrainer/bert_encoder_1/transformer/layer_1/self_attention/attention_output/einsum/Einsum/Cast/ArithmeticOptimizer/ReorderCastLikeAndValuePreserving_float_Cast"}
  ROOT %transpose.116 = f32[12,64,768]{1,0,2} transpose(f32[768,12,64]{2,1,0} %bitcast.143), dimensions={1,2,0}, metadata={op_type="Cast" op_name="gradient_tape/model/bert_pretrainer/bert_encoder_1/transformer/layer_1/self_attention/attention_output/einsum/Einsum/Cast/ArithmeticOptimizer/ReorderCastLikeAndValuePreserving_float_Cast"}
}

%fused_computation.20 (param_0.39: f16[768,768]) -> f32[768,12,64] {
  %param_0.39 = f16[768,768]{1,0} parameter(0)
  %convert.45 = f32[768,768]{1,0} convert(f16[768,768]{1,0} %param_0.39), metadata={op_type="Cast" op_name="gradient_tape/model/bert_pretrainer/bert_encoder_1/transformer/layer_1/self_attention/value/einsum/Einsum/Cast/ArithmeticOptimizer/ReorderCastLikeAndValuePreserving_float_Cast"}
  %bitcast.144 = f32[12,64,768]{2,1,0} bitcast(f32[768,768]{1,0} %convert.45), metadata={op_type="Cast" op_name="gradient_tape/model/bert_pretrainer/bert_encoder_1/transformer/layer_1/self_attention/value/einsum/Einsum/Cast/ArithmeticOptimizer/ReorderCastLikeAndValuePreserving_float_Cast"}
  ROOT %transpose.117 = f32[768,12,64]{0,2,1} transpose(f32[12,64,768]{2,1,0} %bitcast.144), dimensions={2,0,1}, metadata={op_type="Cast" op_name="gradient_tape/model/bert_pretrainer/bert_encoder_1/transformer/layer_1/self_attention/value/einsum/Einsum/Cast/ArithmeticOptimizer/ReorderCastLikeAndValuePreserving_float_Cast"}
}

%fused_computation.21 (param_0.42: f16[16,12,64,512]) -> f16[768,8192] {
  %param_0.42 = f16[16,12,64,512]{3,2,1,0} parameter(0)
  %transpose.118 = f16[12,64,16,512]{3,1,0,2} transpose(f16[16,12,64,512]{3,2,1,0} %param_0.42), dimensions={1,2,0,3}
  %copy.66 = f16[12,64,16,512]{3,2,1,0} copy(f16[12,64,16,512]{3,1,0,2} %transpose.118)
  ROOT %bitcast.145 = f16[768,8192]{1,0} bitcast(f16[12,64,16,512]{3,2,1,0} %copy.66)
}

%fused_computation.26 (param_0.53: f16[768,768]) -> f32[12,64,768] {
  %param_0.53 = f16[768,768]{1,0} parameter(0)
  %convert.46 = f32[768,768]{1,0} convert(f16[768,768]{1,0} %param_0.53), metadata={op_type="Cast" op_name="gradient_tape/model/bert_pretrainer/bert_encoder_1/transformer/layer_0/self_attention/attention_output/einsum/Einsum/Cast/ArithmeticOptimizer/ReorderCastLikeAndValuePreserving_float_Cast"}
  %bitcast.146 = f32[768,12,64]{2,1,0} bitcast(f32[768,768]{1,0} %convert.46), metadata={op_type="Cast" op_name="gradient_tape/model/bert_pretrainer/bert_encoder_1/transformer/layer_0/self_attention/attention_output/einsum/Einsum/Cast/ArithmeticOptimizer/ReorderCastLikeAndValuePreserving_float_Cast"}
  ROOT %transpose.119 = f32[12,64,768]{1,0,2} transpose(f32[768,12,64]{2,1,0} %bitcast.146), dimensions={1,2,0}, metadata={op_type="Cast" op_name="gradient_tape/model/bert_pretrainer/bert_encoder_1/transformer/layer_0/self_attention/attention_output/einsum/Einsum/Cast/ArithmeticOptimizer/ReorderCastLikeAndValuePreserving_float_Cast"}
}

%fused_computation.27 (param_0.56: f16[768,768]) -> f32[768,12,64] {
  %param_0.56 = f16[768,768]{1,0} parameter(0)
  %convert.47 = f32[768,768]{1,0} convert(f16[768,768]{1,0} %param_0.56), metadata={op_type="Cast" op_name="gradient_tape/model/bert_pretrainer/bert_encoder_1/transformer/layer_0/self_attention/value/einsum/Einsum/Cast/ArithmeticOptimizer/ReorderCastLikeAndValuePreserving_float_Cast"}
  %bitcast.147 = f32[12,64,768]{2,1,0} bitcast(f32[768,768]{1,0} %convert.47), metadata={op_type="Cast" op_name="gradient_tape/model/bert_pretrainer/bert_encoder_1/transformer/layer_0/self_attention/value/einsum/Einsum/Cast/ArithmeticOptimizer/ReorderCastLikeAndValuePreserving_float_Cast"}
  ROOT %transpose.120 = f32[768,12,64]{0,2,1} transpose(f32[12,64,768]{2,1,0} %bitcast.147), dimensions={2,0,1}, metadata={op_type="Cast" op_name="gradient_tape/model/bert_pretrainer/bert_encoder_1/transformer/layer_0/self_attention/value/einsum/Einsum/Cast/ArithmeticOptimizer/ReorderCastLikeAndValuePreserving_float_Cast"}
}

%fused_computation.28 (param_0.59: f16[16,12,64,512]) -> f16[768,8192] {
  %param_0.59 = f16[16,12,64,512]{3,2,1,0} parameter(0)
  %transpose.121 = f16[12,64,16,512]{3,1,0,2} transpose(f16[16,12,64,512]{3,2,1,0} %param_0.59), dimensions={1,2,0,3}
  %copy.67 = f16[12,64,16,512]{3,2,1,0} copy(f16[12,64,16,512]{3,1,0,2} %transpose.121)
  ROOT %bitcast.148 = f16[768,8192]{1,0} bitcast(f16[12,64,16,512]{3,2,1,0} %copy.67)
}

%gradient_tape_model_bert_pretrainer_bert_encoder_1_position_embedding_Sum-reduction.1695 (x.1696: f32[], y.1697: f32[]) -> f32[] {
  %x.1696 = f32[] parameter(0)
  %y.1697 = f32[] parameter(1)
  ROOT %add.1698 = f32[] add(f32[] %x.1696, f32[] %y.1697)
}

%fused_computation.31 (param_0.377: f16[1,16,512,768]) -> f32[512,768] {
  %param_0.377 = f16[1,16,512,768]{3,2,1,0} parameter(0)
  %convert.50 = f32[1,16,512,768]{3,2,1,0} convert(f16[1,16,512,768]{3,2,1,0} %param_0.377), metadata={op_type="Sum" op_name="gradient_tape/model/bert_pretrainer/bert_encoder_1/position_embedding/Sum"}
  %bitcast.149 = f32[16,512,768]{2,1,0} bitcast(f32[1,16,512,768]{3,2,1,0} %convert.50)
  %constant_137 = f32[] constant(0), metadata={op_type="Sum" op_name="model/bert_pretrain_loss_and_metric_layer/Sum_3"}
  %reduce.46 = f32[512,768]{1,0} reduce(f32[16,512,768]{2,1,0} %bitcast.149, f32[] %constant_137), dimensions={0}, to_apply=%gradient_tape_model_bert_pretrainer_bert_encoder_1_position_embedding_Sum-reduction.1695, metadata={op_type="Sum" op_name="gradient_tape/model/bert_pretrainer/bert_encoder_1/position_embedding/Sum"}
  %convert.49 = f16[512,768]{1,0} convert(f32[512,768]{1,0} %reduce.46), metadata={op_type="Sum" op_name="gradient_tape/model/bert_pretrainer/bert_encoder_1/position_embedding/Sum"}
  ROOT %convert.48 = f32[512,768]{1,0} convert(f16[512,768]{1,0} %convert.49), metadata={op_type="Cast" op_name="gradient_tape/model/bert_pretrainer/bert_encoder_1/position_embedding/Cast/ArithmeticOptimizer/ReorderCastLikeAndValuePreserving_float_Cast"}
}

%fused_computation.32 (param_0.69: f32[1,768,16,512]) -> f16[1,16,512,768] {
  %param_0.69 = f32[1,768,16,512]{1,3,2,0} parameter(0)
  %convert.51 = f16[1,768,16,512]{1,3,2,0} convert(f32[1,768,16,512]{1,3,2,0} %param_0.69), metadata={op_type="Cast" op_name="gradient_tape/model/bert_pretrainer/bert_encoder_1/Cast/Cast"}
  ROOT %transpose.122 = f16[1,16,512,768]{3,2,1,0} transpose(f16[1,768,16,512]{1,3,2,0} %convert.51), dimensions={0,2,3,1}, metadata={op_type="Transpose" op_name="gradient_tape/model/bert_pretrainer/bert_encoder_1/Cast/Cast-0-0-TransposeNCHWToNHWC-LayoutOptimizer"}
}

%fused_computation.33 (param_0.487: f16[8192,768], param_1.379: f16[8192,768], param_2.279: f16[16,512,768], param_3.201: f16[8192,768], param_4.115: f16[16,512,768]) -> f32[1,768,16,512] {
  %param_4.115 = f16[16,512,768]{2,1,0} parameter(4)
  %constant_289 = f16[] constant(0.099976), metadata={op_type="GreaterEqual" op_name="model/bert_pretrainer/bert_encoder_1/dropout/dropout/GreaterEqual"}
  %broadcast.334 = f16[16,512,768]{2,1,0} broadcast(f16[] %constant_289), dimensions={}, metadata={op_type="GreaterEqual" op_name="model/bert_pretrainer/bert_encoder_1/transformer/layer_1/dropout_2/dropout/GreaterEqual"}
  %compare.33 = pred[16,512,768]{2,1,0} compare(f16[16,512,768]{2,1,0} %param_4.115, f16[16,512,768]{2,1,0} %broadcast.334), direction=GE, metadata={op_type="GreaterEqual" op_name="model/bert_pretrainer/bert_encoder_1/dropout/dropout/GreaterEqual"}
  %param_2.279 = f16[16,512,768]{2,1,0} parameter(2)
  %param_3.201 = f16[8192,768]{1,0} parameter(3)
  %bitcast.153 = f16[16,512,768]{2,1,0} bitcast(f16[8192,768]{1,0} %param_3.201), metadata={op_type="Einsum" op_name="gradient_tape/model/bert_pretrainer/bert_encoder_1/transformer/layer_0/self_attention/key/einsum/Einsum"}
  %add.56 = f16[16,512,768]{2,1,0} add(f16[16,512,768]{2,1,0} %param_2.279, f16[16,512,768]{2,1,0} %bitcast.153), metadata={op_type="AddN" op_name="AddN_9"}
  %param_1.379 = f16[8192,768]{1,0} parameter(1)
  %bitcast.152 = f16[16,512,768]{2,1,0} bitcast(f16[8192,768]{1,0} %param_1.379), metadata={op_type="Einsum" op_name="gradient_tape/model/bert_pretrainer/bert_encoder_1/transformer/layer_0/self_attention/query/einsum/Einsum"}
  %add.55 = f16[16,512,768]{2,1,0} add(f16[16,512,768]{2,1,0} %add.56, f16[16,512,768]{2,1,0} %bitcast.152), metadata={op_type="AddN" op_name="AddN_9"}
  %param_0.487 = f16[8192,768]{1,0} parameter(0)
  %bitcast.151 = f16[16,512,768]{2,1,0} bitcast(f16[8192,768]{1,0} %param_0.487), metadata={op_type="Einsum" op_name="gradient_tape/model/bert_pretrainer/bert_encoder_1/transformer/layer_0/self_attention/value/einsum/Einsum"}
  %add.54 = f16[16,512,768]{2,1,0} add(f16[16,512,768]{2,1,0} %add.55, f16[16,512,768]{2,1,0} %bitcast.151), metadata={op_type="AddN" op_name="AddN_9"}
  %constant_138 = f16[] constant(1.1113), metadata={op_type="Mul" op_name="model/bert_pretrainer/bert_encoder_1/dropout/dropout/Mul"}
  %broadcast.205 = f16[16,512,768]{2,1,0} broadcast(f16[] %constant_138), dimensions={}, metadata={op_type="Mul" op_name="model/bert_pretrainer/bert_encoder_1/transformer/layer_1/dropout_2/dropout/Mul"}
  %multiply.57 = f16[16,512,768]{2,1,0} multiply(f16[16,512,768]{2,1,0} %add.54, f16[16,512,768]{2,1,0} %broadcast.205), metadata={op_type="Mul" op_name="gradient_tape/model/bert_pretrainer/bert_encoder_1/dropout/dropout/Mul"}
  %constant_139 = f16[] constant(0), metadata={op_type="GreaterEqual" op_name="model/bert_pretrainer/bert_encoder_1/transformer/layer_0/dropout_1/dropout/GreaterEqual"}
  %broadcast.204 = f16[16,512,768]{2,1,0} broadcast(f16[] %constant_139), dimensions={}
  %select.23 = f16[16,512,768]{2,1,0} select(pred[16,512,768]{2,1,0} %compare.33, f16[16,512,768]{2,1,0} %multiply.57, f16[16,512,768]{2,1,0} %broadcast.204), metadata={op_type="Mul" op_name="gradient_tape/model/bert_pretrainer/bert_encoder_1/dropout/dropout/Mul_1"}
  %convert.52 = f32[16,512,768]{2,1,0} convert(f16[16,512,768]{2,1,0} %select.23), metadata={op_type="Cast" op_name="gradient_tape/model/bert_pretrainer/bert_encoder_1/Cast_1/ArithmeticOptimizer/ArithmeticOptimizer/ReorderCastLikeAndValuePreserving_float_ReorderCastLikeAndValuePreserving_float_Cast"}
  %bitcast.150 = f32[1,16,512,768]{3,2,1,0} bitcast(f32[16,512,768]{2,1,0} %convert.52), metadata={op_type="Cast" op_name="gradient_tape/model/bert_pretrainer/bert_encoder_1/Cast_1/ArithmeticOptimizer/ArithmeticOptimizer/ReorderCastLikeAndValuePreserving_float_ReorderCastLikeAndValuePreserving_float_Cast"}
  ROOT %transpose.123 = f32[1,768,16,512]{1,3,2,0} transpose(f32[1,16,512,768]{3,2,1,0} %bitcast.150), dimensions={0,3,1,2}, metadata={op_type="Cast" op_name="gradient_tape/model/bert_pretrainer/bert_encoder_1/Cast_1/ArithmeticOptimizer/ArithmeticOptimizer/ReorderCastLikeAndValuePreserving_float_ReorderCastLikeAndValuePreserving_float_Cast"}
}

%fused_computation.34 (param_0.382: f32[768,12,64]) -> f16[768,768] {
  %param_0.382 = f32[768,12,64]{2,1,0} parameter(0)
  %convert.136 = f16[768,12,64]{2,1,0} convert(f32[768,12,64]{2,1,0} %param_0.382), metadata={op_type="Cast" op_name="model/bert_pretrainer/bert_encoder_1/transformer/layer_0/self_attention/value/einsum/Einsum/Cast"}
  %transpose.124 = f16[12,64,768]{1,0,2} transpose(f16[768,12,64]{2,1,0} %convert.136), dimensions={1,2,0}
  ROOT %bitcast.154 = f16[768,768]{0,1} bitcast(f16[12,64,768]{1,0,2} %transpose.124)
}

%fused_computation.35 (param_0.383: f16[16,12,64,512]) -> f16[8192,768] {
  %param_0.383 = f16[16,12,64,512]{3,2,1,0} parameter(0)
  %transpose.159 = f16[16,512,12,64]{1,3,2,0} transpose(f16[16,12,64,512]{3,2,1,0} %param_0.383), dimensions={0,3,1,2}, metadata={op_type="Einsum" op_name="gradient_tape/model/bert_pretrainer/bert_encoder_1/transformer/layer_0/self_attention/einsum_1/Einsum_1"}
  %copy.68 = f16[16,512,12,64]{3,2,1,0} copy(f16[16,512,12,64]{1,3,2,0} %transpose.159), metadata={op_type="Einsum" op_name="gradient_tape/model/bert_pretrainer/bert_encoder_1/transformer/layer_0/self_attention/einsum_1/Einsum_1"}
  ROOT %bitcast.155 = f16[8192,768]{1,0} bitcast(f16[16,512,12,64]{3,2,1,0} %copy.68)
}

%fused_computation.36 (param_0.380: f32[768,12,64]) -> f16[768,768] {
  %param_0.380 = f32[768,12,64]{2,1,0} parameter(0)
  %convert.135 = f16[768,12,64]{2,1,0} convert(f32[768,12,64]{2,1,0} %param_0.380), metadata={op_type="Cast" op_name="model/bert_pretrainer/bert_encoder_1/transformer/layer_0/self_attention/query/einsum/Einsum/Cast"}
  %transpose.125 = f16[12,64,768]{1,0,2} transpose(f16[768,12,64]{2,1,0} %convert.135), dimensions={1,2,0}
  ROOT %bitcast.156 = f16[768,768]{0,1} bitcast(f16[12,64,768]{1,0,2} %transpose.125)
}

%fused_computation.37 (param_0.381: f16[16,12,512,64]) -> f16[8192,768] {
  %param_0.381 = f16[16,12,512,64]{3,2,1,0} parameter(0)
  %transpose.158 = f16[16,512,12,64]{3,1,2,0} transpose(f16[16,12,512,64]{3,2,1,0} %param_0.381), dimensions={0,2,1,3}, metadata={op_type="Mul" op_name="gradient_tape/model/bert_pretrainer/bert_encoder_1/transformer/layer_0/self_attention/Mul"}
  %copy.69 = f16[16,512,12,64]{3,2,1,0} copy(f16[16,512,12,64]{3,1,2,0} %transpose.158), metadata={op_type="Mul" op_name="gradient_tape/model/bert_pretrainer/bert_encoder_1/transformer/layer_0/self_attention/Mul"}
  ROOT %bitcast.157 = f16[8192,768]{1,0} bitcast(f16[16,512,12,64]{3,2,1,0} %copy.69)
}

%fused_computation.38 (param_0.378: f32[768,12,64]) -> f16[768,768] {
  %param_0.378 = f32[768,12,64]{2,1,0} parameter(0)
  %convert.134 = f16[768,12,64]{2,1,0} convert(f32[768,12,64]{2,1,0} %param_0.378), metadata={op_type="Cast" op_name="model/bert_pretrainer/bert_encoder_1/transformer/layer_0/self_attention/key/einsum/Einsum/Cast"}
  %transpose.126 = f16[12,64,768]{1,0,2} transpose(f16[768,12,64]{2,1,0} %convert.134), dimensions={1,2,0}
  ROOT %bitcast.158 = f16[768,768]{0,1} bitcast(f16[12,64,768]{1,0,2} %transpose.126)
}

%fused_computation.39 (param_0.379: f16[16,12,512,64]) -> f16[8192,768] {
  %param_0.379 = f16[16,12,512,64]{3,2,1,0} parameter(0)
  %transpose.157 = f16[16,512,12,64]{3,1,2,0} transpose(f16[16,12,512,64]{3,2,1,0} %param_0.379), dimensions={0,2,1,3}, metadata={op_type="Einsum" op_name="gradient_tape/model/bert_pretrainer/bert_encoder_1/transformer/layer_0/self_attention/einsum/Einsum"}
  %copy.70 = f16[16,512,12,64]{3,2,1,0} copy(f16[16,512,12,64]{3,1,2,0} %transpose.157), metadata={op_type="Einsum" op_name="gradient_tape/model/bert_pretrainer/bert_encoder_1/transformer/layer_0/self_attention/einsum/Einsum"}
  ROOT %bitcast.159 = f16[8192,768]{1,0} bitcast(f16[16,512,12,64]{3,2,1,0} %copy.70)
}

%fused_computation.40 (param_0.87: f32[12,64]) -> f32[12,64] {
  %param_0.87 = f32[12,64]{1,0} parameter(0)
  %convert.54 = f16[12,64]{1,0} convert(f32[12,64]{1,0} %param_0.87), metadata={op_type="Sum" op_name="gradient_tape/model/bert_pretrainer/bert_encoder_1/transformer/layer_0/self_attention/value/add/Sum"}
  ROOT %convert.53 = f32[12,64]{1,0} convert(f16[12,64]{1,0} %convert.54), metadata={op_type="Cast" op_name="gradient_tape/model/bert_pretrainer/bert_encoder_1/transformer/layer_0/self_attention/value/add/Cast/ArithmeticOptimizer/ReorderCastLikeAndValuePreserving_float_Cast"}
}

%fused_computation.42 (param_0.385: f16[8192,768]) -> f16[16,12,64,512] {
  %param_0.385 = f16[8192,768]{1,0} parameter(0)
  %reshape.237 = f16[16,512,12,64]{3,1,2,0} reshape(f16[8192,768]{1,0} %param_0.385), metadata={op_type="Einsum" op_name="gradient_tape/model/bert_pretrainer/bert_encoder_1/transformer/layer_0/self_attention/attention_output/einsum/Einsum"}
  %transpose.127 = f16[16,12,64,512]{2,3,1,0} transpose(f16[16,512,12,64]{3,1,2,0} %reshape.237), dimensions={0,2,3,1}
  ROOT %copy.71 = f16[16,12,64,512]{3,2,1,0} copy(f16[16,12,64,512]{2,3,1,0} %transpose.127)
}

%fused_computation.43 (param_0.94: f16[768,768]) -> f32[768,12,64] {
  %param_0.94 = f16[768,768]{1,0} parameter(0)
  %convert.56 = f32[768,768]{1,0} convert(f16[768,768]{1,0} %param_0.94), metadata={op_type="Cast" op_name="gradient_tape/model/bert_pretrainer/bert_encoder_1/transformer/layer_0/self_attention/query/einsum/Einsum/Cast/ArithmeticOptimizer/ReorderCastLikeAndValuePreserving_float_Cast"}
  %bitcast.161 = f32[12,64,768]{2,1,0} bitcast(f32[768,768]{1,0} %convert.56), metadata={op_type="Cast" op_name="gradient_tape/model/bert_pretrainer/bert_encoder_1/transformer/layer_0/self_attention/query/einsum/Einsum/Cast/ArithmeticOptimizer/ReorderCastLikeAndValuePreserving_float_Cast"}
  ROOT %transpose.128 = f32[768,12,64]{0,2,1} transpose(f32[12,64,768]{2,1,0} %bitcast.161), dimensions={2,0,1}, metadata={op_type="Cast" op_name="gradient_tape/model/bert_pretrainer/bert_encoder_1/transformer/layer_0/self_attention/query/einsum/Einsum/Cast/ArithmeticOptimizer/ReorderCastLikeAndValuePreserving_float_Cast"}
}

%fused_computation.44 (param_0.97: f16[16,12,512,64]) -> f16[768,8192] {
  %param_0.97 = f16[16,12,512,64]{3,2,1,0} parameter(0)
  %transpose.129 = f16[12,64,16,512]{1,3,0,2} transpose(f16[16,12,512,64]{3,2,1,0} %param_0.97), dimensions={1,3,0,2}
  %copy.72 = f16[12,64,16,512]{3,2,1,0} copy(f16[12,64,16,512]{1,3,0,2} %transpose.129)
  ROOT %bitcast.162 = f16[768,8192]{1,0} bitcast(f16[12,64,16,512]{3,2,1,0} %copy.72)
}

%gradient_tape_model_bert_pretrainer_bert_encoder_1_transformer_layer_0_self_attention_query_add_Sum-reduction.1612 (x.1613: f32[], y.1614: f32[]) -> f32[] {
  %x.1613 = f32[] parameter(0)
  %y.1614 = f32[] parameter(1)
  ROOT %add.1615 = f32[] add(f32[] %x.1613, f32[] %y.1614)
}

%fused_computation.45 (param_0.100: f32[16,12,64]) -> f32[12,64] {
  %param_0.100 = f32[16,12,64]{2,1,0} parameter(0)
  %constant_140 = f32[] constant(0), metadata={op_type="Sum" op_name="model/bert_pretrain_loss_and_metric_layer/Sum_3"}
  %reduce.47 = f32[12,64]{1,0} reduce(f32[16,12,64]{2,1,0} %param_0.100, f32[] %constant_140), dimensions={0}, to_apply=%gradient_tape_model_bert_pretrainer_bert_encoder_1_transformer_layer_0_self_attention_query_add_Sum-reduction.1612, metadata={op_type="Sum" op_name="gradient_tape/model/bert_pretrainer/bert_encoder_1/transformer/layer_0/self_attention/query/add/Sum"}
  %convert.58 = f16[12,64]{1,0} convert(f32[12,64]{1,0} %reduce.47), metadata={op_type="Sum" op_name="gradient_tape/model/bert_pretrainer/bert_encoder_1/transformer/layer_0/self_attention/query/add/Sum"}
  ROOT %convert.57 = f32[12,64]{1,0} convert(f16[12,64]{1,0} %convert.58), metadata={op_type="Cast" op_name="gradient_tape/model/bert_pretrainer/bert_encoder_1/transformer/layer_0/self_attention/query/add/Cast/ArithmeticOptimizer/ReorderCastLikeAndValuePreserving_float_Cast"}
}

%fused_computation.47 (param_0.105: f16[768,768]) -> f32[768,12,64] {
  %param_0.105 = f16[768,768]{1,0} parameter(0)
  %convert.60 = f32[768,768]{1,0} convert(f16[768,768]{1,0} %param_0.105), metadata={op_type="Cast" op_name="gradient_tape/model/bert_pretrainer/bert_encoder_1/transformer/layer_0/self_attention/key/einsum/Einsum/Cast/ArithmeticOptimizer/ReorderCastLikeAndValuePreserving_float_Cast"}
  %bitcast.164 = f32[12,64,768]{2,1,0} bitcast(f32[768,768]{1,0} %convert.60), metadata={op_type="Cast" op_name="gradient_tape/model/bert_pretrainer/bert_encoder_1/transformer/layer_0/self_attention/key/einsum/Einsum/Cast/ArithmeticOptimizer/ReorderCastLikeAndValuePreserving_float_Cast"}
  ROOT %transpose.130 = f32[768,12,64]{0,2,1} transpose(f32[12,64,768]{2,1,0} %bitcast.164), dimensions={2,0,1}, metadata={op_type="Cast" op_name="gradient_tape/model/bert_pretrainer/bert_encoder_1/transformer/layer_0/self_attention/key/einsum/Einsum/Cast/ArithmeticOptimizer/ReorderCastLikeAndValuePreserving_float_Cast"}
}

%fused_computation.48 (param_0.108: f16[16,12,512,64]) -> f16[768,8192] {
  %param_0.108 = f16[16,12,512,64]{3,2,1,0} parameter(0)
  %transpose.131 = f16[12,64,16,512]{1,3,0,2} transpose(f16[16,12,512,64]{3,2,1,0} %param_0.108), dimensions={1,3,0,2}
  %copy.73 = f16[12,64,16,512]{3,2,1,0} copy(f16[12,64,16,512]{1,3,0,2} %transpose.131)
  ROOT %bitcast.165 = f16[768,8192]{1,0} bitcast(f16[12,64,16,512]{3,2,1,0} %copy.73)
}

%gradient_tape_model_bert_pretrainer_bert_encoder_1_transformer_layer_0_self_attention_key_add_Sum-reduction.1582 (x.1583: f32[], y.1584: f32[]) -> f32[] {
  %x.1583 = f32[] parameter(0)
  %y.1584 = f32[] parameter(1)
  ROOT %add.1585 = f32[] add(f32[] %x.1583, f32[] %y.1584)
}

%fused_computation.49 (param_0.111: f32[16,12,64]) -> f32[12,64] {
  %param_0.111 = f32[16,12,64]{2,1,0} parameter(0)
  %constant_141 = f32[] constant(0), metadata={op_type="Sum" op_name="model/bert_pretrain_loss_and_metric_layer/Sum_3"}
  %reduce.48 = f32[12,64]{1,0} reduce(f32[16,12,64]{2,1,0} %param_0.111, f32[] %constant_141), dimensions={0}, to_apply=%gradient_tape_model_bert_pretrainer_bert_encoder_1_transformer_layer_0_self_attention_key_add_Sum-reduction.1582, metadata={op_type="Sum" op_name="gradient_tape/model/bert_pretrainer/bert_encoder_1/transformer/layer_0/self_attention/key/add/Sum"}
  %convert.62 = f16[12,64]{1,0} convert(f32[12,64]{1,0} %reduce.48), metadata={op_type="Sum" op_name="gradient_tape/model/bert_pretrainer/bert_encoder_1/transformer/layer_0/self_attention/key/add/Sum"}
  ROOT %convert.61 = f32[12,64]{1,0} convert(f16[12,64]{1,0} %convert.62), metadata={op_type="Cast" op_name="gradient_tape/model/bert_pretrainer/bert_encoder_1/transformer/layer_0/self_attention/key/add/Cast/ArithmeticOptimizer/ReorderCastLikeAndValuePreserving_float_Cast"}
}

%fused_computation.51 (param_0.500: f16[8192,768], param_1.396: f32[12,64]) -> f16[16,12,512,64] {
  %param_1.396 = f32[12,64]{1,0} parameter(1)
  %convert.174 = f16[12,64]{1,0} convert(f32[12,64]{1,0} %param_1.396), metadata={op_type="Cast" op_name="model/bert_pretrainer/bert_encoder_1/transformer/layer_0/self_attention/query/add/Cast"}
  %broadcast.344 = f16[16,512,12,64]{1,3,2,0} broadcast(f16[12,64]{1,0} %convert.174), dimensions={2,3}, metadata={op_type="AddV2" op_name="model/bert_pretrainer/bert_encoder_1/transformer/layer_0/self_attention/query/add"}
  %param_0.500 = f16[8192,768]{1,0} parameter(0)
  %reshape.244 = f16[16,512,12,64]{1,3,2,0} reshape(f16[8192,768]{1,0} %param_0.500), metadata={op_type="Einsum" op_name="model/bert_pretrainer/bert_encoder_1/transformer/layer_0/self_attention/query/einsum/Einsum"}
  %add.110 = f16[16,512,12,64]{1,3,2,0} add(f16[16,512,12,64]{1,3,2,0} %broadcast.344, f16[16,512,12,64]{1,3,2,0} %reshape.244), metadata={op_type="AddV2" op_name="model/bert_pretrainer/bert_encoder_1/transformer/layer_0/self_attention/query/add"}
  %constant_301 = f16[] constant(0.125), metadata={op_type="Mul" op_name="model/bert_pretrainer/bert_encoder_1/transformer/layer_0/self_attention/Mul"}
  %broadcast.343 = f16[16,512,12,64]{1,3,2,0} broadcast(f16[] %constant_301), dimensions={}, metadata={op_type="Mul" op_name="model/bert_pretrainer/bert_encoder_1/transformer/layer_0/self_attention/Mul"}
  %multiply.158 = f16[16,512,12,64]{1,3,2,0} multiply(f16[16,512,12,64]{1,3,2,0} %add.110, f16[16,512,12,64]{1,3,2,0} %broadcast.343), metadata={op_type="Mul" op_name="model/bert_pretrainer/bert_encoder_1/transformer/layer_0/self_attention/Mul"}
  %transpose.132 = f16[16,12,512,64]{2,3,1,0} transpose(f16[16,512,12,64]{1,3,2,0} %multiply.158), dimensions={0,2,1,3}
  ROOT %copy.74 = f16[16,12,512,64]{3,2,1,0} copy(f16[16,12,512,64]{2,3,1,0} %transpose.132)
}

%fused_computation.52 (param_0.637: f32[16,12,512], param_1.562: f16[16,12,512,512], param_2.410: f32[16,12,512], param_3.309: f16[16,12,512,512], param_4.218: f16[16,12,512,512]) -> f16[16,12,512,512] {
  %param_4.218 = f16[16,12,512,512]{3,2,1,0} parameter(4)
  %copy.117 = f16[16,12,512,512]{2,3,1,0} copy(f16[16,12,512,512]{3,2,1,0} %param_4.218), metadata={op_name="XLA_Args"}
  %constant_502 = f16[] constant(0.099976), metadata={op_type="GreaterEqual" op_name="model/bert_pretrainer/bert_encoder_1/dropout/dropout/GreaterEqual"}
  %broadcast.618 = f16[16,12,512,512]{2,3,1,0} broadcast(f16[] %constant_502), dimensions={}, metadata={op_type="GreaterEqual" op_name="model/bert_pretrainer/bert_encoder_1/transformer/layer_0/self_attention/dropout_3/dropout/GreaterEqual"}
  %compare.79 = pred[16,12,512,512]{2,3,1,0} compare(f16[16,12,512,512]{2,3,1,0} %copy.117, f16[16,12,512,512]{2,3,1,0} %broadcast.618), direction=GE, metadata={op_type="GreaterEqual" op_name="model/bert_pretrainer/bert_encoder_1/transformer/layer_0/self_attention/dropout_3/dropout/GreaterEqual"}
  %param_3.309 = f16[16,12,512,512]{3,2,1,0} parameter(3)
  %copy.116 = f16[16,12,512,512]{2,3,1,0} copy(f16[16,12,512,512]{3,2,1,0} %param_3.309), metadata={op_type="Einsum" op_name="gradient_tape/model/bert_pretrainer/bert_encoder_1/transformer/layer_0/self_attention/einsum_1/Einsum"}
  %constant_501 = f16[] constant(1.1113), metadata={op_type="Mul" op_name="model/bert_pretrainer/bert_encoder_1/dropout/dropout/Mul"}
  %broadcast.617 = f16[16,12,512,512]{2,3,1,0} broadcast(f16[] %constant_501), dimensions={}, metadata={op_type="Mul" op_name="model/bert_pretrainer/bert_encoder_1/transformer/layer_0/self_attention/dropout_3/dropout/Mul"}
  %multiply.209 = f16[16,12,512,512]{2,3,1,0} multiply(f16[16,12,512,512]{2,3,1,0} %copy.116, f16[16,12,512,512]{2,3,1,0} %broadcast.617), metadata={op_type="Mul" op_name="gradient_tape/model/bert_pretrainer/bert_encoder_1/transformer/layer_0/self_attention/dropout_3/dropout/Mul"}
  %constant_500 = f16[] constant(0), metadata={op_type="GreaterEqual" op_name="model/bert_pretrainer/bert_encoder_1/transformer/layer_0/dropout_1/dropout/GreaterEqual"}
  %broadcast.616 = f16[16,12,512,512]{2,3,1,0} broadcast(f16[] %constant_500), dimensions={}
  %select.74 = f16[16,12,512,512]{2,3,1,0} select(pred[16,12,512,512]{2,3,1,0} %compare.79, f16[16,12,512,512]{2,3,1,0} %multiply.209, f16[16,12,512,512]{2,3,1,0} %broadcast.616), metadata={op_type="Mul" op_name="gradient_tape/model/bert_pretrainer/bert_encoder_1/transformer/layer_0/self_attention/dropout_3/dropout/Mul_1"}
  %param_0.637 = f32[16,12,512]{2,1,0} parameter(0)
  %convert.64 = f16[16,12,512]{2,1,0} convert(f32[16,12,512]{2,1,0} %param_0.637), metadata={op_type="Sum" op_name="gradient_tape/model/bert_pretrainer/bert_encoder_1/transformer/layer_0/self_attention/softmax/Sum"}
  %broadcast.116 = f16[16,12,512,512]{2,3,1,0} broadcast(f16[16,12,512]{2,1,0} %convert.64), dimensions={0,1,2}, metadata={op_type="Sub" op_name="gradient_tape/model/bert_pretrainer/bert_encoder_1/transformer/layer_0/self_attention/softmax/sub"}
  %subtract.8 = f16[16,12,512,512]{2,3,1,0} subtract(f16[16,12,512,512]{2,3,1,0} %select.74, f16[16,12,512,512]{2,3,1,0} %broadcast.116), metadata={op_type="Sub" op_name="gradient_tape/model/bert_pretrainer/bert_encoder_1/transformer/layer_0/self_attention/softmax/sub"}
  %param_1.562 = f16[16,12,512,512]{2,3,1,0} parameter(1)
  %param_2.410 = f32[16,12,512]{2,1,0} parameter(2)
  %convert.180 = f16[16,12,512]{2,1,0} convert(f32[16,12,512]{2,1,0} %param_2.410), metadata={op_type="Softmax" op_name="model/bert_pretrainer/bert_encoder_1/transformer/layer_0/self_attention/softmax/Softmax"}
  %broadcast.350 = f16[16,12,512,512]{2,3,1,0} broadcast(f16[16,12,512]{2,1,0} %convert.180), dimensions={0,1,2}, metadata={op_type="Softmax" op_name="model/bert_pretrainer/bert_encoder_1/transformer/layer_0/self_attention/softmax/Softmax"}
  %divide.12 = f16[16,12,512,512]{2,3,1,0} divide(f16[16,12,512,512]{2,3,1,0} %param_1.562, f16[16,12,512,512]{2,3,1,0} %broadcast.350), metadata={op_type="Softmax" op_name="model/bert_pretrainer/bert_encoder_1/transformer/layer_0/self_attention/softmax/Softmax"}
  %multiply.58 = f16[16,12,512,512]{2,3,1,0} multiply(f16[16,12,512,512]{2,3,1,0} %subtract.8, f16[16,12,512,512]{2,3,1,0} %divide.12), metadata={op_type="Mul" op_name="gradient_tape/model/bert_pretrainer/bert_encoder_1/transformer/layer_0/self_attention/softmax/mul_1"}
  ROOT %copy.75 = f16[16,12,512,512]{3,2,1,0} copy(f16[16,12,512,512]{2,3,1,0} %multiply.58), metadata={op_type="Mul" op_name="gradient_tape/model/bert_pretrainer/bert_encoder_1/transformer/layer_0/self_attention/softmax/mul_1"}
}

%fused_computation.53 (param_0.635: f16[16,12,512,512], param_1.560: f32[16,12,512], param_2.409: f16[16,12,512,512], param_3.307: f16[16,12,512,512]) -> f32[16,12,512,512] {
  %param_3.307 = f16[16,12,512,512]{3,2,1,0} parameter(3)
  %copy.113 = f16[16,12,512,512]{2,3,1,0} copy(f16[16,12,512,512]{3,2,1,0} %param_3.307), metadata={op_name="XLA_Args"}
  %constant_494 = f16[] constant(0.099976), metadata={op_type="GreaterEqual" op_name="model/bert_pretrainer/bert_encoder_1/dropout/dropout/GreaterEqual"}
  %broadcast.611 = f16[16,12,512,512]{2,3,1,0} broadcast(f16[] %constant_494), dimensions={}, metadata={op_type="GreaterEqual" op_name="model/bert_pretrainer/bert_encoder_1/transformer/layer_0/self_attention/dropout_3/dropout/GreaterEqual"}
  %compare.77 = pred[16,12,512,512]{2,3,1,0} compare(f16[16,12,512,512]{2,3,1,0} %copy.113, f16[16,12,512,512]{2,3,1,0} %broadcast.611), direction=GE, metadata={op_type="GreaterEqual" op_name="model/bert_pretrainer/bert_encoder_1/transformer/layer_0/self_attention/dropout_3/dropout/GreaterEqual"}
  %param_2.409 = f16[16,12,512,512]{3,2,1,0} parameter(2)
  %copy.112 = f16[16,12,512,512]{2,3,1,0} copy(f16[16,12,512,512]{3,2,1,0} %param_2.409), metadata={op_type="Einsum" op_name="gradient_tape/model/bert_pretrainer/bert_encoder_1/transformer/layer_0/self_attention/einsum_1/Einsum"}
  %constant_493 = f16[] constant(1.1113), metadata={op_type="Mul" op_name="model/bert_pretrainer/bert_encoder_1/dropout/dropout/Mul"}
  %broadcast.610 = f16[16,12,512,512]{2,3,1,0} broadcast(f16[] %constant_493), dimensions={}, metadata={op_type="Mul" op_name="model/bert_pretrainer/bert_encoder_1/transformer/layer_0/self_attention/dropout_3/dropout/Mul"}
  %multiply.207 = f16[16,12,512,512]{2,3,1,0} multiply(f16[16,12,512,512]{2,3,1,0} %copy.112, f16[16,12,512,512]{2,3,1,0} %broadcast.610), metadata={op_type="Mul" op_name="gradient_tape/model/bert_pretrainer/bert_encoder_1/transformer/layer_0/self_attention/dropout_3/dropout/Mul"}
  %constant_491 = f16[] constant(0), metadata={op_type="GreaterEqual" op_name="model/bert_pretrainer/bert_encoder_1/transformer/layer_0/dropout_1/dropout/GreaterEqual"}
  %broadcast.608 = f16[16,12,512,512]{2,3,1,0} broadcast(f16[] %constant_491), dimensions={}
  %select.72 = f16[16,12,512,512]{2,3,1,0} select(pred[16,12,512,512]{2,3,1,0} %compare.77, f16[16,12,512,512]{2,3,1,0} %multiply.207, f16[16,12,512,512]{2,3,1,0} %broadcast.608), metadata={op_type="Mul" op_name="gradient_tape/model/bert_pretrainer/bert_encoder_1/transformer/layer_0/self_attention/dropout_3/dropout/Mul_1"}
  %param_0.635 = f16[16,12,512,512]{2,3,1,0} parameter(0)
  %param_1.560 = f32[16,12,512]{2,1,0} parameter(1)
  %convert.178 = f16[16,12,512]{2,1,0} convert(f32[16,12,512]{2,1,0} %param_1.560), metadata={op_type="Softmax" op_name="model/bert_pretrainer/bert_encoder_1/transformer/layer_0/self_attention/softmax/Softmax"}
  %broadcast.348 = f16[16,12,512,512]{2,3,1,0} broadcast(f16[16,12,512]{2,1,0} %convert.178), dimensions={0,1,2}, metadata={op_type="Softmax" op_name="model/bert_pretrainer/bert_encoder_1/transformer/layer_0/self_attention/softmax/Softmax"}
  %divide.10 = f16[16,12,512,512]{2,3,1,0} divide(f16[16,12,512,512]{2,3,1,0} %param_0.635, f16[16,12,512,512]{2,3,1,0} %broadcast.348), metadata={op_type="Softmax" op_name="model/bert_pretrainer/bert_encoder_1/transformer/layer_0/self_attention/softmax/Softmax"}
  %multiply.59 = f16[16,12,512,512]{2,3,1,0} multiply(f16[16,12,512,512]{2,3,1,0} %select.72, f16[16,12,512,512]{2,3,1,0} %divide.10), metadata={op_type="Mul" op_name="gradient_tape/model/bert_pretrainer/bert_encoder_1/transformer/layer_0/self_attention/softmax/mul"}
  %convert.65 = f32[16,12,512,512]{2,3,1,0} convert(f16[16,12,512,512]{2,3,1,0} %multiply.59), metadata={op_type="Sum" op_name="gradient_tape/model/bert_pretrainer/bert_encoder_1/transformer/layer_0/self_attention/softmax/Sum"}
  ROOT %bitcast.167 = f32[16,12,512,512]{3,2,1,0} bitcast(f32[16,12,512,512]{2,3,1,0} %convert.65), metadata={op_type="Sum" op_name="gradient_tape/model/bert_pretrainer/bert_encoder_1/transformer/layer_0/self_attention/softmax/Sum"}
}

%fused_computation.55 (param_0.516: f16[8192,768], param_1.415: f32[12,64]) -> f16[16,12,64,512] {
  %param_1.415 = f32[12,64]{1,0} parameter(1)
  %convert.184 = f16[12,64]{1,0} convert(f32[12,64]{1,0} %param_1.415), metadata={op_type="Cast" op_name="model/bert_pretrainer/bert_encoder_1/transformer/layer_0/self_attention/value/add/Cast"}
  %broadcast.361 = f16[16,512,12,64]{3,1,2,0} broadcast(f16[12,64]{1,0} %convert.184), dimensions={2,3}, metadata={op_type="AddV2" op_name="model/bert_pretrainer/bert_encoder_1/transformer/layer_0/self_attention/value/add"}
  %param_0.516 = f16[8192,768]{1,0} parameter(0)
  %reshape.248 = f16[16,512,12,64]{3,1,2,0} reshape(f16[8192,768]{1,0} %param_0.516), metadata={op_type="Einsum" op_name="model/bert_pretrainer/bert_encoder_1/transformer/layer_0/self_attention/value/einsum/Einsum"}
  %add.114 = f16[16,512,12,64]{3,1,2,0} add(f16[16,512,12,64]{3,1,2,0} %broadcast.361, f16[16,512,12,64]{3,1,2,0} %reshape.248), metadata={op_type="AddV2" op_name="model/bert_pretrainer/bert_encoder_1/transformer/layer_0/self_attention/value/add"}
  %transpose.133 = f16[16,12,64,512]{2,3,1,0} transpose(f16[16,512,12,64]{3,1,2,0} %add.114), dimensions={0,2,3,1}
  ROOT %copy.77 = f16[16,12,64,512]{3,2,1,0} copy(f16[16,12,64,512]{2,3,1,0} %transpose.133)
}

%fused_computation.56 (param_0.390: f32[12,64,768]) -> f16[768,768] {
  %param_0.390 = f32[12,64,768]{2,1,0} parameter(0)
  %convert.137 = f16[12,64,768]{2,1,0} convert(f32[12,64,768]{2,1,0} %param_0.390), metadata={op_type="Cast" op_name="model/bert_pretrainer/bert_encoder_1/transformer/layer_0/self_attention/attention_output/einsum/Einsum/Cast"}
  %transpose.134 = f16[768,12,64]{0,2,1} transpose(f16[12,64,768]{2,1,0} %convert.137), dimensions={2,0,1}
  ROOT %bitcast.168 = f16[768,768]{0,1} bitcast(f16[768,12,64]{0,2,1} %transpose.134)
}

%fused_computation.57 (param_0.128: f16[8192,768]) -> f32[16,512,768] {
  %param_0.128 = f16[8192,768]{1,0} parameter(0)
  %convert.66 = f32[8192,768]{1,0} convert(f16[8192,768]{1,0} %param_0.128), metadata={op_type="Cast" op_name="gradient_tape/model/bert_pretrainer/bert_encoder_1/transformer/layer_0/Cast_1/Cast"}
  ROOT %bitcast.169 = f32[16,512,768]{2,1,0} bitcast(f32[8192,768]{1,0} %convert.66), metadata={op_type="Cast" op_name="gradient_tape/model/bert_pretrainer/bert_encoder_1/transformer/layer_0/Cast_1/Cast"}
}

%fused_computation.58 (param_0.130: f16[16,512,3072]) -> f16[3072,8192] {
  %param_0.130 = f16[16,512,3072]{2,1,0} parameter(0)
  %transpose.135 = f16[3072,16,512]{0,2,1} transpose(f16[16,512,3072]{2,1,0} %param_0.130), dimensions={2,0,1}
  ROOT %bitcast.170 = f16[3072,8192]{0,1} bitcast(f16[3072,16,512]{0,2,1} %transpose.135)
}

%fused_computation.59 (param_0.132: f32[3072]) -> f32[3072] {
  %param_0.132 = f32[3072]{0} parameter(0)
  %convert.68 = f16[3072]{0} convert(f32[3072]{0} %param_0.132), metadata={op_type="Sum" op_name="gradient_tape/model/bert_pretrainer/bert_encoder_1/transformer/layer_0/intermediate/add/Sum"}
  ROOT %convert.67 = f32[3072]{0} convert(f16[3072]{0} %convert.68), metadata={op_type="Cast" op_name="gradient_tape/model/bert_pretrainer/bert_encoder_1/transformer/layer_0/intermediate/add/Cast/ArithmeticOptimizer/ReorderCastLikeAndValuePreserving_float_Cast"}
}

%gradient_tape_model_bert_pretrainer_bert_encoder_1_transformer_layer_0_intermediate_add_Sum-reduction.1472 (x.1473: f32[], y.1474: f32[]) -> f32[] {
  %x.1473 = f32[] parameter(0)
  %y.1474 = f32[] parameter(1)
  ROOT %add.1475 = f32[] add(f32[] %x.1473, f32[] %y.1474)
}

%fused_computation.60 (param_0.391: f16[16,512,3072]) -> f32[3072] {
  %param_0.391 = f16[16,512,3072]{2,1,0} parameter(0)
  %convert.69 = f32[16,512,3072]{2,1,0} convert(f16[16,512,3072]{2,1,0} %param_0.391), metadata={op_type="Sum" op_name="gradient_tape/model/bert_pretrainer/bert_encoder_1/transformer/layer_0/intermediate/add/Sum"}
  %bitcast.171 = f32[8192,3072]{1,0} bitcast(f32[16,512,3072]{2,1,0} %convert.69)
  %constant_144 = f32[] constant(0), metadata={op_type="Sum" op_name="model/bert_pretrain_loss_and_metric_layer/Sum_3"}
  ROOT %reduce.49 = f32[3072]{0} reduce(f32[8192,3072]{1,0} %bitcast.171, f32[] %constant_144), dimensions={0}, to_apply=%gradient_tape_model_bert_pretrainer_bert_encoder_1_transformer_layer_0_intermediate_add_Sum-reduction.1472, metadata={op_type="Sum" op_name="gradient_tape/model/bert_pretrainer/bert_encoder_1/transformer/layer_0/intermediate/add/Sum"}
}

%fused_computation.61 (param_0.395: f16[16,512,3072], param_1.314: f16[8192,3072], param_2.295: f16[16,512,3072], param_3.211: f16[8192,3072], param_4.119: f32[3072]) -> f16[16,512,3072] {
  %param_4.119 = f32[3072]{0} parameter(4)
  %convert.186 = f16[3072]{0} convert(f32[3072]{0} %param_4.119), metadata={op_type="Cast" op_name="model/bert_pretrainer/bert_encoder_1/transformer/layer_0/intermediate/add/Cast"}
  %broadcast.363 = f16[16,512,3072]{2,1,0} broadcast(f16[3072]{0} %convert.186), dimensions={2}, metadata={op_type="AddV2" op_name="model/bert_pretrainer/bert_encoder_1/transformer/layer_0/intermediate/add"}
  %param_3.211 = f16[8192,3072]{1,0} parameter(3)
  %bitcast.235 = f16[16,512,3072]{2,1,0} bitcast(f16[8192,3072]{1,0} %param_3.211), metadata={op_type="Einsum" op_name="model/bert_pretrainer/bert_encoder_1/transformer/layer_0/intermediate/einsum/Einsum"}
  %add.116 = f16[16,512,3072]{2,1,0} add(f16[16,512,3072]{2,1,0} %broadcast.363, f16[16,512,3072]{2,1,0} %bitcast.235), metadata={op_type="AddV2" op_name="model/bert_pretrainer/bert_encoder_1/transformer/layer_0/intermediate/add"}
  %multiply.136 = f16[16,512,3072]{2,1,0} multiply(f16[16,512,3072]{2,1,0} %add.116, f16[16,512,3072]{2,1,0} %add.116)
  %param_2.295 = f16[16,512,3072]{2,1,0} parameter(2)
  %constant_149 = f16[] constant(0), metadata={op_type="GreaterEqual" op_name="model/bert_pretrainer/bert_encoder_1/transformer/layer_0/dropout_1/dropout/GreaterEqual"}
  %broadcast.212 = f16[16,512,3072]{2,1,0} broadcast(f16[] %constant_149), dimensions={}, metadata={op_type="GreaterEqual" op_name="model/bert_pretrainer/bert_encoder_1/transformer/layer_1/dropout_1/dropout/GreaterEqual"}
  %compare.15 = pred[16,512,3072]{2,1,0} compare(f16[16,512,3072]{2,1,0} %param_2.295, f16[16,512,3072]{2,1,0} %broadcast.212), direction=GE, metadata={op_type="GreaterEqual" op_name="model/bert_pretrainer/bert_encoder_1/transformer/layer_0/dropout_1/dropout/GreaterEqual"}
  %param_1.314 = f16[8192,3072]{1,0} parameter(1)
  %bitcast.172 = f16[16,512,3072]{2,1,0} bitcast(f16[8192,3072]{1,0} %param_1.314), metadata={op_type="Einsum" op_name="gradient_tape/model/bert_pretrainer/bert_encoder_1/transformer/layer_0/output/einsum/Einsum"}
  %select.25 = f16[16,512,3072]{2,1,0} select(pred[16,512,3072]{2,1,0} %compare.15, f16[16,512,3072]{2,1,0} %bitcast.172, f16[16,512,3072]{2,1,0} %broadcast.212), metadata={op_type="Mul" op_name="gradient_tape/model/bert_pretrainer/bert_encoder_1/transformer/layer_0/dropout_1/dropout/Mul"}
  %constant_146 = f16[] constant(0.5), metadata={op_type="Mul" op_name="model/bert_pretrainer/bert_encoder_1/transformer/layer_0/activation/Gelu/mul"}
  %broadcast.209 = f16[16,512,3072]{2,1,0} broadcast(f16[] %constant_146), dimensions={}, metadata={op_type="Mul" op_name="model/bert_pretrainer/bert_encoder_1/transformer/layer_0/activation/Gelu/mul"}
  %multiply.135 = f16[16,512,3072]{2,1,0} multiply(f16[16,512,3072]{2,1,0} %add.116, f16[16,512,3072]{2,1,0} %broadcast.209), metadata={op_type="Mul" op_name="model/bert_pretrainer/bert_encoder_1/transformer/layer_0/activation/Gelu/mul"}
  %multiply.68 = f16[16,512,3072]{2,1,0} multiply(f16[16,512,3072]{2,1,0} %select.25, f16[16,512,3072]{2,1,0} %multiply.135), metadata={op_type="Mul" op_name="gradient_tape/model/bert_pretrainer/bert_encoder_1/transformer/layer_0/activation/Gelu/mul_3/Mul_1"}
  %constant_148 = f16[] constant(1), metadata={op_type="Sub" op_name="model/bert_pretrainer/bert_encoder_1/transformer/layer_1/self_attention/softmax/sub"}
  %broadcast.211 = f16[16,512,3072]{2,1,0} broadcast(f16[] %constant_148), dimensions={}, metadata={op_type="AddV2" op_name="model/bert_pretrainer/bert_encoder_1/transformer/layer_1/activation/Gelu/add_1"}
  %param_0.395 = f16[16,512,3072]{2,1,0} parameter(0)
  %multiply.67 = f16[16,512,3072]{2,1,0} multiply(f16[16,512,3072]{2,1,0} %param_0.395, f16[16,512,3072]{2,1,0} %param_0.395), metadata={op_type="TanhGrad" op_name="gradient_tape/model/bert_pretrainer/bert_encoder_1/transformer/layer_0/activation/Gelu/TanhGrad"}
  %subtract.9 = f16[16,512,3072]{2,1,0} subtract(f16[16,512,3072]{2,1,0} %broadcast.211, f16[16,512,3072]{2,1,0} %multiply.67), metadata={op_type="TanhGrad" op_name="gradient_tape/model/bert_pretrainer/bert_encoder_1/transformer/layer_0/activation/Gelu/TanhGrad"}
  %multiply.66 = f16[16,512,3072]{2,1,0} multiply(f16[16,512,3072]{2,1,0} %multiply.68, f16[16,512,3072]{2,1,0} %subtract.9), metadata={op_type="TanhGrad" op_name="gradient_tape/model/bert_pretrainer/bert_encoder_1/transformer/layer_0/activation/Gelu/TanhGrad"}
  %constant_147 = f16[] constant(0.79785), metadata={op_type="Mul" op_name="model/bert_pretrainer/bert_encoder_1/transformer/layer_0/activation/Gelu/mul_2"}
  %broadcast.210 = f16[16,512,3072]{2,1,0} broadcast(f16[] %constant_147), dimensions={}, metadata={op_type="Mul" op_name="model/bert_pretrainer/bert_encoder_1/transformer/layer_0/activation/Gelu/mul_2"}
  %multiply.65 = f16[16,512,3072]{2,1,0} multiply(f16[16,512,3072]{2,1,0} %multiply.66, f16[16,512,3072]{2,1,0} %broadcast.210), metadata={op_type="Mul" op_name="gradient_tape/model/bert_pretrainer/bert_encoder_1/transformer/layer_0/activation/Gelu/mul_2/Mul"}
  %multiply.64 = f16[16,512,3072]{2,1,0} multiply(f16[16,512,3072]{2,1,0} %multiply.136, f16[16,512,3072]{2,1,0} %multiply.65), metadata={op_type="Mul" op_name="gradient_tape/model/bert_pretrainer/bert_encoder_1/transformer/layer_0/activation/Gelu/Pow/mul"}
  %constant_145 = f16[] constant(0.13416), metadata={op_type="Mul" op_name="gradient_tape/model/bert_pretrainer/cls/predictions/transform/dense/Gelu/Pow/mul_1"}
  %broadcast.208 = f16[16,512,3072]{2,1,0} broadcast(f16[] %constant_145), dimensions={}, metadata={op_type="Mul" op_name="gradient_tape/model/bert_pretrainer/bert_encoder_1/transformer/layer_1/activation/Gelu/Pow/mul_1"}
  %multiply.63 = f16[16,512,3072]{2,1,0} multiply(f16[16,512,3072]{2,1,0} %multiply.64, f16[16,512,3072]{2,1,0} %broadcast.208), metadata={op_type="Mul" op_name="gradient_tape/model/bert_pretrainer/bert_encoder_1/transformer/layer_0/activation/Gelu/Pow/mul_1"}
  %multiply.62 = f16[16,512,3072]{2,1,0} multiply(f16[16,512,3072]{2,1,0} %select.25, f16[16,512,3072]{2,1,0} %broadcast.209), metadata={op_type="Mul" op_name="gradient_tape/model/bert_pretrainer/bert_encoder_1/transformer/layer_0/activation/Gelu/mul_3/Mul"}
  %add.93 = f16[16,512,3072]{2,1,0} add(f16[16,512,3072]{2,1,0} %broadcast.211, f16[16,512,3072]{2,1,0} %param_0.395), metadata={op_type="AddV2" op_name="model/bert_pretrainer/bert_encoder_1/transformer/layer_0/activation/Gelu/add_1"}
  %multiply.61 = f16[16,512,3072]{2,1,0} multiply(f16[16,512,3072]{2,1,0} %multiply.62, f16[16,512,3072]{2,1,0} %add.93), metadata={op_type="Mul" op_name="gradient_tape/model/bert_pretrainer/bert_encoder_1/transformer/layer_0/activation/Gelu/mul/Mul"}
  %add.58 = f16[16,512,3072]{2,1,0} add(f16[16,512,3072]{2,1,0} %multiply.63, f16[16,512,3072]{2,1,0} %multiply.61), metadata={op_type="AddN" op_name="AddN_7"}
  ROOT %add.57 = f16[16,512,3072]{2,1,0} add(f16[16,512,3072]{2,1,0} %add.58, f16[16,512,3072]{2,1,0} %multiply.65), metadata={op_type="AddN" op_name="AddN_7"}
}

%fused_computation.62 (param_0.396: f32[768,12,64]) -> f16[768,768] {
  %param_0.396 = f32[768,12,64]{2,1,0} parameter(0)
  %convert.138 = f16[768,12,64]{2,1,0} convert(f32[768,12,64]{2,1,0} %param_0.396), metadata={op_type="Cast" op_name="model/bert_pretrainer/bert_encoder_1/transformer/layer_1/self_attention/value/einsum/Einsum/Cast"}
  %transpose.136 = f16[12,64,768]{1,0,2} transpose(f16[768,12,64]{2,1,0} %convert.138), dimensions={1,2,0}
  ROOT %bitcast.173 = f16[768,768]{0,1} bitcast(f16[12,64,768]{1,0,2} %transpose.136)
}

%fused_computation.63 (param_0.397: f16[16,12,64,512]) -> f16[8192,768] {
  %param_0.397 = f16[16,12,64,512]{3,2,1,0} parameter(0)
  %transpose.164 = f16[16,512,12,64]{1,3,2,0} transpose(f16[16,12,64,512]{3,2,1,0} %param_0.397), dimensions={0,3,1,2}, metadata={op_type="Einsum" op_name="gradient_tape/model/bert_pretrainer/bert_encoder_1/transformer/layer_1/self_attention/einsum_1/Einsum_1"}
  %copy.78 = f16[16,512,12,64]{3,2,1,0} copy(f16[16,512,12,64]{1,3,2,0} %transpose.164), metadata={op_type="Einsum" op_name="gradient_tape/model/bert_pretrainer/bert_encoder_1/transformer/layer_1/self_attention/einsum_1/Einsum_1"}
  ROOT %bitcast.174 = f16[8192,768]{1,0} bitcast(f16[16,512,12,64]{3,2,1,0} %copy.78)
}

%fused_computation.64 (param_0.398: f32[768,12,64]) -> f16[768,768] {
  %param_0.398 = f32[768,12,64]{2,1,0} parameter(0)
  %convert.139 = f16[768,12,64]{2,1,0} convert(f32[768,12,64]{2,1,0} %param_0.398), metadata={op_type="Cast" op_name="model/bert_pretrainer/bert_encoder_1/transformer/layer_1/self_attention/query/einsum/Einsum/Cast"}
  %transpose.137 = f16[12,64,768]{1,0,2} transpose(f16[768,12,64]{2,1,0} %convert.139), dimensions={1,2,0}
  ROOT %bitcast.175 = f16[768,768]{0,1} bitcast(f16[12,64,768]{1,0,2} %transpose.137)
}

%fused_computation.65 (param_0.399: f16[16,12,512,64]) -> f16[8192,768] {
  %param_0.399 = f16[16,12,512,64]{3,2,1,0} parameter(0)
  %transpose.165 = f16[16,512,12,64]{3,1,2,0} transpose(f16[16,12,512,64]{3,2,1,0} %param_0.399), dimensions={0,2,1,3}, metadata={op_type="Mul" op_name="gradient_tape/model/bert_pretrainer/bert_encoder_1/transformer/layer_1/self_attention/Mul"}
  %copy.79 = f16[16,512,12,64]{3,2,1,0} copy(f16[16,512,12,64]{3,1,2,0} %transpose.165), metadata={op_type="Mul" op_name="gradient_tape/model/bert_pretrainer/bert_encoder_1/transformer/layer_1/self_attention/Mul"}
  ROOT %bitcast.176 = f16[8192,768]{1,0} bitcast(f16[16,512,12,64]{3,2,1,0} %copy.79)
}

%fused_computation.66 (param_0.400: f32[768,12,64]) -> f16[768,768] {
  %param_0.400 = f32[768,12,64]{2,1,0} parameter(0)
  %convert.140 = f16[768,12,64]{2,1,0} convert(f32[768,12,64]{2,1,0} %param_0.400), metadata={op_type="Cast" op_name="model/bert_pretrainer/bert_encoder_1/transformer/layer_1/self_attention/key/einsum/Einsum/Cast"}
  %transpose.138 = f16[12,64,768]{1,0,2} transpose(f16[768,12,64]{2,1,0} %convert.140), dimensions={1,2,0}
  ROOT %bitcast.177 = f16[768,768]{0,1} bitcast(f16[12,64,768]{1,0,2} %transpose.138)
}

%fused_computation.67 (param_0.401: f16[16,12,512,64]) -> f16[8192,768] {
  %param_0.401 = f16[16,12,512,64]{3,2,1,0} parameter(0)
  %transpose.166 = f16[16,512,12,64]{3,1,2,0} transpose(f16[16,12,512,64]{3,2,1,0} %param_0.401), dimensions={0,2,1,3}, metadata={op_type="Einsum" op_name="gradient_tape/model/bert_pretrainer/bert_encoder_1/transformer/layer_1/self_attention/einsum/Einsum"}
  %copy.80 = f16[16,512,12,64]{3,2,1,0} copy(f16[16,512,12,64]{3,1,2,0} %transpose.166), metadata={op_type="Einsum" op_name="gradient_tape/model/bert_pretrainer/bert_encoder_1/transformer/layer_1/self_attention/einsum/Einsum"}
  ROOT %bitcast.178 = f16[8192,768]{1,0} bitcast(f16[16,512,12,64]{3,2,1,0} %copy.80)
}

%fused_computation.68 (param_0.151: f32[12,64]) -> f32[12,64] {
  %param_0.151 = f32[12,64]{1,0} parameter(0)
  %convert.71 = f16[12,64]{1,0} convert(f32[12,64]{1,0} %param_0.151), metadata={op_type="Sum" op_name="gradient_tape/model/bert_pretrainer/bert_encoder_1/transformer/layer_1/self_attention/value/add/Sum"}
  ROOT %convert.70 = f32[12,64]{1,0} convert(f16[12,64]{1,0} %convert.71), metadata={op_type="Cast" op_name="gradient_tape/model/bert_pretrainer/bert_encoder_1/transformer/layer_1/self_attention/value/add/Cast/ArithmeticOptimizer/ReorderCastLikeAndValuePreserving_float_Cast"}
}

%fused_computation.70 (param_0.403: f16[8192,768]) -> f16[16,12,64,512] {
  %param_0.403 = f16[8192,768]{1,0} parameter(0)
  %reshape.239 = f16[16,512,12,64]{3,1,2,0} reshape(f16[8192,768]{1,0} %param_0.403), metadata={op_type="Einsum" op_name="gradient_tape/model/bert_pretrainer/bert_encoder_1/transformer/layer_1/self_attention/attention_output/einsum/Einsum"}
  %transpose.139 = f16[16,12,64,512]{2,3,1,0} transpose(f16[16,512,12,64]{3,1,2,0} %reshape.239), dimensions={0,2,3,1}
  ROOT %copy.81 = f16[16,12,64,512]{3,2,1,0} copy(f16[16,12,64,512]{2,3,1,0} %transpose.139)
}

%fused_computation.71 (param_0.158: f16[768,768]) -> f32[768,12,64] {
  %param_0.158 = f16[768,768]{1,0} parameter(0)
  %convert.73 = f32[768,768]{1,0} convert(f16[768,768]{1,0} %param_0.158), metadata={op_type="Cast" op_name="gradient_tape/model/bert_pretrainer/bert_encoder_1/transformer/layer_1/self_attention/query/einsum/Einsum/Cast/ArithmeticOptimizer/ReorderCastLikeAndValuePreserving_float_Cast"}
  %bitcast.180 = f32[12,64,768]{2,1,0} bitcast(f32[768,768]{1,0} %convert.73), metadata={op_type="Cast" op_name="gradient_tape/model/bert_pretrainer/bert_encoder_1/transformer/layer_1/self_attention/query/einsum/Einsum/Cast/ArithmeticOptimizer/ReorderCastLikeAndValuePreserving_float_Cast"}
  ROOT %transpose.140 = f32[768,12,64]{0,2,1} transpose(f32[12,64,768]{2,1,0} %bitcast.180), dimensions={2,0,1}, metadata={op_type="Cast" op_name="gradient_tape/model/bert_pretrainer/bert_encoder_1/transformer/layer_1/self_attention/query/einsum/Einsum/Cast/ArithmeticOptimizer/ReorderCastLikeAndValuePreserving_float_Cast"}
}

%fused_computation.72 (param_0.161: f16[16,12,512,64]) -> f16[768,8192] {
  %param_0.161 = f16[16,12,512,64]{3,2,1,0} parameter(0)
  %transpose.141 = f16[12,64,16,512]{1,3,0,2} transpose(f16[16,12,512,64]{3,2,1,0} %param_0.161), dimensions={1,3,0,2}
  %copy.82 = f16[12,64,16,512]{3,2,1,0} copy(f16[12,64,16,512]{1,3,0,2} %transpose.141)
  ROOT %bitcast.181 = f16[768,8192]{1,0} bitcast(f16[12,64,16,512]{3,2,1,0} %copy.82)
}

%gradient_tape_model_bert_pretrainer_bert_encoder_1_transformer_layer_1_self_attention_query_add_Sum-reduction.1352 (x.1353: f32[], y.1354: f32[]) -> f32[] {
  %x.1353 = f32[] parameter(0)
  %y.1354 = f32[] parameter(1)
  ROOT %add.1355 = f32[] add(f32[] %x.1353, f32[] %y.1354)
}

%fused_computation.73 (param_0.164: f32[16,12,64]) -> f32[12,64] {
  %param_0.164 = f32[16,12,64]{2,1,0} parameter(0)
  %constant_150 = f32[] constant(0), metadata={op_type="Sum" op_name="model/bert_pretrain_loss_and_metric_layer/Sum_3"}
  %reduce.50 = f32[12,64]{1,0} reduce(f32[16,12,64]{2,1,0} %param_0.164, f32[] %constant_150), dimensions={0}, to_apply=%gradient_tape_model_bert_pretrainer_bert_encoder_1_transformer_layer_1_self_attention_query_add_Sum-reduction.1352, metadata={op_type="Sum" op_name="gradient_tape/model/bert_pretrainer/bert_encoder_1/transformer/layer_1/self_attention/query/add/Sum"}
  %convert.75 = f16[12,64]{1,0} convert(f32[12,64]{1,0} %reduce.50), metadata={op_type="Sum" op_name="gradient_tape/model/bert_pretrainer/bert_encoder_1/transformer/layer_1/self_attention/query/add/Sum"}
  ROOT %convert.74 = f32[12,64]{1,0} convert(f16[12,64]{1,0} %convert.75), metadata={op_type="Cast" op_name="gradient_tape/model/bert_pretrainer/bert_encoder_1/transformer/layer_1/self_attention/query/add/Cast/ArithmeticOptimizer/ReorderCastLikeAndValuePreserving_float_Cast"}
}

%fused_computation.75 (param_0.169: f16[768,768]) -> f32[768,12,64] {
  %param_0.169 = f16[768,768]{1,0} parameter(0)
  %convert.77 = f32[768,768]{1,0} convert(f16[768,768]{1,0} %param_0.169), metadata={op_type="Cast" op_name="gradient_tape/model/bert_pretrainer/bert_encoder_1/transformer/layer_1/self_attention/key/einsum/Einsum/Cast/ArithmeticOptimizer/ReorderCastLikeAndValuePreserving_float_Cast"}
  %bitcast.183 = f32[12,64,768]{2,1,0} bitcast(f32[768,768]{1,0} %convert.77), metadata={op_type="Cast" op_name="gradient_tape/model/bert_pretrainer/bert_encoder_1/transformer/layer_1/self_attention/key/einsum/Einsum/Cast/ArithmeticOptimizer/ReorderCastLikeAndValuePreserving_float_Cast"}
  ROOT %transpose.142 = f32[768,12,64]{0,2,1} transpose(f32[12,64,768]{2,1,0} %bitcast.183), dimensions={2,0,1}, metadata={op_type="Cast" op_name="gradient_tape/model/bert_pretrainer/bert_encoder_1/transformer/layer_1/self_attention/key/einsum/Einsum/Cast/ArithmeticOptimizer/ReorderCastLikeAndValuePreserving_float_Cast"}
}

%fused_computation.76 (param_0.172: f16[16,12,512,64]) -> f16[768,8192] {
  %param_0.172 = f16[16,12,512,64]{3,2,1,0} parameter(0)
  %transpose.143 = f16[12,64,16,512]{1,3,0,2} transpose(f16[16,12,512,64]{3,2,1,0} %param_0.172), dimensions={1,3,0,2}
  %copy.83 = f16[12,64,16,512]{3,2,1,0} copy(f16[12,64,16,512]{1,3,0,2} %transpose.143)
  ROOT %bitcast.184 = f16[768,8192]{1,0} bitcast(f16[12,64,16,512]{3,2,1,0} %copy.83)
}

%gradient_tape_model_bert_pretrainer_bert_encoder_1_transformer_layer_1_self_attention_key_add_Sum-reduction.1322 (x.1323: f32[], y.1324: f32[]) -> f32[] {
  %x.1323 = f32[] parameter(0)
  %y.1324 = f32[] parameter(1)
  ROOT %add.1325 = f32[] add(f32[] %x.1323, f32[] %y.1324)
}

%fused_computation.77 (param_0.175: f32[16,12,64]) -> f32[12,64] {
  %param_0.175 = f32[16,12,64]{2,1,0} parameter(0)
  %constant_151 = f32[] constant(0), metadata={op_type="Sum" op_name="model/bert_pretrain_loss_and_metric_layer/Sum_3"}
  %reduce.51 = f32[12,64]{1,0} reduce(f32[16,12,64]{2,1,0} %param_0.175, f32[] %constant_151), dimensions={0}, to_apply=%gradient_tape_model_bert_pretrainer_bert_encoder_1_transformer_layer_1_self_attention_key_add_Sum-reduction.1322, metadata={op_type="Sum" op_name="gradient_tape/model/bert_pretrainer/bert_encoder_1/transformer/layer_1/self_attention/key/add/Sum"}
  %convert.79 = f16[12,64]{1,0} convert(f32[12,64]{1,0} %reduce.51), metadata={op_type="Sum" op_name="gradient_tape/model/bert_pretrainer/bert_encoder_1/transformer/layer_1/self_attention/key/add/Sum"}
  ROOT %convert.78 = f32[12,64]{1,0} convert(f16[12,64]{1,0} %convert.79), metadata={op_type="Cast" op_name="gradient_tape/model/bert_pretrainer/bert_encoder_1/transformer/layer_1/self_attention/key/add/Cast/ArithmeticOptimizer/ReorderCastLikeAndValuePreserving_float_Cast"}
}

%fused_computation.79 (param_0.529: f16[8192,768], param_1.433: f32[12,64]) -> f16[16,12,512,64] {
  %constant_327 = f16[] constant(0.125), metadata={op_type="Mul" op_name="model/bert_pretrainer/bert_encoder_1/transformer/layer_0/self_attention/Mul"}
  %broadcast.376 = f16[16,512,12,64]{1,3,2,0} broadcast(f16[] %constant_327), dimensions={}, metadata={op_type="Mul" op_name="model/bert_pretrainer/bert_encoder_1/transformer/layer_0/self_attention/Mul"}
  %param_1.433 = f32[12,64]{1,0} parameter(1)
  %convert.195 = f16[12,64]{1,0} convert(f32[12,64]{1,0} %param_1.433), metadata={op_type="Cast" op_name="model/bert_pretrainer/bert_encoder_1/transformer/layer_1/self_attention/query/add/Cast"}
  %broadcast.375 = f16[16,512,12,64]{1,3,2,0} broadcast(f16[12,64]{1,0} %convert.195), dimensions={2,3}, metadata={op_type="AddV2" op_name="model/bert_pretrainer/bert_encoder_1/transformer/layer_1/self_attention/query/add"}
  %param_0.529 = f16[8192,768]{1,0} parameter(0)
  %reshape.255 = f16[16,512,12,64]{1,3,2,0} reshape(f16[8192,768]{1,0} %param_0.529), metadata={op_type="Einsum" op_name="model/bert_pretrainer/bert_encoder_1/transformer/layer_1/self_attention/query/einsum/Einsum"}
  %add.124 = f16[16,512,12,64]{1,3,2,0} add(f16[16,512,12,64]{1,3,2,0} %broadcast.375, f16[16,512,12,64]{1,3,2,0} %reshape.255), metadata={op_type="AddV2" op_name="model/bert_pretrainer/bert_encoder_1/transformer/layer_1/self_attention/query/add"}
  %multiply.162 = f16[16,512,12,64]{1,3,2,0} multiply(f16[16,512,12,64]{1,3,2,0} %broadcast.376, f16[16,512,12,64]{1,3,2,0} %add.124), metadata={op_type="Mul" op_name="model/bert_pretrainer/bert_encoder_1/transformer/layer_1/self_attention/Mul"}
  %transpose.144 = f16[16,12,512,64]{2,3,1,0} transpose(f16[16,512,12,64]{1,3,2,0} %multiply.162), dimensions={0,2,1,3}
  ROOT %copy.84 = f16[16,12,512,64]{3,2,1,0} copy(f16[16,12,512,64]{2,3,1,0} %transpose.144)
}

%fused_computation.80 (param_0.624: f32[16,12,512], param_1.546: f16[16,12,512,512], param_2.407: f32[16,12,512], param_3.302: f16[16,12,512,512], param_4.207: f16[16,12,512,512]) -> f16[16,12,512,512] {
  %param_4.207 = f16[16,12,512,512]{3,2,1,0} parameter(4)
  %copy.109 = f16[16,12,512,512]{2,3,1,0} copy(f16[16,12,512,512]{3,2,1,0} %param_4.207), metadata={op_name="XLA_Args"}
  %constant_480 = f16[] constant(0.099976), metadata={op_type="GreaterEqual" op_name="model/bert_pretrainer/bert_encoder_1/dropout/dropout/GreaterEqual"}
  %broadcast.601 = f16[16,12,512,512]{2,3,1,0} broadcast(f16[] %constant_480), dimensions={}, metadata={op_type="GreaterEqual" op_name="model/bert_pretrainer/bert_encoder_1/transformer/layer_0/self_attention/dropout_3/dropout/GreaterEqual"}
  %compare.75 = pred[16,12,512,512]{2,3,1,0} compare(f16[16,12,512,512]{2,3,1,0} %copy.109, f16[16,12,512,512]{2,3,1,0} %broadcast.601), direction=GE, metadata={op_type="GreaterEqual" op_name="model/bert_pretrainer/bert_encoder_1/transformer/layer_1/self_attention/dropout_3/dropout/GreaterEqual"}
  %param_3.302 = f16[16,12,512,512]{3,2,1,0} parameter(3)
  %copy.108 = f16[16,12,512,512]{2,3,1,0} copy(f16[16,12,512,512]{3,2,1,0} %param_3.302), metadata={op_type="Einsum" op_name="gradient_tape/model/bert_pretrainer/bert_encoder_1/transformer/layer_1/self_attention/einsum_1/Einsum"}
  %constant_479 = f16[] constant(1.1113), metadata={op_type="Mul" op_name="model/bert_pretrainer/bert_encoder_1/dropout/dropout/Mul"}
  %broadcast.600 = f16[16,12,512,512]{2,3,1,0} broadcast(f16[] %constant_479), dimensions={}, metadata={op_type="Mul" op_name="model/bert_pretrainer/bert_encoder_1/transformer/layer_0/self_attention/dropout_3/dropout/Mul"}
  %multiply.205 = f16[16,12,512,512]{2,3,1,0} multiply(f16[16,12,512,512]{2,3,1,0} %copy.108, f16[16,12,512,512]{2,3,1,0} %broadcast.600), metadata={op_type="Mul" op_name="gradient_tape/model/bert_pretrainer/bert_encoder_1/transformer/layer_1/self_attention/dropout_3/dropout/Mul"}
  %constant_478 = f16[] constant(0), metadata={op_type="GreaterEqual" op_name="model/bert_pretrainer/bert_encoder_1/transformer/layer_0/dropout_1/dropout/GreaterEqual"}
  %broadcast.599 = f16[16,12,512,512]{2,3,1,0} broadcast(f16[] %constant_478), dimensions={}
  %select.70 = f16[16,12,512,512]{2,3,1,0} select(pred[16,12,512,512]{2,3,1,0} %compare.75, f16[16,12,512,512]{2,3,1,0} %multiply.205, f16[16,12,512,512]{2,3,1,0} %broadcast.599), metadata={op_type="Mul" op_name="gradient_tape/model/bert_pretrainer/bert_encoder_1/transformer/layer_1/self_attention/dropout_3/dropout/Mul_1"}
  %param_0.624 = f32[16,12,512]{2,1,0} parameter(0)
  %convert.81 = f16[16,12,512]{2,1,0} convert(f32[16,12,512]{2,1,0} %param_0.624), metadata={op_type="Sum" op_name="gradient_tape/model/bert_pretrainer/bert_encoder_1/transformer/layer_1/self_attention/softmax/Sum"}
  %broadcast.117 = f16[16,12,512,512]{2,3,1,0} broadcast(f16[16,12,512]{2,1,0} %convert.81), dimensions={0,1,2}, metadata={op_type="Sub" op_name="gradient_tape/model/bert_pretrainer/bert_encoder_1/transformer/layer_1/self_attention/softmax/sub"}
  %subtract.10 = f16[16,12,512,512]{2,3,1,0} subtract(f16[16,12,512,512]{2,3,1,0} %select.70, f16[16,12,512,512]{2,3,1,0} %broadcast.117), metadata={op_type="Sub" op_name="gradient_tape/model/bert_pretrainer/bert_encoder_1/transformer/layer_1/self_attention/softmax/sub"}
  %param_1.546 = f16[16,12,512,512]{2,3,1,0} parameter(1)
  %param_2.407 = f32[16,12,512]{2,1,0} parameter(2)
  %convert.202 = f16[16,12,512]{2,1,0} convert(f32[16,12,512]{2,1,0} %param_2.407), metadata={op_type="Softmax" op_name="model/bert_pretrainer/bert_encoder_1/transformer/layer_1/self_attention/softmax/Softmax"}
  %broadcast.386 = f16[16,12,512,512]{2,3,1,0} broadcast(f16[16,12,512]{2,1,0} %convert.202), dimensions={0,1,2}, metadata={op_type="Softmax" op_name="model/bert_pretrainer/bert_encoder_1/transformer/layer_1/self_attention/softmax/Softmax"}
  %divide.18 = f16[16,12,512,512]{2,3,1,0} divide(f16[16,12,512,512]{2,3,1,0} %param_1.546, f16[16,12,512,512]{2,3,1,0} %broadcast.386), metadata={op_type="Softmax" op_name="model/bert_pretrainer/bert_encoder_1/transformer/layer_1/self_attention/softmax/Softmax"}
  %multiply.69 = f16[16,12,512,512]{2,3,1,0} multiply(f16[16,12,512,512]{2,3,1,0} %subtract.10, f16[16,12,512,512]{2,3,1,0} %divide.18), metadata={op_type="Mul" op_name="gradient_tape/model/bert_pretrainer/bert_encoder_1/transformer/layer_1/self_attention/softmax/mul_1"}
  ROOT %copy.85 = f16[16,12,512,512]{3,2,1,0} copy(f16[16,12,512,512]{2,3,1,0} %multiply.69), metadata={op_type="Mul" op_name="gradient_tape/model/bert_pretrainer/bert_encoder_1/transformer/layer_1/self_attention/softmax/mul_1"}
}

%fused_computation.81 (param_0.622: f16[16,12,512,512], param_1.544: f32[16,12,512], param_2.406: f16[16,12,512,512], param_3.300: f16[16,12,512,512]) -> f32[16,12,512,512] {
  %param_3.300 = f16[16,12,512,512]{3,2,1,0} parameter(3)
  %copy.105 = f16[16,12,512,512]{2,3,1,0} copy(f16[16,12,512,512]{3,2,1,0} %param_3.300), metadata={op_name="XLA_Args"}
  %constant_473 = f16[] constant(0.099976), metadata={op_type="GreaterEqual" op_name="model/bert_pretrainer/bert_encoder_1/dropout/dropout/GreaterEqual"}
  %broadcast.594 = f16[16,12,512,512]{2,3,1,0} broadcast(f16[] %constant_473), dimensions={}, metadata={op_type="GreaterEqual" op_name="model/bert_pretrainer/bert_encoder_1/transformer/layer_0/self_attention/dropout_3/dropout/GreaterEqual"}
  %compare.73 = pred[16,12,512,512]{2,3,1,0} compare(f16[16,12,512,512]{2,3,1,0} %copy.105, f16[16,12,512,512]{2,3,1,0} %broadcast.594), direction=GE, metadata={op_type="GreaterEqual" op_name="model/bert_pretrainer/bert_encoder_1/transformer/layer_1/self_attention/dropout_3/dropout/GreaterEqual"}
  %param_2.406 = f16[16,12,512,512]{3,2,1,0} parameter(2)
  %copy.104 = f16[16,12,512,512]{2,3,1,0} copy(f16[16,12,512,512]{3,2,1,0} %param_2.406), metadata={op_type="Einsum" op_name="gradient_tape/model/bert_pretrainer/bert_encoder_1/transformer/layer_1/self_attention/einsum_1/Einsum"}
  %constant_472 = f16[] constant(1.1113), metadata={op_type="Mul" op_name="model/bert_pretrainer/bert_encoder_1/dropout/dropout/Mul"}
  %broadcast.593 = f16[16,12,512,512]{2,3,1,0} broadcast(f16[] %constant_472), dimensions={}, metadata={op_type="Mul" op_name="model/bert_pretrainer/bert_encoder_1/transformer/layer_0/self_attention/dropout_3/dropout/Mul"}
  %multiply.203 = f16[16,12,512,512]{2,3,1,0} multiply(f16[16,12,512,512]{2,3,1,0} %copy.104, f16[16,12,512,512]{2,3,1,0} %broadcast.593), metadata={op_type="Mul" op_name="gradient_tape/model/bert_pretrainer/bert_encoder_1/transformer/layer_1/self_attention/dropout_3/dropout/Mul"}
  %constant_471 = f16[] constant(0), metadata={op_type="GreaterEqual" op_name="model/bert_pretrainer/bert_encoder_1/transformer/layer_0/dropout_1/dropout/GreaterEqual"}
  %broadcast.592 = f16[16,12,512,512]{2,3,1,0} broadcast(f16[] %constant_471), dimensions={}
  %select.68 = f16[16,12,512,512]{2,3,1,0} select(pred[16,12,512,512]{2,3,1,0} %compare.73, f16[16,12,512,512]{2,3,1,0} %multiply.203, f16[16,12,512,512]{2,3,1,0} %broadcast.592), metadata={op_type="Mul" op_name="gradient_tape/model/bert_pretrainer/bert_encoder_1/transformer/layer_1/self_attention/dropout_3/dropout/Mul_1"}
  %param_0.622 = f16[16,12,512,512]{2,3,1,0} parameter(0)
  %param_1.544 = f32[16,12,512]{2,1,0} parameter(1)
  %convert.200 = f16[16,12,512]{2,1,0} convert(f32[16,12,512]{2,1,0} %param_1.544), metadata={op_type="Softmax" op_name="model/bert_pretrainer/bert_encoder_1/transformer/layer_1/self_attention/softmax/Softmax"}
  %broadcast.383 = f16[16,12,512,512]{2,3,1,0} broadcast(f16[16,12,512]{2,1,0} %convert.200), dimensions={0,1,2}, metadata={op_type="Softmax" op_name="model/bert_pretrainer/bert_encoder_1/transformer/layer_1/self_attention/softmax/Softmax"}
  %divide.16 = f16[16,12,512,512]{2,3,1,0} divide(f16[16,12,512,512]{2,3,1,0} %param_0.622, f16[16,12,512,512]{2,3,1,0} %broadcast.383), metadata={op_type="Softmax" op_name="model/bert_pretrainer/bert_encoder_1/transformer/layer_1/self_attention/softmax/Softmax"}
  %multiply.70 = f16[16,12,512,512]{2,3,1,0} multiply(f16[16,12,512,512]{2,3,1,0} %select.68, f16[16,12,512,512]{2,3,1,0} %divide.16), metadata={op_type="Mul" op_name="gradient_tape/model/bert_pretrainer/bert_encoder_1/transformer/layer_1/self_attention/softmax/mul"}
  %convert.82 = f32[16,12,512,512]{2,3,1,0} convert(f16[16,12,512,512]{2,3,1,0} %multiply.70), metadata={op_type="Sum" op_name="gradient_tape/model/bert_pretrainer/bert_encoder_1/transformer/layer_1/self_attention/softmax/Sum"}
  ROOT %bitcast.186 = f32[16,12,512,512]{3,2,1,0} bitcast(f32[16,12,512,512]{2,3,1,0} %convert.82), metadata={op_type="Sum" op_name="gradient_tape/model/bert_pretrainer/bert_encoder_1/transformer/layer_1/self_attention/softmax/Sum"}
}

%fused_computation.83 (param_0.545: f16[8192,768], param_1.452: f32[12,64]) -> f16[16,12,64,512] {
  %param_1.452 = f32[12,64]{1,0} parameter(1)
  %convert.212 = f16[12,64]{1,0} convert(f32[12,64]{1,0} %param_1.452), metadata={op_type="Cast" op_name="model/bert_pretrainer/bert_encoder_1/transformer/layer_1/self_attention/value/add/Cast"}
  %broadcast.395 = f16[16,512,12,64]{3,1,2,0} broadcast(f16[12,64]{1,0} %convert.212), dimensions={2,3}, metadata={op_type="AddV2" op_name="model/bert_pretrainer/bert_encoder_1/transformer/layer_1/self_attention/value/add"}
  %param_0.545 = f16[8192,768]{1,0} parameter(0)
  %reshape.259 = f16[16,512,12,64]{3,1,2,0} reshape(f16[8192,768]{1,0} %param_0.545), metadata={op_type="Einsum" op_name="model/bert_pretrainer/bert_encoder_1/transformer/layer_1/self_attention/value/einsum/Einsum"}
  %add.128 = f16[16,512,12,64]{3,1,2,0} add(f16[16,512,12,64]{3,1,2,0} %broadcast.395, f16[16,512,12,64]{3,1,2,0} %reshape.259), metadata={op_type="AddV2" op_name="model/bert_pretrainer/bert_encoder_1/transformer/layer_1/self_attention/value/add"}
  %transpose.145 = f16[16,12,64,512]{2,3,1,0} transpose(f16[16,512,12,64]{3,1,2,0} %add.128), dimensions={0,2,3,1}
  ROOT %copy.87 = f16[16,12,64,512]{3,2,1,0} copy(f16[16,12,64,512]{2,3,1,0} %transpose.145)
}

%fused_computation.84 (param_0.408: f32[12,64,768]) -> f16[768,768] {
  %param_0.408 = f32[12,64,768]{2,1,0} parameter(0)
  %convert.141 = f16[12,64,768]{2,1,0} convert(f32[12,64,768]{2,1,0} %param_0.408), metadata={op_type="Cast" op_name="model/bert_pretrainer/bert_encoder_1/transformer/layer_1/self_attention/attention_output/einsum/Einsum/Cast"}
  %transpose.146 = f16[768,12,64]{0,2,1} transpose(f16[12,64,768]{2,1,0} %convert.141), dimensions={2,0,1}
  ROOT %bitcast.187 = f16[768,768]{0,1} bitcast(f16[768,12,64]{0,2,1} %transpose.146)
}

%fused_computation.85 (param_0.192: f16[8192,768]) -> f32[16,512,768] {
  %param_0.192 = f16[8192,768]{1,0} parameter(0)
  %convert.83 = f32[8192,768]{1,0} convert(f16[8192,768]{1,0} %param_0.192), metadata={op_type="Cast" op_name="gradient_tape/model/bert_pretrainer/bert_encoder_1/transformer/layer_1/Cast_1/Cast"}
  ROOT %bitcast.188 = f32[16,512,768]{2,1,0} bitcast(f32[8192,768]{1,0} %convert.83), metadata={op_type="Cast" op_name="gradient_tape/model/bert_pretrainer/bert_encoder_1/transformer/layer_1/Cast_1/Cast"}
}

%fused_computation.88 (param_0.198: f16[16,512,3072]) -> f16[3072,8192] {
  %param_0.198 = f16[16,512,3072]{2,1,0} parameter(0)
  %transpose.147 = f16[3072,16,512]{0,2,1} transpose(f16[16,512,3072]{2,1,0} %param_0.198), dimensions={2,0,1}
  ROOT %bitcast.189 = f16[3072,8192]{0,1} bitcast(f16[3072,16,512]{0,2,1} %transpose.147)
}

%fused_computation.89 (param_0.200: f32[3072]) -> f32[3072] {
  %param_0.200 = f32[3072]{0} parameter(0)
  %convert.85 = f16[3072]{0} convert(f32[3072]{0} %param_0.200), metadata={op_type="Sum" op_name="gradient_tape/model/bert_pretrainer/bert_encoder_1/transformer/layer_1/intermediate/add/Sum"}
  ROOT %convert.84 = f32[3072]{0} convert(f16[3072]{0} %convert.85), metadata={op_type="Cast" op_name="gradient_tape/model/bert_pretrainer/bert_encoder_1/transformer/layer_1/intermediate/add/Cast/ArithmeticOptimizer/ReorderCastLikeAndValuePreserving_float_Cast"}
}

%gradient_tape_model_bert_pretrainer_bert_encoder_1_transformer_layer_1_intermediate_add_Sum-reduction.1212 (x.1213: f32[], y.1214: f32[]) -> f32[] {
  %x.1213 = f32[] parameter(0)
  %y.1214 = f32[] parameter(1)
  ROOT %add.1215 = f32[] add(f32[] %x.1213, f32[] %y.1214)
}

%fused_computation.90 (param_0.410: f16[16,512,3072]) -> f32[3072] {
  %param_0.410 = f16[16,512,3072]{2,1,0} parameter(0)
  %convert.86 = f32[16,512,3072]{2,1,0} convert(f16[16,512,3072]{2,1,0} %param_0.410), metadata={op_type="Sum" op_name="gradient_tape/model/bert_pretrainer/bert_encoder_1/transformer/layer_1/intermediate/add/Sum"}
  %bitcast.190 = f32[8192,3072]{1,0} bitcast(f32[16,512,3072]{2,1,0} %convert.86)
  %constant_160 = f32[] constant(0), metadata={op_type="Sum" op_name="model/bert_pretrain_loss_and_metric_layer/Sum_3"}
  ROOT %reduce.52 = f32[3072]{0} reduce(f32[8192,3072]{1,0} %bitcast.190, f32[] %constant_160), dimensions={0}, to_apply=%gradient_tape_model_bert_pretrainer_bert_encoder_1_transformer_layer_1_intermediate_add_Sum-reduction.1212, metadata={op_type="Sum" op_name="gradient_tape/model/bert_pretrainer/bert_encoder_1/transformer/layer_1/intermediate/add/Sum"}
}

%fused_computation.91 (param_0.414: f16[16,512,3072], param_1.326: f16[8192,3072], param_2.319: f16[16,512,3072], param_3.222: f16[8192,3072], param_4.123: f32[3072]) -> f16[16,512,3072] {
  %constant_161 = f16[] constant(0.13416), metadata={op_type="Mul" op_name="gradient_tape/model/bert_pretrainer/cls/predictions/transform/dense/Gelu/Pow/mul_1"}
  %broadcast.222 = f16[16,512,3072]{2,1,0} broadcast(f16[] %constant_161), dimensions={}, metadata={op_type="Mul" op_name="gradient_tape/model/bert_pretrainer/bert_encoder_1/transformer/layer_1/activation/Gelu/Pow/mul_1"}
  %param_4.123 = f32[3072]{0} parameter(4)
  %convert.214 = f16[3072]{0} convert(f32[3072]{0} %param_4.123), metadata={op_type="Cast" op_name="model/bert_pretrainer/bert_encoder_1/transformer/layer_1/intermediate/add/Cast"}
  %broadcast.397 = f16[16,512,3072]{2,1,0} broadcast(f16[3072]{0} %convert.214), dimensions={2}, metadata={op_type="AddV2" op_name="model/bert_pretrainer/bert_encoder_1/transformer/layer_1/intermediate/add"}
  %param_3.222 = f16[8192,3072]{1,0} parameter(3)
  %bitcast.241 = f16[16,512,3072]{2,1,0} bitcast(f16[8192,3072]{1,0} %param_3.222), metadata={op_type="Einsum" op_name="model/bert_pretrainer/bert_encoder_1/transformer/layer_1/intermediate/einsum/Einsum"}
  %add.130 = f16[16,512,3072]{2,1,0} add(f16[16,512,3072]{2,1,0} %broadcast.397, f16[16,512,3072]{2,1,0} %bitcast.241), metadata={op_type="AddV2" op_name="model/bert_pretrainer/bert_encoder_1/transformer/layer_1/intermediate/add"}
  %multiply.138 = f16[16,512,3072]{2,1,0} multiply(f16[16,512,3072]{2,1,0} %add.130, f16[16,512,3072]{2,1,0} %add.130)
  %param_2.319 = f16[16,512,3072]{2,1,0} parameter(2)
  %constant_165 = f16[] constant(0), metadata={op_type="GreaterEqual" op_name="model/bert_pretrainer/bert_encoder_1/transformer/layer_0/dropout_1/dropout/GreaterEqual"}
  %broadcast.228 = f16[16,512,3072]{2,1,0} broadcast(f16[] %constant_165), dimensions={}, metadata={op_type="GreaterEqual" op_name="model/bert_pretrainer/bert_encoder_1/transformer/layer_1/dropout_1/dropout/GreaterEqual"}
  %compare.16 = pred[16,512,3072]{2,1,0} compare(f16[16,512,3072]{2,1,0} %param_2.319, f16[16,512,3072]{2,1,0} %broadcast.228), direction=GE, metadata={op_type="GreaterEqual" op_name="model/bert_pretrainer/bert_encoder_1/transformer/layer_1/dropout_1/dropout/GreaterEqual"}
  %param_1.326 = f16[8192,3072]{1,0} parameter(1)
  %bitcast.191 = f16[16,512,3072]{2,1,0} bitcast(f16[8192,3072]{1,0} %param_1.326), metadata={op_type="Einsum" op_name="gradient_tape/model/bert_pretrainer/bert_encoder_1/transformer/layer_1/output/einsum/Einsum"}
  %select.27 = f16[16,512,3072]{2,1,0} select(pred[16,512,3072]{2,1,0} %compare.16, f16[16,512,3072]{2,1,0} %bitcast.191, f16[16,512,3072]{2,1,0} %broadcast.228), metadata={op_type="Mul" op_name="gradient_tape/model/bert_pretrainer/bert_encoder_1/transformer/layer_1/dropout_1/dropout/Mul"}
  %constant_162 = f16[] constant(0.5), metadata={op_type="Mul" op_name="model/bert_pretrainer/bert_encoder_1/transformer/layer_0/activation/Gelu/mul"}
  %broadcast.223 = f16[16,512,3072]{2,1,0} broadcast(f16[] %constant_162), dimensions={}, metadata={op_type="Mul" op_name="model/bert_pretrainer/bert_encoder_1/transformer/layer_0/activation/Gelu/mul"}
  %multiply.137 = f16[16,512,3072]{2,1,0} multiply(f16[16,512,3072]{2,1,0} %add.130, f16[16,512,3072]{2,1,0} %broadcast.223), metadata={op_type="Mul" op_name="model/bert_pretrainer/bert_encoder_1/transformer/layer_1/activation/Gelu/mul"}
  %multiply.83 = f16[16,512,3072]{2,1,0} multiply(f16[16,512,3072]{2,1,0} %select.27, f16[16,512,3072]{2,1,0} %multiply.137), metadata={op_type="Mul" op_name="gradient_tape/model/bert_pretrainer/bert_encoder_1/transformer/layer_1/activation/Gelu/mul_3/Mul_1"}
  %constant_164 = f16[] constant(1), metadata={op_type="Sub" op_name="model/bert_pretrainer/bert_encoder_1/transformer/layer_1/self_attention/softmax/sub"}
  %broadcast.227 = f16[16,512,3072]{2,1,0} broadcast(f16[] %constant_164), dimensions={}, metadata={op_type="AddV2" op_name="model/bert_pretrainer/bert_encoder_1/transformer/layer_1/activation/Gelu/add_1"}
  %param_0.414 = f16[16,512,3072]{2,1,0} parameter(0)
  %multiply.82 = f16[16,512,3072]{2,1,0} multiply(f16[16,512,3072]{2,1,0} %param_0.414, f16[16,512,3072]{2,1,0} %param_0.414), metadata={op_type="TanhGrad" op_name="gradient_tape/model/bert_pretrainer/bert_encoder_1/transformer/layer_1/activation/Gelu/TanhGrad"}
  %subtract.11 = f16[16,512,3072]{2,1,0} subtract(f16[16,512,3072]{2,1,0} %broadcast.227, f16[16,512,3072]{2,1,0} %multiply.82), metadata={op_type="TanhGrad" op_name="gradient_tape/model/bert_pretrainer/bert_encoder_1/transformer/layer_1/activation/Gelu/TanhGrad"}
  %multiply.81 = f16[16,512,3072]{2,1,0} multiply(f16[16,512,3072]{2,1,0} %multiply.83, f16[16,512,3072]{2,1,0} %subtract.11), metadata={op_type="TanhGrad" op_name="gradient_tape/model/bert_pretrainer/bert_encoder_1/transformer/layer_1/activation/Gelu/TanhGrad"}
  %constant_163 = f16[] constant(0.79785), metadata={op_type="Mul" op_name="model/bert_pretrainer/bert_encoder_1/transformer/layer_0/activation/Gelu/mul_2"}
  %broadcast.225 = f16[16,512,3072]{2,1,0} broadcast(f16[] %constant_163), dimensions={}, metadata={op_type="Mul" op_name="model/bert_pretrainer/bert_encoder_1/transformer/layer_0/activation/Gelu/mul_2"}
  %multiply.80 = f16[16,512,3072]{2,1,0} multiply(f16[16,512,3072]{2,1,0} %multiply.81, f16[16,512,3072]{2,1,0} %broadcast.225), metadata={op_type="Mul" op_name="gradient_tape/model/bert_pretrainer/bert_encoder_1/transformer/layer_1/activation/Gelu/mul_2/Mul"}
  %multiply.79 = f16[16,512,3072]{2,1,0} multiply(f16[16,512,3072]{2,1,0} %multiply.138, f16[16,512,3072]{2,1,0} %multiply.80), metadata={op_type="Mul" op_name="gradient_tape/model/bert_pretrainer/bert_encoder_1/transformer/layer_1/activation/Gelu/Pow/mul"}
  %multiply.78 = f16[16,512,3072]{2,1,0} multiply(f16[16,512,3072]{2,1,0} %broadcast.222, f16[16,512,3072]{2,1,0} %multiply.79), metadata={op_type="Mul" op_name="gradient_tape/model/bert_pretrainer/bert_encoder_1/transformer/layer_1/activation/Gelu/Pow/mul_1"}
  %multiply.77 = f16[16,512,3072]{2,1,0} multiply(f16[16,512,3072]{2,1,0} %select.27, f16[16,512,3072]{2,1,0} %broadcast.223), metadata={op_type="Mul" op_name="gradient_tape/model/bert_pretrainer/bert_encoder_1/transformer/layer_1/activation/Gelu/mul_3/Mul"}
  %add.94 = f16[16,512,3072]{2,1,0} add(f16[16,512,3072]{2,1,0} %broadcast.227, f16[16,512,3072]{2,1,0} %param_0.414), metadata={op_type="AddV2" op_name="model/bert_pretrainer/bert_encoder_1/transformer/layer_1/activation/Gelu/add_1"}
  %multiply.76 = f16[16,512,3072]{2,1,0} multiply(f16[16,512,3072]{2,1,0} %multiply.77, f16[16,512,3072]{2,1,0} %add.94), metadata={op_type="Mul" op_name="gradient_tape/model/bert_pretrainer/bert_encoder_1/transformer/layer_1/activation/Gelu/mul/Mul"}
  %add.63 = f16[16,512,3072]{2,1,0} add(f16[16,512,3072]{2,1,0} %multiply.78, f16[16,512,3072]{2,1,0} %multiply.76), metadata={op_type="AddN" op_name="AddN_4"}
  ROOT %add.62 = f16[16,512,3072]{2,1,0} add(f16[16,512,3072]{2,1,0} %add.63, f16[16,512,3072]{2,1,0} %multiply.80), metadata={op_type="AddN" op_name="AddN_4"}
}

%fused_computation.92 (param_0.415: f16[16,768]) -> f32[16,512,768] {
  %param_0.415 = f16[16,768]{1,0} parameter(0)
  %convert.87 = f32[16,768]{1,0} convert(f16[16,768]{1,0} %param_0.415), metadata={op_type="Cast" op_name="gradient_tape/model/bert_pretrainer/bert_encoder_1/Cast_3/Cast"}
  %bitcast.192 = f32[16,1,768]{2,1,0} bitcast(f32[16,768]{1,0} %convert.87), metadata={op_type="StridedSliceGrad" op_name="gradient_tape/model/bert_pretrainer/bert_encoder_1/tf.__operators__.getitem/strided_slice/StridedSliceGrad"}
  %constant_166 = f32[] constant(0), metadata={op_type="Sum" op_name="model/bert_pretrain_loss_and_metric_layer/Sum_3"}
  ROOT %pad.16 = f32[16,512,768]{2,1,0} pad(f32[16,1,768]{2,1,0} %bitcast.192, f32[] %constant_166), padding=0_0x0_511x0_0, metadata={op_type="StridedSliceGrad" op_name="gradient_tape/model/bert_pretrainer/bert_encoder_1/tf.__operators__.getitem/strided_slice/StridedSliceGrad"}
}

%scatter-combiner.1131 (p0.1132: f16[], p1.1133: f16[]) -> f16[] {
  %p0.1132 = f16[] parameter(0)
  %p1.1133 = f16[] parameter(1)
  ROOT %add.1134 = f16[] add(f16[] %p0.1132, f16[] %p1.1133)
}

%fused_computation.93 (param_0.568: f16[1216,768], param_1.486: s32[16,76], param_2.341: s32[16]) -> f16[8192,768] {
  %constant_167 = f16[] constant(0), metadata={op_type="GreaterEqual" op_name="model/bert_pretrainer/bert_encoder_1/transformer/layer_0/dropout_1/dropout/GreaterEqual"}
  %broadcast.118 = f16[8192,768]{1,0} broadcast(f16[] %constant_167), dimensions={}, metadata={op_type="UnsortedSegmentSum" op_name="gradient_tape/model/bert_pretrainer/cls/predictions/UnsortedSegmentSum"}
  %param_1.486 = s32[16,76]{1,0} parameter(1)
  %param_2.341 = s32[16]{0} parameter(2)
  %broadcast.424 = s32[16,76]{1,0} broadcast(s32[16]{0} %param_2.341), dimensions={0}, metadata={op_type="AddV2" op_name="model/bert_pretrainer/cls/predictions/add"}
  %add.148 = s32[16,76]{1,0} add(s32[16,76]{1,0} %param_1.486, s32[16,76]{1,0} %broadcast.424), metadata={op_type="AddV2" op_name="model/bert_pretrainer/cls/predictions/add"}
  %bitcast.249 = s32[1216]{0} bitcast(s32[16,76]{1,0} %add.148), metadata={op_type="Reshape" op_name="model/bert_pretrainer/cls/predictions/Reshape_1"}
  %param_0.568 = f16[1216,768]{1,0} parameter(0)
  ROOT %scatter.1 = f16[8192,768]{1,0} scatter(f16[8192,768]{1,0} %broadcast.118, s32[1216]{0} %bitcast.249, f16[1216,768]{1,0} %param_0.568), update_window_dims={1}, inserted_window_dims={0}, scatter_dims_to_operand_dims={0}, index_vector_dim=1, to_apply=%scatter-combiner.1131, metadata={op_type="UnsortedSegmentSum" op_name="gradient_tape/model/bert_pretrainer/cls/predictions/UnsortedSegmentSum"}
}

%gradient_tape_model_bert_pretrainer_cls_predictions_transform_LayerNorm_batchnorm_mul_2_Sum-reduction.1041 (x.1042: f32[], y.1043: f32[]) -> f32[] {
  %x.1042 = f32[] parameter(0)
  %y.1043 = f32[] parameter(1)
  ROOT %add.1044 = f32[] add(f32[] %x.1042, f32[] %y.1043)
}

%gradient_tape_model_bert_pretrainer_cls_predictions_transform_LayerNorm_batchnorm_mul_Sum-reduction.1063 (x.1064: f32[], y.1065: f32[]) -> f32[] {
  %x.1064 = f32[] parameter(0)
  %y.1065 = f32[] parameter(1)
  ROOT %add.1066 = f32[] add(f32[] %x.1064, f32[] %y.1065)
}

%fused_computation.95 (param_0.614: f32[768], param_1.535: f32[1216], param_2.393: f16[1216,768], param_3.329: f32[1216], param_4.241: f16[1216,768]) -> (f32[1216], f32[1216]) {
  %param_2.393 = f16[1216,768]{1,0} parameter(2)
  %convert.328 = f32[1216,768]{1,0} convert(f16[1216,768]{1,0} %param_2.393), metadata={op_type="Cast" op_name="gradient_tape/model/bert_pretrainer/cls/predictions/transform/LayerNorm/Cast_1/Cast"}
  %negate.14 = f32[1216,768]{1,0} negate(f32[1216,768]{1,0} %convert.328), metadata={op_type="Neg" op_name="gradient_tape/model/bert_pretrainer/cls/predictions/transform/LayerNorm/batchnorm/sub/Neg"}
  %constant_414 = f32[] constant(1e-12), metadata={op_type="AddV2" op_name="model/bert_pretrainer/cls/predictions/transform/LayerNorm/batchnorm/add"}
  %broadcast.508 = f32[1216]{0} broadcast(f32[] %constant_414), dimensions={}, metadata={op_type="AddV2" op_name="model/bert_pretrainer/cls/predictions/transform/LayerNorm/batchnorm/add"}
  %param_1.535 = f32[1216]{0} parameter(1)
  %constant_413 = f32[] constant(0.00130208337), metadata={op_type="Mul" op_name="gradient_tape/model/bert_pretrainer/cls/predictions/transform/LayerNorm/moments/truediv_1"}
  %broadcast.507 = f32[1216]{0} broadcast(f32[] %constant_413), dimensions={}
  %multiply.180 = f32[1216]{0} multiply(f32[1216]{0} %param_1.535, f32[1216]{0} %broadcast.507), metadata={op_type="Mean" op_name="model/bert_pretrainer/cls/predictions/transform/LayerNorm/moments/variance"}
  %add.160 = f32[1216]{0} add(f32[1216]{0} %broadcast.508, f32[1216]{0} %multiply.180), metadata={op_type="AddV2" op_name="model/bert_pretrainer/cls/predictions/transform/LayerNorm/batchnorm/add"}
  %rsqrt.14 = f32[1216]{0} rsqrt(f32[1216]{0} %add.160), metadata={op_type="Rsqrt" op_name="model/bert_pretrainer/cls/predictions/transform/LayerNorm/batchnorm/Rsqrt"}
  %broadcast.238 = f32[1216,768]{1,0} broadcast(f32[1216]{0} %rsqrt.14), dimensions={0}, metadata={op_type="Mul" op_name="model/bert_pretrainer/cls/predictions/transform/LayerNorm/batchnorm/mul"}
  %param_0.614 = f32[768]{0} parameter(0)
  %broadcast.237 = f32[1216,768]{1,0} broadcast(f32[768]{0} %param_0.614), dimensions={1}, metadata={op_type="Mul" op_name="model/bert_pretrainer/cls/predictions/transform/LayerNorm/batchnorm/mul"}
  %multiply.142 = f32[1216,768]{1,0} multiply(f32[1216,768]{1,0} %broadcast.238, f32[1216,768]{1,0} %broadcast.237), metadata={op_type="Mul" op_name="model/bert_pretrainer/cls/predictions/transform/LayerNorm/batchnorm/mul"}
  %multiply.101 = f32[1216,768]{1,0} multiply(f32[1216,768]{1,0} %negate.14, f32[1216,768]{1,0} %multiply.142), metadata={op_type="Mul" op_name="gradient_tape/model/bert_pretrainer/cls/predictions/transform/LayerNorm/batchnorm/mul_2/Mul"}
  %constant_174 = f32[] constant(0), metadata={op_type="Sum" op_name="model/bert_pretrain_loss_and_metric_layer/Sum_3"}
  %reduce.53 = f32[1216]{0} reduce(f32[1216,768]{1,0} %multiply.101, f32[] %constant_174), dimensions={1}, to_apply=%gradient_tape_model_bert_pretrainer_cls_predictions_transform_LayerNorm_batchnorm_mul_2_Sum-reduction.1041, metadata={op_type="Sum" op_name="gradient_tape/model/bert_pretrainer/cls/predictions/transform/LayerNorm/batchnorm/mul_2/Sum"}
  %param_4.241 = f16[1216,768]{1,0} parameter(4)
  %convert.348.clone.1 = f32[1216,768]{1,0} convert(f16[1216,768]{1,0} %param_4.241), metadata={op_type="Cast" op_name="model/bert_pretrainer/cls/predictions/transform/LayerNorm/Cast"}
  %multiply.194.clone.1 = f32[1216,768]{1,0} multiply(f32[1216,768]{1,0} %convert.328, f32[1216,768]{1,0} %convert.348.clone.1), metadata={op_type="Mul" op_name="gradient_tape/model/bert_pretrainer/cls/predictions/transform/LayerNorm/batchnorm/mul_1/Mul_1"}
  %param_3.329 = f32[1216]{0} parameter(3)
  %multiply.193.clone.1 = f32[1216]{0} multiply(f32[1216]{0} %param_3.329, f32[1216]{0} %broadcast.507), metadata={op_type="Mean" op_name="model/bert_pretrainer/cls/predictions/transform/LayerNorm/moments/mean"}
  %broadcast.582.clone.1 = f32[1216,768]{1,0} broadcast(f32[1216]{0} %multiply.193.clone.1), dimensions={0}, metadata={op_type="SquaredDifference" op_name="model/bert_pretrainer/cls/predictions/transform/LayerNorm/moments/SquaredDifference"}
  %multiply.192.clone.1 = f32[1216,768]{1,0} multiply(f32[1216,768]{1,0} %negate.14, f32[1216,768]{1,0} %broadcast.582.clone.1), metadata={op_type="Mul" op_name="gradient_tape/model/bert_pretrainer/cls/predictions/transform/LayerNorm/batchnorm/mul_2/Mul_1"}
  %add.176.clone.1 = f32[1216,768]{1,0} add(f32[1216,768]{1,0} %multiply.194.clone.1, f32[1216,768]{1,0} %multiply.192.clone.1), metadata={op_type="AddN" op_name="AddN"}
  %multiply.102.clone.1 = f32[1216,768]{1,0} multiply(f32[1216,768]{1,0} %add.176.clone.1, f32[1216,768]{1,0} %broadcast.237), metadata={op_type="Mul" op_name="gradient_tape/model/bert_pretrainer/cls/predictions/transform/LayerNorm/batchnorm/mul/Mul"}
  %reduce.54.clone.1 = f32[1216]{0} reduce(f32[1216,768]{1,0} %multiply.102.clone.1, f32[] %constant_174), dimensions={1}, to_apply=%gradient_tape_model_bert_pretrainer_cls_predictions_transform_LayerNorm_batchnorm_mul_Sum-reduction.1063, metadata={op_type="Sum" op_name="gradient_tape/model/bert_pretrainer/cls/predictions/transform/LayerNorm/batchnorm/mul/Sum"}
  ROOT %tuple.15 = (f32[1216]{0}, f32[1216]{0}) tuple(f32[1216]{0} %reduce.53, f32[1216]{0} %reduce.54.clone.1)
}

%max_float_.981 (x.982: f32[], y.983: f32[]) -> f32[] {
  %x.982 = f32[] parameter(0)
  %y.983 = f32[] parameter(1)
  ROOT %maximum.984 = f32[] maximum(f32[] %x.982, f32[] %y.983)
}

%fused_computation.102 (param_0.587: f32[30522], param_1.505: f16[1216,30528]) -> f32[1216] {
  %param_1.505 = f16[1216,30528]{1,0} parameter(1)
  %slice.23 = f16[1216,30522]{1,0} slice(f16[1216,30528]{1,0} %param_1.505), slice={[0:1216], [0:30522]}, metadata={op_type="MatMul" op_name="model/bert_pretrainer/cls/predictions/MatMul"}
  %param_0.587 = f32[30522]{0} parameter(0)
  %convert.252 = f16[30522]{0} convert(f32[30522]{0} %param_0.587), metadata={op_type="Cast" op_name="model/bert_pretrainer/cls/predictions/BiasAdd/Cast"}
  %broadcast.510 = f16[1216,30522]{1,0} broadcast(f16[30522]{0} %convert.252), dimensions={1}, metadata={op_type="BiasAdd" op_name="model/bert_pretrainer/cls/predictions/BiasAdd"}
  %add.162 = f16[1216,30522]{1,0} add(f16[1216,30522]{1,0} %slice.23, f16[1216,30522]{1,0} %broadcast.510), metadata={op_type="BiasAdd" op_name="model/bert_pretrainer/cls/predictions/BiasAdd"}
…
  %custom-call.1753 = (f32[768,12,64]{2,1,0}, f32[768,12,64]{2,1,0}, f32[768,12,64]{2,1,0}) custom-call(f32[768,12,64]{2,1,0} %arg60.61, f32[768,12,64]{2,1,0} %arg118.119, f32[768,12,64]{2,1,0} %arg119.120, f32[] %get-tuple-element.98, f32[] %get-tuple-element.97, f32[] %get-tuple-element.96, f32[] %arg16.17, f32[] %arg17.18, f32[] %constant_800, f32[768,12,64]{0,2,1} %fusion.20), custom_call_target="NdpAdam", metadata={op_type="ResourceApplyAdam" op_name="Adam/Adam/update_25/update_0/ResourceApplyAdam"}
  %get-tuple-element.1754 = f32[768,12,64]{2,1,0} get-tuple-element((f32[768,12,64]{2,1,0}, f32[768,12,64]{2,1,0}, f32[768,12,64]{2,1,0}) %custom-call.1753), index=0, metadata={op_type="ResourceApplyAdam" op_name="Adam/Adam/update_25/update_0/ResourceApplyAdam"}
  %arg114.115 = f32[12,64,768]{2,1,0} parameter(114), parameter_replication={false}, metadata={op_name="XLA_Args"}
  %arg115.116 = f32[12,64,768]{2,1,0} parameter(115), parameter_replication={false}, metadata={op_name="XLA_Args"}
  %get-tuple-element.51 = f16[768,8192]{0,1} get-tuple-element((f16[8192,768]{1,0}, f16[768,8192]{0,1}, f32[768]{0}, f32[1,768,16,512]{1,3,2,0}, f32[768]{0}, f32[768]{0}, f16[16,512,768]{2,1,0}) %custom-call.78), index=1
  %custom-call.69 = f16[768,768]{1,0} custom-call(f16[768,8192]{0,1} %get-tuple-element.51, f16[8192,768]{1,0} %fusion.128), custom_call_target="__cublas$gemm", backend_config="{\"alpha_real\":1,\"alpha_imag\":0,\"beta\":0,\"dot_dimension_numbers\":{\"lhs_contracting_dimensions\":[\"1\"],\"rhs_contracting_dimensions\":[\"0\"],\"lhs_batch_dimensions\":[],\"rhs_batch_dimensions\":[]},\"batch_size\":\"1\",\"selected_algorithm\":\"111\"}"
  %fusion.19 = f32[12,64,768]{1,0,2} fusion(f16[768,768]{1,0} %custom-call.69), kind=kLoop, calls=%fused_computation.19, metadata={op_type="Cast" op_name="gradient_tape/model/bert_pretrainer/bert_encoder_1/transformer/layer_1/self_attention/attention_output/einsum/Einsum/Cast/ArithmeticOptimizer/ReorderCastLikeAndValuePreserving_float_Cast"}
  %custom-call.1761 = (f32[12,64,768]{2,1,0}, f32[12,64,768]{2,1,0}, f32[12,64,768]{2,1,0}) custom-call(f32[12,64,768]{2,1,0} %arg61.62, f32[12,64,768]{2,1,0} %arg114.115, f32[12,64,768]{2,1,0} %arg115.116, f32[] %get-tuple-element.98, f32[] %get-tuple-element.97, f32[] %get-tuple-element.96, f32[] %arg16.17, f32[] %arg17.18, f32[] %constant_800, f32[12,64,768]{1,0,2} %fusion.19), custom_call_target="NdpAdam", metadata={op_type="ResourceApplyAdam" op_name="Adam/Adam/update_27/update_0/ResourceApplyAdam"}
  %get-tuple-element.1762 = f32[12,64,768]{2,1,0} get-tuple-element((f32[12,64,768]{2,1,0}, f32[12,64,768]{2,1,0}, f32[12,64,768]{2,1,0}) %custom-call.1761), index=0, metadata={op_type="ResourceApplyAdam" op_name="Adam/Adam/update_27/update_0/ResourceApplyAdam"}
  %get-tuple-element.100 = f32[768]{0} get-tuple-element((f32[768]{0}, f32[768]{0}, f32[768]{0}, f32[768]{0}, f32[768]{0}) %fusion.193), index=1, metadata={op_type="FusedBatchNormV3" op_name="model/bert_pretrainer/bert_encoder_1/transformer/layer_1/self_attention_layer_norm/FusedBatchNormV3"}
  %get-tuple-element.107 = f32[768]{0} get-tuple-element((f32[768]{0}, f32[768]{0}, f32[768]{0}, f32[768]{0}, f32[768]{0}) %fusion.194), index=3, metadata={op_type="FusedBatchNormV3" op_name="model/bert_pretrainer/bert_encoder_1/transformer/layer_1/self_attention_layer_norm/FusedBatchNormV3"}
  %arg110.111 = f32[768]{0} parameter(110), parameter_replication={false}, metadata={op_name="XLA_Args"}
  %arg111.112 = f32[768]{0} parameter(111), parameter_replication={false}, metadata={op_name="XLA_Args"}
  %get-tuple-element.54 = f32[768]{0} get-tuple-element((f16[8192,768]{1,0}, f16[768,8192]{0,1}, f32[768]{0}, f32[1,768,16,512]{1,3,2,0}, f32[768]{0}, f32[768]{0}, f16[16,512,768]{2,1,0}) %custom-call.78), index=4
  %custom-call.100 = (f32[768]{0}, f32[768]{0}, f32[768]{0}) custom-call(f32[768]{0} %arg64.65, f32[768]{0} %arg110.111, f32[768]{0} %arg111.112, f32[] %get-tuple-element.98, f32[] %get-tuple-element.97, f32[] %get-tuple-element.96, f32[] %arg16.17, f32[] %arg17.18, f32[] %constant_800, f32[768]{0} %get-tuple-element.54), custom_call_target="NdpAdam$Batchnorm$custom-call.78", metadata={op_type="ResourceApplyAdam" op_name="Adam/Adam/update_29/update_0/ResourceApplyAdam"}
  %get-tuple-element.1264 = f32[768]{0} get-tuple-element((f32[768]{0}, f32[768]{0}, f32[768]{0}) %custom-call.100), index=0, metadata={op_type="ResourceApplyAdam" op_name="Adam/Adam/update_29/update_0/ResourceApplyAdam"}
  %arg112.113 = f32[768]{0} parameter(112), parameter_replication={false}, metadata={op_name="XLA_Args"}
  %arg113.114 = f32[768]{0} parameter(113), parameter_replication={false}, metadata={op_name="XLA_Args"}
  %get-tuple-element.55 = f32[768]{0} get-tuple-element((f16[8192,768]{1,0}, f16[768,8192]{0,1}, f32[768]{0}, f32[1,768,16,512]{1,3,2,0}, f32[768]{0}, f32[768]{0}, f16[16,512,768]{2,1,0}) %custom-call.78), index=5
  %custom-call.101 = (f32[768]{0}, f32[768]{0}, f32[768]{0}) custom-call(f32[768]{0} %arg65.66, f32[768]{0} %arg112.113, f32[768]{0} %arg113.114, f32[] %get-tuple-element.98, f32[] %get-tuple-element.97, f32[] %get-tuple-element.96, f32[] %arg16.17, f32[] %arg17.18, f32[] %constant_800, f32[768]{0} %get-tuple-element.55), custom_call_target="NdpAdam$Batchnorm$custom-call.78", metadata={op_type="ResourceApplyAdam" op_name="Adam/Adam/update_30/update_0/ResourceApplyAdam"}
  %get-tuple-element.1269 = f32[768]{0} get-tuple-element((f32[768]{0}, f32[768]{0}, f32[768]{0}) %custom-call.101), index=0, metadata={op_type="ResourceApplyAdam" op_name="Adam/Adam/update_30/update_0/ResourceApplyAdam"}
  %arg166.167 = f32[2,768]{1,0} parameter(166), parameter_replication={false}, metadata={op_name="XLA_Args"}
  %arg167.168 = f32[2,768]{1,0} parameter(167), parameter_replication={false}, metadata={op_name="XLA_Args"}
  %bitcast.133 = f16[8192,768]{1,0} bitcast(f16[1,16,512,768]{3,2,1,0} %fusion.32), metadata={op_type="Reshape" op_name="gradient_tape/model/bert_pretrainer/bert_encoder_1/word_embeddings/Reshape"}
  %custom-call.70 = f16[8,768]{1,0} custom-call(f16[8192,8]{1,0} %fusion.153, f16[8192,768]{1,0} %bitcast.133), custom_call_target="__cublas$gemm", metadata={op_type="MatMul" op_name="gradient_tape/model/bert_pretrainer/bert_encoder_1/type_embeddings/MatMul/MatMul"}, backend_config="{\"alpha_real\":1,\"alpha_imag\":0,\"beta\":0,\"dot_dimension_numbers\":{\"lhs_contracting_dimensions\":[\"0\"],\"rhs_contracting_dimensions\":[\"0\"],\"lhs_batch_dimensions\":[],\"rhs_batch_dimensions\":[]},\"batch_size\":\"1\",\"selected_algorithm\":\"109\"}"
  %custom-call.102 = (f32[2,768]{1,0}, f32[2,768]{1,0}, f32[2,768]{1,0}) custom-call(f32[2,768]{1,0} %arg66.67, f32[2,768]{1,0} %arg166.167, f32[2,768]{1,0} %arg167.168, f32[] %get-tuple-element.98, f32[] %get-tuple-element.97, f32[] %get-tuple-element.96, f32[] %arg16.17, f32[] %arg17.18, f32[] %constant_800, f16[8,768]{1,0} %custom-call.70), custom_call_target="NdpAdam$Gemm$custom-call.70", metadata={op_type="ResourceApplyAdam" op_name="Adam/Adam/update_2/update_0/ResourceApplyAdam"}
  %get-tuple-element.1719 = f32[2,768]{1,0} get-tuple-element((f32[2,768]{1,0}, f32[2,768]{1,0}, f32[2,768]{1,0}) %custom-call.102), index=0, metadata={op_type="ResourceApplyAdam" op_name="Adam/Adam/update_2/update_0/ResourceApplyAdam"}
  %arg77.78 = f32[2]{0} parameter(77), parameter_replication={false}, metadata={op_name="XLA_Args"}
  %arg78.79 = f32[2]{0} parameter(78), parameter_replication={false}, metadata={op_name="XLA_Args"}
  %fusion.16 = f32[2]{0} fusion(f16[16,2]{1,0} %fusion.117), kind=kLoop, calls=%fused_computation.16, metadata={op_type="BiasAddGrad" op_name="gradient_tape/model/bert_pretrainer/classification/predictions/transform/logits/BiasAdd/BiasAddGrad"}
  %custom-call.103 = (f32[2]{0}, f32[2]{0}, f32[2]{0}) custom-call(f32[2]{0} %arg67.68, f32[2]{0} %arg77.78, f32[2]{0} %arg78.79, f32[] %get-tuple-element.98, f32[] %get-tuple-element.97, f32[] %get-tuple-element.96, f32[] %arg16.17, f32[] %arg17.18, f32[] %constant_800, f32[2]{0} %fusion.16), custom_call_target="NdpAdam$GemmBias$reduce.797", metadata={op_type="ResourceApplyAdam" op_name="Adam/Adam/update_40/update_0/ResourceApplyAdam"}
  %get-tuple-element.802 = f32[2]{0} get-tuple-element((f32[2]{0}, f32[2]{0}, f32[2]{0}) %custom-call.103), index=0, metadata={op_type="ResourceApplyAdam" op_name="Adam/Adam/update_40/update_0/ResourceApplyAdam"}
  %arg79.80 = f32[768,2]{1,0} parameter(79), parameter_replication={false}, metadata={op_name="XLA_Args"}
  %arg80.81 = f32[768,2]{1,0} parameter(80), parameter_replication={false}, metadata={op_name="XLA_Args"}
  %custom-call.71 = f16[768,8]{1,0} custom-call(f16[16,768]{1,0} %tanh.694, f16[16,8]{1,0} %pad.4), custom_call_target="__cublas$gemm", metadata={op_type="MatMul" op_name="gradient_tape/model/bert_pretrainer/classification/predictions/transform/logits/MatMul_1"}, backend_config="{\"alpha_real\":1,\"alpha_imag\":0,\"beta\":0,\"dot_dimension_numbers\":{\"lhs_contracting_dimensions\":[\"0\"],\"rhs_contracting_dimensions\":[\"0\"],\"lhs_batch_dimensions\":[],\"rhs_batch_dimensions\":[]},\"batch_size\":\"1\",\"selected_algorithm\":\"106\"}"
  %custom-call.104 = (f32[768,2]{1,0}, f32[768,2]{1,0}, f32[768,2]{1,0}) custom-call(f32[768,2]{1,0} %arg68.69, f32[768,2]{1,0} %arg79.80, f32[768,2]{1,0} %arg80.81, f32[] %get-tuple-element.98, f32[] %get-tuple-element.97, f32[] %get-tuple-element.96, f32[] %arg16.17, f32[] %arg17.18, f32[] %constant_800, f16[768,8]{1,0} %custom-call.71), custom_call_target="NdpAdam$Gemm$custom-call.71", metadata={op_type="ResourceApplyAdam" op_name="Adam/Adam/update_39/update_0/ResourceApplyAdam"}
  %get-tuple-element.848 = f32[768,2]{1,0} get-tuple-element((f32[768,2]{1,0}, f32[768,2]{1,0}, f32[768,2]{1,0}) %custom-call.104), index=0, metadata={op_type="ResourceApplyAdam" op_name="Adam/Adam/update_39/update_0/ResourceApplyAdam"}
  %arg86.87 = f32[30522]{0} parameter(86), parameter_replication={false}, metadata={op_name="XLA_Args"}
  %arg87.88 = f32[30522]{0} parameter(87), parameter_replication={false}, metadata={op_name="XLA_Args"}
  %fusion.15 = f32[30522]{0} fusion(s32[16,76]{1,0} %arg10.11, f32[1216,30522]{1,0} %get-tuple-element.90, f32[1216]{0} %get-tuple-element.89, f32[16,76]{1,0} %arg12.13, f32[] %get-tuple-element.87), kind=kInput, calls=%fused_computation.15, metadata={op_type="BiasAddGrad" op_name="gradient_tape/model/bert_pretrainer/cls/predictions/BiasAdd/BiasAddGrad"}
  %custom-call.105 = (f32[30522]{0}, f32[30522]{0}, f32[30522]{0}) custom-call(f32[30522]{0} %arg69.70, f32[30522]{0} %arg86.87, f32[30522]{0} %arg87.88, f32[] %get-tuple-element.98, f32[] %get-tuple-element.97, f32[] %get-tuple-element.96, f32[] %arg16.17, f32[] %arg17.18, f32[] %constant_800, f32[30522]{0} %fusion.15), custom_call_target="NdpAdam$GemmBias$reduce.1023", metadata={op_type="ResourceApplyAdam" op_name="Adam/Adam/update_41/update_0/ResourceApplyAdam"}
  %get-tuple-element.1028 = f32[30522]{0} get-tuple-element((f32[30522]{0}, f32[30522]{0}, f32[30522]{0}) %custom-call.105), index=0, metadata={op_type="ResourceApplyAdam" op_name="Adam/Adam/update_41/update_0/ResourceApplyAdam"}
  %arg168.169 = f32[30522,768]{1,0} parameter(168), parameter_replication={false}, metadata={op_name="XLA_Args"}
  %arg169.170 = f32[30522,768]{1,0} parameter(169), parameter_replication={false}, metadata={op_name="XLA_Args"}
  %custom-call.72 = f16[30528,768]{1,0} custom-call(f16[1216,30528]{1,0} %fusion.182, f16[1216,768]{1,0} %fusion.104), custom_call_target="__cublas$gemm", metadata={op_type="MatMul" op_name="gradient_tape/model/bert_pretrainer/cls/predictions/MatMul/MatMul_1"}, backend_config="{\"alpha_real\":1,\"alpha_imag\":0,\"beta\":0,\"dot_dimension_numbers\":{\"lhs_contracting_dimensions\":[\"0\"],\"rhs_contracting_dimensions\":[\"0\"],\"lhs_batch_dimensions\":[],\"rhs_batch_dimensions\":[]},\"batch_size\":\"1\",\"selected_algorithm\":\"103\"}"
  %fusion.14 = f32[30522,768]{1,0} fusion(f16[30528,768]{1,0} %custom-call.72, f16[1,16,512,768]{3,2,1,0} %fusion.32, s32[16,512]{1,0} %arg14.15), kind=kInput, calls=%fused_computation.14, metadata={op_type="UnsortedSegmentSum" op_name="AddN_10/inputs_1"}
  %custom-call.1809 = (f32[30522,768]{1,0}, f32[30522,768]{1,0}, f32[30522,768]{1,0}) custom-call(f32[30522,768]{1,0} %arg70.71, f32[30522,768]{1,0} %arg168.169, f32[30522,768]{1,0} %arg169.170, f32[] %get-tuple-element.98, f32[] %get-tuple-element.97, f32[] %get-tuple-element.96, f32[] %arg16.17, f32[] %arg17.18, f32[] %constant_800, f32[30522,768]{1,0} %fusion.14), custom_call_target="NdpAdam", metadata={op_type="ResourceApplyAdam" op_name="Adam/Adam/update/update_0/ResourceApplyAdam"}
  %get-tuple-element.1810 = f32[30522,768]{1,0} get-tuple-element((f32[30522,768]{1,0}, f32[30522,768]{1,0}, f32[30522,768]{1,0}) %custom-call.1809), index=0, metadata={op_type="ResourceApplyAdam" op_name="Adam/Adam/update/update_0/ResourceApplyAdam"}
  %arg89.90 = f32[768]{0} parameter(89), parameter_replication={false}, metadata={op_name="XLA_Args"}
  %arg90.91 = f32[768]{0} parameter(90), parameter_replication={false}, metadata={op_name="XLA_Args"}
  %get-tuple-element.81 = f32[768]{0} get-tuple-element((f32[768]{0}, f16[1216,768]{1,0}, f32[768]{0}, f32[768]{0}) %fusion.11), index=2
  %custom-call.1800 = (f32[768]{0}, f32[768]{0}, f32[768]{0}) custom-call(f32[768]{0} %arg71.72, f32[768]{0} %arg89.90, f32[768]{0} %arg90.91, f32[] %get-tuple-element.98, f32[] %get-tuple-element.97, f32[] %get-tuple-element.96, f32[] %arg16.17, f32[] %arg17.18, f32[] %constant_800, f32[768]{0} %get-tuple-element.81), custom_call_target="NdpAdam", metadata={op_type="ResourceApplyAdam" op_name="Adam/Adam/update_45/update_0/ResourceApplyAdam"}
  %get-tuple-element.1801 = f32[768]{0} get-tuple-element((f32[768]{0}, f32[768]{0}, f32[768]{0}) %custom-call.1800), index=0, metadata={op_type="ResourceApplyAdam" op_name="Adam/Adam/update_45/update_0/ResourceApplyAdam"}
  %arg92.93 = f32[768]{0} parameter(92), parameter_replication={false}, metadata={op_name="XLA_Args"}
  %arg93.94 = f32[768]{0} parameter(93), parameter_replication={false}, metadata={op_name="XLA_Args"}
  %get-tuple-element.82 = f32[768]{0} get-tuple-element((f32[768]{0}, f16[1216,768]{1,0}, f32[768]{0}, f32[768]{0}) %fusion.11), index=3
  %custom-call.1786 = (f32[768]{0}, f32[768]{0}, f32[768]{0}) custom-call(f32[768]{0} %arg72.73, f32[768]{0} %arg92.93, f32[768]{0} %arg93.94, f32[] %get-tuple-element.98, f32[] %get-tuple-element.97, f32[] %get-tuple-element.96, f32[] %arg16.17, f32[] %arg17.18, f32[] %constant_800, f32[768]{0} %get-tuple-element.82), custom_call_target="NdpAdam", metadata={op_type="ResourceApplyAdam" op_name="Adam/Adam/update_44/update_0/ResourceApplyAdam"}
  %get-tuple-element.1787 = f32[768]{0} get-tuple-element((f32[768]{0}, f32[768]{0}, f32[768]{0}) %custom-call.1786), index=0, metadata={op_type="ResourceApplyAdam" op_name="Adam/Adam/update_44/update_0/ResourceApplyAdam"}
  %arg96.97 = f32[768]{0} parameter(96), parameter_replication={false}, metadata={op_name="XLA_Args"}
  %arg97.98 = f32[768]{0} parameter(97), parameter_replication={false}, metadata={op_name="XLA_Args"}
  %get-tuple-element.79 = f32[768]{0} get-tuple-element((f32[768]{0}, f16[1216,768]{1,0}, f32[768]{0}, f32[768]{0}) %fusion.11), index=0
  %custom-call.106 = (f32[768]{0}, f32[768]{0}, f32[768]{0}) custom-call(f32[768]{0} %arg73.74, f32[768]{0} %arg96.97, f32[768]{0} %arg97.98, f32[] %get-tuple-element.98, f32[] %get-tuple-element.97, f32[] %get-tuple-element.96, f32[] %arg16.17, f32[] %arg17.18, f32[] %constant_800, f32[768]{0} %get-tuple-element.79), custom_call_target="NdpAdam$GemmBias$reduce.1117", metadata={op_type="ResourceApplyAdam" op_name="Adam/Adam/update_43/update_0/ResourceApplyAdam"}
  %get-tuple-element.1122 = f32[768]{0} get-tuple-element((f32[768]{0}, f32[768]{0}, f32[768]{0}) %custom-call.106), index=0, metadata={op_type="ResourceApplyAdam" op_name="Adam/Adam/update_43/update_0/ResourceApplyAdam"}
  %arg94.95 = f32[768,768]{1,0} parameter(94), parameter_replication={false}, metadata={op_name="XLA_Args"}
  %arg95.96 = f32[768,768]{1,0} parameter(95), parameter_replication={false}, metadata={op_name="XLA_Args"}
  %custom-call.73 = f16[768,768]{1,0} custom-call(f16[1216,768]{1,0} %fusion.180, f16[1216,768]{1,0} %get-tuple-element.80), custom_call_target="__cublas$gemm", metadata={op_type="MatMul" op_name="gradient_tape/model/bert_pretrainer/cls/predictions/transform/dense/MatMul_1"}, backend_config="{\"alpha_real\":1,\"alpha_imag\":0,\"beta\":0,\"dot_dimension_numbers\":{\"lhs_contracting_dimensions\":[\"0\"],\"rhs_contracting_dimensions\":[\"0\"],\"lhs_batch_dimensions\":[],\"rhs_batch_dimensions\":[]},\"batch_size\":\"1\",\"selected_algorithm\":\"103\"}"
  %custom-call.107 = (f32[768,768]{1,0}, f32[768,768]{1,0}, f32[768,768]{1,0}) custom-call(f32[768,768]{1,0} %arg74.75, f32[768,768]{1,0} %arg94.95, f32[768,768]{1,0} %arg95.96, f32[] %get-tuple-element.98, f32[] %get-tuple-element.97, f32[] %get-tuple-element.96, f32[] %arg16.17, f32[] %arg17.18, f32[] %constant_800, f16[768,768]{1,0} %custom-call.73), custom_call_target="NdpAdam$Gemm$custom-call.73", metadata={op_type="ResourceApplyAdam" op_name="Adam/Adam/update_42/update_0/ResourceApplyAdam"}
  %get-tuple-element.1770 = f32[768,768]{1,0} get-tuple-element((f32[768,768]{1,0}, f32[768,768]{1,0}, f32[768,768]{1,0}) %custom-call.107), index=0, metadata={op_type="ResourceApplyAdam" op_name="Adam/Adam/update_42/update_0/ResourceApplyAdam"}
  %arg91.92 = f32[] parameter(91), parameter_replication={false}, metadata={op_name="XLA_Args"}
  %get-tuple-element.94 = f32[16]{0} get-tuple-element((f32[16]{0}, f32[16]{0}) %fusion.192), index=0
  %fusion.10 = f32[] fusion(f32[16]{0} %get-tuple-element.94, s32[16,1]{1,0} %arg13.14, f32[16]{0} %fusion.120, f32[2]{0} %arg67.68, f16[16,8]{1,0} %custom-call.29), kind=kInput, calls=%fused_computation.10, metadata={op_type="Mean" op_name="model/bert_pretrain_loss_and_metric_layer/Mean"}
  %get-tuple-element.88 = f32[] get-tuple-element((f32[], f32[], f32[]) %fusion.2), index=2
  %arg85.86 = f32[] parameter(85), parameter_replication={false}, metadata={op_name="XLA_Args"}
  %arg75.76 = f32[] parameter(75), parameter_replication={false}, metadata={op_name="XLA_Args"}
  %arg88.89 = f32[] parameter(88), parameter_replication={false}, metadata={op_name="XLA_Args"}
  %get-tuple-element.86 = f32[] get-tuple-element((f32[], f32[], f32[]) %fusion.2), index=0
  %fusion = (f32[], f32[], f32[], f32[]) fusion(f32[] %arg91.92, f32[] %fusion.10, f32[] %get-tuple-element.88, f32[] %get-tuple-element.87, f32[] %arg85.86, f32[] %arg75.76, f32[] %arg88.89, f32[] %get-tuple-element.86), kind=kLoop, calls=%fused_computation, metadata={op_type="AssignAddVariableOp" op_name="AssignAddVariableOp"}
  %get-tuple-element.78 = f32[] get-tuple-element((f32[], f32[], f32[], f32[]) %fusion), index=2
  %arg76.77 = f32[] parameter(76), parameter_replication={false}, metadata={op_name="XLA_Args"}
  %fusion.9 = s64[16]{0} fusion(f32[16]{0} %fusion.120, f32[2]{0} %arg67.68, f16[16,8]{1,0} %custom-call.29), kind=kLoop, calls=%fused_computation.9, metadata={op_type="ArgMax" op_name="model/bert_pretrain_loss_and_metric_layer/ArgMax_1"}
  %fusion.8 = f32[] fusion(f32[] %arg76.77, s32[16,1]{1,0} %arg13.14, s64[16]{0} %fusion.9), kind=kLoop, calls=%fused_computation.8, metadata={op_type="AssignAddVariableOp" op_name="model/bert_pretrain_loss_and_metric_layer/AssignAddVariableOp_4"}
  %get-tuple-element.803 = f32[2]{0} get-tuple-element((f32[2]{0}, f32[2]{0}, f32[2]{0}) %custom-call.103), index=1, metadata={op_type="ResourceApplyAdam" op_name="Adam/Adam/update_40/update_0/ResourceApplyAdam"}
  %get-tuple-element.804 = f32[2]{0} get-tuple-element((f32[2]{0}, f32[2]{0}, f32[2]{0}) %custom-call.103), index=2, metadata={op_type="ResourceApplyAdam" op_name="Adam/Adam/update_40/update_0/ResourceApplyAdam"}
  %get-tuple-element.849 = f32[768,2]{1,0} get-tuple-element((f32[768,2]{1,0}, f32[768,2]{1,0}, f32[768,2]{1,0}) %custom-call.104), index=1, metadata={op_type="ResourceApplyAdam" op_name="Adam/Adam/update_39/update_0/ResourceApplyAdam"}
  %get-tuple-element.850 = f32[768,2]{1,0} get-tuple-element((f32[768,2]{1,0}, f32[768,2]{1,0}, f32[768,2]{1,0}) %custom-call.104), index=2, metadata={op_type="ResourceApplyAdam" op_name="Adam/Adam/update_39/update_0/ResourceApplyAdam"}
  %get-tuple-element.826 = f32[768]{0} get-tuple-element((f32[768]{0}, f32[768]{0}, f32[768]{0}) %custom-call.82), index=1, metadata={op_type="ResourceApplyAdam" op_name="Adam/Adam/update_38/update_0/ResourceApplyAdam"}
  %get-tuple-element.827 = f32[768]{0} get-tuple-element((f32[768]{0}, f32[768]{0}, f32[768]{0}) %custom-call.82), index=2, metadata={op_type="ResourceApplyAdam" op_name="Adam/Adam/update_38/update_0/ResourceApplyAdam"}
  %get-tuple-element.841 = f32[768,768]{1,0} get-tuple-element((f32[768,768]{1,0}, f32[768,768]{1,0}, f32[768,768]{1,0}) %custom-call.83), index=1, metadata={op_type="ResourceApplyAdam" op_name="Adam/Adam/update_37/update_0/ResourceApplyAdam"}
  %get-tuple-element.842 = f32[768,768]{1,0} get-tuple-element((f32[768,768]{1,0}, f32[768,768]{1,0}, f32[768,768]{1,0}) %custom-call.83), index=2, metadata={op_type="ResourceApplyAdam" op_name="Adam/Adam/update_37/update_0/ResourceApplyAdam"}
  %get-tuple-element.77 = f32[] get-tuple-element((f32[], f32[], f32[], f32[]) %fusion), index=1
  %get-tuple-element.1029 = f32[30522]{0} get-tuple-element((f32[30522]{0}, f32[30522]{0}, f32[30522]{0}) %custom-call.105), index=1, metadata={op_type="ResourceApplyAdam" op_name="Adam/Adam/update_41/update_0/ResourceApplyAdam"}
  %get-tuple-element.1030 = f32[30522]{0} get-tuple-element((f32[30522]{0}, f32[30522]{0}, f32[30522]{0}) %custom-call.105), index=2, metadata={op_type="ResourceApplyAdam" op_name="Adam/Adam/update_41/update_0/ResourceApplyAdam"}
  %get-tuple-element.85 = f32[] get-tuple-element((f32[], f32[], f32[], f32[]) %fusion), index=3
  %get-tuple-element.1802 = f32[768]{0} get-tuple-element((f32[768]{0}, f32[768]{0}, f32[768]{0}) %custom-call.1800), index=1, metadata={op_type="ResourceApplyAdam" op_name="Adam/Adam/update_45/update_0/ResourceApplyAdam"}
  %get-tuple-element.1803 = f32[768]{0} get-tuple-element((f32[768]{0}, f32[768]{0}, f32[768]{0}) %custom-call.1800), index=2, metadata={op_type="ResourceApplyAdam" op_name="Adam/Adam/update_45/update_0/ResourceApplyAdam"}
  %get-tuple-element.76 = f32[] get-tuple-element((f32[], f32[], f32[], f32[]) %fusion), index=0
  %get-tuple-element.1788 = f32[768]{0} get-tuple-element((f32[768]{0}, f32[768]{0}, f32[768]{0}) %custom-call.1786), index=1, metadata={op_type="ResourceApplyAdam" op_name="Adam/Adam/update_44/update_0/ResourceApplyAdam"}
  %get-tuple-element.1789 = f32[768]{0} get-tuple-element((f32[768]{0}, f32[768]{0}, f32[768]{0}) %custom-call.1786), index=2, metadata={op_type="ResourceApplyAdam" op_name="Adam/Adam/update_44/update_0/ResourceApplyAdam"}
  %get-tuple-element.1771 = f32[768,768]{1,0} get-tuple-element((f32[768,768]{1,0}, f32[768,768]{1,0}, f32[768,768]{1,0}) %custom-call.107), index=1, metadata={op_type="ResourceApplyAdam" op_name="Adam/Adam/update_42/update_0/ResourceApplyAdam"}
  %get-tuple-element.1772 = f32[768,768]{1,0} get-tuple-element((f32[768,768]{1,0}, f32[768,768]{1,0}, f32[768,768]{1,0}) %custom-call.107), index=2, metadata={op_type="ResourceApplyAdam" op_name="Adam/Adam/update_42/update_0/ResourceApplyAdam"}
  %get-tuple-element.1123 = f32[768]{0} get-tuple-element((f32[768]{0}, f32[768]{0}, f32[768]{0}) %custom-call.106), index=1, metadata={op_type="ResourceApplyAdam" op_name="Adam/Adam/update_43/update_0/ResourceApplyAdam"}
  %get-tuple-element.1124 = f32[768]{0} get-tuple-element((f32[768]{0}, f32[768]{0}, f32[768]{0}) %custom-call.106), index=2, metadata={op_type="ResourceApplyAdam" op_name="Adam/Adam/update_43/update_0/ResourceApplyAdam"}
  %get-tuple-element.1158 = f32[768]{0} get-tuple-element((f32[768]{0}, f32[768]{0}, f32[768]{0}) %custom-call.87), index=1, metadata={op_type="ResourceApplyAdam" op_name="Adam/Adam/update_35/update_0/ResourceApplyAdam"}
  %get-tuple-element.1159 = f32[768]{0} get-tuple-element((f32[768]{0}, f32[768]{0}, f32[768]{0}) %custom-call.87), index=2, metadata={op_type="ResourceApplyAdam" op_name="Adam/Adam/update_35/update_0/ResourceApplyAdam"}
  %get-tuple-element.1163 = f32[768]{0} get-tuple-element((f32[768]{0}, f32[768]{0}, f32[768]{0}) %custom-call.88), index=1, metadata={op_type="ResourceApplyAdam" op_name="Adam/Adam/update_36/update_0/ResourceApplyAdam"}
  %get-tuple-element.1164 = f32[768]{0} get-tuple-element((f32[768]{0}, f32[768]{0}, f32[768]{0}) %custom-call.88), index=2, metadata={op_type="ResourceApplyAdam" op_name="Adam/Adam/update_36/update_0/ResourceApplyAdam"}
  %get-tuple-element.1241 = f32[3072,768]{1,0} get-tuple-element((f32[3072,768]{1,0}, f32[3072,768]{1,0}, f32[3072,768]{1,0}) %custom-call.86), index=1, metadata={op_type="ResourceApplyAdam" op_name="Adam/Adam/update_33/update_0/ResourceApplyAdam"}
  %get-tuple-element.1242 = f32[3072,768]{1,0} get-tuple-element((f32[3072,768]{1,0}, f32[3072,768]{1,0}, f32[3072,768]{1,0}) %custom-call.86), index=2, metadata={op_type="ResourceApplyAdam" op_name="Adam/Adam/update_33/update_0/ResourceApplyAdam"}
  %get-tuple-element.1185 = f32[768]{0} get-tuple-element((f32[768]{0}, f32[768]{0}, f32[768]{0}) %custom-call.84), index=1, metadata={op_type="ResourceApplyAdam" op_name="Adam/Adam/update_34/update_0/ResourceApplyAdam"}
  %get-tuple-element.1186 = f32[768]{0} get-tuple-element((f32[768]{0}, f32[768]{0}, f32[768]{0}) %custom-call.84), index=2, metadata={op_type="ResourceApplyAdam" op_name="Adam/Adam/update_34/update_0/ResourceApplyAdam"}
  %get-tuple-element.1233 = f32[768,3072]{1,0} get-tuple-element((f32[768,3072]{1,0}, f32[768,3072]{1,0}, f32[768,3072]{1,0}) %custom-call.85), index=1, metadata={op_type="ResourceApplyAdam" op_name="Adam/Adam/update_31/update_0/ResourceApplyAdam"}
  %get-tuple-element.1234 = f32[768,3072]{1,0} get-tuple-element((f32[768,3072]{1,0}, f32[768,3072]{1,0}, f32[768,3072]{1,0}) %custom-call.85), index=2, metadata={op_type="ResourceApplyAdam" op_name="Adam/Adam/update_31/update_0/ResourceApplyAdam"}
  %get-tuple-element.1222 = f32[3072]{0} get-tuple-element((f32[3072]{0}, f32[3072]{0}, f32[3072]{0}) %custom-call.1220), index=1, metadata={op_type="ResourceApplyAdam" op_name="Adam/Adam/update_32/update_0/ResourceApplyAdam"}
  %get-tuple-element.1223 = f32[3072]{0} get-tuple-element((f32[3072]{0}, f32[3072]{0}, f32[3072]{0}) %custom-call.1220), index=2, metadata={op_type="ResourceApplyAdam" op_name="Adam/Adam/update_32/update_0/ResourceApplyAdam"}
  %get-tuple-element.1265 = f32[768]{0} get-tuple-element((f32[768]{0}, f32[768]{0}, f32[768]{0}) %custom-call.100), index=1, metadata={op_type="ResourceApplyAdam" op_name="Adam/Adam/update_29/update_0/ResourceApplyAdam"}
  %get-tuple-element.1266 = f32[768]{0} get-tuple-element((f32[768]{0}, f32[768]{0}, f32[768]{0}) %custom-call.100), index=2, metadata={op_type="ResourceApplyAdam" op_name="Adam/Adam/update_29/update_0/ResourceApplyAdam"}
  %get-tuple-element.1270 = f32[768]{0} get-tuple-element((f32[768]{0}, f32[768]{0}, f32[768]{0}) %custom-call.101), index=1, metadata={op_type="ResourceApplyAdam" op_name="Adam/Adam/update_30/update_0/ResourceApplyAdam"}
  %get-tuple-element.1271 = f32[768]{0} get-tuple-element((f32[768]{0}, f32[768]{0}, f32[768]{0}) %custom-call.101), index=2, metadata={op_type="ResourceApplyAdam" op_name="Adam/Adam/update_30/update_0/ResourceApplyAdam"}
  %get-tuple-element.1763 = f32[12,64,768]{2,1,0} get-tuple-element((f32[12,64,768]{2,1,0}, f32[12,64,768]{2,1,0}, f32[12,64,768]{2,1,0}) %custom-call.1761), index=1, metadata={op_type="ResourceApplyAdam" op_name="Adam/Adam/update_27/update_0/ResourceApplyAdam"}
  %get-tuple-element.1764 = f32[12,64,768]{2,1,0} get-tuple-element((f32[12,64,768]{2,1,0}, f32[12,64,768]{2,1,0}, f32[12,64,768]{2,1,0}) %custom-call.1761), index=2, metadata={op_type="ResourceApplyAdam" op_name="Adam/Adam/update_27/update_0/ResourceApplyAdam"}
  %get-tuple-element.1292 = f32[768]{0} get-tuple-element((f32[768]{0}, f32[768]{0}, f32[768]{0}) %custom-call.89), index=1, metadata={op_type="ResourceApplyAdam" op_name="Adam/Adam/update_28/update_0/ResourceApplyAdam"}
  %get-tuple-element.1293 = f32[768]{0} get-tuple-element((f32[768]{0}, f32[768]{0}, f32[768]{0}) %custom-call.89), index=2, metadata={op_type="ResourceApplyAdam" op_name="Adam/Adam/update_28/update_0/ResourceApplyAdam"}
  %get-tuple-element.1755 = f32[768,12,64]{2,1,0} get-tuple-element((f32[768,12,64]{2,1,0}, f32[768,12,64]{2,1,0}, f32[768,12,64]{2,1,0}) %custom-call.1753), index=1, metadata={op_type="ResourceApplyAdam" op_name="Adam/Adam/update_25/update_0/ResourceApplyAdam"}
  %get-tuple-element.1756 = f32[768,12,64]{2,1,0} get-tuple-element((f32[768,12,64]{2,1,0}, f32[768,12,64]{2,1,0}, f32[768,12,64]{2,1,0}) %custom-call.1753), index=2, metadata={op_type="ResourceApplyAdam" op_name="Adam/Adam/update_25/update_0/ResourceApplyAdam"}
  %get-tuple-element.1389 = f32[12,64]{1,0} get-tuple-element((f32[12,64]{1,0}, f32[12,64]{1,0}, f32[12,64]{1,0}) %custom-call.1387), index=1, metadata={op_type="ResourceApplyAdam" op_name="Adam/Adam/update_26/update_0/ResourceApplyAdam"}
  %get-tuple-element.1390 = f32[12,64]{1,0} get-tuple-element((f32[12,64]{1,0}, f32[12,64]{1,0}, f32[12,64]{1,0}) %custom-call.1387), index=2, metadata={op_type="ResourceApplyAdam" op_name="Adam/Adam/update_26/update_0/ResourceApplyAdam"}
  %get-tuple-element.1342 = f32[768,12,64]{2,1,0} get-tuple-element((f32[768,12,64]{2,1,0}, f32[768,12,64]{2,1,0}, f32[768,12,64]{2,1,0}) %custom-call.1340), index=1, metadata={op_type="ResourceApplyAdam" op_name="Adam/Adam/update_23/update_0/ResourceApplyAdam"}
  %get-tuple-element.1343 = f32[768,12,64]{2,1,0} get-tuple-element((f32[768,12,64]{2,1,0}, f32[768,12,64]{2,1,0}, f32[768,12,64]{2,1,0}) %custom-call.1340), index=2, metadata={op_type="ResourceApplyAdam" op_name="Adam/Adam/update_23/update_0/ResourceApplyAdam"}
  %get-tuple-element.1332 = f32[12,64]{1,0} get-tuple-element((f32[12,64]{1,0}, f32[12,64]{1,0}, f32[12,64]{1,0}) %custom-call.1330), index=1, metadata={op_type="ResourceApplyAdam" op_name="Adam/Adam/update_24/update_0/ResourceApplyAdam"}
  %get-tuple-element.1333 = f32[12,64]{1,0} get-tuple-element((f32[12,64]{1,0}, f32[12,64]{1,0}, f32[12,64]{1,0}) %custom-call.1330), index=2, metadata={op_type="ResourceApplyAdam" op_name="Adam/Adam/update_24/update_0/ResourceApplyAdam"}
  %get-tuple-element.1372 = f32[768,12,64]{2,1,0} get-tuple-element((f32[768,12,64]{2,1,0}, f32[768,12,64]{2,1,0}, f32[768,12,64]{2,1,0}) %custom-call.1370), index=1, metadata={op_type="ResourceApplyAdam" op_name="Adam/Adam/update_21/update_0/ResourceApplyAdam"}
  %get-tuple-element.1373 = f32[768,12,64]{2,1,0} get-tuple-element((f32[768,12,64]{2,1,0}, f32[768,12,64]{2,1,0}, f32[768,12,64]{2,1,0}) %custom-call.1370), index=2, metadata={op_type="ResourceApplyAdam" op_name="Adam/Adam/update_21/update_0/ResourceApplyAdam"}
  %get-tuple-element.1362 = f32[12,64]{1,0} get-tuple-element((f32[12,64]{1,0}, f32[12,64]{1,0}, f32[12,64]{1,0}) %custom-call.1360), index=1, metadata={op_type="ResourceApplyAdam" op_name="Adam/Adam/update_22/update_0/ResourceApplyAdam"}
  %get-tuple-element.1363 = f32[12,64]{1,0} get-tuple-element((f32[12,64]{1,0}, f32[12,64]{1,0}, f32[12,64]{1,0}) %custom-call.1360), index=2, metadata={op_type="ResourceApplyAdam" op_name="Adam/Adam/update_22/update_0/ResourceApplyAdam"}
  %get-tuple-element.1418 = f32[768]{0} get-tuple-element((f32[768]{0}, f32[768]{0}, f32[768]{0}) %custom-call.98), index=1, metadata={op_type="ResourceApplyAdam" op_name="Adam/Adam/update_19/update_0/ResourceApplyAdam"}
  %get-tuple-element.1419 = f32[768]{0} get-tuple-element((f32[768]{0}, f32[768]{0}, f32[768]{0}) %custom-call.98), index=2, metadata={op_type="ResourceApplyAdam" op_name="Adam/Adam/update_19/update_0/ResourceApplyAdam"}
  %get-tuple-element.1423 = f32[768]{0} get-tuple-element((f32[768]{0}, f32[768]{0}, f32[768]{0}) %custom-call.99), index=1, metadata={op_type="ResourceApplyAdam" op_name="Adam/Adam/update_20/update_0/ResourceApplyAdam"}
  %get-tuple-element.1424 = f32[768]{0} get-tuple-element((f32[768]{0}, f32[768]{0}, f32[768]{0}) %custom-call.99), index=2, metadata={op_type="ResourceApplyAdam" op_name="Adam/Adam/update_20/update_0/ResourceApplyAdam"}
  %get-tuple-element.1501 = f32[3072,768]{1,0} get-tuple-element((f32[3072,768]{1,0}, f32[3072,768]{1,0}, f32[3072,768]{1,0}) %custom-call.92), index=1, metadata={op_type="ResourceApplyAdam" op_name="Adam/Adam/update_17/update_0/ResourceApplyAdam"}
  %get-tuple-element.1502 = f32[3072,768]{1,0} get-tuple-element((f32[3072,768]{1,0}, f32[3072,768]{1,0}, f32[3072,768]{1,0}) %custom-call.92), index=2, metadata={op_type="ResourceApplyAdam" op_name="Adam/Adam/update_17/update_0/ResourceApplyAdam"}
  %get-tuple-element.1445 = f32[768]{0} get-tuple-element((f32[768]{0}, f32[768]{0}, f32[768]{0}) %custom-call.90), index=1, metadata={op_type="ResourceApplyAdam" op_name="Adam/Adam/update_18/update_0/ResourceApplyAdam"}
  %get-tuple-element.1446 = f32[768]{0} get-tuple-element((f32[768]{0}, f32[768]{0}, f32[768]{0}) %custom-call.90), index=2, metadata={op_type="ResourceApplyAdam" op_name="Adam/Adam/update_18/update_0/ResourceApplyAdam"}
  %get-tuple-element.1493 = f32[768,3072]{1,0} get-tuple-element((f32[768,3072]{1,0}, f32[768,3072]{1,0}, f32[768,3072]{1,0}) %custom-call.91), index=1, metadata={op_type="ResourceApplyAdam" op_name="Adam/Adam/update_15/update_0/ResourceApplyAdam"}
  %get-tuple-element.1494 = f32[768,3072]{1,0} get-tuple-element((f32[768,3072]{1,0}, f32[768,3072]{1,0}, f32[768,3072]{1,0}) %custom-call.91), index=2, metadata={op_type="ResourceApplyAdam" op_name="Adam/Adam/update_15/update_0/ResourceApplyAdam"}
  %get-tuple-element.1482 = f32[3072]{0} get-tuple-element((f32[3072]{0}, f32[3072]{0}, f32[3072]{0}) %custom-call.1480), index=1, metadata={op_type="ResourceApplyAdam" op_name="Adam/Adam/update_16/update_0/ResourceApplyAdam"}
  %get-tuple-element.1483 = f32[3072]{0} get-tuple-element((f32[3072]{0}, f32[3072]{0}, f32[3072]{0}) %custom-call.1480), index=2, metadata={op_type="ResourceApplyAdam" op_name="Adam/Adam/update_16/update_0/ResourceApplyAdam"}
  %get-tuple-element.1525 = f32[768]{0} get-tuple-element((f32[768]{0}, f32[768]{0}, f32[768]{0}) %custom-call.96), index=1, metadata={op_type="ResourceApplyAdam" op_name="Adam/Adam/update_13/update_0/ResourceApplyAdam"}
  %get-tuple-element.1526 = f32[768]{0} get-tuple-element((f32[768]{0}, f32[768]{0}, f32[768]{0}) %custom-call.96), index=2, metadata={op_type="ResourceApplyAdam" op_name="Adam/Adam/update_13/update_0/ResourceApplyAdam"}
  %get-tuple-element.1530 = f32[768]{0} get-tuple-element((f32[768]{0}, f32[768]{0}, f32[768]{0}) %custom-call.97), index=1, metadata={op_type="ResourceApplyAdam" op_name="Adam/Adam/update_14/update_0/ResourceApplyAdam"}
  %get-tuple-element.1531 = f32[768]{0} get-tuple-element((f32[768]{0}, f32[768]{0}, f32[768]{0}) %custom-call.97), index=2, metadata={op_type="ResourceApplyAdam" op_name="Adam/Adam/update_14/update_0/ResourceApplyAdam"}
  %get-tuple-element.1747 = f32[12,64,768]{2,1,0} get-tuple-element((f32[12,64,768]{2,1,0}, f32[12,64,768]{2,1,0}, f32[12,64,768]{2,1,0}) %custom-call.1745), index=1, metadata={op_type="ResourceApplyAdam" op_name="Adam/Adam/update_11/update_0/ResourceApplyAdam"}
  %get-tuple-element.1748 = f32[12,64,768]{2,1,0} get-tuple-element((f32[12,64,768]{2,1,0}, f32[12,64,768]{2,1,0}, f32[12,64,768]{2,1,0}) %custom-call.1745), index=2, metadata={op_type="ResourceApplyAdam" op_name="Adam/Adam/update_11/update_0/ResourceApplyAdam"}
  %get-tuple-element.1552 = f32[768]{0} get-tuple-element((f32[768]{0}, f32[768]{0}, f32[768]{0}) %custom-call.93), index=1, metadata={op_type="ResourceApplyAdam" op_name="Adam/Adam/update_12/update_0/ResourceApplyAdam"}
  %get-tuple-element.1553 = f32[768]{0} get-tuple-element((f32[768]{0}, f32[768]{0}, f32[768]{0}) %custom-call.93), index=2, metadata={op_type="ResourceApplyAdam" op_name="Adam/Adam/update_12/update_0/ResourceApplyAdam"}
  %get-tuple-element.1649 = f32[12,64]{1,0} get-tuple-element((f32[12,64]{1,0}, f32[12,64]{1,0}, f32[12,64]{1,0}) %custom-call.1647), index=1, metadata={op_type="ResourceApplyAdam" op_name="Adam/Adam/update_10/update_0/ResourceApplyAdam"}
  %get-tuple-element.1650 = f32[12,64]{1,0} get-tuple-element((f32[12,64]{1,0}, f32[12,64]{1,0}, f32[12,64]{1,0}) %custom-call.1647), index=2, metadata={op_type="ResourceApplyAdam" op_name="Adam/Adam/update_10/update_0/ResourceApplyAdam"}
  %get-tuple-element.1739 = f32[768,12,64]{2,1,0} get-tuple-element((f32[768,12,64]{2,1,0}, f32[768,12,64]{2,1,0}, f32[768,12,64]{2,1,0}) %custom-call.1737), index=1, metadata={op_type="ResourceApplyAdam" op_name="Adam/Adam/update_9/update_0/ResourceApplyAdam"}
  %get-tuple-element.1740 = f32[768,12,64]{2,1,0} get-tuple-element((f32[768,12,64]{2,1,0}, f32[768,12,64]{2,1,0}, f32[768,12,64]{2,1,0}) %custom-call.1737), index=2, metadata={op_type="ResourceApplyAdam" op_name="Adam/Adam/update_9/update_0/ResourceApplyAdam"}
  %get-tuple-element.1602 = f32[768,12,64]{2,1,0} get-tuple-element((f32[768,12,64]{2,1,0}, f32[768,12,64]{2,1,0}, f32[768,12,64]{2,1,0}) %custom-call.1600), index=1, metadata={op_type="ResourceApplyAdam" op_name="Adam/Adam/update_7/update_0/ResourceApplyAdam"}
  %get-tuple-element.1603 = f32[768,12,64]{2,1,0} get-tuple-element((f32[768,12,64]{2,1,0}, f32[768,12,64]{2,1,0}, f32[768,12,64]{2,1,0}) %custom-call.1600), index=2, metadata={op_type="ResourceApplyAdam" op_name="Adam/Adam/update_7/update_0/ResourceApplyAdam"}
  %get-tuple-element.1592 = f32[12,64]{1,0} get-tuple-element((f32[12,64]{1,0}, f32[12,64]{1,0}, f32[12,64]{1,0}) %custom-call.1590), index=1, metadata={op_type="ResourceApplyAdam" op_name="Adam/Adam/update_8/update_0/ResourceApplyAdam"}
  %get-tuple-element.1593 = f32[12,64]{1,0} get-tuple-element((f32[12,64]{1,0}, f32[12,64]{1,0}, f32[12,64]{1,0}) %custom-call.1590), index=2, metadata={op_type="ResourceApplyAdam" op_name="Adam/Adam/update_8/update_0/ResourceApplyAdam"}
  %get-tuple-element.1632 = f32[768,12,64]{2,1,0} get-tuple-element((f32[768,12,64]{2,1,0}, f32[768,12,64]{2,1,0}, f32[768,12,64]{2,1,0}) %custom-call.1630), index=1, metadata={op_type="ResourceApplyAdam" op_name="Adam/Adam/update_5/update_0/ResourceApplyAdam"}
  %get-tuple-element.1633 = f32[768,12,64]{2,1,0} get-tuple-element((f32[768,12,64]{2,1,0}, f32[768,12,64]{2,1,0}, f32[768,12,64]{2,1,0}) %custom-call.1630), index=2, metadata={op_type="ResourceApplyAdam" op_name="Adam/Adam/update_5/update_0/ResourceApplyAdam"}
  %get-tuple-element.1622 = f32[12,64]{1,0} get-tuple-element((f32[12,64]{1,0}, f32[12,64]{1,0}, f32[12,64]{1,0}) %custom-call.1620), index=1, metadata={op_type="ResourceApplyAdam" op_name="Adam/Adam/update_6/update_0/ResourceApplyAdam"}
  %get-tuple-element.1623 = f32[12,64]{1,0} get-tuple-element((f32[12,64]{1,0}, f32[12,64]{1,0}, f32[12,64]{1,0}) %custom-call.1620), index=2, metadata={op_type="ResourceApplyAdam" op_name="Adam/Adam/update_6/update_0/ResourceApplyAdam"}
  %get-tuple-element.1682 = f32[768]{0} get-tuple-element((f32[768]{0}, f32[768]{0}, f32[768]{0}) %custom-call.94), index=1, metadata={op_type="ResourceApplyAdam" op_name="Adam/Adam/update_3/update_0/ResourceApplyAdam"}
  %get-tuple-element.1683 = f32[768]{0} get-tuple-element((f32[768]{0}, f32[768]{0}, f32[768]{0}) %custom-call.94), index=2, metadata={op_type="ResourceApplyAdam" op_name="Adam/Adam/update_3/update_0/ResourceApplyAdam"}
  %get-tuple-element.1687 = f32[768]{0} get-tuple-element((f32[768]{0}, f32[768]{0}, f32[768]{0}) %custom-call.95), index=1, metadata={op_type="ResourceApplyAdam" op_name="Adam/Adam/update_4/update_0/ResourceApplyAdam"}
  %get-tuple-element.1688 = f32[768]{0} get-tuple-element((f32[768]{0}, f32[768]{0}, f32[768]{0}) %custom-call.95), index=2, metadata={op_type="ResourceApplyAdam" op_name="Adam/Adam/update_4/update_0/ResourceApplyAdam"}
  %get-tuple-element.1720 = f32[2,768]{1,0} get-tuple-element((f32[2,768]{1,0}, f32[2,768]{1,0}, f32[2,768]{1,0}) %custom-call.102), index=1, metadata={op_type="ResourceApplyAdam" op_name="Adam/Adam/update_2/update_0/ResourceApplyAdam"}
  %get-tuple-element.1721 = f32[2,768]{1,0} get-tuple-element((f32[2,768]{1,0}, f32[2,768]{1,0}, f32[2,768]{1,0}) %custom-call.102), index=2, metadata={op_type="ResourceApplyAdam" op_name="Adam/Adam/update_2/update_0/ResourceApplyAdam"}
  %get-tuple-element.1811 = f32[30522,768]{1,0} get-tuple-element((f32[30522,768]{1,0}, f32[30522,768]{1,0}, f32[30522,768]{1,0}) %custom-call.1809), index=1, metadata={op_type="ResourceApplyAdam" op_name="Adam/Adam/update/update_0/ResourceApplyAdam"}
  %get-tuple-element.1812 = f32[30522,768]{1,0} get-tuple-element((f32[30522,768]{1,0}, f32[30522,768]{1,0}, f32[30522,768]{1,0}) %custom-call.1809), index=2, metadata={op_type="ResourceApplyAdam" op_name="Adam/Adam/update/update_0/ResourceApplyAdam"}
  %get-tuple-element.1711 = f32[512,768]{1,0} get-tuple-element((f32[512,768]{1,0}, f32[512,768]{1,0}, f32[512,768]{1,0}) %custom-call.1709), index=1, metadata={op_type="ResourceApplyAdam" op_name="Adam/Adam/update_1/update_0/ResourceApplyAdam"}
  %get-tuple-element.1712 = f32[512,768]{1,0} get-tuple-element((f32[512,768]{1,0}, f32[512,768]{1,0}, f32[512,768]{1,0}) %custom-call.1709), index=2, metadata={op_type="ResourceApplyAdam" op_name="Adam/Adam/update_1/update_0/ResourceApplyAdam"}
  ROOT %tuple.27 = (f32[], f32[768]{0}, f32[768,768]{1,0}, f32[768]{0}, f32[3072]{0}, f32[768,3072]{1,0}, f32[3072,768]{1,0}, f32[768]{0}, f32[768]{0}, f32[768]{0}, f32[768]{0}, f32[768]{0}, f32[12,64]{1,0}, f32[768,12,64]{2,1,0}, f32[12,64]{1,0}, f32[768,12,64]{2,1,0}, f32[12,64]{1,0}, f32[768]{0}, f32[3072]{0}, f32[768,3072]{1,0}, f32[3072,768]{1,0}, f32[768]{0}, f32[12,64]{1,0}, f32[768,12,64]{2,1,0}, f32[12,64]{1,0}, f32[768,12,64]{2,1,0}, f32[12,64]{1,0}, f32[512,768]{1,0}, f32[768]{0}, f32[768]{0}, f32[768]{0}, f32[768]{0}, f32[768,12,64]{2,1,0}, f32[12,64,768]{2,1,0}, f32[768]{0}, f32[768]{0}, f32[768]{0}, f32[768]{0}, f32[768]{0}, f32[768]{0}, f32[768]{0}, f32[768]{0}, f32[768,12,64]{2,1,0}, f32[12,64,768]{2,1,0}, f32[768]{0}, f32[768]{0}, f32[768]{0}, f32[768]{0}, f32[2,768]{1,0}, f32[2]{0}, f32[768,2]{1,0}, f32[30522]{0}, f32[30522,768]{1,0}, f32[768]{0}, f32[768]{0}, f32[768]{0}, f32[768,768]{1,0}, f32[], f32[], f32[2]{0}, f32[2]{0}, f32[768,2]{1,0}, f32[768,2]{1,0}, f32[768]{0}, f32[768]{0}, f32[768,768]{1,0}, f32[768,768]{1,0}, f32[], f32[30522]{0}, f32[30522]{0}, f32[], f32[768]{0}, f32[768]{0}, f32[], f32[768]{0}, f32[768]{0}, f32[768,768]{1,0}, f32[768,768]{1,0}, f32[768]{0}, f32[768]{0}, f32[768]{0}, f32[768]{0}, f32[768]{0}, f32[768]{0}, f32[3072,768]{1,0}, f32[3072,768]{1,0}, f32[768]{0}, f32[768]{0}, f32[768,3072]{1,0}, f32[768,3072]{1,0}, f32[3072]{0}, f32[3072]{0}, f32[768]{0}, f32[768]{0}, f32[768]{0}, f32[768]{0}, f32[12,64,768]{2,1,0}, f32[12,64,768]{2,1,0}, f32[768]{0}, f32[768]{0}, f32[768,12,64]{2,1,0}, f32[768,12,64]{2,1,0}, f32[12,64]{1,0}, f32[12,64]{1,0}, f32[768,12,64]{2,1,0}, f32[768,12,64]{2,1,0}, f32[12,64]{1,0}, f32[12,64]{1,0}, f32[768,12,64]{2,1,0}, f32[768,12,64]{2,1,0}, f32[12,64]{1,0}, f32[12,64]{1,0}, f32[768]{0}, f32[768]{0}, f32[768]{0}, f32[768]{0}, f32[3072,768]{1,0}, f32[3072,768]{1,0}, f32[768]{0}, f32[768]{0}, f32[768,3072]{1,0}, f32[768,3072]{1,0}, f32[3072]{0}, f32[3072]{0}, f32[768]{0}, f32[768]{0}, f32[768]{0}, f32[768]{0}, f32[12,64,768]{2,1,0}, f32[12,64,768]{2,1,0}, f32[768]{0}, f32[768]{0}, f32[12,64]{1,0}, f32[12,64]{1,0}, f32[768,12,64]{2,1,0}, f32[768,12,64]{2,1,0}, f32[768,12,64]{2,1,0}, f32[768,12,64]{2,1,0}, f32[12,64]{1,0}, f32[12,64]{1,0}, f32[768,12,64]{2,1,0}, f32[768,12,64]{2,1,0}, f32[12,64]{1,0}, f32[12,64]{1,0}, f32[768]{0}, f32[768]{0}, f32[768]{0}, f32[768]{0}, f32[2,768]{1,0}, f32[2,768]{1,0}, f32[30522,768]{1,0}, f32[30522,768]{1,0}, f32[512,768]{1,0}, f32[512,768]{1,0}) tuple(f32[] %copy.118, f32[768]{0} %get-tuple-element.825, f32[768,768]{1,0} %get-tuple-element.840, f32[768]{0} %get-tuple-element.1184, f32[3072]{0} %get-tuple-element.1221, f32[768,3072]{1,0} %get-tuple-element.1232, f32[3072,768]{1,0} %get-tuple-element.1240, f32[768]{0} %get-tuple-element.101, f32[768]{0} %get-tuple-element.105, f32[768]{0} %get-tuple-element.1157, f32[768]{0} %get-tuple-element.1162, f32[768]{0} %get-tuple-element.1291, f32[12,64]{1,0} %get-tuple-element.1331, f32[768,12,64]{2,1,0} %get-tuple-element.1341, f32[12,64]{1,0} %get-tuple-element.1361, f32[768,12,64]{2,1,0} %get-tuple-element.1371, f32[12,64]{1,0} %get-tuple-element.1388, f32[768]{0} %get-tuple-element.1444, f32[3072]{0} %get-tuple-element.1481, f32[768,3072]{1,0} %get-tuple-element.1492, f32[3072,768]{1,0} %get-tuple-element.1500, f32[768]{0} %get-tuple-element.1551, f32[12,64]{1,0} %get-tuple-element.1591, f32[768,12,64]{2,1,0} %get-tuple-element.1601, f32[12,64]{1,0} %get-tuple-element.1621, f32[768,12,64]{2,1,0} %get-tuple-element.1631, f32[12,64]{1,0} %get-tuple-element.1648, f32[512,768]{1,0} %get-tuple-element.1710, f32[768]{0} %get-tuple-element.1681, f32[768]{0} %get-tuple-element.1686, f32[768]{0} %get-tuple-element.102, f32[768]{0} %get-tuple-element.106, f32[768,12,64]{2,1,0} %get-tuple-element.1738, f32[12,64,768]{2,1,0} %get-tuple-element.1746, f32[768]{0} %get-tuple-element.1524, f32[768]{0} %get-tuple-element.1529, f32[768]{0} %get-tuple-element.103, f32[768]{0} %get-tuple-element.104, f32[768]{0} %get-tuple-element.1417, f32[768]{0} %get-tuple-element.1422, f32[768]{0} %get-tuple-element.99, f32[768]{0} %get-tuple-element.108, f32[768,12,64]{2,1,0} %get-tuple-element.1754, f32[12,64,768]{2,1,0} %get-tuple-element.1762, f32[768]{0} %get-tuple-element.100, f32[768]{0} %get-tuple-element.107, f32[768]{0} %get-tuple-element.1264, f32[768]{0} %get-tuple-element.1269, f32[2,768]{1,0} %get-tuple-element.1719, f32[2]{0} %get-tuple-element.802, f32[768,2]{1,0} %get-tuple-element.848, f32[30522]{0} %get-tuple-element.1028, f32[30522,768]{1,0} %get-tuple-element.1810, f32[768]{0} %get-tuple-element.1801, f32[768]{0} %get-tuple-element.1787, f32[768]{0} %get-tuple-element.1122, f32[768,768]{1,0} %get-tuple-element.1770, f32[] %get-tuple-element.78, f32[] %fusion.8, f32[2]{0} %get-tuple-element.803, f32[2]{0} %get-tuple-element.804, f32[768,2]{1,0} %get-tuple-element.849, f32[768,2]{1,0} %get-tuple-element.850, f32[768]{0} %get-tuple-element.826, f32[768]{0} %get-tuple-element.827, f32[768,768]{1,0} %get-tuple-element.841, f32[768,768]{1,0} %get-tuple-element.842, f32[] %get-tuple-element.77, f32[30522]{0} %get-tuple-element.1029, f32[30522]{0} %get-tuple-element.1030, f32[] %get-tuple-element.85, f32[768]{0} %get-tuple-element.1802, f32[768]{0} %get-tuple-element.1803, f32[] %get-tuple-element.76, f32[768]{0} %get-tuple-element.1788, f32[768]{0} %get-tuple-element.1789, f32[768,768]{1,0} %get-tuple-element.1771, f32[768,768]{1,0} %get-tuple-element.1772, f32[768]{0} %get-tuple-element.1123, f32[768]{0} %get-tuple-element.1124, f32[768]{0} %get-tuple-element.1158, f32[768]{0} %get-tuple-element.1159, f32[768]{0} %get-tuple-element.1163, f32[768]{0} %get-tuple-element.1164, f32[3072,768]{1,0} %get-tuple-element.1241, f32[3072,768]{1,0} %get-tuple-element.1242, f32[768]{0} %get-tuple-element.1185, f32[768]{0} %get-tuple-element.1186, f32[768,3072]{1,0} %get-tuple-element.1233, f32[768,3072]{1,0} %get-tuple-element.1234, f32[3072]{0} %get-tuple-element.1222, f32[3072]{0} %get-tuple-element.1223, f32[768]{0} %get-tuple-element.1265, f32[768]{0} %get-tuple-element.1266, f32[768]{0} %get-tuple-element.1270, f32[768]{0} %get-tuple-element.1271, f32[12,64,768]{2,1,0} %get-tuple-element.1763, f32[12,64,768]{2,1,0} %get-tuple-element.1764, f32[768]{0} %get-tuple-element.1292, f32[768]{0} %get-tuple-element.1293, f32[768,12,64]{2,1,0} %get-tuple-element.1755, f32[768,12,64]{2,1,0} %get-tuple-element.1756, f32[12,64]{1,0} %get-tuple-element.1389, f32[12,64]{1,0} %get-tuple-element.1390, f32[768,12,64]{2,1,0} %get-tuple-element.1342, f32[768,12,64]{2,1,0} %get-tuple-element.1343, f32[12,64]{1,0} %get-tuple-element.1332, f32[12,64]{1,0} %get-tuple-element.1333, f32[768,12,64]{2,1,0} %get-tuple-element.1372, f32[768,12,64]{2,1,0} %get-tuple-element.1373, f32[12,64]{1,0} %get-tuple-element.1362, f32[12,64]{1,0} %get-tuple-element.1363, f32[768]{0} %get-tuple-element.1418, f32[768]{0} %get-tuple-element.1419, f32[768]{0} %get-tuple-element.1423, f32[768]{0} %get-tuple-element.1424, f32[3072,768]{1,0} %get-tuple-element.1501, f32[3072,768]{1,0} %get-tuple-element.1502, f32[768]{0} %get-tuple-element.1445, f32[768]{0} %get-tuple-element.1446, f32[768,3072]{1,0} %get-tuple-element.1493, f32[768,3072]{1,0} %get-tuple-element.1494, f32[3072]{0} %get-tuple-element.1482, f32[3072]{0} %get-tuple-element.1483, f32[768]{0} %get-tuple-element.1525, f32[768]{0} %get-tuple-element.1526, f32[768]{0} %get-tuple-element.1530, f32[768]{0} %get-tuple-element.1531, f32[12,64,768]{2,1,0} %get-tuple-element.1747, f32[12,64,768]{2,1,0} %get-tuple-element.1748, f32[768]{0} %get-tuple-element.1552, f32[768]{0} %get-tuple-element.1553, f32[12,64]{1,0} %get-tuple-element.1649, f32[12,64]{1,0} %get-tuple-element.1650, f32[768,12,64]{2,1,0} %get-tuple-element.1739, f32[768,12,64]{2,1,0} %get-tuple-element.1740, f32[768,12,64]{2,1,0} %get-tuple-element.1602, f32[768,12,64]{2,1,0} %get-tuple-element.1603, f32[12,64]{1,0} %get-tuple-element.1592, f32[12,64]{1,0} %get-tuple-element.1593, f32[768,12,64]{2,1,0} %get-tuple-element.1632, f32[768,12,64]{2,1,0} %get-tuple-element.1633, f32[12,64]{1,0} %get-tuple-element.1622, f32[12,64]{1,0} %get-tuple-element.1623, f32[768]{0} %get-tuple-element.1682, f32[768]{0} %get-tuple-element.1683, f32[768]{0} %get-tuple-element.1687, f32[768]{0} %get-tuple-element.1688, f32[2,768]{1,0} %get-tuple-element.1720, f32[2,768]{1,0} %get-tuple-element.1721, f32[30522,768]{1,0} %get-tuple-element.1811, f32[30522,768]{1,0} %get-tuple-element.1812, f32[512,768]{1,0} %get-tuple-element.1711, f32[512,768]{1,0} %get-tuple-element.1712)
}

